saved/cnn/augmented_serif_cnn.pth (torch, 63386 bytes, 20 tensors)

cnn_block.0.weight f4 [32, 3, 5]
0	0xbbed002e	-0.0072326874
1	0x3e2a9f9f	0.16662453
2	0xbe339773	-0.17538242
3	0x3d343f4e	0.044005685
4	0x3cc684bd	0.024233216
5	0xbebe6f61	-0.3719435
6	0x3f037417	0.51349014
7	0xbe6249e1	-0.22098495
8	0x3dd3001e	0.10302757
9	0xbd7c6d3f	-0.061627623
10	0xbe35b62f	-0.17745279
11	0xbe5d3bbe	-0.21604821
12	0xb9a2754b	-0.00030986438
13	0x3c71f188	0.014767058
14	0xbdfa89a4	-0.12233284
15	0xbdd0581f	-0.10173058
16	0x3e0f94ec	0.14021653
17	0x3e2f48ea	0.17117658
18	0x3e38e1df	0.18054913
19	0x3e4b3c09	0.1984712
20	0x3e28be1a	0.16478768
21	0xbddee6a6	-0.108838364
22	0xbe2f7853	-0.17135744
23	0xbe8b3c8a	-0.27194625
24	0xbe9dd858	-0.3082912
25	0xbdf68575	-0.12037174
26	0x3c0fdfd0	0.008781388
27	0x3e7ade66	0.24498901
28	0x3e5f5adb	0.21812002
29	0xbd21568c	-0.03938918
30	0xbd6051d4	-0.054765537
31	0xbac1e3ea	-0.0014792655
32	0x3e659508	0.22420132
33	0xbdbac9b0	-0.091205
34	0x3b801e86	0.0039098887
35	0xbeab6874	-0.3347813
36	0xbe260da9	-0.16216148
37	0x3e0f7a21	0.14011432
38	0xbc117704	-0.008878473
39	0x3de475a6	0.11155252
40	0xbdf1161b	-0.117717944
41	0x3e2205fb	0.15822594
42	0xbe4846c2	-0.19558242
43	0xbe47c4f2	-0.19508722
44	0x3e24cd8f	0.1609404
45	0x3ea1a5c2	0.31571776
46	0xbdb4df99	-0.0883171
47	0xbe5c7314	-0.21528274
48	0xbe002214	-0.12513
49	0x3dd7b412	0.105323926
50	0xbe641bc0	-0.22276211
51	0xbdf6e425	-0.12055234
52	0x3ded04ed	0.11573205
53	0xbe4a2f88	-0.19744694
54	0x3e690c46	0.22758588
55	0x3c5f0494	0.013611931
56	0xbde052a6	-0.10953264
57	0xbd58fa78	-0.05297324
58	0xbce4caa4	-0.027928658
59	0xbd6ebdbe	-0.05828642
60	0x3e04a03a	0.12951747
61	0xbe7e9510	-0.2486155
62	0x3d3438a4	0.04399933
63	0xbe7cfcc0	-0.24705791
64	0xbdbc1c80	-0.091851234
65	0x3e79eb43	0.24406151
66	0x3e365fd2	0.1780999
67	0x3def1dd6	0.11675613
68	0xbe62106c	-0.22076577
69	0x3b3eed09	0.0029132983
70	0xbe34adb2	-0.17644385
71	0x3d8a987f	0.067673676
72	0xbe0819bd	-0.13291068
73	0x3d81d8e6	0.06340198
74	0xbc407df9	-0.011748784
75	0x3cf66935	0.030079463
76	0x3d67af49	0.05656365
77	0x3da7dea7	0.081967644
78	0x3d4ed25c	0.050493583
79	0xbe1002dc	-0.14063591
80	0xbe9e8319	-0.30959395
81	0xbe595ab3	-0.21226005
82	0xbd7a5611	-0.061117236
83	0x3e7b6b4b	0.24552648
84	0x3e365b04	0.17808157
85	0x3d51f543	0.05125929
86	0xbdb590bf	-0.08865499
87	0xbdcea1a5	-0.10089425
88	0xbe5fdfe4	-0.21862751
89	0xbd2340eb	-0.039856832
90	0xbbd46122	-0.0064813057
91	0xbdce0ff1	-0.10061634
92	0xbd1cda37	-0.038294043
93	0x3dd107be	0.10206555
94	0x3db06b5c	0.08614227
95	0xbe6f24e8	-0.23353922
96	0xbdbd1a6b	-0.092335545
97	0xbe2c6c4a	-0.16838184
98	0xbd70a3ac	-0.05874984
99	0x3dcaa0cf	0.09893953
100	0xbe57529f	-0.21027611
101	0x3df775e1	0.120830305
102	0xbe83a6f5	-0.25713316
103	0xbe506321	-0.20350315
104	0x3e6dcf7a	0.23223677
105	0x3e518ed7	0.20464645
106	0x3e18eea7	0.14934789
107	0x3dfacf2c	0.12246546
108	0xbed3891f	-0.41315553
109	0x3d400a51	0.04688484
110	0x3e03731c	0.1283688
111	0xbdd58506	-0.10425763
112	0xbe094f95	-0.13409264
113	0xbda4c6a8	-0.08045703
114	0x3deda9c8	0.11604649
115	0xbe64de59	-0.22350444
116	0x3e79daf3	0.24399929
117	0xbd57bd02	-0.052670486
118	0x3e4024aa	0.18763986
119	0xbe8247fb	-0.25445542
120	0xbc5a9d84	-0.013343219
121	0x3d98527d	0.074376084
122	0xbe42e1a0	-0.19031382
123	0x3d2fd1bf	0.04292464
124	0xbd514feb	-0.051101606
125	0xbd84e09b	-0.064881526
126	0xbe37e843	-0.17959695
127	0x3db7d33f	0.08975839
128	0x3e9207f0	0.2852168
129	0x3e129a24	0.14316612
130	0xbd7d3690	-0.061819613
131	0xbe80bc34	-0.25143588
132	0x3d41dec1	0.047331575
133	0x3dda4ce1	0.10659195
134	0x3e190d5b	0.14946501
135	0xbeb1b152	-0.34705597
136	0xbea286e0	-0.31743526
137	0xbcaf5949	-0.02140488
138	0xbd56da71	-0.052454416
139	0x3de8eb86	0.113730475
140	0x3de9cc96	0.11415975
141	0x3e72facb	0.23728482
142	0x3e5f3a89	0.21799673
143	0xbdc8a3a7	-0.09796839
144	0xbdc25454	-0.094887406
145	0x3bb4e0dc	0.0055199694
146	0xbddcde74	-0.10784617
147	0x3e3af1b0	0.18256259
148	0xbd342409	-0.04397968
149	0xbe6c6cf1	-0.23088433
150	0xbed6668e	-0.41875118
151	0x3e05efb6	0.13079724
152	0xbe68dbde	-0.22740123
153	0x3dc34e8c	0.09536466
154	0x3ea19bad	0.31564084
155	0xbdfd0970	-0.12355316
156	0x3d97765e	0.073956236
157	0x3d47ae7a	0.04875038
158	0x3dfc1874	0.123093516
159	0x3d0cd77a	0.034385182
160	0xbe49e739	-0.1971711
161	0xbc748f16	-0.0149266925
162	0xbce3e87c	-0.027820818
163	0xbdc2b14f	-0.09506475
164	0xbe01e414	-0.12684661
165	0x3eaa404c	0.3325218
166	0x3d3c8f94	0.046035364
167	0xbddc333c	-0.1075196
168	0xbd54d73f	-0.051963087
169	0xbe5c065b	-0.214868
170	0x3e128cc5	0.14311512
171	0xbe73db09	-0.23814024
172	0x3de33747	0.11094528
173	0xbe12e4ac	-0.14345044
174	0xbdfd29c7	-0.12361484
175	0x3ccd39c6	0.025051963
176	0x3d9bba8b	0.076039396
177	0x3d4169bd	0.04721998
178	0xbdddfa9b	-0.10838815
179	0x3e177d8c	0.14793986
180	0x3d8af161	0.067843206
181	0x3e3381c2	0.17529967
182	0xbdcff923	-0.10154941
183	0xbdee7928	-0.116442025
184	0xbe37f02f	-0.17962717
185	0xbe797119	-0.2435955
186	0x3e5863b3	0.21131782
187	0xbd935269	-0.07193453
188	0xbe4b9d79	-0.1988429
189	0x3e955389	0.29165295
190	0x3c0dcadb	0.008654322
191	0xbb9054e2	-0.00440465
192	0x3e41001e	0.18847701
193	0x3e18c39d	0.1491837
194	0xbdbcc2d4	-0.09216848
195	0x3d887f6e	0.0666493
196	0x3de5176f	0.1118611
197	0x3e12b1ae	0.14325592
198	0xbe5d1cf5	-0.21593077
199	0xbe96a256	-0.29420727
200	0x3d56e74b	0.052466672
201	0x3cce9679	0.025218235
202	0xbdbf8fea	-0.09353621
203	0x3e85388d	0.26019707
204	0x3ce8bc6e	0.028410163
205	0x3e5f9325	0.21833475
206	0x3e48cdfd	0.19609828
207	0xbd90f68c	-0.07078275
208	0xbe10c30c	-0.14136904
209	0x3d611c9e	0.054958932
210	0x3e682072	0.22668627
211	0x3e0f95a3	0.14021926
212	0xbe4867ea	-0.1957089
213	0xbd6def44	-0.05808951
214	0xbdc527ce	-0.09626733
215	0xbeb66cc0	-0.35629845
216	0xbe4c1c49	-0.19932665
217	0x3ed6928c	0.4190868
218	0x3d7eb241	0.062181715
219	0x3cfb3f5d	0.030669862
220	0xbd2abf2c	-0.041686222
221	0x3ddc8e90	0.10769379
222	0xbe481684	-0.19539839
223	0xbe4d03bd	-0.20020957
224	0x3e2e05e7	0.16994439
225	0xbe568c28	-0.20951903
226	0x3cc9bc82	0.02462602
227	0x3e7ca6e3	0.24673037
228	0x3e01d58c	0.12679118
229	0xbe33621b	-0.17517893
230	0xbe39f048	-0.18158066
231	0x3e33928c	0.17536372
232	0x3e181db2	0.14855078
233	0x3cbccfe8	0.023048356
234	0xbe6511dc	-0.22370094
235	0x3e16883e	0.1470041
236	0x3e47dbda	0.1951746
237	0xbe6ffb88	-0.23435795
238	0x3d3070fa	0.043076493
239	0xbe671329	-0.22565903
240	0xbe9a81c6	-0.30177134
241	0x3f01ba5e	0.50675
242	0xbe407915	-0.18796189
243	0x3d95db66	0.073172376
244	0xbd3fcc14	-0.046825483
245	0xbe867042	-0.2625752
246	0xbd2b0fe6	-0.04176321
247	0x3e881bba	0.26583654
248	0xbe223e37	-0.15844046
249	0x3ce2128e	0.027596738
250	0xbe620f9c	-0.22076267
251	0xbd0628d1	-0.03275377
252	0xbbf4b152	-0.0074674273
253	0x3d9d2359	0.07672758
254	0x3e1ef237	0.15522085
255	0xbdb90389	-0.090338774

cnn_block.0.bias f4 [32]
0	0xbdb39934	-0.087694556
1	0xbe08dce3	-0.13365512
2	0x3e676428	0.225968
3	0x3e55ff53	0.2089818
4	0xbe6479d1	-0.22312094
5	0x3cad72ef	0.021172969
6	0xbcb5e307	-0.022202982
7	0xbdee6695	-0.1164066
8	0xbdbdc6bc	-0.09266421
9	0x3e8332e2	0.25624758
10	0x3bacccf5	0.005273456
11	0x3e501875	0.2032183
12	0xbdb9c11f	-0.09070038
13	0xbe45f069	-0.1932999
14	0x3e3ca88c	0.1842367
15	0xbe360df9	-0.17778768
16	0xbe833a13	-0.25630245
17	0xbd5a0dc8	-0.0532358
18	0xbe830260	-0.2558775
19	0x3dbe1376	0.09281056
20	0x3e7aebb4	0.24503976
21	0xbe779d6f	-0.2418115
22	0x3c18a625	0.009316956
23	0x3e62d1e7	0.22150384
24	0x3d6e4e1a	0.058179952
25	0xbc64f8b8	-0.013975315
26	0x3e738621	0.23781635
27	0x3cb178b3	0.021664
28	0xbdb81e52	-0.08990158
29	0xbe344f4a	-0.17608371
30	0xbe3142e2	-0.1731067
31	0x3e61dc13	0.22056608

cnn_block.1.weight f4 [32]
0	0x3f680af7	0.9064173
1	0x3f8b9452	1.0904639
2	0x3f879956	1.059367
3	0x3f9129a4	1.1340833
4	0x3f6d4844	0.92688394
5	0x3f894b87	1.0726174
6	0x3f84c2a3	1.0371898
7	0x3f600ce4	0.8751967
8	0x3f4e4531	0.8057433
9	0x3f8ecb93	1.1155876
10	0x3f793663	0.9734861
11	0x3f8a5c01	1.0809327
12	0x3f88465b	1.0646471
13	0x3f5cc170	0.8623266
14	0x3f8dc2e7	1.1075104
15	0x3f7e5123	0.99342555
16	0x3f8f9918	1.1218596
17	0x3f84c82e	1.037359
18	0x3f7ed3c7	0.99541897
19	0x3f8a79ef	1.0818461
20	0x3f807920	1.0036964
21	0x3f3c9016	0.7365736
22	0x3f5aa8c2	0.85413754
23	0x3f62561e	0.88412654
24	0x3f37d509	0.7180944
25	0x3f837fcf	1.0273379
26	0x3f84a29b	1.0362123
27	0x3f8915a8	1.0709734
28	0x3f92a91f	1.1457862
29	0x3f47482a	0.7784449
30	0x3f904dd0	1.1273746
31	0x3f850b1a	1.0394013

cnn_block.1.bias f4 [32]
0	0xbd201692	-0.039084025
1	0x3c195a2d	0.0093598785
2	0x3cc520cc	0.02406349
3	0x3ccb5f96	0.024825852
4	0xbd69ac47	-0.057049062
5	0x3c78ce57	0.015185914
6	0xbc5109e6	-0.012758708
7	0xbcce1858	-0.025158092
8	0xbd342681	-0.043982033
9	0xbca68b03	-0.020329958
10	0xbd025aa9	-0.03182474
11	0xbc62f9d4	-0.013853509
12	0x3bd7fb12	0.006591209
13	0x3bdc941e	0.006731524
14	0xbd0faec5	-0.035078783
15	0xbc346c9e	-0.0110122245
16	0x3c00c9f1	0.007860647
17	0xb9737ad2	-0.0002322004
18	0xbc398ebe	-0.011325536
19	0x3cd8cdf2	0.02646539
20	0x3cd3573d	0.025798434
21	0xbd1ec206	-0.038759254
22	0xbcb9456b	-0.022616109
23	0xbc9fb955	-0.019497553
24	0xbd00ec30	-0.031475246
25	0x39d90f73	0.00041400976
26	0xbcc3147a	-0.023813475
27	0x3d085563	0.033284556
28	0xbb62783b	-0.0034556526
29	0xbdbb6c3d	-0.09151504
30	0xbc85ebb7	-0.01634775
31	0xbcfbaef3	-0.03072307

cnn_block.1.running_mean f4 [32]
0	0xbd773b55	-0.060359318
1	0xc001a9e6	-2.0259948
2	0xbfe614f6	-1.7975147
3	0xbfed9cc8	-1.8563471
4	0xbe6912e2	-0.2276111
5	0xbf8cf67c	-1.1012721
6	0xc089ef1b	-4.3104377
7	0x3e574f6d	0.21026392
8	0x3fa7fd4b	1.3124174
9	0xbf9e9f7d	-1.2392422
10	0x3eb7663c	0.35820186
11	0xbff5d3a9	-1.9205219
12	0xbfb9696d	-1.4485298
13	0x3f8adb7d	1.0848233
14	0xbe12f438	-0.14350975
15	0xbf1eafa1	-0.6198674
16	0xbfd3cd08	-1.6546946
17	0xbfee8a35	-1.8635927
18	0xc100ca16	-8.049337
19	0xbffd621d	-1.9795567
20	0xc0e95647	-7.291782
21	0x40f99baf	7.8002543
22	0x3fb7b653	1.4352516
23	0x3f0b57c5	0.544308
24	0x3fbcd9a7	1.4753922
25	0xc08745a1	-4.2272496
26	0x3cbf96c0	0.023387313
27	0xc0a26f7c	-5.076109
28	0xbfdba968	-1.7161074
29	0x4018bb99	2.38645
30	0xbe5377f0	-0.20651221
31	0xbfbe94b0	-1.4889126

cnn_block.1.running_var f4 [32]
0	0x42e5ceec	114.904144
1	0x450114c1	2065.297
2	0x4422d586	651.3363
3	0x441d5024	629.2522
4	0x441605de	600.0917
5	0x4405f7af	535.87006
6	0x44eac8e1	1878.2775
7	0x4380c9bf	257.57614
8	0x440a237f	552.5546
9	0x44925c8a	1170.8918
10	0x4403db79	527.42926
11	0x445c1b84	880.42993
12	0x43a3f328	327.89966
13	0x43cb551b	406.6649
14	0x43983654	304.42444
15	0x433e4248	190.25891
16	0x43a025a3	320.29404
17	0x43a9a96c	339.3236
18	0x459cd23b	5018.279
19	0x43df19ed	446.20255
20	0x458fb4ec	4598.615
21	0x45bf7d2e	6127.6475
22	0x44bb9cec	1500.9038
23	0x42b358c2	89.673355
24	0x4382d823	261.68857
25	0x44fec856	2038.2605
26	0x431702a1	151.01027
27	0x453cfdfe	3023.8745
28	0x440bba01	558.9063
29	0x4439ac20	742.68945
30	0x44171c1d	604.4393
31	0x43b55466	362.65936

cnn_block.4.weight f4 [64, 32, 5]
0	0x3cd588e9	0.02606626
1	0x3d8dab11	0.06917394
2	0x3c243a65	0.010023688
3	0xbc358cd1	-0.0110809365
4	0x3c3a9399	0.011387729
5	0xbdb44413	-0.088020466
6	0xbd1789ad	-0.036996532
7	0xbd0f1279	-0.034929726
8	0x3d96d987	0.07365709
9	0x3dc8e947	0.09810119
10	0xbd13a90c	-0.036049888
11	0x3d98f1aa	0.07467969
12	0xbd5a8fbf	-0.053359743
13	0x3d936aae	0.07198082
14	0xbc22dcb6	-0.009940317
15	0xbd5619a8	-0.05227056
16	0x3d95fc02	0.07323457
17	0xbb9b2aa3	-0.0047353073
18	0xbc8d8474	-0.017275073
19	0xbd679b3c	-0.056544527
20	0x3c0b743b	0.008511598
21	0xbd9aaf2e	-0.07552944
22	0xbd5b5a16	-0.05355271
23	0xbd04871f	-0.032355424
24	0xbd75d6ab	-0.060019176
25	0x3d809411	0.062782414
26	0x3c083a64	0.008314703
27	0x3cdfd0cc	0.027321242
28	0x3d990331	0.07471312
29	0xbd0ba05e	-0.034088485
30	0x3d9e7a40	0.07738161
31	0xbd09e236	-0.033662997
32	0x3caef569	0.021357255
33	0x3c8d01e1	0.01721281
34	0x3d613cb2	0.054989524
35	0xbd29daa0	-0.041468263
36	0xbd063419	-0.032764528
37	0x3da52788	0.080641806
38	0xbaab5755	-0.0013072292
39	0x3cb82d0e	0.022482421
40	0xbcf2e597	-0.029650493
41	0x3d22dc26	0.03976073
42	0x3d53cf59	0.051711414
43	0x3bdcc89d	0.006737782
44	0x3d5ad89f	0.053429242
45	0xbddf61fd	-0.10907362
46	0xbc31d693	-0.010854381
47	0x3d579dd0	0.052640736
48	0x3dc3562e	0.09537922
49	0x3da464f5	0.080270685
50	0x3d983759	0.07432432
51	0xbd75f019	-0.060043428
52	0xbd15602d	-0.036468673
53	0x3d0c99a3	0.034326207
54	0xbbc67510	-0.0060564354
55	0xbd80e424	-0.06293514
56	0x3d84a85e	0.06477426
57	0xbaa02a84	-0.0012219702
58	0x3d67d7b0	0.05660218
59	0xbd6cb4ab	-0.057789486
60	0xbd1d4ff4	-0.038406327
61	0xbd1e8a16	-0.038705908
62	0x3da18a8f	0.07887756
63	0x3c2f4bba	0.010699207
64	0x3d7f966b	0.06239931
65	0xbce13667	-0.027491761
66	0xbda96f87	-0.08273225
67	0xbbc1e596	-0.0059172614
68	0xbcdd704d	-0.027031088
69	0x3d064f9c	0.032790765
70	0xba5e5d3b	-0.00084825204
71	0x3d365025	0.044510026
72	0x3d7b6af3	0.06138129
73	0x3d91c7af	0.07118165
74	0xbc5c3abd	-0.013441739
75	0x3d07090d	0.032967616
76	0x3d705b33	0.058680724
77	0xbd77ed57	-0.06052908
78	0xbcc1d3d9	-0.023660587
79	0x3caf0f7b	0.021369686
80	0x3c9dd40b	0.019266149
81	0xbba2926e	-0.0049613034
82	0x3a932c55	0.0011228422
83	0xbd7d5b5d	-0.06185471
84	0x3b1c2325	0.0023824659
85	0x3d6062dc	0.05478178
86	0x3a435d3a	0.00074525515
87	0xbd46e04f	-0.04855376
88	0xbd30a066	-0.043121718
89	0xbcabcf3c	-0.02097284
90	0x3d3d9cdb	0.046292167
91	0x3cbd710c	0.023125194
92	0x3c83cc4a	0.016088624
93	0xbcd074d5	-0.025446335
94	0x3cbf5a21	0.023358406
95	0xbc8f8d97	-0.01752357
96	0xbd38abba	-0.045085646
97	0xbd118632	-0.03552837
98	0x3d1731f3	0.03691287
99	0x3ad2db26	0.001608704
100	0xbd91d29b	-0.07120248
101	0x3d8c0c63	0.068383
102	0x3d9e3eff	0.07726859
103	0x3da0eb3a	0.07857366
104	0xbc4bff14	-0.012450952
105	0x3d00dece	0.031462483
106	0xbd076355	-0.033053715
107	0x3d18d656	0.03731378
108	0x3a73d876	0.00093019695
109	0xbc9cb778	-0.019130453
110	0xbb4549ea	-0.003010387
111	0xbd72ed69	-0.059308443
112	0x3d1baf46	0.03800895
113	0xbc8e41cd	-0.01736536
114	0x3cac1e23	0.021010464
115	0xbcd2ef74	-0.025748946
116	0x3cc9c3ed	0.024629558
117	0xbd19d6f6	-0.03755852
118	0xbd90c924	-0.070696145
119	0x3a08d00b	0.0005218989
120	0xbd54acf3	-0.05192275
121	0x3c05e9f6	0.008173456
122	0xbc30a98a	-0.010782609
123	0xbd94627c	-0.07245347
124	0x3c4b0534	0.012391377
125	0xbbad4870	-0.0052881762
126	0xbc4af059	-0.012386405
127	0x3cbb14fd	0.022837156
128	0xbd4cfadb	-0.050043922
129	0xbc123e2e	-0.008925958
130	0xbbb5835f	-0.0055393423
131	0xbd26c8c0	-0.040718794
132	0xbd9c17d9	-0.07621736
133	0x3da345aa	0.07972272
134	0xbcce480d	-0.02518084
135	0x3c970f7d	0.018440003
136	0xbb424ac0	-0.0029646605
137	0xbd56839b	-0.052371603
138	0xbd4363e7	-0.047702696
139	0xbd70d593	-0.05879743
140	0xbd86b92b	-0.06578287
141	0x3d58c73c	0.05292438
142	0xbc852707	-0.016253961
143	0xbc928aa7	-0.01788838
144	0x3ddc5c37	0.10759776
145	0xbd91d40e	-0.07120524
146	0xbd1f2e23	-0.03886236
147	0xbd4a9c00	-0.04946518
148	0xbc5e215b	-0.013557757
149	0x3d811b94	0.06304088
150	0xbd5425b5	-0.051793773
151	0xbd22762b	-0.039663475
152	0xbcc65c3b	-0.0242139
153	0x3c934936	0.017979246
154	0x3c86cb4d	0.016454363
155	0x3c2d17ea	0.010564784
156	0x3d0028bb	0.031288844
157	0xbdabbf9c	-0.08386156
158	0xbc62180f	-0.013799681
159	0x3c650dda	0.013980353
160	0x3d8ba3c7	0.068183474
161	0xbca62af6	-0.020284157
162	0xbd0c1695	-0.034201223
163	0x3db715bb	0.08939692
164	0xbbf1ce4f	-0.00737933
165	0x3d2fbe1b	0.042905908
166	0x3db10fe2	0.086456075
167	0xbd82c451	-0.06385101
168	0xbcbe90d6	-0.023262423
169	0xbcffd1cc	-0.031227969
170	0xbd8aaaaa	-0.06770833
171	0xbd226969	-0.03965131
172	0x3d243fa4	0.040099755
173	0xbc83949a	-0.01606207
174	0xbd89888e	-0.06715499
175	0xbd626c6b	-0.055279177
176	0xbd53e59a	-0.051732637
177	0x3da74686	0.08167748
178	0xbd138d3d	-0.036023367
179	0x3cc161c4	0.023606189
180	0xbd8a9d3b	-0.067682706
181	0xbac097b7	-0.0014693652
182	0x3c9dea18	0.019276664
183	0x3c1a8b1b	0.009432579
184	0x3cb0d15c	0.021584205
185	0x3d7ed7d0	0.062217534
186	0x3e0deace	0.13859102
187	0x3c943472	0.018091414
188	0xbd50799f	-0.050897237
189	0x3b2ad42f	0.0026066413
190	0x3b9482bb	0.004532186
191	0xbb569b5f	-0.0032746417
192	0xbd49db29	-0.049281273
193	0xbb8b48ac	-0.0042506065
194	0x3da0662e	0.07831989
195	0xbd0ad658	-0.03389582
196	0xbc5dbf0b	-0.013534318
197	0xbd229e96	-0.03970202
198	0x3d7cf77d	0.06175946
199	0x3c54ffd3	0.013000446
200	0x3d82b81f	0.063827746
201	0xbbfc7d4b	-0.007705366
202	0xbd8ed794	-0.06974712
203	0xbd0e399a	-0.034722902
204	0x3db848b5	0.08998243
205	0xbdbb6eec	-0.09152016
206	0xbb933a96	-0.004493068
207	0xbd04f401	-0.032459263
208	0xbd157842	-0.03649164
209	0xbd474979	-0.048654053
210	0x3dc6a581	0.09699536
211	0xbd7710f6	-0.06031891
212	0x3d8b3664	0.067974836
213	0xbc134825	-0.008989369
214	0xbc37c386	-0.01121605
215	0x3d845a2e	0.06462513
216	0x3da10209	0.07861716
217	0xbd09f3dc	-0.033679828
218	0xbcc5e074	-0.02415488
219	0x3daac549	0.083384104
220	0xbd9f1cc5	-0.07769159
221	0x3d1968f0	0.03745359
222	0xbc91b38e	-0.017785814
223	0x3da3d31d	0.07999251
224	0x3cf89787	0.030345691
225	0x3d1c473d	0.038153876
226	0xbd9bc954	-0.0760676
227	0x3ce7c0f0	0.028290242
228	0xbd21c094	-0.039490297
229	0xbca69bfa	-0.020338047
230	0xbc5b98ba	-0.013403112
231	0x3b72a4c8	0.0037024487
232	0xbc94d705	-0.018168936
233	0xbe139f38	-0.14416206
234	0xba2ea262	-0.000666177
235	0xbd8430ed	-0.06454644
236	0x3d31e204	0.043428436
237	0xbd0f268d	-0.034948874
238	0x3d12c8f0	0.03583616
239	0xbc466205	-0.012108331
240	0xbcbe6282	-0.023240332
241	0xbd7152ca	-0.058916844
242	0xbb2bf0a6	-0.0026235967
243	0x3d5fef60	0.054671645
244	0xbd8cab9e	-0.06868671
245	0xbd23d9e0	-0.040002704
246	0xbd262c4e	-0.040569596
247	0xbd0f20cc	-0.034943387
248	0x3cbf1350	0.023324639
249	0x3da342b7	0.07971709
250	0x3d5900f4	0.052979425
251	0xbcb27e8b	-0.021788856
252	0x3bc1caa5	0.0059140497
253	0x3cf62d6a	0.030050952
254	0x3d146ca5	0.036236424
255	0xbd83ee64	-0.06441954

cnn_block.4.bias f4 [64]
0	0x3d8064ad	0.062692024
1	0x3da13d75	0.0787305
2	0x3bd70b8b	0.0065626553
3	0x3d1541cf	0.036439713
4	0xbc7015c0	-0.014653623
5	0xbd7aa62c	-0.06119363
6	0x3d110936	0.035409175
7	0xbb36aa4a	-0.0027872496
8	0xbd946c84	-0.0724726
9	0x3d3a9c56	0.04555925
10	0xbd79c433	-0.060978126
11	0xbd471458	-0.048603386
12	0xbd435049	-0.047683988
13	0x3d542b36	0.05179902
14	0x3d73947c	0.059467778
15	0xbd7a636b	-0.06112997
16	0x39de38d7	0.0004238549
17	0xbc17d8e4	-0.009268019
18	0xbb9c97b1	-0.004778825
19	0xbd524689	-0.0513368
20	0x3d65fe12	0.056150503
21	0xbc9b1d8f	-0.018934993
22	0xbcac00c7	-0.020996464
23	0xbc7839f2	-0.015150534
24	0xbc91711d	-0.017754132
25	0x3d424905	0.047432918
26	0x3d4f2f37	0.050582137
27	0xbcd77357	-0.026300116
28	0x3d611ef8	0.054961175
29	0xbd9d443a	-0.07679029
30	0x3d1e8d5f	0.03870904
31	0xbcfe6caa	-0.031057674
32	0xbbadf2b0	-0.0053084716
33	0xbd1e97ee	-0.03871911
34	0xbd061d31	-0.032742683
35	0xbc31c46d	-0.010850054
36	0x3d663b23	0.05620874
37	0xbd4f85c3	-0.050664674
38	0x3d8c8570	0.06861389
39	0x3d3addc0	0.045621634
40	0xbcec87bf	-0.028873323
41	0xbd1bafa3	-0.038009297
42	0xbd39ed89	-0.045392547
43	0x3b6823d6	0.003542175
44	0x3cfef042	0.031120423
45	0xbd033ac6	-0.032038473
46	0xbd21605b	-0.039398532
47	0xbbc02953	-0.005864301
48	0x3d76cd50	0.060254395
49	0xbc99b7ee	-0.018764462
50	0x3d94b19f	0.07260441
51	0x3d3b7372	0.045764394
52	0xbd918083	-0.0710459
53	0x3d61ac14	0.055095747
54	0xbbbb7369	-0.005720545
55	0x3d8895d5	0.06669203
56	0x3c1c6ee2	0.009547921
57	0xbd84a034	-0.06475869
58	0xbc6ea67f	-0.014566063
59	0x3c7e06f8	0.015504591
60	0xbd830237	-0.06396907
61	0x3d87fb26	0.066397
62	0xbd9eae7f	-0.07748126
63	0xbd9d59ee	-0.07683168

cnn_block.5.weight f4 [64]
0	0x3f82852c	1.0196891
1	0x3f856d13	1.0423912
2	0x3f86b3bf	1.0523604
3	0x3f8f1b45	1.1180197
4	0x3f7c1cb8	0.9848132
5	0x3f850929	1.039342
6	0x3f81e7d6	1.0148876
7	0x3f82990b	1.0202955
8	0x3f88456c	1.0646186
9	0x3f8daf6f	1.1069163
10	0x3f7eaee6	0.99485624
11	0x3f7c11e8	0.9846482
12	0x3f726446	0.94684255
13	0x3f811b79	1.0086509
14	0x3f7816a5	0.9690955
15	0x3f712ebc	0.94211936
16	0x3f7d1ecc	0.9887512
17	0x3f71d708	0.94468737
18	0x3f7b309a	0.98121035
19	0x3f73c3ad	0.9522045
20	0x3f84048b	1.0313886
21	0x3f808789	1.0041362
22	0x3f7c011d	0.984392
23	0x3f937225	1.1519209
24	0x3f7a218c	0.9770744
25	0x3f87dc65	1.0614134
26	0x3f6ff4f0	0.9373312
27	0x3f7ab2fe	0.9792937
28	0x3f822899	1.016864
29	0x3f7fcd07	0.9992222
30	0x3f86903e	1.0512769
31	0x3f80691b	1.0032076
32	0x3f80cf8c	1.0063338
33	0x3f88f6d5	1.0700327
34	0x3f81384a	1.0095303
35	0x3f8b2a0e	1.0872209
36	0x3f903b23	1.1268047
37	0x3f773f53	0.96581
38	0x3f83b3f1	1.0289289
39	0x3f76a93c	0.9635198
40	0x3f81e255	1.0147196
41	0x3f84709a	1.0346863
42	0x3f842179	1.0322715
43	0x3f759ed9	0.9594551
44	0x3f8ae08e	1.0849779
45	0x3f7210b1	0.9455672
46	0x3f83855b	1.0275072
47	0x3f820592	1.015795
48	0x3f887a40	1.0662308
49	0x3f814278	1.009841
50	0x3f727fc3	0.947262
51	0x3f7e0190	0.99221134
52	0x3f8d9cd4	1.1063485
53	0x3f8c6676	1.0968769
54	0x3f7ae27e	0.9800185
55	0x3f81494b	1.0100492
56	0x3f86caa1	1.0530587
57	0x3f769a37	0.96329063
58	0x3f7d385a	0.9891411
59	0x3f8428e0	1.0324974
60	0x3f818abe	1.0120466
61	0x3f6dbbb6	0.9286455
62	0x3f6de30f	0.9292459
63	0x3f8ac021	1.0839883

cnn_block.5.bias f4 [64]
0	0xbc279954	-0.010229427
1	0xbcfffce8	-0.031248525
2	0x3c286e35	0.010280182
3	0xbd6241e3	-0.055238616
4	0x3c1694bd	0.009190735
5	0xbbfabef4	-0.007652158
6	0x3c88ca18	0.016697928
7	0xbc97e982	-0.018543962
8	0xbc96c88d	-0.018406177
9	0xbc8b4dc7	-0.01700486
10	0xbd1bbbb5	-0.03802081
11	0xbbb44234	-0.005501056
12	0xbd1f3edc	-0.038878307
13	0xbc8456e7	-0.01615472
14	0xbcaaa2d4	-0.020829596
15	0xbc7e59f0	-0.015524372
16	0xbcb783f2	-0.022401784
17	0xbbf15b88	-0.0073656477
18	0x3c119478	0.008885495
19	0xbcd97430	-0.02654466
20	0xbc6cd141	-0.014454187
21	0x3c375bc1	0.011191309
22	0xbc2e30fa	-0.010631794
23	0x3c132a83	0.008982304
24	0xbc9d0ac2	-0.019170169
25	0x3c697c45	0.01425082
26	0xbc7dab1a	-0.015482688
27	0xbc0eee5b	-0.008723821
28	0x3c482e09	0.012218007
29	0xba113ad2	-0.0005540076
30	0xbb9ea934	-0.004841948
31	0x3b3a3484	0.002841265
32	0xbc31d07d	-0.01085293
33	0x3c88e15a	0.016709018
34	0x3c2f4c24	0.010699306
35	0x3be2d4f6	0.0069223596
36	0x3c007e75	0.00784265
37	0xbbbb0f21	-0.0057085906
38	0xbb42ede5	-0.0029743847
39	0xbbaab245	-0.0052092397
40	0xbb85bd9d	-0.0040814416
41	0xbd16fc61	-0.03686178
42	0x3d1bc5fc	0.03803061
43	0x3c634ccb	0.013873289
44	0xbd39e430	-0.045383632
45	0xbc813fac	-0.015777431
46	0xbcad96f4	-0.021190144
47	0x3bcbd940	0.0062209666
48	0x3ba4384d	0.0050115944
49	0x3cb78562	0.02240247
50	0xbd2da97e	-0.04239797
51	0xbcb36c72	-0.021902297
52	0x3b484e3a	0.0030564205
53	0xbc9aa28b	-0.018876335
54	0xbc78c3c7	-0.015183396
55	0xbc1d15a9	-0.009587684
56	0x3c3f29c8	0.011667676
57	0xbc56d61c	-0.013112571
58	0xbc8a240d	-0.016862893
59	0x3b3c0da8	0.0028694663
60	0x3b652efb	0.003497063
61	0xb9d4c7e9	-0.00040584736
62	0xbb8eb6ff	-0.004355311
63	0x3bea2de7	0.0071465853

cnn_block.5.running_mean f4 [64]
0	0x3d4f9408	0.050678283
1	0x3dbd9b29	0.0925811
2	0xbcdef97d	-0.027218575
3	0x3d7ff1c4	0.062486425
4	0xbc97c079	-0.018524395
5	0xbd9cd58f	-0.076579206
6	0x3d0db2e9	0.03459445
7	0x3c3b378b	0.011426817
8	0xbda641f6	-0.0811805
9	0x3b96a134	0.0045968536
10	0xbcf68c40	-0.030096173
11	0x3c9de495	0.019274035
12	0x3c201482	0.009770514
13	0x3c45c863	0.012071702
14	0x3d8e7c95	0.06957356
15	0xbd58768d	-0.052847434
16	0x3d3b8164	0.045777693
17	0x3dd23a01	0.102649696
18	0x3d8a9e77	0.06768506
19	0xbe3dd72f	-0.18539117
20	0x3da18522	0.07886721
21	0xbd6fa714	-0.058508947
22	0x3cc1a35b	0.023637464
23	0xbe0744a4	-0.13209778
24	0x3c89f6b5	0.016841272
25	0x3d48e221	0.04904378
26	0x3d9bad45	0.07601408
27	0xbcd050a2	-0.025429074
28	0x3c908a61	0.01764411
29	0xbe3a841c	-0.18214458
30	0x3d086fc3	0.03330971
31	0xbd81f278	-0.06345075
32	0x3c48e0eb	0.012260656
33	0xbc46556e	-0.012105329
34	0xbdd773f0	-0.1052016
35	0xbb7bc267	-0.0038415433
36	0x3d973fc4	0.07385209
37	0x3cd013ef	0.02540013
38	0x3d1c33dd	0.0381354
39	0x3d3cd039	0.046097014
40	0xbd9a64d2	-0.07538761
41	0x3d3441de	0.04400813
42	0xbd9d4a1b	-0.0768015
43	0x3cba7527	0.02276094
44	0x3c1a0fab	0.00940315
45	0xbc0b367a	-0.008496875
46	0x3ca1d23e	0.019753572
47	0xbb755b58	-0.0037438478
48	0x3ce9044e	0.028444435
49	0xbe173aae	-0.14768478
50	0x3e15df35	0.14635928
51	0x3dc70e29	0.09719498
52	0x3bee062d	0.00726392
53	0x3d02eec3	0.031965982
54	0xbe2dd42a	-0.16975465
55	0x3b99077e	0.0046700826
56	0xbd9849e8	-0.074359715
57	0x3c011de0	0.007880658
58	0x3daa0a76	0.083027765
59	0x3cf53fd1	0.029937657
60	0xbd450889	-0.048103843
61	0x3dae455f	0.08509325
62	0x3cd4ba0f	0.025967626
63	0xbdad4f7a	-0.084624246

cnn_block.5.running_var f4 [64]
0	0x3e2d6bca	0.1693565
1	0x3d87923f	0.06619691
2	0x3dd29bf3	0.10283651
3	0x3e0233ab	0.12715022
4	0x3dff237e	0.124579415
5	0x3db3a84c	0.087723345
6	0x3dd70316	0.104986355
7	0x3dda99cf	0.10673868
8	0x3dc8b2b0	0.09799707
9	0x3dc45d20	0.09588075
10	0x3e0c15cb	0.13680188
11	0x3e92a4a8	0.28641248
12	0x3e77094a	0.24124637
13	0x3e2b5bf8	0.16734302
14	0x3e1e1276	0.1543673
15	0x3e2b813b	0.16748516
16	0x3e67e04f	0.2264416
17	0x3ea88698	0.32915187
18	0x3e4bf770	0.19918609
19	0x3ed9dea9	0.4255269
20	0x3ed6a645	0.4192373
21	0x3e962865	0.29327694
22	0x3e7f4c1e	0.2493138
23	0x3dbd29fe	0.09236525
24	0x3e52cdd4	0.2058633
25	0x3d999160	0.07498431
26	0x3e347079	0.1762103
27	0x3df5dab4	0.12004605
28	0x3e25226b	0.1612641
29	0x3eae2072	0.3400913
30	0x3e21e150	0.15808606
31	0x3e6ad808	0.22933972
32	0x3e0e9982	0.13925746
33	0x3dadab8e	0.08479987
34	0x3e9836ae	0.29729217
35	0x3db068cd	0.08613739
36	0x3e01e2cf	0.12684177
37	0x3e8e4e7b	0.2779425
38	0x3d94c9d5	0.07265059
39	0x3e4b9b31	0.1988342
40	0x3e115324	0.14191872
41	0x3e162a64	0.14664608
42	0x3d969c91	0.073540814
43	0x3e59690e	0.21231481
44	0x3e31ff42	0.1738253
45	0x3e7a1e93	0.24425726
46	0x3f086f46	0.5329479
47	0x3e1b77d9	0.15182437
48	0x3e19587a	0.14975157
49	0x3e42e2b7	0.19031797
50	0x3e18e9cd	0.14932938
51	0x3df4abcf	0.119468324
52	0x3e0cfd2b	0.13768451
53	0x3e3589fa	0.17728415
54	0x3e917fa5	0.28417698
55	0x3e44e726	0.19228801
56	0x3d983812	0.074325696
57	0x3e6f43a4	0.23365647
58	0x3ec55e61	0.38548568
59	0x3e88bdfb	0.26707444
60	0x3e8c3424	0.2738353
61	0x3e576de4	0.21038014
62	0x3eb24d74	0.34824717
63	0x3e013e21	0.12621357

fc.0.weight f4 [32, 64]
0	0xbd40c405	-0.04706194
1	0x3c91a5b6	0.017779212
2	0xbdf2df8b	-0.11859044
3	0x3e3f813e	0.18701646
4	0xbc018d97	-0.007907293
5	0x3ccd01e9	0.025025325
6	0x3e019212	0.12653378
7	0xbe29a555	-0.16566975
8	0x3e1cf537	0.15327917
9	0xbda6f4df	-0.08152174
10	0xbd66bb4c	-0.056330964
11	0xbd9b87b3	-0.07594242
12	0x3ddf048f	0.10889541
13	0xbddeb7b1	-0.1087488
14	0x3cd6f586	0.026240122
15	0xbc10f605	-0.008847718
16	0xbe020b26	-0.12699565
17	0x3c954dbd	0.018225545
18	0xbde26d72	-0.11056031
19	0x3d05304f	0.032516774
20	0x3d55ff3a	0.052245356
21	0x3d06dea1	0.03292716
22	0xbd895ea1	-0.06707502
23	0x3db64313	0.08899512
24	0x3d2a08c4	0.041512266
25	0xbc47c144	-0.012192074
26	0x3db1b1df	0.08676504
27	0xbdf6f975	-0.12059299
28	0x3dd1450b	0.10218247
29	0xbca1fbad	-0.019773329
30	0x3d82bacc	0.06383285
31	0xbd306981	-0.043069366
32	0x3af2fc05	0.0018538242
33	0x3e1ef6d4	0.15523845
34	0x3df373c8	0.11887318
35	0x3e03718e	0.12836286
36	0x3dd0d745	0.101973094
37	0xbd8bd79a	-0.06828232
38	0xbdd5e7d7	-0.104446106
39	0xbce7fe80	-0.028319597
40	0x3dff35ac	0.12461409
41	0xbde87b1f	-0.113516085
42	0x3d73cb53	0.059520077
43	0xbd99e39f	-0.075141184
44	0xbc7405dd	-0.014893976
45	0xbcadfffb	-0.021240225
46	0x3e4545f8	0.19264972
47	0xbcf3d02d	-0.029762352
48	0x3e35ec7d	0.17765994
49	0x3ddbe8d8	0.10737771
50	0x3d4391fa	0.047746636
51	0x3d82a9b1	0.06380022
52	0x3de19a69	0.110157795
53	0x3b7318cb	0.0037093635
54	0xbda9d0de	-0.082917914
55	0xbd45a717	-0.048255052
56	0xbdc38f2a	-0.09548791
57	0xbd424968	-0.047433287
58	0x3d20615d	0.039155353
59	0x3d8e9555	0.069620766
60	0x3da85558	0.08219403
61	0xbde9b442	-0.114113346
62	0xbcef479d	-0.029208953
63	0x3df56cb5	0.11983625
64	0xbaacd806	-0.0013186939
65	0x3c1ce9da	0.009577239
66	0xbd869689	-0.06571681
67	0xbd6a2401	-0.057163242
68	0xbd9c1696	-0.076214954
69	0x3e067681	0.13131143
70	0x3d6dd847	0.058067586
71	0xbcc9364e	-0.024562027
72	0xbc7dbe47	-0.01548726
73	0xbd56551d	-0.052327264
74	0x3c611d51	0.0137399
75	0xbd91daed	-0.07121835
76	0xbe370201	-0.17871858
77	0x3d5964e1	0.05307472
78	0x3d4a3782	0.049369343
79	0xbd117f0b	-0.03552155
80	0xbe16249b	-0.14662401
81	0x3daa7b51	0.08324302
82	0x3dae721e	0.0851786
83	0xbc2798b3	-0.010229277
84	0xbd6f4c74	-0.05842252
85	0x3d607041	0.054794554
86	0xbd74cb3c	-0.059764132
87	0xbd3267d8	-0.043556064
88	0x3d35f139	0.0444195
89	0xbd05c5fe	-0.032659523
90	0x3c33964a	0.010961125
91	0xbe05a175	-0.13049872
92	0x3da952dc	0.08267757
93	0xbbff2715	-0.0077866414
94	0xbd4d3785	-0.050101776
95	0x3d280db5	0.041028697
96	0x3dc3ad2b	0.095545135
97	0x3dc97e7b	0.09838577
98	0x3dbb6ec1	0.09151984
99	0x3de0ae11	0.109707005
100	0x3ce2c1cb	0.027680298
101	0x3d4faf47	0.050704267
102	0x3d287779	0.041129563
103	0x3d28a6c8	0.04117468
104	0xbdcc6c5e	-0.09981607
105	0xbd1c9a5e	-0.038233154
106	0xbb26b9e0	-0.002544038
107	0xbdfa7f37	-0.122312956
108	0x3d5eb023	0.054367196
109	0x3d470f7f	0.048598763
110	0xbd009e60	-0.03140104
111	0xbdfb3d8a	-0.12267597
112	0x3d5bf1cc	0.053697392
113	0x3dbad773	0.09123125
114	0x3c9a05ae	0.018801536
115	0x3dbd8e50	0.092556596
116	0xbd006a5d	-0.031351436
117	0x3db870eb	0.090059124
118	0x3d20bd8d	0.03924327
119	0xbd648bce	-0.05579739
120	0x3e05e4d9	0.1307558
121	0x3cfdfb27	0.031003548
122	0x3dfab91b	0.12242337
123	0xbd6735ae	-0.056447677
124	0xbda8e6be	-0.082471356
125	0x3d527161	0.051377658
126	0x3d989c6e	0.074517116
127	0x3d489b43	0.048976194
128	0xbe21a561	-0.15785743
129	0x3dcb4f83	0.09927275
130	0x3d8d4415	0.06897751
131	0xbdb00675	-0.085949816
132	0x3e1a8369	0.15089191
133	0x3d1f8310	0.03894335
134	0xbd992074	-0.07476893
135	0x3be2a6dd	0.0069168643
136	0xbdcdd775	-0.10050861
137	0x3d99d1e0	0.075107336
138	0x3d872a5e	0.06599878
139	0xbd56bb60	-0.05242479
140	0x3de16138	0.11004871
141	0xbcc5e539	-0.024157153
142	0x3ca61060	0.02027148
143	0xbe15e167	-0.14636765
144	0x3d9ab76b	0.075545155
145	0x3aaa63fd	0.001299977
146	0xbe380aa3	-0.17972808
147	0x3cd6fda2	0.026243988
148	0xbdc117fd	-0.094284035
149	0x3d8996f3	0.067182444
150	0x3de54fb0	0.1119684
151	0xbd528f0e	-0.05140596
152	0x3d0b649d	0.0340315
153	0xbd9b6e98	-0.075894535
154	0xbdf09f67	-0.117491536
155	0x3d240665	0.04004516
156	0xbdbfce6d	-0.093655445
157	0x3df9553f	0.121744625
158	0x3bc77ea7	0.006088096
159	0xbd6c4e1b	-0.057691675
160	0xbda9bb96	-0.08287732
161	0x3a1c11a9	0.00059535593
162	0x3d01eec6	0.031721853
163	0xbd926621	-0.07148386
164	0xbdbfcee5	-0.09365634
165	0xbd321d5b	-0.043485027
166	0x3d4ffc08	0.050777465
167	0xbc84f322	-0.016229216
168	0xbc34bfff	-0.011032104
169	0x3e1db899	0.1540245
170	0x3ca3f3e4	0.020013757
171	0x3dd8f085	0.105927505
172	0xbdf31d27	-0.11870795
173	0x3dbab019	0.09115619
174	0x3ccace2d	0.024756515
175	0x3d84ec9d	0.06490443
176	0xbd75d960	-0.060021758
177	0xbcac26a5	-0.02101452
178	0xbc8d0a10	-0.017216712
179	0xbdaa50d6	-0.083161995
180	0xbdec5855	-0.115402855
181	0xbdd07c25	-0.10179929
182	0x3d40797f	0.046990868
183	0xbd04b913	-0.032403063
184	0x3df400b6	0.11914198
185	0xbc2220e3	-0.009895536
186	0x3c5972c7	0.013271994
187	0x3d82d784	0.063887626
188	0x3e079aac	0.13242596
189	0xbdd89a26	-0.105762765
190	0x3d2965a1	0.041356687
191	0xbc42edc6	-0.01189751
192	0xbdb6957f	-0.08915233
193	0xbe1698eb	-0.14706771
194	0x3e2b5143	0.16730218
195	0x3e4864b6	0.19569668
196	0x3d75fd06	0.060055755
197	0xbdb5592f	-0.08854901
198	0xbbb623b7	-0.0055584568
199	0x3cd2791f	0.02569252
200	0xbe574cf7	-0.21025454
201	0xbdbb85ff	-0.09156417
202	0xbe0aa1ee	-0.13538334
203	0x3d97afa8	0.07406551
204	0xbde31cb8	-0.11089462
205	0xbc154d78	-0.009112708
206	0x3d293e35	0.04131909
207	0x3d661264	0.056169882
208	0x3da815fb	0.082073174
209	0x3d618d02	0.055066116
210	0xbcfd4923	-0.030918663
211	0xbaecbe30	-0.0018062051
212	0xbe134e16	-0.14385256
213	0x3d0e7ca6	0.034786843
214	0x3dad3adc	0.08458492
215	0xbe055ef7	-0.13024507
216	0xbb38bfb5	-0.0028190438
217	0x3c91c156	0.017792385
218	0xbd60bad7	-0.054865684
219	0x3d0af76f	0.033927377
220	0xbc3619ac	-0.011114519
221	0x3ddb58c2	0.107102886
222	0x3cc8411b	0.024445107
223	0xbdd2cfa2	-0.10293509
224	0x3c4a7683	0.012357357
225	0x3de72079	0.112854905
226	0xbdc97e04	-0.09838489
227	0xbe4ae854	-0.19815189
228	0xbc6b9cec	-0.014380675
229	0x3dc7724d	0.09738598
230	0xbcd62ece	-0.026145365
231	0xbd60cb9a	-0.05488167
232	0xbdaac0b6	-0.08337538
233	0x3e62b8fc	0.22140878
234	0xbc2ef5e4	-0.010678742
235	0xbbfa490e	-0.0076381033
236	0xbd7f4d4f	-0.062329587
237	0xbca2260e	-0.019793537
238	0x3e342182	0.17590907
239	0x3cda0f87	0.026618732
240	0xbe2827b8	-0.16421402
241	0xbdbcd0c4	-0.092195064
242	0x3d933538	0.07187885
243	0x3b3a0a41	0.002838746
244	0xbd922660	-0.07136226
245	0xbda6e997	-0.081500225
246	0xbd8e8a85	-0.06960014
247	0xbd1bc6e1	-0.038031463
248	0x3e7c1c5c	0.24620193
249	0xbd4a7762	-0.04943026
250	0xbcc2c8a5	-0.023777315
251	0xbd7839ff	-0.060602184
252	0x3d4d3be5	0.050105948
253	0xbd58c8d2	-0.052925892
254	0xbc8bbb00	-0.017056942
255	0xbd38213d	-0.044953573

fc.0.bias f4 [32]
0	0x3dbc0044	0.09179738
1	0x3dc7e038	0.09759563
2	0xbccce75e	-0.025012668
3	0xbda15f07	-0.07879453
4	0xbdaa1b41	-0.083059795
5	0x3dfc82e8	0.12329656
6	0x3ddb36f4	0.10703841
7	0x3df7dcbe	0.1210265
8	0xbd90e284	-0.070744544
9	0xbd7ac074	-0.061218694
10	0xbd42fd10	-0.04760462
11	0x3c975ab1	0.018475862
12	0x3dd76545	0.105173625
13	0x3d94e37c	0.07269952
14	0xb9fbfa3e	-0.00048060896
15	0x3d7d7d14	0.061886862
16	0x3de27a43	0.11058476
17	0x3d4dc32a	0.05023495
18	0x3df537b2	0.11973514
19	0xbcceac1f	-0.025228558
20	0xbda159c6	-0.07878451
21	0x3d9d00cc	0.076661676
22	0x3df4c7c3	0.11952164
23	0x3d0b61a4	0.034028664
24	0x3de121f8	0.10992807
25	0xbde2c00a	-0.11071785
26	0xbd901f00	-0.07037163
27	0xbc535c75	-0.012900461
28	0xbdd771aa	-0.105197266
29	0x3d24ed92	0.040265627
30	0x3da0ad80	0.078455925
31	0xbca6f399	-0.020379828

fc.1.weight f4 [32]
0	0x3fb96eec	1.4486976
1	0x3f856286	1.0420692
2	0x3fa8a3ef	1.3175029
3	0x3fb8d852	1.4441016
4	0x3f919c09	1.1375743
5	0x3fbf02dd	1.4922749
6	0x3f7e2e51	0.99289423
7	0x3f78ebb7	0.9723467
8	0x3fb489ac	1.4104514
9	0x3fd5fe8d	1.6718308
10	0x3f9b442d	1.2130181
11	0x3fa9455a	1.322429
12	0x3f894b69	1.0726138
13	0x3fc1998b	1.5124983
14	0x3fb9ba02	1.450989
15	0x3f9a7445	1.2066733
16	0x3fa83b0e	1.3143022
17	0x3fce0bc8	1.6097345
18	0x3fc1e0cb	1.5146726
19	0x3f9b7f49	1.2148219
20	0x3f7bd6cc	0.9837463
21	0x3fc1418b	1.5098127
22	0x3fbe3b60	1.486187
23	0x3fc83c71	1.5643445
24	0x3f9aa7fe	1.2082517
25	0x3f9fbc51	1.2479345
26	0x3fad2eca	1.3529904
27	0x3fb60d20	1.4222755
28	0x3fbfbd19	1.4979583
29	0x3fa157ed	1.2604958
30	0x3f828771	1.0197583
31	0x3fba1b77	1.4539632

fc.1.bias f4 [32]
0	0x3e9e742e	0.30948013
1	0x3d1cbb93	0.038264822
2	0x3e09b4c0	0.13447857
3	0x3e3dc1f7	0.18531023
4	0x3dff16f8	0.12455553
5	0x3ea24aa5	0.31697574
6	0x3cc9fb24	0.024655886
7	0x3a90e0cb	0.0011053322
8	0x3e9bb6d5	0.30412927
9	0x3e958b92	0.29208046
10	0x3e1ec131	0.15503384
11	0x3e8889e2	0.26667696
12	0x3dd56027	0.1041873
13	0x3e993c90	0.29929018
14	0x3e9d7a5e	0.3075742
15	0x3e152aa8	0.14567053
16	0x3e6c9f6b	0.23107688
17	0x3ef175c4	0.4716016
18	0x3e82b1fe	0.25526422
19	0x3e1ed821	0.15512134
20	0xbc01cabd	-0.007921872
21	0x3ea8f2e8	0.32997823
22	0x3e42d6ad	0.19027205
23	0x3ea006bb	0.31255135
24	0x3dad2f18	0.08456248
25	0x3e5a23f0	0.21302772
26	0x3e6e3f19	0.23266257
27	0x3e3f2956	0.18668112
28	0x3e80bda7	0.25144693
29	0x3e29fea7	0.16601048
30	0x3ccd5ac0	0.025067687
31	0x3ea1cacd	0.31600037

fc.1.running_mean f4 [32]
0	0x3e2bef4b	0.16790502
1	0x3e0b2d7d	0.13591571
2	0xbd18ae8e	-0.037275843
3	0xbdf0c9d2	-0.11757244
4	0xbdc9c5d5	-0.098521866
5	0x3dbb0ddb	0.09133502
6	0x3c67943a	0.014134461
7	0x3e319c7b	0.17344849
8	0xbd9da3ff	-0.076972954
9	0xbd6fdded	-0.058561254
10	0xbd4b2b8a	-0.04960207
11	0xbd2921ca	-0.04129199
12	0x3e019250	0.1265347
13	0x3e1a9a62	0.15097955
14	0xbd26fcf5	-0.040768582
15	0x3d69978a	0.057029285
16	0x3da4abb6	0.08040564
17	0x3d0cc046	0.034363054
18	0x3e1544d2	0.14577034
19	0xbd602d0a	-0.054730453
20	0xbe47b07d	-0.19500919
21	0x3d25d3ef	0.04048532
22	0x3e07434f	0.1320927
23	0xbc2576cf	-0.010099127
24	0x3e27eb53	0.16398363
25	0xbe17a356	-0.14808401
26	0xbd96d21a	-0.073642924
27	0x3cc7b275	0.024377087
28	0xbde29c60	-0.110649824
29	0x3d884317	0.06653421
30	0x3ce535fc	0.027979843
31	0xbd9d520c	-0.07681665

fc.1.running_var f4 [32]
0	0x38fa262e	0.000119280405
1	0x38e19030	0.00010755693
2	0x38ddc2fa	0.000105744184
3	0x38af599c	8.361341e-05
4	0x388e3b8c	6.782179e-05
5	0x38c57c05	9.4167925e-05
6	0x3a9bf384	0.0011898135
7	0x3a6a4d14	0.0008937877
8	0x38d6c09a	0.0001024019
9	0x3900476a	0.00012233635
10	0x38c5cf9f	9.4323645e-05
11	0x38b6e504	8.721094e-05
12	0x38a31744	7.776779e-05
13	0x38e26fd9	0.00010797353
14	0x38d9a57b	0.000103781895
15	0x38962587	7.1595474e-05
16	0x38813740	6.1614905e-05
17	0x38f779ee	0.00011800589
18	0x38ba9580	8.897018e-05
19	0x390cf0aa	0.00013441095
20	0x3b380f01	0.0028085115
21	0x38d7999e	0.00010280612
22	0x38e7a510	0.00011045684
23	0x38ef6c14	0.00011416539
24	0x38aabdcf	8.141586e-05
25	0x38a3d8f4	7.812856e-05
26	0x38d738dc	0.0001026259
27	0x38bed571	9.0996626e-05
28	0x38e4a569	0.00010902697
29	0x39118a7e	0.0001387987
30	0x3a9dd1af	0.001204064
31	0x38ce27f8	9.83029e-05

fc.3.weight f4 [10, 32]
0	0xbeb74d9f	-0.35801408
1	0xbc28392b	-0.010267536
2	0xbe701c91	-0.23448397
3	0xbd8b9912	-0.06816305
4	0x3e8b32f7	0.2718732
5	0xbee6643e	-0.44998354
6	0x3d77cf90	0.06050068
7	0x3d840bc3	0.06447556
8	0xbeaa20a8	-0.3322804
9	0x3ec2341b	0.37930378
10	0x3ec76ab5	0.38948599
11	0xbe175fc4	-0.14782625
12	0x3e677a80	0.22605324
13	0xbdeb8818	-0.11500567
14	0x3f1ee750	0.62071705
15	0x3b51d50b	0.0032017853
16	0x3dd51de4	0.10406092
17	0x3eee7fe6	0.46581954
18	0x3f630d26	0.8869194
19	0xbe9ae767	-0.3025467
20	0x3d896ba5	0.06709985
21	0xbd6afc53	-0.05736954
22	0xbe6a8651	-0.229028
23	0xbebfe0f5	-0.37476316
24	0xbe2927c9	-0.16519083
25	0xbdf34c01	-0.11879731
26	0xbec13aa3	-0.3774005
27	0xbe453c11	-0.19261195
28	0xbe93da05	-0.28877273
29	0xbe7eecab	-0.24894969
30	0x3b34c11d	0.0027580925
31	0x3bba3739	0.0056828526
32	0x3ed88341	0.4228764
33	0xbd9160c2	-0.07098533
34	0xbe8878ad	-0.26654568
35	0x3e3e1ca2	0.1856561
36	0x3e9e25af	0.30888125
37	0xbea088a1	-0.3135424
38	0x3e3796f7	0.17928682
39	0xbe03b1b5	-0.12860759
40	0xbe8ea084	-0.2785684
41	0xbea648cc	-0.32477415
42	0xbdbf2c44	-0.09334615
43	0xbeb35a52	-0.35029846
44	0xbc794d9b	-0.0152162565
45	0xbef63b9f	-0.48092362
46	0xbea05727	-0.31316492
47	0xbd466748	-0.04843834
48	0xbdd330b8	-0.10312027
49	0xbebfb07f	-0.37439343
50	0x3eb82246	0.3596365
51	0x3e9dd377	0.30825397
52	0xbd70f5a9	-0.05882803
53	0xbeaa93b8	-0.33315825
54	0x3f7d09df	0.9884319
55	0x3db66e31	0.08907736
56	0x3e967b41	0.2939091
57	0xbe20c028	-0.15698302
58	0x3e42a97d	0.19009967
59	0xbe506560	-0.20351171
60	0xbec982d6	-0.39357632
61	0x3ebda32c	0.37038553
62	0x3df9ec2f	0.122032516
63	0xbe096c1d	-0.13420148
64	0xbeb2c7df	-0.34918115
65	0x3e5c87f3	0.21536236
66	0xbc8c49fc	-0.017125122
67	0x3dd0c1f2	0.10193242
68	0xbe7ff97c	-0.24997514
69	0xbe3cd881	-0.18441965
70	0x3c5f22a3	0.013619098
71	0x3bcf9599	0.006334972
72	0x3f11c5bf	0.5694236
73	0xbe7c734b	-0.24653356
74	0xbe6b9985	-0.23007782
75	0x3f1b9a0d	0.6078194
76	0xbe1b942e	-0.15193245
77	0x3ead7f30	0.338861
78	0x3ebc362a	0.36760074
79	0xbe886c2a	-0.26645023
80	0xbe555c1e	-0.20835921
81	0xbee921f1	-0.45533708
82	0xbe776af2	-0.2416189
83	0x3e87b43b	0.26504692
84	0xbdbd1b6c	-0.09233746
85	0xbedc1abf	-0.42989156
86	0xbcd9780f	-0.026546506
87	0x3f46d8e1	0.7767468
88	0xbe3b7b85	-0.18308838
89	0xbe0d459e	-0.13796088
90	0xbe1e8199	-0.15479125
91	0x3d72be1e	0.05926334
92	0xbed027ee	-0.40655464
93	0x3e5f14f0	0.21785331
94	0xbbb9f31b	-0.0056747324
95	0x3e2f5536	0.17122349
96	0xbe4580c8	-0.19287407
97	0xbe027fe2	-0.12744096
98	0x3e2c83bd	0.16847129
99	0x3f659241	0.8967629
100	0xbe12177f	-0.14266776
101	0x3ee3f31a	0.4452141
102	0x3cccdd4f	0.025007872
103	0x3adc0469	0.0016785982
104	0x3f1e4c2b	0.61834973
105	0xbe14575c	-0.1448645
106	0xbe54b746	-0.20773038
107	0x3e16cc99	0.14726485
108	0x3dc1485a	0.09437628
109	0xbdd8cff8	-0.10586542
110	0xbe34ed58	-0.17668664
111	0x399c952b	0.00029865777
112	0xbe87c512	-0.2651754
113	0xbefa192e	-0.48847336
114	0xbe1cd10d	-0.15314122
115	0x3cca5e5b	0.024703195
116	0x3d54e2e8	0.051974207
117	0xbe61448c	-0.21998805
118	0xbec0d185	-0.3765985
119	0xbe58e971	-0.21182801
120	0xbdb20ded	-0.086940624
121	0x3eb43878	0.35199332
122	0x3f23e004	0.64013696
123	0xbd9e1d8e	-0.07720481
124	0x3e7ad62f	0.24495767
125	0xbe14f049	-0.14544787
126	0xbdb29906	-0.08720593
127	0xbea83ba3	-0.32858
128	0xbdc8da7d	-0.09807298
129	0xbe61e931	-0.22061612
130	0x3f3c8ab5	0.7364915
131	0xbe8eeb41	-0.2791386
132	0x3dc088ba	0.094010785
133	0xbe9c3458	-0.30508685
134	0x3c19bcad	0.009383363
135	0xbcc285b5	-0.023745397
136	0xbd898c46	-0.06716208
137	0xbe210b41	-0.1572695
138	0x3ee4f53d	0.44718352
139	0xbde9cc18	-0.11415881
140	0xbe6b0eea	-0.22954908
141	0xbe196f70	-0.14983916
142	0xbe090143	-0.13379388
143	0xbe81afd9	-0.25329474
144	0x3f1c0369	0.60942703
145	0xbebde5e9	-0.3708947
146	0x3d8a2f2d	0.06747279
147	0xbe9dba4c	-0.30806196
148	0x3d9eb332	0.077490225
149	0x3e0f17cb	0.1397392
150	0x3e0acab4	0.13553888
151	0xbe17491d	-0.14773984
152	0xbdc4f61d	-0.09617255
153	0xbe3a6abe	-0.18204781
154	0xbe8f9ace	-0.28047794
155	0x3ef4610a	0.47730285
156	0x3ce06c14	0.027395286
157	0xbeac8477	-0.33694813
158	0x3c13cb33	0.009020614
159	0x3f66b11b	0.9011399
160	0x3ec3a10c	0.38208807
161	0xbb70187a	-0.0036635683
162	0xbe0fe123	-0.14050727
163	0xbee5af73	-0.4486042
164	0xbdc09561	-0.09403492
165	0xbe12ca83	-0.14335065
166	0xbd829fb2	-0.06378116
167	0xbe192eae	-0.14959213
168	0x3e7ec3ce	0.24879381
169	0xbec46920	-0.38361454
170	0xbd808798	-0.062758625
171	0x3ea51b5d	0.3224744
172	0x3e815f08	0.25267816
173	0xbe590878	-0.21194637
174	0xbeec5399	-0.4615753
175	0x3e05c5e6	0.13063774
176	0xbe06b5c2	-0.13155273
177	0x3eefe53e	0.46854585
178	0xbe7b4bc3	-0.2454062
179	0x3e029281	0.127512
180	0x3c4678c1	0.012113751
181	0xbd5bbfb9	-0.053649638
182	0xbe74a39a	-0.23890534
183	0xbee051bc	-0.43812358
184	0xbd6a131a	-0.057147123
185	0x3f1d53ee	0.6145619
186	0x3eb03eaa	0.3442281
187	0xbe1407fc	-0.14456171
188	0x3f5e70cb	0.8689086
189	0xbde98065	-0.114014424
190	0x3e90e36a	0.28298503
191	0xbe83a4fe	-0.25711817
192	0xbc9b230d	-0.018937612
193	0xbe683677	-0.22677027
194	0xbcdac935	-0.026707271
195	0xbdcb2226	-0.09918623
196	0xbe319c1f	-0.17344712
197	0xbec518da	-0.38495523
198	0xbda1ea26	-0.079059884
199	0xbcc83a54	-0.024441876
200	0xbea1f2d9	-0.3163059
201	0xbe8ba490	-0.2727399
202	0xbd374ed8	-0.044752926
203	0xbe9d7d64	-0.30759728
204	0x3dcc13d6	0.09964721
205	0x3e10e6e0	0.14150572
206	0x3ee823e3	0.4533988
207	0x3dba886a	0.0910805
208	0xbe9c5714	-0.30535185
209	0x3f4827c2	0.78185666
210	0xbe3eeec7	-0.18645774
211	0xbe4b0cf0	-0.19829154
212	0xbc6616c1	-0.014043511
213	0x3f2ef1de	0.6833781
214	0xbe312038	-0.17297447
215	0xbe86be6b	-0.26317152
216	0xbe73ad1d	-0.23796506
217	0x3e9f4574	0.31107676
218	0xbe1010a9	-0.14068855
219	0x3f4796bf	0.77964395
220	0xbebd045a	-0.36917382
221	0xbda8ef2b	-0.08248743
222	0xbca3c14d	-0.019989634
223	0xbcc15936	-0.02360211
224	0x3f3ebb90	0.7450495
225	0x3e812ac7	0.2522795
226	0xbe827822	-0.2548228
227	0xbdbabf80	-0.09118557
228	0xbce1874a	-0.027530331
229	0xbd1399c1	-0.036035303
230	0x3de064c6	0.10956721
231	0xbae07fdc	-0.0017127949
232	0xbdd3c413	-0.103401326
233	0xbe6a16d5	-0.22860272
234	0xbe581b42	-0.21104148
235	0xbd801abf	-0.062551014
236	0x3dc35756	0.095381424
237	0x3f700207	0.93753093
238	0xbe8a8e4a	-0.27061683
239	0xbc653935	-0.01399069
240	0x3e81cd40	0.25351906
241	0xbe9c69b3	-0.30549392
242	0xbede83ed	-0.43460026
243	0xbe34ab04	-0.17643362
244	0x3d24fcc3	0.040280115
245	0xbe3ed679	-0.18636502
246	0xbe12690e	-0.14297888
247	0xbebb1d71	-0.365459
248	0x3f0c5550	0.54817677
249	0x3c1728fa	0.009226078
250	0xbea280f0	-0.31738997
251	0xbe97abf2	-0.2962337
252	0xbe6eba1d	-0.23313184
253	0x3efc27bb	0.49249062
254	0xbdadf880	-0.08494663
255	0xbec190c2	-0.37805754

fc.3.bias f4 [10]
0	0xbc070c7d	-0.0082427235
1	0xbda76ba9	-0.081748314
2	0x3e0f7548	0.14009583
3	0x3bedaac1	0.0072530215
4	0xbe636b2b	-0.2220885
5	0x3cc06bf3	0.023488974
6	0xbc37cec8	-0.011218734
7	0xbbf308b7	-0.0074168104
8	0xbe305630	-0.17220378
9	0x3e636e24	0.22209984
