saved/cnn/augmented_sans_serif_cnn.pth (torch, 63386 bytes, 20 tensors)

cnn_block.0.weight f4 [32, 3, 5]
00000000: 982b 903e 555e 2abe 810e 1a3a 9465 81bd
00000010: 3d25 4ebe 646c 3a3d 2a53 50be 9e67 32bd
00000020: a6df 0cbe 8420 cc3e aa6f a83c 43e7 83bd
00000030: 1215 913d 7b52 613e ac6b 043e c884 e23c
00000040: c182 fc3d e682 8e3d c79d 1b3d e88d 51be
00000050: 71be 05be 4053 66bc a4d2 ddbd 5689 2f3b
00000060: 6826 71be f0aa 30be 4170 4a3d a586 4ebe
00000070: 204b 643e c23f 9d3c c07e 473e 25c8 43be
00000080: 2b20 ae3d 7c3d 4cbe 9dea a23d ce2b d83b
00000090: 5695 01bd 264e a33c 8967 ae3e 8dbe 253e
000000a0: 11c9 26be 8553 16be 943a 82be 5ef7 28be
000000b0: 0c7e 3bbe 57de 8dbd f791 a7be 943a f13d
000000c0: aae2 543e cf4f 2b3e 72d0 06bd cc86 6cbe
000000d0: 5235 883e 6022 97bd 7d31 c53d 8c48 1c3e
000000e0: 420e 23be 316c 253e 29de 4b3e 6738 473a
000000f0: 9733 7bba 8e5a 60be 5b0d a9be c643 39be
00000100: 5152 05be b051 3c3e 34e4 513e 3b3a 673e
00000110: 0981 cf3d 5047 aabc ba34 ba3c a8a7 a43d
00000120: bd18 573e 54f7 96bd 6e6b 7ebe eac3 143e
00000130: fdf5 c03c f6a0 2d3d b36f e73c 434a 563e
00000140: fff8 343e 19f3 b13d d0c1 2d3e 95de b3bc
00000150: 7441 acbe 0248 1c3e 8187 193e 9b9b 6d3b
00000160: b289 adbd 3232 45be 28ca 093d 53d5 343d
00000170: 1a4b 403e d67b cb3d cc3f 353d 5404 2c3e
00000180: 0009 4ebe 9fbc 08be 130c 66be 1f1e f53d
00000190: 4121 6bbe 420b 8abd 11f4 353e 5ead 383e
000001a0: b47b b1bd f92c c3bd 9e3a 223d 1a16 f2bd
000001b0: 7cc2 42be 7dc6 27bd b532 de3d 5643 e2bd
000001c0: d359 3d3e 059f 8cbd 70ca 0abe 8cb5 1e3e
000001d0: c432 9eba ad74 263e d4a0 2fbe b735 0d3e
000001e0: 57d8 2b3e a585 433e 19f2 ac3c 4e08 b93d
000001f0: b946 66be 9cc1 503e 4740 92be d146 85bc
00000200: dca7 1bbe 183f f2bd 7cfc 74be 78d8 6d3e
00000210: b539 05be de51 36ba 7826 5d3c 4e54 6c3e
00000220: a83b 873d 3642 443e 1966 ad3d 792d 4bbe
00000230: 7b61 703d eec5 4abc c091 cbbc 7875 dcbc
00000240: e520 0fbd d428 1cbe 85bf 843b 76ba ffbd
00000250: 2798 d9bd d082 37be 4c5e 92be beca 613d
00000260: 53e3 57be 362b 143e 08e0 5a3e b370 ffbd
00000270: 7957 453b f072 95bd 3114 193e fbca 003e
00000280: a296 473e 28b5 493e b54e c0bd 519e fdbd
00000290: 5700 77be f0fc c03d 020f cdbd 0d57 7fbd
000002a0: f603 af3d af9c c63d c0a7 c23d 310b 60be
000002b0: 54d4 a4bd dccc f2bd c74c a7bd ff4c d239
000002c0: 509b 563d 20ee e0bd c8c3 fd3d b271 103e
000002d0: 2567 dcbd 084d 44bd b803 52bd db5c 0abd
000002e0: b4bb c33d 272e d53d 2490 403e 7f5b 79be
000002f0: 172b 83bd 6322 f0bd 0e23 473d 39d7 47be
00000300: 6a16 b43d 3041 64be 8fd9 8cbd 0d79 1ebb
00000310: ed65 9c3d f46a 4cbe 3cc5 ac3d 901b 83bd
00000320: 35de d8bd 89c6 2d3e bb38 833e 6195 aa3d
00000330: dbe8 0c3d 56c8 f3bb dc77 88bd 0a33 7dbe
00000340: f4e0 143e 03fd 69bc 4494 92bd 36fa 02bd
00000350: 7381 b5bd 2302 b53d d0d1 843c cdb7 9bbd
00000360: 2f11 993e d266 86be 321f c93a e75c 5fbd
00000370: da97 433d 1cfd 49be 9863 3bbe a017 cb3d
00000380: 354e 28be 19a4 b13d 8bd2 0fbe e185 10be
00000390: eb31 eb3c 4d86 f53d feea e13d a23b 383e
000003a0: aba5 e3bd fccc 9dbe 6575 603e 649e c33d
000003b0: f4de 52be 4a10 913d 4a4f c43d 9381 5bbe
000003c0: 76e3 46be 8d71 a93d 4926 b63e 4f26 19be
000003d0: ee86 2c3d d108 aebd 8db5 8abe f8a8 e63d
000003e0: 5aaa cc3c 3456 383d 75f5 bf3d 0c1d afbd
000003f0: f526 013d 67e5 7fbe c7b2 403e 263d 85bc
0.2815826 -0.16637547 0.0005876795 -0.063182026 -0.20131393 0.045513526 -0.20344225 -0.04355585
-0.1375719 0.39868557 0.020561058 -0.06440594 0.07084097 0.2200412 0.12931699 0.027651206
0.12329627 0.06958561 0.037992265 -0.20464289 -0.13060929 -0.014057934 -0.10831192 0.002678474
-0.23549807 -0.17252707 0.04942346 -0.2016855 0.22294283 0.019195441 0.19481945 -0.19119318
0.08502229 -0.1994533 0.07954905 0.006597019 -0.03163656 0.019934725 0.34063366 0.1618597
-0.16287638 -0.14680298 -0.25435317 -0.16500613 -0.18309802 -0.069271736 -0.3272855 0.11778751
0.2078959 0.16729663 -0.032913633 -0.23098296 0.2660318 -0.073796034 0.0962858 0.1526205
-0.15923408 0.16154553 0.19908966 0.0007599652 -0.00095825776 -0.21909544 -0.33018002 -0.1809226
-0.13019682 0.18390536 0.20497209 0.22580807 0.101320334 -0.020785958 0.02273022 0.080397904
0.2100553 -0.07371393 -0.24845669 0.1452786 0.023554796 0.042389832 0.028251505 0.20926766
0.1767311 0.08688945 0.16968465 -0.021956721 -0.33643687 0.15261844 0.14993097 0.0036256078
-0.08473529 -0.19257429 0.033640057 0.044148754 0.18778649 0.09935729 0.044250295 0.16798526
-0.2012062 -0.13353203 -0.22465543 0.11968636 -0.22961904 -0.067404285 0.17768885 0.18034884
-0.086661726 -0.09530062 0.039606683 -0.11820622 -0.19019502 -0.040960778 0.10849515 -0.110479996
0.18491296 -0.06866268 -0.13553786 0.15498942 -0.0012069573 0.16255446 -0.17151195 0.13790022
0.16781746 0.1909395 0.021111535 0.09034787 -0.22487916 0.20386356 -0.28564665 -0.01626912
-0.15200752 -0.118284404 -0.2392444 0.23227108 -0.13010295 -0.0006954948 0.013497941 0.23079035
0.066031754 0.19165882 0.08466739 -0.19841565 0.058686715 -0.012376292 -0.024849772 -0.026911482
-0.03494348 -0.1524995 0.004051151 -0.124867365 -0.10624724 -0.17920995 -0.28587568 0.05512499
-0.21082811 0.14469609 0.21374524 -0.124726675 0.0030111952 -0.07297313 0.14949109 0.12577431
0.19491056 0.19698012 -0.09390012 -0.12383712 -0.24121223 0.09423244 -0.10012628 -0.062338877
0.08545677 0.09697854 0.09504652 -0.21879269 -0.08048311 -0.1185548 -0.08168941 0.00040111688
0.05239421 -0.10982919 0.12390858 0.14105871 -0.10761861 -0.047925025 -0.051273078 -0.03377996
0.09557286 0.104091935 0.18804985 -0.24351309 -0.06404703 -0.11725309 0.048617415 -0.19515695
0.08793338 -0.22290492 -0.068774335 -0.0024181039 0.07636628 -0.19962674 0.08436057 -0.064017415
-0.10589258 0.16970266 0.2562922 0.08329273 0.034401756 -0.0074396534 -0.06663486 -0.24726501
0.14538938 -0.014281514 -0.07157186 -0.0319769 -0.08862581 0.08838298 0.016213328 -0.076034166
0.29895923 -0.2625032 0.001534438 -0.054531958 0.04775224 -0.1972546 -0.18299711 0.099166155
-0.16436084 0.08673877 -0.1404516 -0.14113571 0.028710326 0.119885065 0.11031149 0.17991498
-0.11115583 -0.30820453 0.21919782 0.09551695 -0.20592862 0.07083185 0.09585436 -0.21436147
-0.19422707 0.08273611 0.35576084 -0.1495602 0.042120866 -0.08497775 -0.27091637 0.11262697
0.024983574 0.045004085 0.09372989 -0.08550462 0.031531293 -0.24989854 0.18818198 -0.01626451

cnn_block.0.bias f4 [32]
00000000: 71f0 10bc 01d7 84bd b8fe 64be e0bb bdbd
00000010: ffc5 80bd 9fb2 83be 5cbe 69be 92db c53d
00000020: 1cf1 35be c849 92bd debe 52be 3fe2 023d
00000030: a2df 283b 4c00 57be d6e4 23bd 52f4 6cbe
00000040: f459 3b3e 30eb c43d df83 f53d 2bcf bf3d
00000050: c0b1 6f3e b37d 573e ad14 ffbd 8a0e 7a3d
00000060: 7a90 5bbe adad 60bd 14d6 7cbe a38d db3d
00000070: 3682 513e 41e6 b6bd d126 1f3d 4dbd 78be
-0.008846388 -0.06486321 -0.22362792 -0.0926435 -0.06287765 -0.25722215 -0.22826523 0.0966102
-0.17767757 -0.07142979 -0.20580623 0.031954046 0.0025768061 -0.20996207 -0.040013157 -0.23140076
0.18296033 0.09615171 0.11988043 0.09365686 0.2340765 0.21044044 -0.124551155 0.06104902
-0.21441832 -0.05485313 -0.2469104 0.107203744 0.20459828 -0.08930636 0.038855378 -0.24290963

cnn_block.1.weight f4 [32]
00000000: 65c8 863f e921 813f 8bd9 633f 3536 6c3f
00000010: fc29 863f e73a 623f 0584 733f bc03 813f
00000020: 15ed 933f ada8 623f a55e 773f cadc 813f
00000030: 85ce 853f 249d 673f 07fe 893f 5240 733f
00000040: 53ba 903f 6004 5b3f e2f4 603f c8b5 853f
00000050: c515 663f 8596 8e3f 96b7 7e3f c07e 803f
00000060: a326 893f 623a 8c3f 35b7 8c3f bfde 8a3f
00000070: a85e 603f 0f64 8c3f 9109 703f a3f3 6d3f
1.0529906 1.0088474 0.8900382 0.92270213 1.0481563 0.8837113 0.9512332 1.0079265
1.1556727 0.8853863 0.9662879 1.0145504 1.045365 0.9047415 1.0780648 0.9502002
1.1306862 0.8555355 0.8787366 1.04461 0.8987697 1.1139685 0.9949888 1.0038681
1.0714916 1.0955317 1.099341 1.0849227 0.87644434 1.0968035 0.937646 0.92949885

cnn_block.1.bias f4 [32]
00000000: 362c 6fbc 1207 f5bb db1f 163c 89a5 a03c
00000010: 04f1 52bb 5887 a7bc 826e e73b 4e8b 9cbc
00000020: ece5 0e3d eb5a f5bb f8a0 a7bc 865e 29bb
00000030: 9e27 c13c aa21 dcbc 2bd1 e33b 7aa3 fbbb
00000040: 08ea d23c 8349 0fbd e828 8dbc 6230 d6bc
00000050: ecf4 00bd a9d6 15bd 864d 90bc e9f2 233d
00000060: 1661 a3bc c61f 88ba e31c cb3b ae68 84bc
00000070: 49b6 06bd 466c 8d3c cf11 61bc f1d6 dbbc
-0.014597943 -0.0074776495 0.009162868 0.019610183 -0.0032187114 -0.02045028 0.007062734 -0.019109394
0.03488724 -0.007487645 -0.020462498 -0.0025843694 0.023578461 -0.026871521 0.006952425 -0.0076794
0.02574636 -0.034982216 -0.01723142 -0.026146118 -0.031483576 -0.03658167 -0.017615091 0.04002658
-0.019943755 -0.0010385446 0.006198512 -0.016163196 -0.032888684 0.017263543 -0.013737156 -0.02683589

cnn_block.1.running_mean f4 [32]
00000000: 156b 00bf a708 67c0 0a47 6740 cc2d fd3e
00000010: b783 073e 824d 6340 f5ed 723e b684 2ac0
00000020: 2eab adbf d34b 1140 db8d cfbe fa99 23c0
00000030: cd78 00c0 9bd7 2d40 c0c2 b2bf 99a5 5d3e
00000040: c250 00bf b7e8 b440 e553 af40 234f cfbe
00000050: cd53 a140 b262 133e 6822 9bbe dbdb e3c0
00000060: 223c ccbe 51cb 93bf 1c9e 113e d7c4 64be
00000070: d717 a440 18ec 09c0 49d9 8a3f 9baa e03e
-0.50163394 -3.609903 3.6137109 0.49449003 0.13233839 3.5516057 0.23723586 -2.66435
-1.3567865 2.270253 -0.40537915 -2.556273 -2.007373 2.7162845 -1.3965683 0.21645202
-0.50123227 5.6534076 5.478991 -0.40490064 5.0414796 0.14393118 -0.30299687 -7.120588
-0.39889628 -1.1546422 0.1422047 -0.22340713 5.12791 -2.155035 1.084756 0.43880162

cnn_block.1.running_var f4 [32]
00000000: d810 9643 5309 cd44 c43d e544 2496 aa43
00000010: a27c b644 2412 d344 ac9b c043 bfec 4d44
00000020: 8d3d 4a44 17a0 3244 9355 b943 d3c5 6b44
00000030: 8636 f543 bdec 9344 5c9c 5943 e1b8 fe42
00000040: 5102 5643 d655 3f45 b535 3345 218b 6c44
00000050: f9a5 1c45 b4f5 b042 e22b ad43 91f2 9f45
00000060: 938d 9543 501b 2644 2ef3 0244 62ac 2043
00000070: 7d31 4545 4e18 4144 cbfd 9943 8f60 0143
300.1316 1640.2914 1833.9302 341.17297 1459.8948 1688.5669 385.2162 823.69916
808.96173 714.5014 370.66855 943.091 490.42596 1183.3981 217.61078 127.36109
214.00905 3061.3647 2867.3567 946.1739 2506.3733 88.47989 346.34283 5118.321
299.10605 664.42676 523.7997 160.67337 3155.093 772.37976 307.98276 129.37718

cnn_block.4.weight f4 [64, 32, 5]
00000000: c808 a83d 91b8 a83d f371 c63b 7f72 97bd
00000010: ee2b 9239 5342 a3bd 2edb 37bd bff7 1ebc
00000020: 7edd 96bd 197b 6ebd 5b68 40bd 575d 4c3d
00000030: 288f 3f3d abbe 803d 9b9f 4ebd 586b 9d3d
00000040: e9e2 003c e804 893d d5f1 723c 55fd 55bd
00000050: 3da7 ac3d 8cca 173e c8a6 18bd d60d 3dbd
00000060: a298 4fbd 59d7 7f3c 9f31 68bc 4173 3a3d
00000070: 1deb 70bc bbc9 4fbd fb19 3dbd be99 143b
00000080: 5068 d6bc 9cc6 d7bb 1e7a 3cbd accb 01bd
00000090: 0a08 683d f31b 9f3c ff99 86bd 6792 dc3a
000000a0: 926d 0fbe edf3 f6bc 59a5 6e3d 3338 c9bb
000000b0: 4e9f f43c 267f 983d 0a55 fe3c f8c2 b43c
000000c0: e0ad f8bc c541 4bbc 8206 9dbd cfab 09bc
000000d0: 8067 8abb 1c93 913d 9ab9 30bd 34c6 8c3c
000000e0: f7cf 2d3d e0c3 17bd 9cea 8a3d 34e3 253d
000000f0: 5a18 1ebc b355 973d 3164 cbbc efb4 013d
00000100: ebe7 41bd 350c 8f3c fcac 02bd 0a7c bf3c
00000110: b7dc b6bd 37d8 743c 08ec bcbd 71b6 873b
00000120: f462 ac3c ca9a 843d 5071 0a3d 1023 063d
00000130: adba 79bc a399 12bd af24 ecbc 8627 febc
00000140: 68f4 693d aa36 0bbd 46f8 a9bd 9454 aabd
00000150: 8678 e8bb 19ad afbb a454 973b f134 99bc
00000160: 3740 6bbd 95e1 8fb9 4090 59bd 7f8f 3abd
00000170: ff4f 35bd b8db 903d ff1a d4bc ce5d e23c
00000180: 7867 7f3c f05d 33bc 58a6 bcbc 7a0e 48bb
00000190: a21c 99bd 4db8 cb3c ee7b f23c aecd bb3c
000001a0: 3d5e 723c f77d 363d 27a1 d33d d0ef b83b
000001b0: 5d4c 0c3d 6eae fbbc 03d6 49bd 3409 56bc
000001c0: eb2e b1bd 36f1 9bbd d59f 89bc dfab 463d
000001d0: 10e5 9b3b 1908 acba 3093 bd3c 3fc9 88bc
000001e0: c84a 083d 59ac 9d3d 3cc1 cb3a 1312 5abd
000001f0: 7697 793a 35cf c03b cb8d a6bc cb06 1a3c
00000200: 1e0e 5dbd fe22 2f3d 1daf d9bd 0dd8 b9bc
00000210: 8e6f 5fbd 70a9 0abd 81ad b13d 051b bfbd
00000220: 2cc1 8abc 40b7 f7bc 08a5 65bc d5c7 b93a
00000230: 4abd 9fbd 6bb3 a4ba d823 b1bd a340 4dbd
00000240: c33f 243d eb1a be3c 22c7 b8bc 1426 29bc
00000250: 1bca b93c 1e07 c63c a6bf aaba f94f ce3c
00000260: f869 9fbd b8e5 093d a836 f83c f0d4 433d
00000270: 446d ea3d 15fa 173d 8bc1 44bc 0490 4abd
00000280: 2a0d fe3d 5996 79bd 56d2 2f3c 808f 013d
00000290: f3aa bb3d b2af 8e3d 3f5d 06bd bd81 5dbc
000002a0: acab 143d dee5 90bd 2238 ffbc 6b4f c6bc
000002b0: 7d77 ea3c fddc 73bd d198 2ebc 3c35 5239
000002c0: 82e0 45bd 66a4 8bbd d7a7 92bd 3c8a 373c
000002d0: 16cb 2bbd 3b8a 153c 1640 073e fd72 843c
000002e0: ecba c43d 239f 2d3d 03d6 293d 9e37 923c
000002f0: 032f 803c 10d3 903c 375d df3c 16b4 f03a
00000300: 90be c83b 5922 c3bd a2d2 ecbd 300e 503d
00000310: 9b45 4e3d ae2d a43d 0e2f b43c b10a 02bd
00000320: e1e7 82bc 6a54 82bd 5f9e fabd bd00 17bd
00000330: 058c 3c3d 84b2 d0bc 10a0 2cbd 5ceb a13d
00000340: f288 133c c0fa fbbc 1a97 003e bd20 103c
00000350: 27af be3c 7709 d2bd f4d7 41bd 3a4b 493d
00000360: e25d 033d 9689 8fbc 8180 ba3c 2b69 8d3d
00000370: 8b94 adbb 5a26 8a3d d0db 553d 41d0 063d
00000380: 4d1a debc 8501 363d f272 3b3d 826d e33c
00000390: 9974 3bbd 85a9 42bc 3606 18bd 7b4a 45bd
000003a0: bad4 a6bd 4be3 87bd 81db e33c 3b7e c9bd
000003b0: ea3c 3f3d ad67 9c3c 6003 7cbc ef44 1d3c
000003c0: 723b 42bd c68a 85bd fc57 1fbd d8cb ac3c
000003d0: a062 8ebd a287 723d 1a51 1a3d 42ee 37bd
000003e0: a8e1 313c 1288 94bd eaa4 4dbc cbab 583c
000003f0: d3a3 8a3d 9c56 c1bd f6f8 edbd 0bf3 0a3d
0.082048 0.08238328 0.0060560643 -0.07394885 0.0002788002 -0.07971635 -0.04488676 -0.009702622
-0.07366465 -0.058222864 -0.04697452 0.049893703 0.046767384 0.06286367 -0.05044518 0.0768649
0.0078666 0.06690389 0.014828165 -0.05224355 0.08430336 0.14823359 -0.03726843 -0.046155773
-0.05068267 0.015615308 -0.014171987 0.04552007 -0.014704493 -0.050729495 -0.046167355 0.0022674645
-0.026172787 -0.0065849554 -0.046014898 -0.031688377 0.05664829 0.019422507 -0.06572341 0.0016828299
-0.14006642 -0.03014561 0.058263157 -0.0061407327 0.029861119 0.07446127 0.03104641 0.022065625
-0.030356348 -0.012405817 -0.07667257 -0.008402779 -0.004223764 0.07108137 -0.043145753 0.017184354
0.04243466 -0.037052035 0.067830294 0.04049988 -0.009649361 0.07389393 -0.024828048 0.031666692
-0.047340315 0.017461875 -0.031903252 0.023374576 -0.08928817 0.014944128 -0.09224707 0.0041416218
0.021043278 0.06474836 0.03379947 0.032748282 -0.015242261 -0.03579105 -0.028826086 -0.031024706
0.05711785 -0.03398768 -0.082993075 -0.08316913 -0.0070944456 -0.005361211 0.0046182442 -0.018702002
-0.057434287 -0.00027443157 -0.053116083 -0.045547005 -0.044265743 0.07073158 -0.025891779 0.02763262
0.015588634 -0.010947689 -0.023028538 -0.0030526207 -0.074761644 0.024868155 0.02960011 0.022925224
0.014792976 0.044553723 0.10333472 0.0056438223 0.034252513 -0.030722823 -0.049276363 -0.013063718
-0.08651527 -0.07614367 -0.016799847 0.048503753 0.004757531 -0.0013124972 0.023141474 -0.016697524
0.033274442 0.07698888 0.0015545259 -0.053239893 0.00095211656 0.005884076 -0.020331284 0.009401034
-0.05396854 0.04275798 -0.10629103 -0.022686029 -0.054549746 -0.033852994 0.08675671 -0.093313254
-0.016937815 -0.030238748 -0.014016397 0.0014173934 -0.07799776 -0.0012565678 -0.08649415 -0.05011047
0.04009987 0.023206195 -0.022555891 -0.01032402 0.02267938 0.024173316 -0.0013027086 0.025184618
-0.07783884 0.033666342 0.0302995 0.047810495 0.11446622 0.03710373 -0.012009035 -0.04945375
0.124048546 -0.0609344 0.0107313 0.031630993 0.09163465 0.06967105 -0.03280377 -0.013519702
0.03629653 -0.07075094 -0.031154696 -0.024207791 0.02862143 -0.059536923 -0.010656551 0.00020046992
-0.04830981 -0.06818466 -0.07160919 0.011202391 -0.041941725 0.009127195 0.1320804 0.016168112
0.09605965 0.042388093 0.041463863 0.017848786 0.015647417 0.017678767 0.027266128 0.0018364217
0.0061262324 -0.09528036 -0.115636125 0.05079478 0.05035935 0.08016525 0.021995094 -0.031748477
-0.01597971 -0.06363757 -0.12237238 -0.03686594 0.04603197 -0.025475748 -0.042144835 0.07906219
0.009004818 -0.030759215 0.1255764 0.008796868 0.023276879 -0.102557115 -0.04732509 0.049144007
0.032071956 -0.01752166 0.022766354 0.06904825 -0.0052972487 0.06745596 0.052211583 0.03291345
-0.02711215 0.044435043 0.045763917 0.027762178 -0.045765493 -0.011881237 -0.0371153 -0.048166733
-0.08146043 -0.066351496 0.027814629 -0.0983853 0.04668895 0.019092405 -0.015381664 0.009598955
-0.047419973 -0.065206096 -0.038902268 0.021093294 -0.06952405 0.05921138 0.037675 -0.044904955
0.010857023 -0.07252516 -0.012551526 0.013224552 0.06769528 -0.094403476 -0.11619751 0.03392319

cnn_block.4.bias f4 [64]
00000000: 6415 83bd fd1a f43c 3176 9ebc cb82 303d
00000010: 7cf3 1cbd 5b8c 11bd 62f9 07bc 4c11 85bc
00000020: 71bd 42bd b742 8c3a abad db3c b78c 8c3d
00000030: 738c 353d da18 6a3d 53ba a33b a935 953d
00000040: d48e 8c3d da00 963c da5e c33b c1d6 26bc
00000050: b3ae 90bd 968e 213d a8b1 89bd 6c96 ffbb
00000060: b930 523d 4bb4 6fbc 7e9a 343d 7d17 593d
00000070: c41c 8c3d 1774 34bb 239a 9c3d 33e5 873d
00000080: ea5d 72bd 71be 68bc db03 90bc a16d e9bc
00000090: 04cc 90bd 4b9b 763c 3c84 23bd ea42 11bb
000000a0: 0922 ccbc 9502 8d3d c8a3 353c 8f1e 8f3b
000000b0: 8f0e 5b3d ef11 553d 2d52 e33b c25e 9ebd
000000c0: b387 17bc 2695 85bd 57d2 f63c 65cd bf3c
000000d0: 21b0 20bd fe3c 8a3c 34f1 873d de7b 48bb
000000e0: 6f3c 8abc 1086 4b3c 75fe 3b3d 77fd 823d
000000f0: 44ea 993d d7b7 803d 3f65 753d 12bb cb3c
-0.06400564 0.029798025 -0.019343467 0.043093484 -0.038318142 -0.035534244 -0.008299204 -0.0162436
-0.047543947 0.0010701035 0.02681621 0.06862777 0.044323396 0.057152607 0.004996577 0.072856255
0.0686318 0.018310953 0.005962235 -0.010183037 -0.07064571 0.03944262 -0.06723338 -0.007799914
0.051315997 -0.014630388 0.044092648 0.053000916 0.06841424 -0.0027535015 0.07646587 0.06635513
-0.059171595 -0.014205561 -0.017579963 -0.028494658 -0.07070163 0.015051673 -0.03992103 -0.0022165128
-0.024918573 0.06885258 0.011086412 0.0043676565 0.05348068 0.052019056 0.0069372864 -0.07732917
-0.009248662 -0.065225884 0.030129595 0.02341337 -0.03923047 0.016874786 0.06637803 -0.0030591409
-0.01687452 0.0124221 0.045896966 0.06396001 0.07515386 0.06285065 0.05991101 0.024869476

cnn_block.5.weight f4 [64]
00000000: 1e9f 8b3f 7d27 813f 4a37 803f a793 903f
00000010: 9199 763f d171 8b3f 77ac 7d3f a364 823f
00000020: 66d8 873f 7a2a 853f bd7c 773f c371 7f3f
00000030: d18f 7d3f 9099 873f a52e 713f 09a5 863f
00000040: 3dad 873f 04b1 843f e026 7a3f 16b9 763f
00000050: f6b3 853f 11fb 883f 58e8 743f d060 853f
00000060: e7d0 7f3f 92ad 803f 4cfa 813f 1b2c 7a3f
00000070: c467 833f f4e7 853f a88b 8e3f fce5 793f
00000080: f9df 7c3f cb3d 833f 4359 833f 01ed 7d3f
00000090: c22c 803f 0ccb 803f 0c96 753f 9542 813f
000000a0: 5aaf 863f 2f6c 733f 60fb 773f 6c95 873f
000000b0: ae6a 803f edda 803f 080b 803f f1c3 733f
000000c0: a481 7d3f dc66 7e3f 0c47 7f3f db38 813f
000000d0: a4fb 803f 51a9 813f 2b2a 803f 3013 8a3f
000000e0: d989 7f3f 1bac 843f 5962 823f f40b 783f
000000f0: 24ea 843f 245e 823f 527a 793f 52ae 713f
1.0907934 1.0090176 1.0016873 1.129506 0.96328074 1.0894109 0.99091285 1.0186962
1.0612915 1.0403588 0.9667471 0.9978296 0.9904757 1.0593739 0.942118 1.0519115
1.0599743 1.0366521 0.9771557 0.9637617 1.0445545 1.0701619 0.9566703 1.042017
0.99928135 1.005297 1.015451 0.9772355 1.0266042 1.0461411 1.113637 0.97616553
0.98779255 1.0253233 1.0261616 0.99189764 1.0013659 1.0061965 0.9593208 1.0098444
1.0522263 0.9508695 0.9686794 1.0592475 1.0032556 1.0066811 1.0003366 0.9522086
0.9902594 0.993757 0.99717784 1.0095476 1.0076795 1.0129796 1.0012869 1.0787106
0.99819714 1.0365022 1.0186263 0.9689324 1.0383954 1.018498 0.9745227 0.94406617

cnn_block.5.bias f4 [64]
00000000: ca59 22bc 6bc7 30bc 4f24 31bc d5aa 7abd
00000010: 37a8 68bc 981f 1abc ccb3 9ebc 5370 46bc
00000020: 81b6 f1bc 5c78 043c 66f9 8dbc 9142 053c
00000030: 14fa c8bc ee62 933c 2e91 203b ebda 663c
00000040: e355 cbbc bdf1 d8b9 720a d3ba 9485 95bc
00000050: faa4 2e3c 56cc 453c c9ac 26bc 287a 43bd
00000060: f784 8abc 89bf 1dbc b3f7 6c3b 3a15 d1bc
00000070: 1be4 29bc 1dea d4bc 4506 a6bc 91fb 30bc
00000080: 875a 813c 6144 aebb db6c 923b b500 0fbd
00000090: 85b6 3fbb 412e f3bb 8c1e 21bc 7f53 b03b
000000a0: 2b69 6ebc 8a3a 3c3c a710 03bb 3266 20bc
000000b0: 7536 9739 543b dc3b ed44 4739 eba9 063a
000000c0: 275b 74bc 09e2 443a c3e3 13bc ff39 83ba
000000d0: ecb7 c8bc 8f8d ce3a 5986 bfba ac2f 893c
000000e0: 7678 44bc b278 95ba 38a1 b5bb 50cc 2abc
000000f0: f8f7 aebc 63dc 123c a9e9 323c 488b 72bc
-0.009909103 -0.010789732 -0.010811879 -0.061198074 -0.014200262 -0.009406947 -0.019372843 -0.012111741
-0.02950597 0.008085337 -0.017330837 0.008133546 -0.024533309 0.01799151 0.0024500596 0.01409028
-0.024821227 -0.0004137884 -0.0016101135 -0.018252172 0.010659451 0.012072643 -0.010173031 -0.04772392
-0.016909106 -0.009628185 0.0036158382 -0.025522817 -0.010369326 -0.02599054 -0.020266661 -0.010802166
0.015790237 -0.00531821 0.004468543 -0.034912784 -0.0029253077 -0.0074212854 -0.009833943 0.0053810473
-0.014551441 0.011488566 -0.001999894 -0.00978999 0.00028841538 0.0067209397 0.00019003796 0.0005137014
-0.014914311 0.00075104885 -0.009026471 -0.0010011791 -0.024501763 0.001575874 -0.0014612182 0.016746365
-0.011991611 -0.0011403768 -0.0055429004 -0.010424688 -0.021358475 0.008963677 0.010919967 -0.014803715

cnn_block.5.running_mean f4 [64]
00000000: 43b4 cfbd 2c35 f03c e58a 71bd 4825 0b3d
00000010: 5838 f93d 1c26 2fbd 1701 bfbd d455 a7bc
00000020: cd4d 8fbd 68c8 3ebc 157a 313e cfe1 2dbd
00000030: c8f2 5a3d 5c5f 033d 2d91 0d3d e2e9 d33d
00000040: 2e83 343e d2f4 2e3d a61a 443d a249 0fbd
00000050: 6264 ebbd 0bf5 f03d ac89 7abd 80d5 37bd
00000060: 551b 8abd 9fcd a2bd cf44 153d 96fc 2f3e
00000070: 650d ce3d efd3 7bbd 9878 283d 1256 813d
00000080: 340d 15be dd53 66bd 777b 0abd e080 39bd
00000090: e8b9 30bd a1a0 75bd 60da 663d 5ef7 53bd
000000a0: c51d babd 68cb 043e 4c37 9c3d ce3e a5b9
000000b0: 1c7f 623d 6bf1 bd3d 3206 0abc 1228 b03b
000000c0: 67ce 7d3d c349 d2ba 2385 233e 7a45 c33c
000000d0: cf17 513d 9aee 613d 3b10 003e 6631 443c
000000e0: fc2b 683d 9931 3cbd df0a a23d 5b2e 9f3c
000000f0: a7d2 853d b9e2 b33d 1068 ae3d d689 eb3c
-0.10141804 0.02932223 -0.05897035 0.0339711 0.1216895 -0.042760953 -0.0932638 -0.020426668
-0.06997261 -0.01164446 0.17331727 -0.042451676 0.05345419 0.032073364 0.03456228 0.10347344
0.17628166 0.042713948 0.047876976 -0.03498233 -0.11493756 0.11765488 -0.06116645 -0.044881344
-0.067434944 -0.07949375 0.036442574 0.17186198 0.100611486 -0.061481413 0.041130632 0.06315245
-0.14555818 -0.056232322 -0.03380915 -0.04528892 -0.043146044 -0.05996764 0.056360602 -0.05174958
-0.09087709 0.12968218 0.076277345 -0.00031518046 0.055297002 0.092745624 -0.008424329 0.0053758705
0.06196442 -0.0016043711 0.15968756 0.02383684 0.051048096 0.05515919 0.12506191 0.011974668
0.05668257 -0.045945738 0.0791223 0.019431284 0.06534319 0.08783478 0.08515942 0.028752249

cnn_block.5.running_var f4 [64]
00000000: 6df9 3e3e 79f9 4c3e c973 823e f5f8 183e
00000010: 91af 1c3f 565a a53d b8fb 4d3e 2755 253e
00000020: cde0 043e c282 bd3d 82dd 023f 4e43 a43e
00000030: 9332 273e eac9 013e 420b 0f3f 6469 9a3e
00000040: 3e22 e63d 1808 d53d 1b4d a43e f354 263f
00000050: 330f 403e 5185 423e 9580 893e 06e4 f53d
00000060: ea1b 263f f0e4 623e 878a 5f3d 6acf 233f
00000070: 9f80 883d 1845 aa3d 1197 8d3d f732 463e
00000080: 9aae 083e 72bd 0e3f 36de f73d 4d74 de3e
00000090: 7f79 e93e ba5a 6b3e b9a0 163f 3408 fc3d
000000a0: 7429 273e ec11 e83e 5241 963e d0d4 263e
000000b0: fc43 093e eb78 0a3e 4e62 833e ccaa f23e
000000c0: 29c2 b33e 3f47 763e d6a8 1c3f d7cf 553e
000000d0: d0c1 713e 6266 1b3e 4f89 273e ee78 2d3e
000000e0: c11c 513e 1ae3 e23d 2a63 723e 65c7 0c3e
000000f0: 3c2d cf3d 1e53 2f3e fecd 043f 1486 313e
0.18649836 0.20017041 0.25478962 0.1493872 0.61205393 0.08073871 0.20115554 0.16145764
0.1297638 0.09253456 0.51119244 0.320826 0.16327886 0.1267468 0.55876553 0.30158532
0.11237 0.104019344 0.32090077 0.6497337 0.18755798 0.18996169 0.26855913 0.12006383
0.64886343 0.22157645 0.05457547 0.63988364 0.066651575 0.0831396 0.06913579 0.19355379
0.13347855 0.5575782 0.1210293 0.43448105 0.45600507 0.22983828 0.58838993 0.12306252
0.16324407 0.45326173 0.2934671 0.16292119 0.1340484 0.13522689 0.25660938 0.47395933
0.3510907 0.24050616 0.61195123 0.20880066 0.2360909 0.15175775 0.16360973 0.16940662
0.20421125 0.110784724 0.2367064 0.13747938 0.1011605 0.1712155 0.5187682 0.17336303

fc.0.weight f4 [32, 64]
00000000: 3ca0 013d eea4 72bd 1fc5 8d3d 31c7 a83d
00000010: 340f 1f3d e542 1e3d 2517 18bc 89a7 56bc
00000020: abd7 123d d5a5 cfbd 2445 cc3c f507 e4bd
00000030: 0e0f 163d 8f32 283d 9b04 5e3d 1301 61bd
00000040: defd 5d3d 53ba 83bd 3811 afbd 11dc 023d
00000050: 9777 04be ab9a 21be 5370 9ebc 4ea1 8dbd
00000060: 9c9a 7a3d a1f4 0abe 9946 47bb 4728 98bd
00000070: 9aa7 8dba 7aa2 a5bd 5d99 e73d 4c35 ff3c
00000080: 8018 fb3d 6288 aa3d 2902 21be fe52 c63d
00000090: 4d88 84bd 4235 0cbe af86 8abc 8094 ddbb
000000a0: f9d6 013e 1ee7 f0bd a819 bf3c f0cd 0d3e
000000b0: a955 183e 6e57 6cbb af84 013e 99ce ae3d
000000c0: 9739 f9bd 3ca6 763d b1a1 423d b9e3 37bd
000000d0: 9da7 28be 748c 0dbe 5e1f 833d 1b53 3cbe
000000e0: 4600 92bd f694 1fbe 36a8 d73d 86de 1ebb
000000f0: 82ad 1abd 634f 903d 5fb3 9f3d f347 81bd
00000100: 4a11 eabd a1c4 013e d534 873d a00c 633e
00000110: 604f 123e 0373 7d3e 586d 03be b486 553d
00000120: c0f7 d63d 54bd afbd 9588 a4bd 2b94 82bb
00000130: a99f 103e f3e2 d63c b0af c3bc e269 03be
00000140: 2fd1 e2bd 137b 293b 998b ac3c cc3e acbd
00000150: ad04 e2bd 3810 1dbe 5ea3 85bd 4f9c c2bd
00000160: 6bc0 a5bd 1791 3c3d 9e5e fcbd 28e5 233e
00000170: cdde 52bd 8d21 aabb 0147 e9bc fd53 fc3c
00000180: 58e0 45bd d9da 9b3d 1b76 ca3c b81c 47bd
00000190: 14df 34bd 6a8f e23d 62c4 ec3c e0c2 9d3d
000001a0: 1410 dfbc 105d a03d 7c46 ebbd 7e0e 3abc
000001b0: dabf 153e 6afa 10be 3390 91bd 87a1 a3bd
000001c0: 6688 fbbd dc33 943d 3937 75bc a7c3 343d
000001d0: 3bd4 a13d eb36 15be 1ffd b4bd 7991 8b3c
000001e0: 5b30 b0bd a6e0 a9bd 26e5 c03c fddc 85bd
000001f0: b455 84bd a0c6 c2bd 272d 9b3d 6a54 8cbd
00000200: 31c0 9fbb 413c b7bd abee d33d ef9d b63c
00000210: 54e4 16bd b5ba abbd 9c4f f03d e6e9 bfbc
00000220: 3f52 073e 3d4e 223e b1b0 0fbd 8e2b cd3d
00000230: b0e8 febd 3350 943c 0bfb a7bd edfc 903d
00000240: f5bf ba3b 43e7 c03d 5502 9dbd 7fed 9dbc
00000250: df37 853d 5cc1 453c ce28 6fbd 4318 063e
00000260: 7f7b ec3d 56b8 d63d b04e c5bd c16e 223d
00000270: 7800 fe3c 6315 1d3d 4ed0 7e3d b882 c33d
00000280: c3a3 72bd 6bc3 b13d f3aa b63c ab55 473d
00000290: 98c6 47bc 78ad a63d 9fcc 43bd 397b 23bd
000002a0: 7eca a6bd 4a2a a83d ec72 d7bd 6ef4 c1bd
000002b0: 977e acbd e128 4fbd 31f9 54bd b12c d73d
000002c0: 4566 b23d ac94 31bd f6fa 0e3e 7661 4f3d
000002d0: 9efc ae3d 9dea ae3c 3843 293c 685a 173e
000002e0: 073f 243c f170 f6bb d062 bfbd 6aa1 c63d
000002f0: 7e04 89bd 433f 68bc 96dd 01be 9a69 a9bd
00000300: 5830 eebd c18c cebd fdf1 a23d f3a8 1abd
00000310: d2ec 113e aee1 693a e10e a93d adb2 b63c
00000320: 3b7f 55bc 8333 90bd 6350 853d f692 c43d
00000330: e127 8abd 4704 133d d84c 29bd 8ae4 a3bc
00000340: 3d0e 373d b113 a63d ed32 9c3b b6f6 633c
00000350: a2dc d43c 1f90 913d 6341 d93c df36 d7bc
00000360: b733 48bd 0873 8bbd 9cc5 77bc 1d1b cc3d
00000370: 0e0c eebd e9bf de3c f328 bcbc 158a e03c
00000380: f632 82bd 0ba4 bf3d 256b 603a cfc1 f6bb
00000390: cad7 ce3c 9ed6 f6bd b8dc 91bb a84d d83d
000003a0: 5ac6 b7bc 5511 8dbd 182a 8dbd 0097 2cbe
000003b0: a0c2 e6bd d6eb 973d 4932 8a3d c8d2 dabd
000003c0: ce44 d33d 7f3b e1bd 98b0 b3bd 7f86 8e3d
000003d0: 5e04 003e d7d0 e13d 119d 9fbd c2dd a03d
000003e0: d1be c23d 3fca 20bc 7dfb d43d 259a f6bd
000003f0: 131e cbbd 25b7 e53d a224 91bd e369 c53d
0.031646952 -0.05923932 0.069223635 0.08241118 0.03883286 0.038638014 -0.009282862 -0.013101467
0.03585021 -0.10139052 0.024935313 -0.1113433 0.03663545 0.04106384 0.05420361 -0.054932665
0.054197185 -0.06432023 -0.08548206 0.031948153 -0.12936245 -0.15781657 -0.01934067 -0.06915532
0.061182603 -0.13569881 -0.003040707 -0.07429557 -0.0010807395 -0.080876306 0.113085486 0.031153344
0.122605324 0.08326794 -0.1572348 0.09683798 -0.0647131 -0.13692191 -0.016909925 -0.0067620873
0.12679662 -0.11762832 0.023327664 0.1384809 0.14876427 -0.0036062854 0.12648271 0.08535499
-0.121691875 0.060217127 0.047517482 -0.044894908 -0.1647019 -0.1382311 0.06402467 -0.18391077
-0.071289584 -0.15584168 0.105301306 -0.002424152 -0.037763126 0.07046392 0.07797884 -0.06312551
-0.11429079 0.12672664 0.06601874 0.22172785 0.14288092 0.24750905 -0.1283468 0.052130416
0.10496473 -0.08581033 -0.080338635 -0.003984948 0.14123406 0.026231265 -0.023887485 -0.1283336
-0.11075055 0.0025860711 0.02106266 -0.08410415 -0.11036048 -0.15338218 -0.065253004 -0.0950247
-0.080933414 0.046036806 -0.12322734 0.16005385 -0.05148201 -0.005191988 -0.02847624 0.030801767
-0.048309654 0.07610101 0.02471452 -0.048611373 -0.044158056 0.1106251 0.028902236 0.07703185
-0.027229346 0.0783025 -0.11488053 -0.011355994 0.14623967 -0.14158025 -0.07107582 -0.07989793
-0.12281875 0.07236454 -0.014966779 0.0441319 0.07901808 -0.14571731 -0.088373415 0.01703714
-0.08602973 -0.082948014 0.023546766 -0.06536291 -0.06461659 -0.09510541 0.075769715 -0.06852038
-0.004875206 -0.089470394 0.10348257 0.022292105 -0.036838844 -0.08385221 0.11733934 -0.023426961
0.13214968 0.15850158 -0.035080615 0.10018073 -0.12446725 0.018104648 -0.082021795 0.07079492
0.0056991526 0.0941911 -0.076664604 -0.019278286 0.06504797 0.012070026 -0.058388524 0.13095193
0.115469925 0.10484378 -0.09634149 0.039656404 0.031006083 0.038350474 0.062210374 0.09546417
-0.059238207 0.08679851 0.022298312 0.048665684 -0.0121933445 0.08138555 -0.047802564 -0.039912436
-0.08144091 0.08211191 -0.105199665 -0.094704494 -0.084225826 -0.050576095 -0.05199546 0.10506571
0.087109126 -0.043354675 0.13962922 0.050630055 0.08544277 0.021352107 0.010330968 0.14780581
0.0100247925 -0.007520788 -0.09345019 0.09698756 -0.0669031 -0.014175239 -0.12682185 -0.08272095
-0.116303146 -0.100854404 0.07956312 -0.03775878 0.14250496 0.00089218735 0.08254791 0.022301996
-0.013030822 -0.07041075 0.06509473 0.09598343 -0.067458875 0.03589275 -0.04133305 -0.020006437
0.044691313 0.081092246 0.004766813 0.013913801 0.025984112 0.07107567 0.026520437 -0.026271282
-0.048877444 -0.0680905 -0.015122797 0.09966109 -0.11623393 0.02719112 -0.022968745 0.027409593
-0.06357376 0.093574606 0.00085608877 -0.007530428 0.02524938 -0.12052654 -0.0044513606 0.10561687
-0.022433449 -0.068880714 -0.06892794 -0.16854477 -0.112675905 0.07418029 0.067478724 -0.106847346
0.10315858 -0.10997676 -0.08773917 0.06959247 0.12501666 0.11026161 -0.0779363 0.07854797
0.095090516 -0.009813844 0.1039953 -0.120411195 -0.099178456 0.11216573 -0.07087065 0.09639337

fc.0.bias f4 [32]
00000000: 1033 9ebd 41b0 f0bd e4e8 f4bd 4795 fbbd
00000010: 0348 07bd 1050 a7bd eb77 23bd 43dd 52bd
00000020: ce4d 2d3d 9ffe 863d 4604 cdbc 34c6 f23d
00000030: 229d e7bd fb36 223d 1eb9 9e3d 8fe1 b83c
00000040: e3dc 1bbc 5738 4abd 746b acbd 6ebf ccbd
00000050: ae78 ac3c fcf7 8bbd c886 ba3d 67f8 2a3b
00000060: 1cc1 7d3d 22e7 e4bd fa8e ce3d 61a1 94bd
00000070: f7f5 f13d 2439 f13c 8cd2 ff3d aaa9 8b3d
-0.07724583 -0.11752368 -0.11958483 -0.12284332 -0.03302766 -0.081695676 -0.039909285 -0.051480543
0.04231053 0.06591534 -0.025026452 0.118542105 -0.113092676 0.039603215 0.07750152 0.022568492
-0.009513113 -0.049370136 -0.084189326 -0.0999745 0.021053638 -0.06834409 0.09107739 0.0026088
0.06195174 -0.111768976 0.10085864 -0.07257343 0.11814492 0.029446192 0.124913305 0.0681947

fc.1.weight f4 [32]
00000000: ec2e b33f f2d0 d33f 4733 893f e674 923f
00000010: 3dc9 b43f d0af 8b3f 4525 a83f 3ba9 863f
00000020: ec41 b43f 9d47 bf3f d5bb 893f 49e0 a33f
00000030: 411c 8a3f 412f a63f fa81 8d3f 4206 b33f
00000040: 0fa5 953f e9ee a83f e50d b73f e705 ac3f
00000050: 6d34 8d3f e960 b63f 4978 8d3f beb0 b23f
00000060: 6d98 b53f 374b a93f 8b06 9f3f 9b54 a03f
00000070: 6996 b83f d4fb ad3f 28d7 963f 46d7 b53f
1.3998694 1.654814 1.0718774 1.1441925 1.4123913 1.0913029 1.3136374 1.0520395
1.4082618 1.494373 1.0760447 1.2802821 1.0789872 1.2983171 1.1055291 1.3986285
1.1690997 1.319791 1.4301115 1.3439301 1.1031624 1.4248325 1.1052333 1.3960187
1.4187142 1.3226079 1.2423872 1.252582 1.4420902 1.3592477 1.178441 1.4206321

fc.1.bias f4 [32]
00000000: 0b4c a23e 2e5f d33e f433 323c 8b18 283d
00000010: 48c6 623e 2ddf b93d c83d 083e 72fd b23d
00000020: 4bb8 3a3e df1c 513e 73f0 8c3d cac1 3a3e
00000030: 36f0 aa3b c660 e53d 4920 aa3d 79a0 4a3e
00000040: 4955 8d3d 0e25 7c3e 7c09 323e 4b63 493e
00000050: 1c49 a33d 1481 313e 2784 c73d c5dc 203e
00000060: 1a11 723e 229a 593e 08f4 503e e8b5 323e
00000070: 32d1 803e 898f 4c3e 5ca3 ae3d 7263 a83e
0.3169864 0.41283554 0.010876644 0.04103903 0.22145951 0.090757705 0.13304818 0.08739747
0.18234365 0.2042117 0.068817995 0.18237987 0.0052166237 0.11200099 0.08306939 0.19787778
0.069010325 0.2462351 0.1738643 0.19666784 0.07972929 0.17334396 0.09742003 0.15709217
0.23639336 0.21250203 0.2040559 0.17452204 0.25159603 0.1997663 0.08527252 0.3288837

fc.1.running_mean f4 [32]
00000000: 1b82 01be fdfb 35be 7cfa 8bbd 35c9 d4bd
00000010: 11ec aebc eae1 62bd a0da ddbc 81a8 a4bd
00000020: 9705 c43d 3a26 6a3c aabd 05bd e6ef 243e
00000030: 21af 03be 4cf9 293d c2ed 5e3d 76f8 2c3d
00000040: 7bd7 cabc a1ee 13bd 9f4d 2bbe 9410 cabd
00000050: 8fb8 ce3c 52d1 9abd 2ca9 083d 840a 7bbc
00000060: cdc1 963d 9a39 0dbe f585 c23d 3bb2 8ebd
00000070: c02d d63d e991 8a3d 19d7 033e 3bcd c73d
-0.12647288 -0.17771907 -0.068348855 -0.1038994 -0.0213528 -0.05539123 -0.027081788 -0.08039952
0.09571379 0.0142913405 -0.03265158 0.16107139 -0.12859775 0.041497514 0.054425962 0.04222914
-0.024760952 -0.036116246 -0.16728829 -0.09866443 0.025234489 -0.07559456 0.03336446 -0.015322331
0.07361183 -0.13791505 0.094982065 -0.069675885 0.10457945 0.067661114 0.12875022 0.097559415

fc.1.running_var f4 [32]
00000000: ea5d 9c38 e062 5b39 d219 c338 53d1 f738
00000010: a352 aa38 7557 8f38 3420 de38 4549 8639
00000020: 1f07 b138 e3ca cd38 821c ab38 0a78 3639
00000030: a821 8d38 5a45 c138 51ce 8d38 8e11 f438
00000040: 1585 8038 06ac df38 fbbf b838 f5ba bd38
00000050: 5f3f 9c38 b034 ca38 c416 bb38 8ec9 c338
00000060: 3f65 a938 2fab d638 1f36 e038 19c4 9c38
00000070: e4b3 0439 912a 8f38 a17b 8c38 1749 2539
7.4561525e-05 0.00020922301 9.303134e-05 0.000118168675 8.121624e-05 6.8350615e-05 0.00010591783 0.00025613062
8.441344e-05 9.812952e-05 8.1592254e-05 0.0001740159 6.729673e-05 9.215875e-05 6.761833e-05 0.000116380965
6.128304e-05 0.000106655105 8.809563e-05 9.047046e-05 7.4504635e-05 9.6419244e-05 8.921095e-05 9.335867e-05
8.0774065e-05 0.000102362006 0.00010691233 7.475186e-05 0.00012655515 6.8267e-05 6.698748e-05 0.00015762854

fc.3.weight f4 [10, 32]
00000000: a594 30be 8b7c 023f 8f9f 2cbe a984 21be
00000010: 6567 15be 052f 633e 8484 213e c7c9 5bbd
00000020: d442 ea3e 8b19 56be a3ac d3bd 5bd9 8ebe
00000030: a4c0 6cbe 78bb 1fbd fea5 a03d fa8e 193f
00000040: db06 5dbe f030 b8bd fad6 d1be c1fb cd3e
00000050: d4a0 d4bd 3c65 90be 9f27 76be b172 6bbe
00000060: 69a4 473f 7b23 e13e 1252 40be 821f d0bd
00000070: fca6 27be b808 aebe 9242 6dbd 6806 84be
00000080: 6665 40be df60 35be d28f d1bb 2116 ec3e
00000090: b9ad babe d9a6 593e 77aa 4a3f a2ad 163d
000000a0: c9f4 a03d 0a9f 96be a5a7 27bd 15e8 013f
000000b0: 7305 c53e 4f21 96be 8c4f 15be 0698 83bd
000000c0: 987a 053f ee6a 83be a330 1cbe e9bb 78be
000000d0: daf0 1abe 1d28 36be a029 883e bb25 cbbd
000000e0: e2b9 48be 6b5c 94be efa1 32be 4573 e2bd
000000f0: 167a 85bd d58e 52bc 0e40 c4bd 2ae3 9e3d
00000100: d897 babe f79b c8be a13b 5f3c f23a 8b3d
00000110: b971 4dbe eb47 bebd 38f5 003d ac4c 963d
00000120: 3ba7 86be 8ede 58be fa84 8e3d cce1 953c
00000130: 5301 ac3d 01bb 433f a030 bbbd 17e3 48be
00000140: be32 10be 4c87 023f 556c 61be 9998 90be
00000150: bcf5 e13d e1fe efbc 99ff 863d 4278 54be
00000160: 0125 60be 4763 d3bd 74a0 c93e 0377 6abd
00000170: adfb 5d3f 4146 aebd 7534 50bd 06d3 333d
00000180: ad57 aabe 4300 8cbe 4dc5 bdbd c079 67be
00000190: 952c 35be 4a80 85be 4d68 f53c 9b1d 98bd
000001a0: 8190 8cbe 27b1 a53c 650a 43be fac5 5d3e
000001b0: c089 35bd bb42 68be bec7 34be caaf 88be
000001c0: 3a1c 923e 4c1d 293f 1d83 8d3e f640 41be
000001d0: 22dd c23e c12d 143e 0dcc e53d b0af 643f
000001e0: 1342 59bb d650 00be bf2e 723e 73dc 88be
000001f0: 3a8a a5be 2cf7 8d3d d862 4abd 1d32 1d3f
00000200: 2205 883e 05e5 883f 3f91 9abd 773d 2ebe
00000210: 2285 73bd 5856 e63d ad1b c1bd 2618 b63d
00000220: dc04 95be da7a 89be 9a30 7d3e 4eb9 73be
00000230: eafb f03d defb b9bd 1cbe e43e 486a 07be
00000240: dcf1 58bc 18bb 23bd 1296 fbbd 4bb3 49be
00000250: cceb 0dbe db7a 78be 7829 b53e 0f18 24be
00000260: 80f9 55be 80d1 84be c1da 49be 3b42 44be
00000270: 955e c23e a917 93be 0679 34be 496d 80be
00000280: c10d e93e 5c1c 2ebe 1763 4e3d dff2 bfbd
00000290: 33bb 4e3f 286c 22be 0ed2 71be 56f0 273d
000002a0: cab9 0bbe 05f7 81be 9dcd 6b3e 547b de3d
000002b0: de8e 3ebe a91f 08be dc1c 47be c0cd 7cbe
000002c0: e33d a23d bfc3 3e3e 3918 df3d 2aa3 13be
000002d0: f0f7 a53e ea9b 8cbe 8804 03be fef6 e0bc
000002e0: d58a 1cbd 1949 b2be ebc5 49be 422f d13e
000002f0: bfa8 92be abda 1ebd 5630 a43d 8930 313f
00000300: 3fb8 b9be 678a b53e b64d 5fbe c80c c23c
00000310: 77a8 ca3c 2b14 1bbc b5f4 6fbe adb7 8cbe
00000320: 51cd 4bbe a6f8 0bbe 217b 1a3e ccc8 26be
00000330: f2f5 1dbc bfed 2dbd 8710 37bd a6b0 75be
00000340: 395c 3bbe ff73 2f3d 2c1a 5a3f eeb3 2c3f
00000350: 9498 b5bd b0f4 97bd 0687 71bd c40f 8ebe
00000360: 01c7 64bd 153d 0c3f efed 9cbe 2a1e cb3e
00000370: fd55 253c ae7b b5be 046e c7bd 399e 91be
00000380: a0d7 8dbe 958b e5be c17d b23e e677 5c3d
00000390: 3eee 57be 3540 953d 0f25 28bd cf02 493e
000003a0: 5dbe 373f ef9f 59be 140e 2f3e 6ff2 0e3f
000003b0: dab2 04be 9f72 6ebd 86a8 2c3e f677 0cbe
000003c0: f3f0 bdbd 3bef 87b9 e5e9 b1bc bf38 5dbe
000003d0: b7b3 0fbe b814 88be d2b6 bfbd 8799 6abe
000003e0: 369d b7be 11f8 9dbc 1ec2 863d c9a0 02be
000003f0: b46d ddbd eb6b 3b3f 6c2d 053f 31cd 85bd
-0.17244203 0.5097129 -0.16857742 -0.15773262 -0.14590223 0.22185905 0.15773207 -0.053659227
0.4575411 -0.20908181 -0.10335662 -0.27900204 -0.23120362 -0.038997144 0.078441605 0.5998379
-0.21584646 -0.08993709 -0.40984327 0.40231135 -0.10382238 -0.28202236 -0.24038552 -0.2299297
0.77985245 0.43972382 -0.18781307 -0.1016226 -0.16372293 -0.33991027 -0.057924815 -0.25786138
-0.1878868 -0.17712735 -0.0063953185 0.46110633 -0.36460665 0.21255054 0.7916636 0.036786683
0.07859189 -0.29418212 -0.040931363 0.50744754 0.3848072 -0.29322287 -0.14581126 -0.064254805
0.5214019 -0.25667518 -0.15252928 -0.24290432 -0.1513094 -0.1778874 0.26594257 -0.09919306
-0.19602159 -0.2897676 -0.17444585 -0.11057142 -0.06517427 -0.012851437 -0.0958253 0.07758172
-0.36443973 -0.39181492 0.0136250565 0.06798352 -0.20062913 -0.09291061 0.03148386 0.07338843
-0.26299462 -0.21178648 0.06958957 0.018296145 0.0839869 0.7645722 -0.09140134 -0.19617878
-0.14081857 0.50987697 -0.22013982 -0.28241423 0.11033198 -0.02929634 0.0659172 -0.20749
-0.21889116 -0.1032167 0.3938023 -0.057242405 0.8671215 -0.085094936 -0.050831277 0.04390242
-0.33270016 -0.2734395 -0.09266148 -0.22605038 -0.17692788 -0.2607444 0.029956961 -0.07427522
-0.27453998 0.020226074 -0.19046934 0.21657553 -0.04432082 -0.22681706 -0.1765432 -0.26696616
0.2853716 0.6606033 0.27639094 -0.18872437 0.38059336 0.14470579 0.1122056 0.8933058
-0.0033150956 -0.12530836 0.23650645 -0.2673069 -0.3233202 0.0693191 -0.04941067 0.6140459
0.26566416 1.0694891 -0.07547235 -0.17015634 -0.059453137 0.112469375 -0.09429107 0.08891325
-0.2910527 -0.2685154 0.24725571 -0.23801157 0.11766799 -0.09081243 0.44676292 -0.13224137
-0.0132412575 -0.03997335 -0.12284483 -0.19697301 -0.1385948 -0.24265616 0.353832 -0.16024803
-0.20895958 -0.25941086 -0.19712354 -0.1916589 0.37962785 -0.2872899 -0.17624292 -0.25083378
0.45518306 -0.17003006 0.05038747 -0.09372496 0.80754393 -0.15861571 -0.23615286 0.041000687
-0.13645092 -0.25383773 0.23027654 0.10863367 -0.18609187 -0.13293327 -0.19444603 -0.24687862
0.0792196 0.18629359 0.10893292 -0.14417711 0.32415724 -0.27462703 -0.12794697 -0.027461525
-0.038218338 -0.34821394 -0.19704406 0.40856367 -0.28644368 -0.038782757 0.08017032 0.69214684
-0.3627338 0.35457155 -0.21806988 0.023687735 0.024738533 -0.009465258 -0.23433192 -0.27483884
-0.1990254 -0.1366907 0.15086032 -0.16287535 -0.009641157 -0.04246306 -0.044693496 -0.23993167
-0.18296899 0.042835232 0.85196185 0.6746205 -0.088669926 -0.07419717 -0.05896666 -0.27746403
-0.055853847 0.54780704 -0.3065028 0.3967145 0.010091302 -0.35445923 -0.09737781 -0.28441027
-0.2770357 -0.44833055 0.34861568 0.05382528 -0.21086976 0.07287637 -0.041050967 0.19629978
0.71774846 -0.21252416 0.17095214 0.55838674 -0.12958851 -0.05821478 0.16861162 -0.13717636
-0.09274473 -0.00025927447 -0.021717975 -0.21603678 -0.140334 -0.26578307 -0.09361042 -0.22910129
-0.3586213 -0.019283326 0.06579994 -0.12756647 -0.1081194 0.73211545 0.52022433 -0.06533278

fc.3.bias f4 [10]
00000000: 3a4e c8bb ef95 77bc 5ab5 0a3e 5c74 c7bc
00000010: 5f28 543e 6516 7f3d 84b9 113c 7c39 5dbe
00000020: fef6 5cbe 55d5 c7bd
-0.006112841 -0.015111431 0.13545743 -0.024347477 0.20718525 0.062277216 0.008894328 -0.2160396
-0.21578595 -0.09757487
