saved/cnn/sans_serif.pth (torch, 240453 bytes, 26 tensors)

conv1.0.weight f4 [32, 3, 5]
000000 ed 68 9a be 8c 79 d1 ba d8 52 6f bd 4e ea 84 3d
       -0.30158177 -0.0015981658 -0.058428615 0.064900026
000010 c2 cd 03 3e 49 b8 65 3e 20 52 1c be ed 5f 1b 3e
       0.12871459 0.2243358 -0.15265703 0.15173312
000020 28 b3 0e be 79 8c 7c 3e e5 14 00 3e 0c 41 67 be
       -0.1393553 0.24662961 0.1250797 -0.22583407
000030 0e 62 d6 3d 67 73 87 3c d4 b6 99 bd 93 dd c4 3e
       0.10467921 0.01653452 -0.07505575 0.38450298
000040 4f 31 4d 3e 96 76 af be 6f 4d 31 be 1b 15 a1 3c
       0.20038341 -0.3427016 -0.17314695 0.019663384
000050 91 da 7a 3e 3d 75 59 3e 38 ae 49 be c1 74 0c be
       0.24497439 0.21236129 -0.19695365 -0.13716413
000060 14 a7 ca 3b e2 e9 55 3e 65 2a 2d be 8c 4d 38 be
       0.006184468 0.2089 -0.16910703 -0.17998332
000070 a7 43 9a 3c 77 54 48 3c 4f 68 a3 3e 11 57 7d bd
       0.018831087 0.012227169 0.3191552 -0.06185061
000080 df 6d 9d bd be 6d 9b 3e fe f1 53 3d 40 43 80 be
       -0.07686972 0.30357164 0.051744454 -0.25051308
000090 3c e4 33 bd 4d f8 64 be 02 18 2e 3e 52 d6 f3 bd
       -0.043918833 -0.22360344 0.17001346 -0.11906113
0000a0 06 63 b2 bd 8e 7d e6 bd 49 ad 6d 3d 5d 07 a1 bc
       -0.087102935 -0.112544164 0.058026586 -0.019656831
0000b0 aa 72 0f be c0 95 87 3e 36 c7 7b 3d 31 d7 51 3d
       -0.14008585 0.26481438 0.06146928 0.051230613
0000c0 0a 5e 8f bd d8 62 1c be e5 36 7c 3e f2 6f a1 3c
       -0.070003584 -0.15272081 0.24630316 0.0197067
0000d0 6f c6 cd 3d c0 c3 b8 bd 0b e1 04 3e a0 3c a1 3d
       0.10047614 -0.09021711 0.12976472 0.078728914
0000e0 9d a1 25 be 18 3d 1b be ef 69 f4 3d c8 bc 79 bd
       -0.16174932 -0.15160024 0.11934268 -0.06097105
0000f0 66 c2 9b 3e 67 c9 98 3d 2b e0 4f be 11 75 9b 3d
       0.30421752 0.074602894 -0.20300357 0.07590688
000100 16 2f 54 3d 49 c5 4a be 66 23 eb bd 46 71 21 3e
       0.051802717 -0.19801821 -0.11481361 0.15765867
000110 20 7b 57 be a9 1b 46 be 22 26 f3 bd 89 ea 3d be
       -0.21043062 -0.19346489 -0.11872508 -0.185465
000120 98 66 11 be 67 e8 74 3e 0c bf 26 3e c3 bc 4a be
       -0.14199293 0.2391678 0.16283816 -0.1979857
000130 be be 5c 3e 97 eb 13 3e a8 47 84 bd 15 03 66 3e
       0.21557137 0.14445339 -0.0645898 0.22462113
000140 6a e1 7a be e4 06 28 be e6 f5 88 bd e1 2e 54 be
       -0.24500051 -0.16408879 -0.066875264 -0.20721008
000150 80 7c 2f be ac 16 8b 3d df 13 20 be 8b 25 c2 bd
       -0.17137337 0.06791434 -0.1563258 -0.09479817
000160 57 49 52 be b4 48 c0 bc b8 5d 57 be f0 05 04 3c
       -0.2053579 -0.023472168 -0.21031845 0.008058056
000170 f8 90 47 3d a1 4f 34 3e ad ad 96 3c 17 c1 1a 3e
       0.048722237 0.17608501 0.018393362 0.1511272
000180 ad 53 17 3e 95 5f 4b 3e 92 b3 97 bd 35 ff 08 be
       0.14778014 0.1986068 -0.07407297 -0.13378604
000190 9c 14 da bc 4f 03 de 3d 38 27 5d be 38 68 9e bd
       -0.026621155 0.10840475 -0.21596992 -0.07734722
0001a0 b2 dd a0 bd 90 4a 8d bc f7 54 84 be 9f 26 81 3e
       -0.07854785 -0.017247468 -0.25846073 0.25224778
0001b0 28 19 51 3e 81 2f 75 be 3e 4c 2e 3e d8 0d 50 bd
       0.20419753 -0.23943903 0.17021272 -0.050794452
0001c0 39 5f 7b bd a4 a7 9b bd cd 03 60 3e a5 f7 4c 3b
       -0.06137011 -0.07600334 0.2187645 0.0031275537
0001d0 f7 4b 8c 3d a9 06 60 3e f4 33 3d 3e 17 98 6a 3e
       0.06850427 0.2187754 0.1847685 0.2290958
0001e0 22 3f ac 3e 51 ac 2c 3e 0a 31 12 be 9a 21 30 3e
       0.33641917 0.16862608 -0.1427652 0.17200318
0001f0 af 87 32 be 1f d9 6b 3e 49 3d b4 be 58 c4 04 bd
       -0.17434572 0.23032044 -0.35203007 -0.03241381
000200 c0 ef 20 be d8 6d c9 bd 86 0e 11 3d e0 1f a5 3d
       -0.15716457 -0.09835404 0.03541424 0.0806272
000210 87 af d0 3d 17 8e 42 3e ae 21 ed bd aa 72 75 3e
       0.10189729 0.18999515 -0.115786895 0.23969522
000220 ef 6a 8e 3d f8 de c1 3d aa 3d a3 3c bc f4 f2 bc
       0.0695399 0.09466356 0.019926865 -0.029657714
000230 b8 e0 69 3e 15 40 7b 3e bd 47 11 bd fc 12 e0 3d
       0.2283963 0.24536164 -0.035468806 0.10941121
000240 d9 a0 6b 3d 36 12 7c 3e b9 93 b6 bd 4a 8a d7 bc
       0.057526443 0.24616322 -0.089148946 -0.026311059
000250 9e bf 9b bd 00 45 5a 3e 1a 2d ff 3d 6d 43 d3 bc
       -0.076049075 0.21315384 0.12459774 -0.025788987
000260 59 a9 6f be 5e 63 75 be 66 68 66 be 3c f0 b6 bd
       -0.23404445 -0.23963687 -0.22500762 -0.0893254
000270 88 3f b9 bd 7c b6 8d bd 60 8e 95 bd 50 a4 3b be
       -0.09045321 -0.06919572 -0.073025465 -0.18324399
000280 90 b7 99 bd 91 00 9f bd 91 56 58 3e 9b 5a 6e 3e
       -0.07505715 -0.0776378 0.21126772 0.2327675
000290 a4 aa 21 3e d1 42 6a be dc 72 87 be 2d 32 8f be
       0.1578775 -0.22877051 -0.26454818 -0.2796797
0002a0 f6 5f f5 3d 3f c9 0e 3e 3f a2 19 3e dc d6 2d 3e
       0.11981194 0.13943957 0.15003298 0.16976494
0002b0 31 10 85 3e 5a 44 ce bd 83 76 35 be e7 74 18 3d
       0.25988916 -0.10071631 -0.1772099 0.03722086
0002c0 34 09 b0 3d e8 36 11 3e bc d3 29 3e 1c 2a 75 3e
       0.08595505 0.14181101 0.16584677 0.23941845
0002d0 af d7 83 bd cb 23 a9 3e 26 24 49 bd 29 41 f8 bd
       -0.06437623 0.3303512 -0.04910674 -0.12121803
0002e0 91 50 d5 bd 37 7e 81 bc e9 69 b8 3e 7d 96 f6 be
       -0.104157574 -0.015807254 0.36018303 -0.48161688
0002f0 4e 41 20 be ff 59 10 3c d6 1b d8 3d 2f 3e 4f 3d
       -0.15649912 0.008810519 0.10552184 0.050596412
000300 df 93 bf 3d 9a 4b 28 3e b3 8d 96 bd 71 db 6a be
       0.09354376 0.1643509 -0.07351246 -0.22935273
000310 2d 30 93 be b3 57 3b 3e 8b 2a 16 3c ad 3c de bd
       -0.28747693 0.18295173 0.0091654165 -0.10851417
000320 cb 3f 09 be 8c 2d 46 3e 60 a6 6c 3e 3e b0 e6 3c
       -0.13403241 0.19353312 0.23110342 0.02816021
000330 71 98 08 3e b4 49 e0 bd 66 d7 8d bd 15 bc e2 bc
       0.13339402 -0.10951558 -0.069258496 -0.027677575
000340 fb 68 fa bc fe 42 3b be 02 8f 42 be 44 2a d6 3c
       -0.030567637 -0.18287274 -0.18999866 0.0261432
000350 32 33 0d 3e cd 1d 03 3e a0 01 95 3d 8b 6b 1c be
       0.1378906 0.12804337 0.072757006 -0.152754
000360 4c 31 7b be 6f bf 86 3e 81 23 85 3d 3f 42 3c 3e
       -0.24530524 0.26317927 0.065009125 0.18384646
000370 7a dc 1d bd af 3c 89 bd 20 dd 45 3e ad 86 7c be
       -0.03854034 -0.067010276 0.19322634 -0.2466075
000380 56 02 20 3e db f1 3b 3e 19 51 a8 3e 8d c4 eb 3d
       0.15625891 0.1835398 0.32874373 0.115120985
000390 a7 f4 62 be 8d 74 54 3e 9b cd a9 bd 19 ef 87 3c
       -0.2216364 0.20747586 -0.08291169 0.016593503
0003a0 06 a0 2d bd 04 7e 28 bc 9d 48 9d 3c db 65 c2 bd
       -0.04238894 -0.010283951 0.019199664 -0.09492084
0003b0 de d5 66 be 27 2d ea 3d c4 68 3f be 64 16 9a 3d
       -0.22542521 0.114343934 -0.18692309 0.07523802
0003c0 98 82 2d bd 4d fc 28 be c8 7f 03 3c 27 11 bd 3b
       -0.042360872 -0.16502495 0.008026071 0.005769867
0003d0 04 ab d5 bd a6 75 8a 3d 56 e3 02 3e b7 26 37 3e
       -0.10433009 0.06760721 0.12782034 0.17885862
0003e0 58 e8 b0 be ff 3b 20 be 2c e9 b5 3d ee f5 a0 bd
       -0.34552264 -0.15647887 0.08882365 -0.07859407
0003f0 9d 5f f5 3d d2 d5 24 3e 40 7a 67 be af 40 c3 3d
       0.119811274 0.16097191 -0.22605228 0.09533822

conv1.0.bias f4 [32]
000000 c2 ab 74 3d d8 f7 3a be 8d 34 61 bd 3e 51 a3 bc
       0.059734114 -0.18258607 -0.054981757 -0.0199362
000010 a1 28 30 3d 7a 30 f6 3c 20 2e 80 3d f9 65 50 3e
       0.043007497 0.030052412 0.06258798 0.203514
000020 c6 0c 40 be d6 60 39 be e7 a2 1b be d6 0a 27 3d
       -0.18754873 -0.18103346 -0.15198861 0.04078182
000030 bb dc 77 3e 5d 3f 3e 3e 09 c9 24 be 24 eb 5a be
       0.24205296 0.18578859 -0.16092314 -0.21378762
000040 e5 12 59 3e 47 d0 5b 3e be 37 75 be 72 6a 6d be
       0.21198614 0.2146617 -0.23947045 -0.23185137
000050 08 bd 10 be 4c 2b c4 3d ac e3 45 3e 3a 95 36 bb
       -0.1413461 0.09578571 0.19325131 -0.0027859942
000060 53 e2 da 3c 5c a3 35 bd f0 e2 68 be ef d9 92 3d
       0.026719248 -0.044345245 -0.2274282 0.07170474
000070 ea bb 14 be 9d 17 2e 3d 9b dd 1f 3e 11 f3 88 bd
       -0.14524809 0.042502988 0.1561188 -0.06686986

conv1.1.weight f4 [32]
000000 83 53 6e 3f e0 71 63 3f 06 3a 86 3f dd 0a 70 3f
       0.9309618 0.88845634 1.0486457 0.93766576
000010 89 0b 84 3f bf 98 7e 3f 66 57 7c 3f 23 81 68 3f
       1.031602 0.9945182 0.9857086 0.90822047
000020 54 63 89 3f e4 42 6e 3f e5 62 80 3f 6a 78 8b 3f
       1.0733438 0.93070817 1.003018 1.0896122
000030 3c d8 86 3f ad 47 87 3f b2 43 6a 3f aa 0d 75 3f
       1.053474 1.0568749 0.91509545 0.95723975
000040 e7 11 8a 3f 2f e8 77 3f 9d fb 87 3f 38 51 7d 3f
       1.0786713 0.9683866 1.0623661 0.98952055
000050 81 76 80 3f fb 6b 5e 3f 21 cd 80 3f 66 07 83 3f
       1.0036165 0.86883515 1.00626 1.0236633
000060 06 da 86 3f 05 86 84 3f f6 bc 8a 3f ba 06 82 3f
       1.0535285 1.03534 1.0838916 1.0158303
000070 a9 8b 86 3f ac 08 5c 3f a9 2b 74 3f 08 9b 89 3f
       1.0511371 0.8595073 0.9537912 1.0750437

conv1.1.bias f4 [32]
000000 1d dd 44 bd f4 f6 81 3c 91 6a e0 3c 4c 05 16 bd
       -0.048062433 0.015864827 0.027394565 -0.036626145
000010 06 a5 2f 3d 12 69 a5 ba 92 2d 5d bd d0 00 06 bd
       0.042881988 -0.0012619814 -0.053998537 -0.03271562
000020 64 62 0c 3d ef 8c 7e bd d1 c3 70 3b be bf 54 3c
       0.03427352 -0.062146123 0.003673781 0.012985168
000030 16 38 e7 3c 96 87 22 bd af 07 e1 bc c2 22 8d bc
       0.028224986 -0.039680086 -0.027469484 -0.017228488
000040 a1 01 85 3c e2 da d3 3b df 2f 00 3d 79 12 08 bd
       0.016236128 0.006465302 0.031295653 -0.033220742
000050 4f b4 07 3d e5 5e 63 bb 32 ac 8b 3c 51 0d 05 3c
       0.03313094 -0.0034694013 0.017049883 0.008120851
000060 20 e3 8c 3a ea ba 42 39 6f 69 5d 3c d3 18 78 bc
       0.0010748841 0.00018570913 0.013513907 -0.015142637
000070 6c a1 e7 3c 0f 2f b6 bc 95 30 6e bd d7 00 6e bc
       0.028275214 -0.022239236 -0.0581518 -0.014526567

conv1.1.running_mean f4 [32]
000000 ae 4a 40 40 34 6b 7f 40 94 25 1a bf 11 16 1a 41
       3.004558 3.9909182 -0.6021359 9.630387
000010 bc 3a a1 c0 ba 85 25 c1 83 2c b6 40 f4 b1 31 40
       -5.0384197 -10.345148 5.6929336 2.7764864
000020 7e f1 ca bf 8b a6 81 41 6a 84 87 c1 83 72 06 c0
       -1.5854948 16.20632 -16.939655 -2.1007392
000030 a4 21 8e c0 25 16 bb 3f c2 3d 6c 40 8c c2 db 40
       -4.4416065 1.4616133 3.6912694 6.8674984
000040 8d fe bb c0 4c ff 07 40 cb 3d 55 c0 85 9f ad 40
       -5.874823 2.124957 -3.3318965 5.4257226
000050 14 d4 8d c1 20 b8 a8 3e 38 ef 08 c0 0c 08 d2 c0
       -17.728554 0.32952976 -2.1396008 -6.5634823
000060 7a 1d ba c0 de 9b b2 c0 51 6b ae bf fc 79 f9 c0
       -5.816098 -5.5815268 -1.36265 -7.7961407
000070 90 ab 99 c0 04 2a 0e 3e 80 86 a5 40 f9 fe 47 be
       -4.8021927 0.13883215 5.1726685 -0.19530858

conv1.1.running_var f4 [32]
000000 a5 6c a3 44 6f 2f e6 44 b8 27 d0 44 27 32 8d 45
       1307.3951 1841.4823 1665.2412 4518.269
000010 47 d7 2e 45 0f f8 e7 45 b3 b7 0d 45 e5 1d 09 44
       2797.4548 7423.0073 2267.4812 548.4671
000020 20 08 09 45 a2 7d 43 46 71 79 59 46 ac 95 ff 44
       2192.5078 12511.408 13918.36 2044.6772
000030 04 80 01 45 db 89 fc 44 0c c4 c4 44 8d 80 3a 45
       2072.001 2020.308 1574.1265 2984.0344
000040 b3 03 06 45 64 d1 54 44 f5 f3 88 44 65 79 20 45
       2144.2312 851.2717 1095.6237 2567.5872
000050 b0 d5 60 46 05 ce 0f 44 3a d9 49 44 76 78 0a 45
       14389.422 575.21906 807.39417 2215.5288
000060 7c ce e5 44 ff f0 07 45 2e 30 a4 44 43 20 4f 45
       1838.4526 2175.0623 1313.5056 3314.0164
000070 c8 0c c7 44 a6 44 78 43 93 81 ac 44 2c 13 35 44
       1592.3994 248.26816 1380.0492 724.29956

conv2.0.weight f4 [64, 32, 5]
000000 f8 b3 0d bd 57 d0 f9 bc e3 07 d5 bd 8f 0d 5d 3c
       -0.03459546 -0.030494852 -0.10401895 0.013492002
000010 52 2a 34 bd 08 52 1d bd 18 a5 d9 bc 07 ea 5b 3c
       -0.043985672 -0.03840831 -0.02656798 0.013422496
000020 84 72 d0 3c 4f b6 f5 bc 62 19 0c 3d 06 48 21 3d
       0.02544523 -0.029994158 0.034203894 0.039375328
000030 58 fd c4 3c af c4 e2 3c a9 e4 f0 bc 75 ff 6e 3d
       0.024046585 0.027681677 -0.029405909 0.05834909
000040 3e 43 da 3d 08 35 22 3d 5f eb 0f bd 2f e8 cc 3b
       0.10657357 0.039601356 -0.035136577 0.0062532644
000050 09 30 ab 3c 99 cd a7 b9 62 02 16 3d b8 bb 65 3d
       0.020896928 -0.00032005904 0.036623366 0.056087226
000060 51 e9 aa 38 8b e0 04 bd 4a de 7a 3c 72 ce 32 3d
       8.14969e-05 -0.032440703 0.015311787 0.043653913
000070 2c 71 20 3a ac 9e 28 3c 57 33 97 bd c3 29 0e bb
       0.00061203795 0.010291737 -0.07382839 -0.0021692372
000080 45 c4 84 3a 3c 96 d0 bc c5 be 05 bc c8 ab cc bb
       0.0010129294 -0.025462262 -0.008163159 -0.006246064
000090 10 c5 a7 bd 5d 5a d7 bc fa 7a 61 bd f9 70 0d bd
       -0.081918836 -0.026288206 -0.05504892 -0.034531567
0000a0 75 73 79 3d 98 14 2d bd e5 91 ff bc 86 7b e3 3b
       0.060901124 -0.042255968 -0.031197498 0.0069422154
0000b0 60 69 a2 3c 2b 49 03 3e 72 d3 16 3e 73 17 60 3d
       0.019825637 0.1282088 0.14729097 0.054709863
0000c0 2c d7 f1 bc 89 89 19 3d c3 a8 f0 bc 92 fd 30 bd
       -0.029521547 0.03748468 -0.029377347 -0.043210573
0000d0 ef 92 a0 bd d3 f4 34 3d ad 69 60 3d 4f 7c 8f bc
       -0.07840525 0.044178795 0.05478828 -0.01751533
0000e0 0b 87 92 3d 24 91 a5 3c 8f 01 97 3d 28 d4 22 3d
       0.07154664 0.02021081 0.07373344 0.03975311
0000f0 df d4 08 bd 9a c9 ce bd dc c8 b4 bd 46 5a 27 bd
       -0.033406135 -0.10097046 -0.088273734 -0.040857576
000100 72 01 89 ba 0d 9a 92 3d 97 e2 16 bd d9 b3 f7 bd
       -0.0010452701 0.07158289 -0.036837187 -0.1209485
000110 69 cf 99 3d 73 d2 54 3d c7 06 44 3d b7 c2 07 be
       0.075102635 0.051958513 0.047858026 -0.13257872
000120 63 9e 77 bd ad 94 21 bd 4a b9 59 bc ee 02 16 3e
       -0.060453784 -0.03944843 -0.013288805 0.14649555
000130 02 78 e1 3d 96 62 be 3d 6e ad 25 bd e2 52 b8 bd
       0.11009218 0.092961475 -0.0404486 -0.09000184
000140 30 da 48 bd c0 eb 94 3d f0 99 bf 3d c3 91 54 3d
       -0.049036205 0.07271528 0.09355533 0.05189682
000150 5a 95 db 3d f1 35 8a 3d 0b a2 cb bc 3e a0 2e 3d
       0.10721846 0.0674857 -0.024857542 0.042633288
000160 41 64 1b 3d 36 8f a0 bc e5 a2 d8 3d ce 98 aa 3c
       0.037937406 -0.019599538 0.10577945 0.020824816
000170 0d 8b 88 bd d5 84 d7 3c 7e 74 f3 bc 34 85 cd 3d
       -0.06667147 0.026308456 -0.029718634 0.10035172
000180 a9 78 b8 3d b1 19 8b bc bf e8 d1 3b 8b b8 32 3d
       0.09007389 -0.016980024 0.0064059193 0.043633025
000190 09 79 ec 3c 20 5c bb bc 78 93 0d bd c9 73 31 3d
       0.028866308 -0.022871077 -0.034564465 0.043323312
0001a0 64 8d a8 bc f7 df 82 bd 4c 2b 2b bd 82 44 9e bc
       -0.020575233 -0.06390374 -0.041789338 -0.019319776
0001b0 2b a4 87 bd 70 e8 41 bd 2e 0f 41 3d 93 ac 87 bd
       -0.066231094 -0.04734081 0.047133617 -0.06624713
0001c0 01 ea db bc 87 8c 59 3b c4 9f 32 bd 7c 78 bb bd
       -0.02684498 0.0033195333 -0.043609396 -0.0915384
0001d0 df fc 9c 3a 57 3f 9e 3d 43 96 91 bc 4b de 92 3d
       0.0011977217 0.07726925 -0.017771846 0.07171305
0001e0 73 0b 41 3d 2c c5 61 3d c5 8b da 3d d2 5b a8 3d
       0.04713006 0.05511968 0.1067119 0.08220638
0001f0 1a 4a 4f 3d 51 01 65 bb d5 81 be 3c f3 d3 32 bc
       0.050607778 -0.0034943412 0.023255268 -0.01091479
000200 62 36 3a 3d 5a 17 20 3d 9f b6 be bb fe 3a b8 bd
       0.04546202 0.03908477 -0.00582011 -0.08995627
000210 d1 84 8f 3d e4 29 9d bd 01 95 1f bc 99 e8 e0 3c
       0.070077546 -0.07674006 -0.009740115 0.027454661
000220 c1 15 db bb 44 c4 03 bc 27 95 b2 ba 20 25 2c ba
       -0.006685943 -0.008042399 -0.0013624773 -0.00065668114
000230 f7 6b a8 bd 51 1a 88 bd a0 14 11 3d 0b 7e 37 bc
       -0.08223718 -0.066456445 0.03542006 -0.011199485
000240 bf a9 8a bc ca a2 e2 bd 27 2b 18 be 9f a9 94 3d
       -0.016926644 -0.11066206 -0.14860211 0.07258915
000250 0a 87 44 3d f5 3a 90 3d 35 e2 7b 3d bc de 9a bd
       0.047980346 0.07042495 0.061495025 -0.075620145
000260 6d 6c 4c 3c 03 d1 5f bd d1 8a 89 3d 0c 18 f9 bc
       0.012477023 -0.05464269 0.0671593 -0.030406974
000270 d7 ec fe bd e8 ab 1b 3d 58 2e 5f 3d db 1e 95 3c
       -0.12447517 0.03800574 0.054487556 0.01820319
000280 a8 53 91 3d 2a 42 9e 3c 1d 08 15 3d 51 1a 74 bd
       0.07096034 0.019318659 0.03638469 -0.05959541
000290 f4 ab 31 bd 01 8a a2 3d c7 bc 1d 3d 8d c2 4d bd
       -0.043376878 0.079364784 0.03851011 -0.050234366
0002a0 84 de 99 bd 71 f2 05 3d 10 f6 8b bc fe dd d9 3c
       -0.075131446 0.032701913 -0.017085105 0.026595112
0002b0 b1 46 9c bc eb ee 13 3d 79 ad a0 bd 4f 37 cf 3c
       -0.019076677 0.03611652 -0.07845587 0.025294928
0002c0 57 8f ce bc a6 50 5d 3c 88 10 68 bd 4a 36 52 3d
       -0.025214834 0.013507998 -0.05665639 0.051321305
0002d0 13 1e 8e 3d e6 a0 69 bd 7b 9d 0c bd dd 47 45 3d
       0.0693933 -0.05703821 -0.034329873 0.048164237
0002e0 90 62 99 bd f2 34 81 bd 48 54 1e bd 4a a9 d0 bb
       -0.074895024 -0.06308927 -0.038654596 -0.006367837
0002f0 88 91 8b 3d 52 da 42 3d 5d 19 20 3d 5c 3d 94 bd
       0.06814867 0.047571488 0.03908669 -0.07238266
000300 dc 12 46 3c 5a e9 a9 bc aa de 99 bd 80 3a c4 3d
       0.012089457 -0.020741154 -0.07513173 0.095814705
000310 b8 f6 54 bd 4d 02 22 3d 18 f8 94 bd 34 43 7c bd
       -0.0519931 0.039552975 -0.07273883 -0.061587527
000320 b3 13 80 3d 51 8d 39 bd 17 42 14 3d 36 71 ab bc
       0.06253757 -0.045300785 0.03619584 -0.020928007
000330 62 f1 af bc 89 d6 aa bd c7 3b a8 3c f0 16 7c bc
       -0.021477405 -0.083417006 0.020536317 -0.015386328
000340 a6 ff 95 bd 2c bf 19 3d 15 5a 52 bd 61 8f 24 bb
       -0.07324152 0.03753583 -0.05135544 -0.0025109875
000350 e6 d0 91 bc e2 5d 45 bd a6 f5 28 3d 71 75 94 3d
       -0.017799806 -0.048185237 0.041249894 0.07248963
000360 38 b6 16 bd 27 0d 83 3c f9 25 3b 3d 0d 62 8a 3d
       -0.03679487 0.015997482 0.04569051 0.06756983
000370 d8 29 43 3d 06 e2 6d bc cb d9 4d 3a 04 a2 09 bc
       0.047647327 -0.01451922 0.0007852583 -0.008400444
000380 ef 78 6c 3d e1 12 91 3d 78 8d 82 bc 06 7f 7c bc
       0.05773252 0.07083679 -0.015936598 -0.015411144
000390 d4 f4 9e 3d cf a6 33 3d 0e 11 bb bd fb 11 4b bb
       0.07761541 0.043860253 -0.09134112 -0.003098606
0003a0 00 c1 49 bc 53 7e 97 bc bf 64 24 3d 78 22 b9 3c
       -0.012314081 -0.018492853 0.04013514 0.022599444
0003b0 e8 54 ba 3c 56 2c 4e bd ff 9b 5f bd af 51 94 bd
       0.022745565 -0.05033525 -0.05459213 -0.072421424
0003c0 21 81 cc bd 68 be fe bc 14 e7 7b 3c 6b fa 8d bd
       -0.09985567 -0.031096652 0.015374918 -0.06932529
0003d0 56 40 e6 bc 32 4a 4d bc 16 e2 14 3d 17 d8 94 bd
       -0.02810685 -0.012529897 0.036348425 -0.07267778
0003e0 7c 3c c2 39 f5 49 2c 3c 76 0f 6a bd fe ab 86 3d
       0.00037047628 0.01051568 -0.05714365 0.06575774
0003f0 82 03 79 3d 62 ef 06 3d c4 28 1c bd 13 6f 99 bc
       0.06079436 0.032943137 -0.038124815 -0.018729722

conv2.0.bias f4 [64]
000000 a2 db bd 3c 33 8b a4 3c 13 21 17 3c 45 0b a5 3c
       0.023176018 0.020085907 0.009224194 0.020146975
000010 47 ec 91 bd ee 0a 90 bd 2a dd 94 3b 97 97 93 bd
       -0.071251445 -0.07033335 0.0045429664 -0.07206648
000020 fd b2 84 3d ed ad a0 bd fe ca 10 3c 36 4f b4 3b
       0.06479452 -0.07845674 0.00883746 0.0055026067
000030 de b7 91 3d b7 09 06 3d bc 3f 00 3d 3c a5 19 bc
       0.07115148 0.03272411 0.03131078 -0.009377774
000040 8d 7a 52 bd 22 38 03 3d 8f 94 7d 3d dd 12 bc bc
       -0.051386405 0.032035954 0.061909255 -0.022958213
000050 61 84 5c 3d 0b 23 43 bd c7 b4 90 3c 38 f3 00 3c
       0.053837184 -0.04764084 0.017664326 0.007870488
000060 3a 67 93 bd 5c d4 4b 3d a6 e3 18 bd c2 f9 99 3d
       -0.07197423 0.04976307 -0.037326477 0.07518341
000070 35 0d 67 3d 08 48 39 bd 43 cc 2d 3c 8f b6 64 3c
       0.05640908 -0.04523471 0.010607782 0.013959541
000080 b3 07 8a bd df c9 ce bc 77 b8 88 bc b8 d1 04 3d
       -0.0673975 -0.025242744 -0.016689522 0.032426566
000090 0b 06 9e bd ba 38 9a 3b c4 dd 9a 3d 5a ff 93 bd
       -0.07715996 0.0047064694 0.0756183 -0.07226439
0000a0 bc ed d0 3c 75 ef 30 bd ab f1 86 bd 3b f8 ba 3b
       0.025503986 -0.043197114 -0.06589063 0.005705861
0000b0 5f dd 8b 3d 27 d4 b7 bb a7 01 a9 bb 14 20 43 bd
       0.068293326 -0.0056100073 -0.0051576677 -0.047638014
0000c0 fd b1 46 bc 6d 09 8f 3d 91 69 15 3d d4 1a 85 3d
       -0.012127397 0.0698422 0.03647763 0.06499258
0000d0 99 d1 bf bb 65 0c 6a 3d 11 df 42 3c 52 b9 96 bd
       -0.0058538434 0.057140727 0.0118940035 -0.07359566
0000e0 c6 73 55 bd 7c 4d 9f bd 41 6d 64 bd f9 a4 21 3d
       -0.052112363 -0.07778451 -0.055768255 0.03946397
0000f0 32 02 72 3d 39 b7 0a 3d 6d 74 98 3d f1 b3 4c bd
       0.059084125 0.03386614 0.074440815 -0.049976293

conv2.1.weight f4 [64]
000000 2d 95 81 3f b8 38 80 3f 5b 46 85 3f de b2 73 3f
       1.012365 1.0017309 1.0412096 0.95194805
000010 11 39 83 3f 19 5f 71 3f 8e 0d 88 3f e3 15 82 3f
       1.025179 0.9428573 1.0629137 1.0162929
000020 e5 07 74 3f eb fa 81 3f 90 69 7f 3f c0 d1 76 3f
       0.95324546 1.0154699 0.9977045 0.96413803
000030 56 92 7c 3f be 42 82 3f 5f 09 80 3f 2a 21 83 3f
       0.9866079 1.0176618 1.000286 1.0244496
000040 16 87 81 3f 84 04 80 3f 01 4b 83 3f b0 55 80 3f
       1.011935 1.0001378 1.0257264 1.002615
000050 43 c8 7d 3f 73 4c 6d 3f 02 b7 74 3f ae 65 78 3f
       0.991337 0.9269478 0.9559175 0.9703015
000060 c7 2a 73 3f ed 09 81 3f 25 24 81 3f 9b b4 80 3f
       0.9498715 1.0081154 1.0089155 1.0055116
000070 30 df 70 3f 72 b8 89 3f 0d ff 84 3f 81 cf 68 3f
       0.9409056 1.0759413 1.0390335 0.90941626
000080 c4 22 86 3f 59 0d 80 3f a0 72 80 3f 37 ed 7b 3f
       1.047936 1.0004073 1.0034981 0.98408836
000090 d7 f8 88 3f 45 02 74 3f be c1 7f 3f 1a 7b 75 3f
       1.070094 0.95315963 0.99905 0.95890963
0000a0 ef 3e 7a 3f 1e a5 88 3f 96 76 81 3f 98 d5 74 3f
       0.9775228 1.067539 1.0114315 0.9563842
0000b0 21 c9 7d 3f 74 8a 75 3f b9 52 82 3f ed b0 75 3f
       0.99135023 0.9591439 1.0181495 0.9597309
0000c0 46 49 81 3f 81 c3 75 3f 01 6c 89 3f a7 e8 81 3f
       1.0100486 0.9600144 1.0736085 1.0149125
0000d0 60 73 76 3f 78 59 89 3f 5d f0 7c 3f 16 97 7d 3f
       0.962698 1.0730429 0.98804265 0.99058664
0000e0 27 09 84 3f f7 85 84 3f 14 e0 7f 3f 33 f5 71 3f
       1.0315293 1.0353383 0.9995129 0.9451477
0000f0 04 45 87 3f 81 9d 80 3f 39 f8 83 3f d2 6a 7d 3f
       1.0567937 1.0048066 1.0310127 0.9899112

conv2.1.bias f4 [64]
000000 12 94 11 3a a8 9e f3 3b bf dc 5f 3c d0 28 7c bc
       0.0005553375 0.007434685 0.01366347 -0.01539059
000010 4c 84 ed 3a 05 6f 01 bd 27 a8 bb b8 40 11 85 bb
       0.0018121093 -0.031600017 -8.948176e-05 -0.0040608943
000020 e5 84 88 3c e0 6c c4 bb 7d f9 f9 3b c3 a5 48 bc
       0.016664932 -0.005994424 0.0076286183 -0.012246552
000030 f1 3b 7e 3b 81 09 af ba 78 18 ac 3a 88 85 9e bc
       0.0038793052 -0.0013354273 0.0013129851 -0.019350782
000040 2d 87 ea 3b d2 e3 da 3b 7e 6f 2f 3c 7f da 31 bc
       0.0071572275 0.0066799903 0.010707734 -0.010855316
000050 bd 09 ba bb f3 4f a5 bc 60 8e 5c bc a8 c3 ac bc
       -0.0056774304 -0.020179724 -0.013461679 -0.02108939
000060 d9 36 db bb a0 d7 13 bb bb d2 1f 3c 71 12 d3 3b
       -0.006689888 -0.0022558942 0.009754832 0.0064414074
000070 48 df d8 bb 45 87 d3 3b e0 b3 89 3a 5a ce c5 bb
       -0.006618414 0.0064553344 0.0010505877 -0.006036562
000080 6a de d7 3b 4e e7 da 3b a0 93 06 3c 2e f6 85 bc
       0.006587793 0.0066804057 0.0082139075 -0.01635274
000090 ca f2 96 bc d0 4c 5c bc 4d d4 fa bb 6b 5b 8b 3b
       -0.018426318 -0.013446048 -0.0076547028 0.004252841
0000a0 e7 f9 17 bc c0 af 2e bc 60 5c 34 bc 46 a1 6a bc
       -0.00927589 -0.010662019 -0.011008352 -0.014320677
0000b0 95 52 b6 bb 78 f8 12 ba de ab cc 3b 7f 39 11 bc
       -0.0055640438 -0.0005606483 0.006246074 -0.008863806
0000c0 f9 fa f1 3a e9 0b ac bc d9 87 0e 3c 50 1e 10 3b
       0.0018461637 -0.021001773 0.008699381 0.0021990724
0000d0 de 35 8b bc 87 b1 54 3c 8b 61 8d bb f6 f3 8b bb
       -0.01699346 0.012981779 -0.0043146065 -0.004271026
0000e0 9a 98 47 bc 8d ff 03 ba cd 3a 0a bb 57 5f 1b 3c
       -0.012182379 -0.00050353335 -0.0021092177 0.00948318
0000f0 6e 6c 5b 3c 8d 8f 3f 3b fc 41 ca 3b 85 9c b0 3b
       0.013392551 0.002922985 0.0061724167 0.0053897523

conv2.1.running_mean f4 [64]
000000 00 33 0f 3e 49 b3 94 bc bd f3 b8 3c 09 e1 6a 3c
       0.13984299 -0.018151896 0.022577161 0.014335879
000010 13 1c e6 bd e5 31 89 3c a6 35 a0 bd 0b 86 43 bd
       -0.112358235 0.016747424 -0.078227326 -0.047735255
000020 6f 94 44 bd 92 28 62 be f9 31 a4 bc 63 35 64 bc
       -0.04799312 -0.22085789 -0.02004336 -0.013928744
000030 5b f2 73 bc 84 57 c8 3d 2c 21 d0 bb f9 b4 f0 bd
       -0.014889325 0.09782317 -0.0063516106 -0.11753268
000040 1a 03 0d be 1a e4 6d bd 58 0b 29 3d 72 5c 07 be
       -0.13770714 -0.058078863 0.041270584 -0.13218859
000050 8e bd 88 bd 6f fe 41 bd 06 f5 0c 3d 70 d6 96 3c
       -0.0667678 -0.047361787 0.03441336 0.018412799
000060 66 ba fa bd 6f 54 e8 3c fb 8d 5b bd 45 b9 94 3d
       -0.12242584 0.028360574 -0.0536022 0.072619
000070 bd 65 8c 3d 1d 6f 5e bd 31 79 9f bd ff ae 10 3e
       0.068553425 -0.054305185 -0.07786787 0.14129256
000080 f4 74 2d be da bd eb bd 4e 60 4a be e2 c8 14 3e
       -0.16939145 -0.11510821 -0.197633 0.14529756
000090 66 d3 78 bd 56 15 22 bd a5 09 69 bd 7b 25 4d bc
       -0.06074848 -0.03957113 -0.056893963 -0.012521143
0000a0 f8 26 9d 3d 6e b7 a2 bd 11 2a 21 3d 4c c3 2c bd
       0.07673448 -0.07945143 0.03934676 -0.042178437
0000b0 a4 ad 29 3d c2 c2 b2 bc ee c2 f9 bd 3c 3c 91 3d
       0.041425362 -0.021821383 -0.12195383 0.07091567
0000c0 a2 57 f3 bd 84 e4 63 3e da 57 3b bd 19 2f 82 3c
       -0.11881949 0.2225514 -0.04573808 0.015891599
0000d0 fd 23 31 3d 19 a8 d9 bd 2f ba b2 bd 8f bb 05 be
       0.04324721 -0.10627765 -0.08726918 -0.13059829
0000e0 7f cb 15 3d 3c 09 05 be 3b 6c 24 bd 73 a6 02 3e
       0.036571022 -0.12991804 -0.04014228 0.12758808
0000f0 df fb 14 bc c4 11 71 bd 74 bc 9b 3d 98 a2 2a be
       -0.009093254 -0.058854833 0.07604304 -0.16663587

conv2.1.running_var f4 [64]
000000 b2 0d 8c 3e 6b 9a b4 3e b5 db a5 3e 9a fb 22 3e
       0.273542 0.35274062 0.32394186 0.15916291
000010 a6 9e a3 3e 10 99 a3 3e 3a 1e ea 3e e6 76 a8 3e
       0.31956977 0.31952715 0.45726186 0.32903212
000020 00 f8 42 3e 9d aa b5 3e a0 cb ca 3e b7 d8 98 3e
       0.19039917 0.3548173 0.3960848 0.2985284
000030 b5 bc e5 3e 8b db 9d 3e d2 13 1b 3f 6e 11 96 3e
       0.44870535 0.3083156 0.6057712 0.29310173
000040 88 fe a7 3e ce 2a b0 3e ea c5 74 3e 95 04 ae 3e
       0.3281138 0.34407657 0.23903623 0.3398787
000050 e2 3b 8e 3e a9 f9 89 3e f7 6b 58 3e ae cb d8 3e
       0.27780062 0.26948288 0.21134935 0.42342895
000060 1a ba 3e 3e f6 0d 91 3e 14 29 3e 3f ee 17 9c 3e
       0.1862568 0.28330964 0.7428143 0.30487007
000070 b5 69 e2 3e 97 d7 f7 3e 36 11 b4 3e 5a 7a 5e 3e
       0.44221273 0.4840667 0.3516938 0.21726361
000080 4c f8 ec 3e f4 b1 3a 3f 5f 4d c8 3e 04 c2 20 3f
       0.46283185 0.72927785 0.3912153 0.62796044
000090 94 e2 ca 3e 63 c9 06 3e 5d 6b 51 3f dd 37 04 3f
       0.3962599 0.1316276 0.8180445 0.5164774
0000a0 d5 7e 51 3e f6 98 cf 3e 4f bc 9d 3e f0 5e 92 3e
       0.20458539 0.40546387 0.3080773 0.28588057
0000b0 01 6c a4 3e 63 e4 18 3e 58 d4 83 3e 22 15 ec 3e
       0.3211365 0.14930873 0.25747943 0.46109873
0000c0 56 c8 b3 3e a0 ed 1d 3f 81 cc aa 3e 64 12 01 3f
       0.35113782 0.6169071 0.3335915 0.50418687
0000d0 f5 cf 53 3e 80 5c ba 3e aa 0c 59 3e 06 a1 26 3e
       0.20684798 0.36398697 0.21196237 0.16272363
0000e0 19 18 a2 3e c5 69 ce 3e 4a f4 00 3f 4e 27 fb 3e
       0.3165901 0.4031507 0.50372756 0.49053425
0000f0 bd 71 e4 3e af 6f 1b 3e d6 55 9b 3e 3f ae 6b 3e
       0.44618025 0.15179323 0.30338925 0.23015688

conv3.0.weight f4 [128, 64, 5]
000000 d8 ad 7f 3d 69 9e 27 bc dc 7c a9 3c 67 3e 16 bc
       0.06242165 -0.010230639 0.02068942 -0.009170151
000010 e2 4d 83 bd 21 ed ce 3c bf ba 54 bd 8e d9 19 bc
       -0.06411339 0.025259556 -0.051935907 -0.009390248
000020 84 94 c7 3c 9f 79 61 bd 3d 25 0b bd 66 e5 d5 bc
       0.02436281 -0.055047628 -0.03397106 -0.026110362
000030 9a f8 5b bd 1f c5 e9 3c fc be c1 bc 50 f2 aa 3c
       -0.05370388 0.028536377 -0.023650639 0.020867497
000040 97 cd 26 3c 07 81 98 bc de 29 32 3d 7d 10 b7 bb
       0.010180852 -0.018616213 0.04349696 -0.0055866824
000050 86 41 dc bb ce 4a 43 bc 1d e4 f0 bc 65 6e 7a 3c
       -0.006721678 -0.01191969 -0.029405648 0.015285109
000060 86 4e 0a 3c 21 a6 2e 3d 48 08 26 3d 4c 47 c7 bc
       0.008441573 0.0426389 0.04053524 -0.02432599
000070 b8 8f 09 3d 33 5a 3b 3d 34 92 ce bb 89 b3 91 bc
       0.033584327 0.045740318 -0.00630405 -0.017785804
000080 41 03 fb 3b 77 25 4d 3d 0e a5 09 bd a1 84 9e 3c
       0.0076603 0.050084557 -0.033604674 0.019350352
000090 6b 13 96 3c e8 19 d1 3c 64 1c 5d 3d 13 68 32 bd
       0.018319806 0.025525048 0.053982154 -0.043556284
0000a0 db 7c 2b 3c 98 a0 62 3c 99 b4 11 3d ed 70 96 3c
       0.01046678 0.013832234 0.035572622 0.018364394
0000b0 8d 37 49 3d 86 2f 85 3c 14 66 93 3c bc cf 47 3d
       0.049125243 0.016258013 0.01799301 0.048782095
0000c0 e0 10 05 bd f9 57 bc bb 92 af 19 bd 65 be 27 3d
       -0.032486796 -0.005747792 -0.037520953 0.04095306
0000d0 16 f9 84 3c cc 3f 34 bd 56 4d e5 3c 02 95 7f bd
       0.016232055 -0.044006154 0.027990978 -0.062397964
0000e0 1b f6 1a 3d 24 9a bd bc e1 f1 73 bd 9b d4 57 bd
       0.03783236 -0.023144789 -0.059556846 -0.05269299
0000f0 c3 15 5d bd ae 9b a4 bc 80 44 78 3d 23 93 82 3c
       -0.05397583 -0.020093765 0.0606122 0.0159393
000100 c4 15 01 bc d2 45 4d 3d 0c 5d 10 3d 85 a9 54 39
       -0.0078787245 0.050115414 0.035244986 0.00020281046
000110 6e 56 03 bc 5d e8 d5 3b 48 cf 62 3d 67 8c 42 bc
       -0.008016212 0.006527944 0.05537346 -0.011874295
000120 cd ef c4 bc fe ea 38 3d 88 af 11 bd db 5e 5e 3d
       -0.024040127 0.04514598 -0.03556779 0.05428968
000130 f6 d7 3a bd fc 30 53 bd f6 f8 45 bc d6 96 e6 bc
       -0.045616113 -0.051560387 -0.012083283 -0.028148096
000140 e4 1b 98 bb be 78 6c bd 68 db a4 3b 54 31 b5 bb
       -0.0046419967 -0.057732336 0.005031038 -0.005529562
000150 91 61 06 bd da 5f 05 3d 23 03 a9 bc 21 4a 3f 3c
       -0.03280789 0.032562114 -0.020631379 0.011675389
000160 c1 1f 38 bd c3 b8 00 3d e9 f9 0d 3d 62 e4 82 bc
       -0.044952158 0.031426203 0.03466216 -0.015978042
000170 02 2d 2b bd e6 a2 d1 bc b5 d7 7b 3c 9f a4 7e 3d
       -0.04179097 -0.025590371 0.015371253 0.062168714
000180 e2 37 83 3c 09 11 46 bd b1 e5 dc 3c b0 11 28 3d
       0.016017858 -0.04835609 0.026964994 0.041032493
000190 a8 af 03 3d 1a d4 d5 3c ed b9 95 bc 98 b1 2c bd
       0.03214994 0.026102114 -0.018277133 -0.042161554
0001a0 e1 84 2e 3d 3a 35 55 3d 7f cf c8 bc 0c 1f 0e bd
       0.042607192 0.052052714 -0.024513004 -0.034697577
0001b0 46 9e 92 bb 3a c7 28 3d 2c 69 49 3d 99 60 82 3d
       -0.004474434 0.041205622 0.049172565 0.06366081
0001c0 f2 8d 10 bc 76 f6 0f 3d dd 60 35 bd 29 aa 12 3d
       -0.008822905 0.035147153 -0.04428183 0.03580681
0001d0 76 71 43 3c 4d de 86 bc 63 c1 94 bb c5 f0 09 3c
       0.011928907 -0.016463423 -0.004539655 0.00841922
0001e0 3c 5b 05 bb fb 80 83 3d 56 20 3e bd d1 73 27 3c
       -0.002034857 0.064210854 -0.046417557 0.010220484
0001f0 f5 ab 66 bd 08 ca be bc 54 6c 28 bc 79 19 54 bd
       -0.056316335 -0.023289695 -0.010279734 -0.051782105
000200 82 64 32 3d af fa 12 ba 83 20 91 3d ba 95 c7 bb
       0.043552883 -0.0005606813 0.07086279 -0.006090847
000210 16 98 12 3d a3 84 2d bd 3f 56 9b 3c fb 69 da 3c
       0.03578957 -0.04236282 0.018962024 0.026661864
000220 a6 bc 3e 3d 34 53 0b bd 1f ae 61 bc bb db 48 3d
       0.046566628 -0.034014896 -0.013774424 0.049037676
000230 f4 16 99 ba 95 9c d8 3a 2e f8 5b bd 17 5e c8 3a
       -0.0011679814 0.0016526157 -0.05370348 0.001528683
000240 fd e3 de bc ac fc 5d 3d 65 7f 78 3c 60 d1 f6 bc
       -0.027208323 0.054196045 0.015167092 -0.030129135
000250 20 15 23 3d 2b fb 05 bd 68 d4 ac bc f0 17 9b 3c
       0.03981507 -0.032710236 -0.021097377 0.018932313
000260 2a 73 3a bd a9 e2 3a bd 9c 64 01 3d a0 16 28 bd
       -0.045519985 -0.045626316 0.03159009 -0.041037202
000270 9b f0 45 3d 5c 36 02 3c 6a ef 62 bd e1 95 8e 3b
       0.048325162 0.007947531 -0.055404104 0.004351363
000280 b5 66 d9 3b 99 82 53 3d 76 b8 29 bb fa 0b be bc
       0.006634558 0.05163822 -0.00258973 -0.02319907
000290 0c 62 f5 bc 7a e1 15 3d b4 a9 d4 bc 77 da 3d 3d
       -0.029953979 0.036591984 -0.025959827 0.046350922
0002a0 c0 6b 12 bd c7 6a b5 bb 7f 45 87 3b c8 25 9c 3c
       -0.03574729 -0.0055364105 0.0041281576 0.019060984
0002b0 b0 5a 96 3c 99 c2 7b bc e2 64 eb bc 23 20 81 bd
       0.01835379 -0.01536622 -0.028734628 -0.06304958
0002c0 2e 34 f3 3c 9b 94 41 3d 89 0e 1f 3b ec 4c 5e bd
       0.029687967 0.04726086 0.0024270138 -0.054272577
0002d0 1b 64 1a 3d 51 d3 12 3c 45 4b ee bc fc 05 55 bd
       0.037693124 0.008961515 -0.029088626 -0.05200766
0002e0 af e6 34 3d 80 f8 00 3c c3 7f 0b bd c3 6f 87 bd
       0.04416531 0.007871747 -0.03405739 -0.06613114
0002f0 62 bf 90 3c b0 3e a1 3b d4 7b 23 bd fd f7 09 3d
       0.017669383 0.004920803 -0.039913014 0.033683766
000300 4f 5d 30 bd c2 7c f7 bc bb ee b5 bb 06 52 9e bb
       -0.043057736 -0.030210856 -0.0055521405 -0.0048315553
000310 d3 11 b8 3d ec 1d d4 bc 1c 2f 5c 3c ec b5 37 3c
       0.08987775 -0.025893174 0.013438966 0.011212807
000320 91 b5 1a 3d cf 97 23 3d c4 1d f2 bb e0 64 13 bc
       0.03777081 0.039939698 -0.0073888022 -0.008996218
000330 a6 84 4a 3d 20 9b 66 bd 3f b2 e3 3c 32 f0 0e 3c
       0.04944291 -0.056300282 0.027794955 0.008724259
000340 e1 9a 58 bd 88 b8 1d 3d 71 2f 34 3d 0d 55 0a b9
       -0.05288208 0.03850606 0.043990556 -0.0001319239
000350 4d d7 00 3c 8e 02 a3 3c 8c 53 2b 3d ec 82 a8 3c
       0.007863832 0.01989868 0.041827723 0.02057024
000360 87 c6 d5 39 ba bc a0 bc 84 76 95 bc 71 14 41 39
       0.0004077444 -0.019621242 -0.01824499 0.0001841353
000370 dc 9c 12 3d a9 9b 45 3d 24 21 06 3c b1 9c 64 bd
       0.035794124 0.048244152 0.008186612 -0.055813495
000380 04 fc c8 3c 45 e8 33 3c f8 72 c6 bc 37 d1 4f bd
       0.024534233 0.01098067 -0.024224743 -0.050736632
000390 89 42 fc bc 9f 0b 21 3d 9b cd 5c 3d 75 03 40 bc
       -0.030793445 0.039317723 0.05390702 -0.011719574
0003a0 dc 22 45 bd ec 29 f5 3c 91 96 44 bc ec cd d4 3b
       -0.048128948 0.029927216 -0.011998788 0.0064942744
0003b0 f2 51 75 bd b8 2d 10 bb 6e 5f a2 3c 08 6d f3 bc
       -0.059892602 -0.0021999907 0.019820895 -0.029715076
0003c0 d3 a3 ff bc 5d f5 5c bd d4 f8 5d 3a f6 b2 ae bc
       -0.031206047 -0.053944934 0.0008467559 -0.02132557
0003d0 2c 68 06 3c 7f ec 94 bc e1 7f 8e bc fe 00 8c bc
       0.008203547 -0.018179176 -0.017394962 -0.017090317
0003e0 a3 8c 34 bc 9c 4a d6 bc 74 a5 16 3d 67 e7 4d 3d
       -0.0110198585 -0.026158623 0.036778882 0.05026951
0003f0 35 6e 94 bc 34 60 af 3b 98 6b 3f bd 7d 28 11 3d
       -0.018118957 0.0053520445 -0.04673347 0.035439003

conv3.0.bias f4 [128]
000000 de 85 32 3d 93 0f 60 3d f8 73 83 3c 15 08 3d 3d
       0.043584697 0.054702353 0.01604651 0.046150286
000010 8b 4b 46 3d ef ac 19 bd 68 64 e9 bc ee 44 fa ba
       0.048411887 -0.037518438 -0.02849026 -0.0019094029
000020 89 08 1a 3d de 83 17 3c a3 82 4f bd 73 8a 0f bc
       0.037605796 0.009247748 -0.050661694 -0.008761036
000030 89 55 a3 bc c1 00 01 bd 1b a0 4c bd c7 f7 3e bd
       -0.019938247 -0.03149486 -0.049957376 -0.046623018
000040 fa c4 59 3c 2a 63 52 bc a6 51 b9 3c 7a ac 45 3d
       0.013291592 -0.012841025 0.02262194 0.04826019
000050 2d 50 1b 3d ec 04 a9 bb 92 cf 25 bd ef 85 3f bd
       0.03791826 -0.0051580574 -0.040481158 -0.04675859
000060 3a 0c 4d 3d 48 88 1d bd 63 56 0d 3d 84 c1 90 3b
       0.05006049 -0.038460046 0.034506213 0.0044176
000070 54 20 a2 bb 2c 28 0e bc 15 da 9f bc 5d 99 5c bd
       -0.0049477015 -0.00867657 -0.01951317 -0.053857196
000080 b8 14 0a 3d e7 49 4e 3d 75 7f d6 bc b4 3d 4f 3d
       0.033711165 0.050363448 -0.026183823 0.050595954
000090 09 19 9b bc c5 dd 5d 3d b8 c8 2b bd 36 b7 78 ba
       -0.018932836 0.054166574 -0.041939467 -0.000948775
0000a0 0c 6f b9 ba 6c 48 37 3d 49 46 60 bd e8 0b 37 3d
       -0.0014147474 0.0447468 -0.05475453 0.04468909
0000b0 fb 2d b7 3b 6e 87 56 bd 4d 6e e2 bc 29 d8 b2 ba
       0.005590198 -0.05237525 -0.027640486 -0.0013644743
0000c0 a9 a6 27 bd b9 a4 43 3d 56 25 28 3d 7f 8f 51 bd
       -0.040930424 0.047764514 0.04105123 -0.05116224
0000d0 f8 ad c7 3b b4 5a 58 bd 1d c9 24 3d 7b ab 48 3d
       0.0060937367 -0.052820876 0.04023086 0.04899166
0000e0 4e 26 05 3d 3e c4 23 bd f6 ce 2c bd fa cb 63 bb
       0.032507233 -0.039982073 -0.04218956 -0.003475903
0000f0 1e 9a bd 3c 80 dd d0 3c 0b 2f 1e bd 4f 52 24 bd
       0.023144778 0.025496244 -0.038619082 -0.040117558
000100 3b bd d0 bc e5 e4 78 3c e3 c8 6b ba d1 b6 04 bd
       -0.025480857 0.015191291 -0.0008994473 -0.03240091
000110 1b 7b 4c 3c 11 84 56 3d 85 a2 4a bd 93 1f b9 3c
       0.0124805225 0.052372042 -0.049471397 0.022598064
000120 c8 a1 a9 bb bb f8 c4 3c 2d 55 3d bc bf 3c 4c 3b
       -0.0051767565 0.024044385 -0.011555952 0.0031164137
000130 20 ae aa bc b4 65 45 3d b4 de 7e 3c ef 48 8e bc
       -0.020834982 0.048192695 0.015556026 -0.017368762
000140 2a 04 01 3d 54 79 57 3d 3e db 87 3b 5a 0f e8 bb
       0.03149811 0.052605942 0.0041460088 -0.007081908
000150 8f 23 36 bd d0 53 82 bb 3f c4 84 3c 55 2f 49 3d
       -0.044467505 -0.0039772764 0.016206859 0.049117405
000160 e8 0d 2d bd 3c 87 ea bc d1 51 77 3b 59 26 ec bc
       -0.04224959 -0.028628938 0.0037737975 -0.02882688
000170 bb 2a 0e bd 9f 9a 17 3d 32 2a 23 3c fc 98 0e 3c
       -0.03470872 0.037012693 0.009958791 0.0087034665
000180 8c 39 fa 3c a8 77 02 bd 59 65 64 3c ec 76 49 bd
       0.030545019 -0.031852394 0.013940179 -0.04918568
000190 5f 75 42 3d 04 73 17 3c 1d 6a dd bc de 19 11 3c
       0.047475215 0.00924373 -0.027028138 0.008856265
0001a0 78 52 a1 bc 02 59 2e 3c 4a 5d 00 3d 6f 25 30 bd
       -0.019692644 0.010641338 0.031338967 -0.04300445
0001b0 05 18 1e 3d fc 84 4e 3d 8f 88 85 3a 68 92 02 3d
       0.038597126 0.050419793 0.0010187792 0.031877905
0001c0 90 07 4f 3d ce f0 bb 3c 4a 6b 18 bd fa 97 4b 3c
       0.05054432 0.022941973 -0.037211694 0.012426371
0001d0 8b 8c 5a 3d fd 32 64 3d ca 56 e7 bc d2 31 58 3d
       0.05335669 0.05571269 -0.028239626 0.052781887
0001e0 6d 4c 79 bc 77 b1 77 bc 48 58 3f bc 04 28 41 3d
       -0.015215975 -0.0151179945 -0.011678763 0.047157302
0001f0 93 af 5d 3d 5e 0f 87 3b cf 21 47 3d 42 28 e3 3c
       0.05412252 0.004121705 0.048616227 0.027729157

conv3.1.weight f4 [128]
000000 33 9b 7e 3f 37 41 7b 3f 91 ba 7f 3f 37 c5 7e 3f
       0.99455565 0.98146385 0.9989405 0.99519676
000010 da 4d 81 3f 8c c2 7f 3f 5e c8 81 3f 29 7c 81 3f
       1.0101883 0.9990623 1.0139272 1.0116016
000020 3f 73 82 3f 26 02 80 3f ef 6d 81 3f 42 f0 7d 3f
       1.019142 1.0000656 1.0111674 0.9919473
000030 5a ad 80 3f 2c c6 7f 3f 5c e5 80 3f 53 a8 80 3f
       1.0052903 0.9991176 1.0069995 1.0051368
000040 2a 82 7d 3f 50 29 79 3f e5 5e 81 3f e5 24 81 3f
       0.9902674 0.9732866 1.0107085 1.0089384
000050 87 b2 7f 3f a8 7c 80 3f bf 72 7e 3f 0d 17 7c 3f
       0.99881786 1.0038042 0.9939384 0.9847267
000060 c6 60 80 3f 1e 1c 80 3f c5 9e 81 3f 0b de 7d 3f
       1.0029533 1.0008581 1.0126578 0.99166936
000070 c2 7c 80 3f 64 4a 7e 3f 86 27 80 3f ee a0 82 3f
       1.0038073 0.9933226 1.0012062 1.0205362
000080 9a 1e 80 3f 11 64 81 3f aa 60 80 3f 6d 2e 80 3f
       1.0009339 1.0108663 1.00295 1.0014168
000090 29 50 7e 3f de 13 80 3f 9d 17 82 3f c4 c1 80 3f
       0.99341065 1.0006063 1.0163456 1.0059133
0000a0 54 60 80 3f cb 5c 80 3f a9 1e 7e 3f 50 50 80 3f
       1.0029397 1.0028318 0.99265534 1.002451
0000b0 b5 74 7b 3f a7 56 7e 3f 18 28 80 3f 0b 6c 7c 3f
       0.98224956 0.9935097 1.0012236 0.9860236
0000c0 35 3f 80 3f ac a9 80 3f 8c 41 81 3f ac dc 7d 3f
       1.0019289 1.005178 1.0098128 0.99164844
0000d0 8d cf 7f 3f 7e f4 81 3f 25 1a 80 3f fc a8 81 3f
       0.9992607 1.0152738 1.0007979 1.0129695
0000e0 ad 9d 81 3f ac b2 7e 3f ac ec 7c 3f ef ab 81 3f
       1.0126244 0.9949138 0.9879863 1.0130595
0000f0 ba 4b 81 3f c9 1f 80 3f fa 9d 81 3f 2f 15 7d 3f
       1.0101235 1.00097 1.0126336 0.9886045
000100 e3 55 7c 3f c7 e4 81 3f 0b b3 7b 3f f7 2a 7f 3f
       0.9856855 1.0147942 0.9832007 0.99674934
000110 d4 99 7f 3f df 4f 80 3f d1 ca 7f 3f 66 4f 80 3f
       0.998441 1.0024375 0.9991885 1.002423
000120 9d 8c 82 3f ca a7 84 3f d1 ab 81 3f 00 b0 7e 3f
       1.0199162 1.0363705 1.0130559 0.99487305
000130 e2 06 83 3f cf c3 7b 3f a3 67 80 3f 23 a7 7d 3f
       1.0236475 0.98345655 1.0031627 0.99083155
000140 e1 21 7c 3f 49 45 7e 3f 14 a7 80 3f 12 35 7f 3f
       0.98489195 0.9932447 1.0050988 0.99690354
000150 84 ab 7a 3f df 88 80 3f d4 07 80 3f 10 34 80 3f
       0.9791796 1.004177 1.0002389 1.0015888
000160 86 c9 81 3f 98 14 80 3f 69 ae 80 3f 78 17 7e 3f
       1.0139625 1.0006285 1.0053226 0.9925456
000170 67 3f 7d 3f c0 4b 7f 3f 9d 9e 7e 3f 4d 7f 7d 3f
       0.9892487 0.9972496 0.99460775 0.9902237
000180 14 36 7c 3f dc a7 7b 3f 55 8c 7e 3f f7 a2 7d 3f
       0.98520017 0.9830301 0.9943288 0.9907679
000190 27 4c 7d 3f 9b 51 7d 3f e8 a9 80 3f db 0f 80 3f
       0.98944324 0.98952645 1.0051851 1.0004839
0001a0 ed cd 81 3f 30 26 80 3f c9 5e 81 3f 5e a9 7d 3f
       1.0140969 1.0011654 1.0107051 0.9908656
0001b0 b5 31 7e 3f 16 e7 7e 3f 9b bf 7c 3f e0 93 7e 3f
       0.99294597 0.9957136 0.98729867 0.9944439
0001c0 7d e1 7d 3f 82 bc 7f 3f 8c 94 7d 3f f1 6f 80 3f
       0.9917219 0.99897015 0.9905479 1.0034162
0001d0 20 3c 80 3f d8 e1 7f 3f 8c 9e 80 3f 03 0e 80 3f
       1.0018349 0.99953985 1.0048385 1.0004276
0001e0 69 91 81 3f bb 31 7e 3f f5 07 81 3f fd 3c 76 3f
       1.0122501 0.9929463 1.0080553 0.9618681
0001f0 0d 8b 81 3f 2f ae 7e 3f 44 0e 82 3f be 07 80 3f
       1.012056 0.99484533 1.0160604 1.0002363

conv3.1.bias f4 [128]
000000 d1 6e e7 37 87 32 70 ba 07 b0 ef 36 58 fa 11 bb
       2.7588949e-05 -0.00091628026 7.1432473e-06 -0.002227446
000010 fe cb f7 b0 b6 10 85 39 e9 4d 87 b9 cb 23 9e b6
       -1.8029593e-09 0.00025380187 -0.00025807254 -4.712934e-06
000020 36 e8 37 b7 1c 49 8f b7 e9 77 01 b7 fe 6c 18 38
       -1.0961716e-05 -1.7080973e-05 -7.716918e-06 3.634113e-05
000030 37 c8 a5 3b ef f2 cd af 44 7f 68 3b 15 4c 2c 30
       0.005059268 -3.7461897e-10 0.0035476247 6.2681355e-10
000040 87 92 ad 3a 8e 4a de 39 b1 62 ca b5 33 ec 1c b8
       0.0013242521 0.00042398687 -1.5078896e-06 -3.7413276e-05
000050 34 29 3b b0 5b b9 cd 2f 03 bc a9 39 8f dc 61 38
       -6.8088757e-10 3.7420986e-10 0.00032374272 5.384959e-05
000060 4f df c1 bb 52 0c a0 30 76 c7 d1 b7 8c 0c 6c ba
       -0.005916513 1.1645034e-09 -2.5007623e-05 -0.0009004555
000070 b0 4b dd b6 83 1a 4e 3b df e0 44 af a7 ee 06 b0
       -6.5951244e-06 0.0031448908 -1.7905986e-10 -4.908806e-10
000080 fe 26 d4 b0 4e fc 12 3a 10 12 11 31 7b 9c ba b0
       -1.5436112e-09 0.00056070543 2.1110544e-09 -1.3577756e-09
000090 34 27 99 38 db da 90 30 33 96 6c b8 74 80 09 b8
       7.302911e-05 1.0539581e-09 -5.640667e-05 -3.2782977e-05
0000a0 07 0d 06 bb 5e dc e2 ba 91 0f 7f b8 11 6f ef ad
       -0.0020454542 -0.0017308106 -6.0811235e-05 -2.7220478e-11
0000b0 e6 ed 9b bb 61 24 3c bb 80 48 cc ae 62 4f 26 39
       -0.0047585843 -0.0028708207 -9.2897245e-11 0.00015860566
0000c0 cd fe e9 af 70 6c 3b b0 8a c8 3a af 03 75 fe 36
       -4.25635e-10 -6.81843e-10 -1.6987847e-10 7.583412e-06
0000d0 f2 50 fd b7 0a b0 6c bc 9c 13 4d b7 f2 be 17 37
       -3.0197643e-05 -0.014446268 -1.2223518e-05 9.044759e-06
0000e0 5c 62 74 2e d2 cf 5b 39 4d 30 74 3a 7f 97 cc 39
       5.5566537e-11 0.00020962887 0.00093150587 0.00039022785
0000f0 9d 1c f6 b0 e9 67 3f ad f1 d8 52 b8 f6 a3 77 3a
       -1.7906988e-09 -1.0880166e-11 -5.0269944e-05 0.00094467343
000100 93 d2 b7 3a f8 69 14 b7 20 ab fb 37 a0 49 f6 ba
       0.0014024548 -8.84616e-06 3.0001218e-05 -0.0018790253
000110 22 92 9d 2e b1 b1 a3 2d a8 f4 00 ae 42 39 da 37
       7.165492e-11 1.8609865e-11 -2.932113e-11 2.6014288e-05
000120 70 4e c4 ba 77 3d 61 39 6d 3d 62 30 76 0c 44 ba
       -0.001497699 0.0002148057 8.230561e-10 -0.00074786635
000130 09 a6 a6 ba 40 f8 ab bb a7 b4 3b b0 49 f6 69 37
       -0.0012714277 -0.0052480996 -6.8286926e-10 1.3945225e-05
000140 b0 54 79 39 3f 48 ea bb 45 82 41 b8 68 d3 16 ba
       0.00023778039 -0.0071497257 -4.613611e-05 -0.0005753548
000150 eb 92 6f ba 66 ea 10 b7 c9 2b dd b0 9a cf f2 b8
       -0.0009139019 -8.637644e-06 -1.6092311e-09 -0.00011578128
000160 b5 68 06 b8 d8 bf 9a ae 4e 65 e9 34 cc 34 f6 b9
       -3.2045606e-05 -7.0371875e-11 4.347334e-07 -0.00046960113
000170 a9 a4 c6 bb 50 76 63 ba 83 79 00 2f 6f f8 14 39
       -0.0060621095 -0.0008676993 1.1684702e-10 0.00014206929
000180 0f 58 b9 bb 23 7b 14 bb a3 cd 50 39 d7 55 df b6
       -0.0056562494 -0.0022656403 0.00019913031 -6.655911e-06
000190 c6 65 fa 37 5c 2e 15 3b 4a 3b 88 b8 90 9f e4 2e
       2.9849714e-05 0.0022763228 -6.496029e-05 1.03965836e-10
0001a0 09 a7 21 3a 06 ad 06 31 2c 99 c9 30 ea 0e ba 3a
       0.0006166553 1.9597919e-09 1.4668209e-09 0.0014195119
0001b0 aa 83 63 ba 57 e1 a7 30 bc 20 b4 39 fa 64 49 38
       -0.0008678982 1.2214895e-09 0.00034356664 4.8016176e-05
0001c0 61 04 06 bb 8a 79 09 b6 b7 41 2c ba 7c 0c 6b b8
       -0.0020449387 -2.0485336e-06 -0.00065710716 -5.6039993e-05
0001d0 a0 cd a8 af 01 50 7f b0 81 38 e5 bb be 1b 7f bb
       -3.0705127e-10 -9.288215e-10 -0.006995261 -0.0038926448
0001e0 b2 46 0e b1 ac 8c 16 bc 9b 8b e7 36 83 8e 51 bb
       -2.0703905e-09 -0.009188812 6.9005887e-06 -0.0031975813
0001f0 d0 f7 95 39 3b 63 03 30 cd ed 56 30 2e 9c 2e af
       0.0002860413 4.779854e-10 7.819068e-10 -1.5880694e-10

conv3.1.running_mean f4 [128]
000000 82 30 92 3c 1a 77 fe 3d ad 40 12 3e 2a bd ae 3d
       0.017845396 0.124250606 0.14282484 0.08532174
000010 f9 2e cb bc 93 c8 a8 3c 8b 1b 38 be b8 53 d7 bc
       -0.024802672 0.020603454 -0.17979257 -0.026285037
000020 3f 5b 4c 3d 49 b8 9d 3d 53 17 76 3c 4e 58 18 3d
       0.049891707 0.07701165 0.015020209 0.03719359
000030 70 b7 81 3d 0b a4 e0 bd a9 dc 06 bd 1b 3f cd bd
       0.06333816 -0.10968789 -0.03292528 -0.10021802
000040 b2 fe 9a 3d 8f b6 21 bd 25 9a 15 3d 8c 82 90 3d
       0.075681105 -0.039480742 0.036523957 0.0705615
000050 cf aa 9e bd ef b8 00 bd 8e 81 49 bd c4 fe f9 bc
       -0.07747423 -0.031426366 -0.04919582 -0.03051699
000060 9f 20 6f 3d d5 d7 20 be 85 bb 6d 3d 0d 7d 5b bc
       0.05838072 -0.15707333 0.05804016 -0.013396514
000070 4c b7 87 bc 3d 7c 9c 3b 36 c4 63 bd 9b ac 7d be
       -0.016566895 0.0047755525 -0.055607043 -0.24772875
000080 38 4a c6 bd 8f 31 c8 3d 4a 66 7c bd f5 6e 3a 3a
       -0.09682125 0.097750776 -0.061620988 0.0007111871
000090 b7 a5 d6 bd 5c 0f 01 bd ff 49 7b bc ae b1 72 3d
       -0.10480826 -0.03150879 -0.015337466 0.05925148
0000a0 ef de b6 bd 3f ea f6 3d ac 59 3c bd f6 e0 33 bd
       -0.0892924 0.12056398 -0.045983955 -0.04391571
0000b0 ae 98 98 bd 28 92 3e be 2d 05 e0 3b 77 d2 95 bd
       -0.07450996 -0.18610442 0.0068365545 -0.073155336
0000c0 03 97 03 be a4 10 08 3d e7 9a f6 bd d4 2b 5f bc
       -0.12850575 0.033218995 -0.12041264 -0.013621289
0000d0 9d 53 f5 bc 6b ca c3 3b f4 71 91 3d d6 68 07 3d
       -0.029947096 0.005975058 0.07101813 0.033058964
0000e0 fd d1 61 bd 06 3b 58 bd 01 68 c4 b9 86 eb 3a 3d
       -0.0551319 -0.052790664 -0.00037461522 0.04563477
0000f0 ce 54 8b bd 33 d5 85 bd 40 a9 ba bd 8d 84 06 3d
       -0.068032846 -0.06534805 -0.09114313 0.032841254
000100 46 83 9c 3a 8a c1 00 3e c3 a4 56 3d cd 21 1f be
       0.0011940978 0.1257383 0.052403223 -0.15540238
000110 86 02 ab 3d 63 8c 9c 3d 43 ca ae bd 72 4e c6 3d
       0.08350091 0.07643964 -0.08534672 0.09682931
000120 6f 76 12 3d b7 c5 e5 3c b2 cd 3b 3a 22 10 0e 3e
       0.03575748 0.02804838 0.0007164135 0.13873342
000130 ac 81 57 bd 68 4d 48 bd c5 60 46 bd 76 33 16 3d
       -0.0526139 -0.048901945 -0.04843213 0.03667017
000140 e9 8e ee 3b 46 d3 96 3d c7 ba 65 3d 64 bb 2b 3d
       0.00728022 0.07364516 0.056086328 0.041926757
000150 8e 48 50 bd 94 1e 7f bd 6b 20 7f bd df 96 85 3e
       -0.050850444 -0.06228502 -0.062286776 0.26091668
000160 96 c3 0f bd 19 33 45 be c3 d9 5d bd c2 5a 09 be
       -0.035098635 -0.19257773 -0.054162752 -0.13413528
000170 6c db b0 3d 1f 14 2d 3e 44 cf 3e 3e c1 be e0 bb
       0.086356014 0.16902207 0.18633753 -0.006858677
000180 57 85 ea bd 8e 16 6a 3c 3a ce 02 3e 44 c3 ea bd
       -0.11451214 0.014287604 0.12773982 -0.11463025
000190 db 10 0c 3e f2 82 04 bc 32 f9 ed bc 3e 42 b0 bd
       0.13678305 -0.00808786 -0.02904949 -0.08606385
0001a0 13 10 6a bd 77 4e b4 bd 04 64 49 3d b1 46 40 3b
       -0.057144236 -0.088040285 0.049167648 0.002933901
0001b0 b9 5a 42 3d e2 c9 b9 bc 20 26 d0 3a 76 31 33 3e
       0.0474498 -0.022679273 0.0015880503 0.17499337
0001c0 54 6b 44 3d 83 cc a2 bd 4d 23 a6 bd 56 86 36 3d
       0.04795392 -0.07949164 -0.08112202 0.044561706
0001d0 1c f9 1e 3b c0 07 0a bd f2 51 93 bd 59 1c b6 3d
       0.0024257367 -0.033698797 -0.07193364 0.08892126
0001e0 b6 e1 f6 bd 7f f0 0b bd a5 74 db 3d 53 e6 0e bd
       -0.1205477 -0.0341649 0.107156076 -0.034887623
0001f0 cc 4b f3 3c a0 b5 80 3c d9 ff 8f 3d 32 bc 88 bd
       0.029699229 0.015711606 0.07031221 -0.066765204
