saved/cnn/sans_serif_robust.pth (torch, 239877 bytes, 26 tensors)

conv1.0.weight f4 [32, 3, 5]
00000000: 6157 2cbe eaa1 8abd dd98 87bd e7de c7bd
00000010: f259 443e d3e8 a73e e28a 21be 915a bebd
00000020: eb36 c73b 8695 53be c979 703e 053e 373e
00000030: cb46 6dbe 0234 a33c a897 233e 1543 923e
00000040: e677 083e 9b8a 733e a261 3c3e f08b 06bd
00000050: 0d45 8fbe 30d6 62be f040 113d 30ce 49be
00000060: 5c92 3fbd cb10 fabd 95c2 763e 4e8c 96bd
00000070: ada3 21bb 49fd 373e 9e99 36bb 84e0 63be
00000080: bc02 b9bd 1953 fabd b4f3 94bd 2487 38bd
00000090: 8b42 77bd 9364 9d3d 4cf6 10bd 3e1a c7bd
000000a0: f5cb 3fbe e9d3 f33d 27b6 143e bef5 efbd
000000b0: eec0 74be 587f 853e 81e3 933e d77e c8bd
000000c0: b261 4f3e 6b4e 6ebc 17e3 39be 8396 08be
000000d0: 3e28 d53d d921 66be 992e 103e ea85 3dbe
000000e0: b36a 603e 4cab 90bc 6e1b 9cbd 611f 68be
000000f0: 2d79 913e ea98 1e3e 3ec4 52be 3c22 f7bd
00000100: ea39 23be 0112 88bd 2141 57be a0d1 29be
00000110: 65c5 1ebe 36a3 8c3e fcb0 6d3d df0c 31be
00000120: f4c2 7bbe 5a64 e9bb 1619 c23d 7d84 93bc
00000130: ae6f 66be c3c8 80be 5481 1ebe 9c39 73be
00000140: f455 7bbe 298b f03c 03f0 64bd fb27 673d
00000150: 70d0 843d e406 4cbe dcef 763d 739d 4e3e
00000160: 079d c63d ca37 a63d 8c86 c5be a155 9b3e
00000170: fff6 8c3e 037c d9be 0025 3e3e ab7b 51bc
00000180: d821 253e 36b3 d7bc 0723 5bbe 8f38 223e
00000190: bf2e 403e 58a1 ffbd c08f 52be 9807 84be
000001a0: 78eb 1c3e d20f 63bd feeb 793e face 4fbe
000001b0: a8b2 64be 2afe d23d 094b 043e ce9e 4dbe
000001c0: 0513 78bd 805f 0f3e b1a1 78be 45ba ef3d
000001d0: b881 833d ff77 6abe 1489 aa3c 35a1 13be
000001e0: 2bd4 aabc 89e1 4c3e 9afe 81be d253 4cbe
000001f0: e675 bd3e 7b85 523e 8752 2bbe e065 5b3d
00000200: 1630 be3d 4ca1 52be b53a 6a3e 3154 bbbb
00000210: 64b5 b93d 13f4 d53d 7b3e 41be 466e 97bc
00000220: 020a 263d 68d8 b43d d42e 6ebe d0b1 563e
00000230: 4074 453c f2aa cebc 712a 8f3e e959 953d
00000240: 01e9 1fbe e4a5 09be ca70 033c e3f7 a7bd
00000250: 6677 a8bd 297b 59bd 5a25 113e d6f1 f03d
00000260: 51c8 87bd 75f4 9e3d 2e17 acbe 3182 49be
00000270: ec29 953e ae15 44be 88c1 533e d974 453e
00000280: 99a4 22bd 6c33 17be 5f67 443e a55d 783d
00000290: 4bfa 54be 6712 1abd 67b8 aa3d 9e93 04bd
000002a0: 666d 24bd 9bee 09be 16e5 4d3e 7cb1 483e
000002b0: 9dc2 8f3e 71df 883e 054b 0e3e 2a65 fa3c
000002c0: 1878 453e 5219 313e 5350 393d 58ee d7bd
000002d0: d0b2 713e 17ea 8c3d ea85 273e 7ba2 b9bd
000002e0: 6429 2c3e f975 10bd 6731 2b3e b7d9 6e3c
000002f0: b168 96bd 7697 403e d6a8 60bd b1f6 4abe
00000300: d231 103e 7d38 5a3e ce2f 4cbe 0c02 b43c
00000310: 4087 37be ce28 3dbe d2fc 713d 0870 3d3e
00000320: 18cb 79be 5a29 0cbe 4a40 003d 4bcc 87bd
00000330: a213 05be 723a 6a3e abe7 3b3c aba2 5f3d
00000340: a005 fcbc 9437 c1bd 6d8d 0ebe 53c0 933d
00000350: 3940 0bbe 33ae f2bd 00ca 953e 9e07 fabd
00000360: 6958 9dbd 04c2 b7bd 0ad6 0cbe d9fc a93e
00000370: 6658 9a3d c76e 2bbe ddd6 143e 0630 bd3d
00000380: afbc 40be c5b5 d23d ff04 3cbe 53c8 863a
00000390: f15c 64bd fdd2 68be e307 503e d996 8bbd
000003a0: 3fef 05bd 59f1 0fbe 1403 09bd e341 0cbd
000003b0: f8bc 31be 2e49 2ebe 82cf 58bd efe4 1b3e
000003c0: 8930 57be bcae ecbc 4e6c 383d 8ba5 e6bd
000003d0: 7566 3e3e 936e 7dbd a6cf 45be 57e4 10be
000003e0: ad7d 283d 8b05 aabc 793c 28be 071b 1f3e
000003f0: 4c12 1bbe 33cf 52bc 01b8 96bd 7194 a6be
-0.16830207 -0.06769164 -0.06620953 -0.09759312 0.19174936 0.32794818 -0.15775636 -0.09294618
0.006079545 -0.20662507 0.23483957 0.17894752 -0.23171537 0.01992226 0.15975821 0.28566805
0.13326988 0.23783343 0.18396619 -0.0328483 -0.2798237 -0.22152019 0.03546232 -0.1970756
-0.04677044 -0.12210234 0.24097665 -0.0735098 -0.0024664209 0.17967714 -0.002786256 -0.22253615
-0.09033725 -0.12222881 -0.07273045 -0.045050755 -0.060366195 0.07685199 -0.035391137 -0.09721802
-0.18730147 0.11905653 0.1452261 -0.117167935 -0.23901722 0.26073718 0.2888451 -0.09789818
0.20252112 -0.0145450635 -0.18153034 -0.13338666 0.10408066 -0.2247385 0.14080276 -0.18508115
0.21915703 -0.017659806 -0.07622419 -0.2266822 0.28412762 0.1548802 -0.20582673 -0.120670766
-0.15940061 -0.06644059 -0.21020938 -0.16583872 -0.15504988 0.2746827 0.058030114 -0.17290066
-0.24586087 -0.0071225585 0.09477441 -0.018007511 -0.2250354 -0.2515317 -0.15479022 -0.23752445
-0.24544507 0.029363232 -0.055892956 0.056434613 0.06485069 -0.19924504 0.06028734 0.2017725
0.09697919 0.0811611 -0.38579214 0.30338767 0.27532193 -0.42477426 0.18568802 -0.012785832
0.16126192 -0.026330572 -0.2140008 0.15841888 0.18767832 -0.12481946 -0.20562649 -0.25787044
0.15324199 -0.05543501 0.2440643 -0.20293799 -0.22333777 0.10302384 0.12919249 -0.2008011
-0.060565013 0.14001274 -0.2428043 0.1170545 0.06421226 -0.22897337 0.020817317 -0.14416964
-0.020853123 0.2000791 -0.25389558 -0.1995385 0.37004012 0.20558731 -0.167307 0.053563952
0.092865154 -0.20569342 0.22873957 -0.0057168235 0.09067801 0.10446944 -0.1887149 -0.0184852
0.040536888 0.08830339 -0.23260051 0.20966268 0.012051642 -0.025227997 0.27962068 0.072925396
-0.15616228 -0.13442189 0.0080224965 -0.082015775 -0.082258984 -0.05309597 0.14174405 0.117648765
-0.06630004 0.0776147 -0.33611435 -0.1967857 0.29133546 -0.19148895 0.20679295 0.19282855
-0.039707754 -0.1476571 0.19180058 0.06063618 -0.20798604 -0.037615206 0.08335953 -0.03236734
-0.040143393 -0.13469927 0.2010692 0.19598955 0.28078166 0.26732972 0.13895805 0.030565817
0.19284093 0.17294815 0.04524262 -0.10543507 0.23603368 0.068805866 0.16359678 -0.09064194
0.16812664 -0.035268757 0.16718064 0.014578274 -0.07344187 0.18807778 -0.054848514 -0.19820668
0.14081505 0.21310611 -0.19940111 0.021973632 -0.17922688 -0.18472597 0.059079 0.18499768
-0.2439388 -0.1368765 0.03131131 -0.06630763 -0.1299577 0.22873858 0.011468808 0.05459849
-0.030764401 -0.09434429 -0.13921137 0.07214417 -0.13598718 -0.11849632 0.29255676 -0.12208484
-0.076828785 -0.089725524 -0.13753524 0.3320072 0.07536392 -0.16741477 0.14535089 0.09237675
-0.18821977 0.10288576 -0.18361281 0.001028309 -0.0557527 -0.22736736 0.20315509 -0.06815881
-0.032698866 -0.1405691 -0.0334502 -0.034242522 -0.17357242 -0.17020103 -0.05293227 0.1522405
-0.21014608 -0.028891914 0.045025162 -0.112620436 0.18593772 -0.06187303 -0.19317493 -0.14149605
0.04113548 -0.020754596 -0.16429318 0.15537654 -0.15143698 -0.012866783 -0.07359315 -0.32535127

conv1.0.bias f4 [32]
00000000: c7e7 62bd 6489 2cbe e187 9ebd 197d 50be
00000010: d7a3 043e 9a37 10be e2d2 38bd 0a06 fb3d
00000020: 426a 56be c593 df3d 83fc a4bd cdb7 f13d
00000030: c193 a53d 0641 6c3c 3394 af3d 5dc6 313d
00000040: 5a11 0f3d d3c9 20be 1009 283d 4a63 43be
00000050: fca2 233e 3884 603e b76b 64be dba4 663d
00000060: 6cab 823e 5bb9 6f3d 95e7 33bd a76a 8e3d
00000070: dbf8 c83d 1ef0 6dbd 06cf 5c3e 3c32 a9bd
-0.05539682 -0.16849285 -0.077407606 -0.20360221 0.12953125 -0.1408371 -0.04512299 0.12257011
-0.20938972 0.10916857 -0.08055975 0.11802635 0.080848224 0.0144198 0.08573189 0.043402065
0.034928657 -0.1570199 0.041024268 -0.19080845 0.15980142 0.21925437 -0.22306715 0.056309562
0.2552141 0.058526378 -0.043922026 0.06953936 0.098130904 -0.05809032 0.21563348 -0.082615346

conv1.1.weight f4 [32]
00000000: b72f 863f 217b 823f a1c1 803f e088 753f
00000010: cb3d 853f 8d0a 803f 86af 813f 9519 823f
00000020: f3b0 6b3f a4ec 7b3f c95c 723f ef99 773f
00000030: 908b 6f3f accd 803f a80d 883f 0921 823f
00000040: 0e9a 803f 6ad7 853f 99c3 843f 9d3d 813f
00000050: adf6 893f 0028 813f 09d6 803f e147 803f
00000060: 3061 773f 139c 873f 5d5c 693f 0161 6b3f
00000070: 0fcb 753f 10eb 6d3f de25 863f 8cbd 853f
1.0483311 1.0193826 1.0059091 0.9591198 1.0409483 1.000322 1.013169 1.0164057
0.9206688 0.9840796 0.9467283 0.9671926 0.9357233 1.0062766 1.0629168 1.0166332
1.0047014 1.0456364 1.0372192 1.0096928 1.0778404 1.0090332 1.0065318 1.0021936
0.9663267 1.0594505 0.9115656 0.9194489 0.9601297 0.929368 1.0480306 1.044847

conv1.1.bias f4 [32]
00000000: b2de 243a f570 b73b 4758 663c 8423 053c
00000010: 55a7 973c 7bd2 263c 4b5b 0dbc 6517 053c
00000020: e376 97bb 1960 06bd 42ac e0bb c4a2 99bc
00000030: 70ea 1ebc f381 913b 3dbb 093c 234c 6c3a
00000040: a4ee 233b 0db2 8ebc f73f 8db9 b68b 3d3c
00000050: 8bfd 6c3c f4c1 d73b b020 c13b b01c 493b
00000060: 55f7 88bc 66bb 403b e355 febc d58a debb
00000070: 574b 86bb bdb1 bf38 ae5e d03a 7a67 c1bb
0.00062892877 0.0055981823 0.014059133 0.008126143 0.018512407 0.010182018 -0.008627723 0.0081232535
-0.0046223267 -0.03280649 -0.006856472 -0.01875437 -0.009699449 0.00444054 0.0084064575 0.0009014031
0.0025014067 -0.017418886 -0.00026941273 0.011568954 0.014464746 0.0065844003 0.005893789 0.0030687265
-0.0167195 0.0029408573 -0.031046813 -0.0067914524 -0.0040983367 9.140696e-05 0.0015897357 -0.005902228

conv1.1.running_mean f4 [32]
00000000: 24ee 95c0 2f7c 0abf d523 17c1 7465 6d40
00000010: 060c b2c0 8a63 69c1 f62d 8a3e c18b a6c0
00000020: cd8e 4d3f 900a 8840 843c 7a40 1f3e 7441
00000030: 821e 3941 fb01 24c1 ed37 19c0 e2c4 b2c0
00000040: e49e fdc0 fb34 6ebf 0eca 943e fd26 bfc0
00000050: b410 22c0 a0b7 e5c0 fa9c 1fc0 6969 a73f
00000060: 5553 5f41 534e 42bf 3deb 2d40 3bdc 9a40
00000070: efe9 bc3e c7c8 8440 8c86 003f 9b12 b0bd
-4.68532 -0.5409574 -9.446248 3.7093172 -5.5639677 -14.586802 0.2698819 -5.20456
0.8029602 4.2512894 3.9099436 15.265166 11.569948 -10.2504835 -2.3940384 -5.5865335
-7.925646 -0.9304959 0.29060405 -5.9735093 -2.5322695 -7.178665 -2.493956 1.3079044
13.957845 -0.75900763 2.7174828 4.8393836 0.36897227 4.149509 0.502053 -0.08597299

conv1.1.running_var f4 [32]
00000000: d3c8 c344 9a3e 7d45 a789 9445 4829 1345
00000010: 67ec 4645 181e 3b46 d746 0044 1b58 e244
00000020: 40f5 ba43 b74a 8f44 b60e b544 6d02 6a46
00000030: ae8e d545 ced7 b745 78cd 6d44 871d 0745
00000040: feb6 5a45 0650 0945 e609 8a44 b15e 0045
00000050: 04bd c544 ef5c 9345 7ae8 1b44 bf2f 4f44
00000060: 2fd5 2246 be1b 0c45 4ce3 2844 9858 a144
00000070: 7e8e 1944 22ec e444 4658 6d44 ec3a 9344
1566.2758 4051.9126 4753.2065 2354.58 3182.7751 11975.523 513.1069 1810.7533
373.91602 1146.3348 1448.4597 14976.606 6833.835 5882.9756 951.21045 2161.8455
3499.437 2197.0015 1104.3093 2053.9182 1581.9067 4715.6167 623.63245 828.74603
10421.296 2241.734 675.5515 1290.7686 614.22644 1831.3792 949.3793 1177.8413

conv2.0.weight f4 [64, 32, 5]
00000000: 0d95 693d c7eb 2bbc fe38 e13b 7ed1 97bd
00000010: e635 453c b7a6 7d3d 91ff 61bd cdcd 0c3c
00000020: 018f ea3b af76 0cbb 6e90 88bd 7fae 1ebd
00000030: e697 a13c c185 91bc 064d 4b3d b394 a93d
00000040: ccb3 95bc f4d7 58bb c509 74bd a41f 9bbd
00000050: e24e 133c a640 313d 622c 42bd c8c3 883d
00000060: 68d0 9b3d 2a8c 26bd 379c 833d 19b6 87bd
00000070: bd50 5fbd 2a7e d13c d003 17bd d414 953d
00000080: 1461 3f3d b77a be3c 89a7 4fbd 2582 a93d
00000090: 5b1c 5fbd afbd 8f3d 37ec af3c 4387 41bd
000000a0: 4f62 833d aaac 69bd b4e4 32bb 2bab d5bc
000000b0: 4979 263d 2248 fe3c d3ec 553c d16c 1b3d
000000c0: bb29 7c3c 777e 89bc f7b7 913d 3ac7 12bd
000000d0: 10a0 91bc cf84 783c fa80 25bd a9ed acbd
000000e0: ecb0 7abd 84b9 c73c 6773 953a 791b 2e3d
000000f0: 3a69 7ebd cc32 313b 7551 093d 82d2 1d3d
00000100: 18ba 21bd 00ac 823d b531 873d 95f7 0e3c
00000110: f4ae 113d 79c6 943d 37c1 073d 606e 65ba
00000120: 86d6 423d c7fe 7b3d a328 563d 787b 28bc
00000130: 332e 87bd c28a a33c dbb0 bb3c 8a3d 503d
00000140: 4f0a 82bc ae30 2cbc be64 20bc 55ab 54bd
00000150: a0ec 4d3d 737a 04bc 67bf 11bd 675d 10bd
00000160: 0dde dd3c 8b56 d43c 9d27 3b3d 4855 c43b
00000170: 760b 313d 6e00 99bd afe4 31bc 5609 093d
00000180: 380c 8bbd f2a4 b53c 85a4 363d 473b 2cbc
00000190: 4b15 41bd ed8c 1cbd b30f 1f3d 3857 6e3d
000001a0: a367 9ebd c2d9 81bc d320 acbb b32c 90bc
000001b0: ab6b 6fbd 2b09 84bd 1c63 71bd 9b74 73bd
000001c0: 3780 2dbd 8b13 5f3d bd74 753d 7155 5a3d
000001d0: b37f 94ba 4f86 32bd bcd1 e3bc 1323 273d
000001e0: a4b9 d1bd 4e60 36bc 874a 35bd fb5a eabc
000001f0: cb17 1f3b 77ae 88bc 8545 4ebd 6ff0 25bd
00000200: e742 a9bd 9960 33bd ac57 babd fd6b e13c
00000210: 12f1 95bb 5daa 383d 1a3d 36bd a71d bdbb
00000220: 45f4 e6bc d62f 34bd 73bd 3dbd 67f9 98bd
00000230: 82aa 45bc 9d22 5cbd 115f a5bc 21b8 1d3d
00000240: c045 823d 0855 14bc 5092 e03c e7ac 90bd
00000250: 43a1 7dbd d2c2 9d3a f757 0b3d 6660 29bd
00000260: 6a06 3d3c 5d0d 0e3c 29f8 b23c a598 5a3d
00000270: 03b4 b2bd d303 463d b943 9d3c cc9b 8e3d
00000280: bf23 543d 1f42 3b3d 1fe6 b1bb a572 083d
00000290: dc8a 653d 4beb 0bbd 6791 c9bc 2e54 a73d
000002a0: 0590 603d fc80 e03c 2123 9b3d 7f4a 26bd
000002b0: 3abd 57bd 406e 80bd 2fde df3c b91b 7a3c
000002c0: 8393 8a3d 54a6 8fbd ec9d a23d 80ed 483d
000002d0: e51a 9bbd 8919 5ebd a8fb 893c d872 f83c
000002e0: f82f 48bd 52f3 853d 2560 0d3d 8505 89bd
000002f0: b973 983d ce97 773d 0dad 0b3d 9589 13bd
00000300: 9354 ce3d aee5 82bd e1de 2cbd 51ec 383d
00000310: 580a a03d 5318 9cbd f85f bb3c a248 8cbd
00000320: 5405 07bd 4248 743d 1030 08bc 7d01 03bd
00000330: 8f7f 44bc 48a8 85bc 161a 71bd af4a b1bd
00000340: 6ad6 6fbd 1d37 b43d aa7e 893b d47c 34bd
00000350: df7a e93c 3476 aa3b 55e3 adbd 93c8 98bd
00000360: 3d8f 0bbd 61c3 acbd c210 2abc 0862 b7bd
00000370: 9320 b13d 0a2f 813d 57e2 a43d 9d30 28bd
00000380: df86 55bd b78b 4c3d a125 003d c9d0 303d
00000390: 530c a0bd ed37 213d 61a5 d83c 55ac f53c
000003a0: 9eda d43c 93c8 a63d 8195 8abd 59ab 70bd
000003b0: 350b ebbc 72f8 a7bd aec6 993d 975c a0bb
000003c0: a4ec 70bd 6ba2 67bd 435d 09bd fe1b 873b
000003d0: f782 7c3c d1e7 eebc fba5 cfbc ee92 b3bd
000003e0: b4a1 353d 77be a4bd 2245 86bd b2e1 07be
000003f0: 2aa0 5bbd fd36 8dbd c4dc 2a3d b6ac cf3c
0.05702691 -0.010493225 0.006873249 -0.07413004 0.012036776 0.06192657 -0.055175368 0.008593989
0.0071581607 -0.0021433046 -0.06668173 -0.03874063 0.019725751 -0.017763974 0.049634002 0.08280315
-0.01827421 -0.0033087702 -0.05957963 -0.07574394 0.008990975 0.043274544 -0.047405608 0.06677967
0.0760811 -0.040661015 0.0642628 -0.06626529 -0.054520357 0.025572855 -0.03686887 0.07279363
0.04672344 0.023251874 -0.050696883 0.08276776 -0.0544704 0.07018601 0.02147494 -0.047248136
0.06415235 -0.05704943 -0.0027296962 -0.026082596 0.04064301 0.031040255 0.013056952 0.037945572
0.015390809 -0.016783936 0.07115167 -0.03583453 -0.017776519 0.015168383 -0.040406205 -0.084437676
-0.061203882 0.024380453 0.001140219 0.04250667 -0.06211207 0.0027038334 0.03352495 0.038530834
-0.039484113 0.06380463 0.06601278 0.00872602 0.03556724 0.07264418 0.03314325 -0.0008752104
0.047567867 0.06152227 0.052284848 -0.0102833435 -0.06600609 0.019963626 0.02291148 0.05083994
-0.015874056 -0.010509653 -0.009789644 -0.051921207 0.05027449 -0.008085835 -0.035582926 -0.035245325
0.027083421 0.025920173 0.045692075 0.0059916116 0.04322382 -0.07470785 -0.010857745 0.03345617
-0.0678944 0.022173379 0.04459049 -0.01051218 -0.047139447 -0.038220335 0.03883333 0.058188647
-0.07734611 -0.015850905 -0.0052529364 -0.01759944 -0.05845229 -0.06447061 -0.05893241 -0.059437376
-0.042358603 0.054461997 0.059925783 0.05330414 -0.0011329561 -0.043585118 -0.02780997 0.040804934
-0.10240486 -0.011131359 -0.044260528 -0.028607836 0.0024275656 -0.016684754 -0.050359268 -0.0405125
-0.08264714 -0.043793295 -0.09098753 0.027517313 -0.004575857 0.045084346 -0.044491865 -0.005771357
-0.028192649 -0.043990932 -0.04632325 -0.07469445 -0.012064578 -0.053743947 -0.020186933 0.038505677
0.0636096 -0.009053476 0.027413517 -0.070642285 -0.06192137 0.001203621 0.034019437 -0.0413517
0.011537174 0.008670178 0.021846848 0.05336823 -0.08725741 0.04834349 0.019197332 0.0696331
0.051791903 0.045717355 -0.005429044 0.03331246 0.05604063 -0.03415994 -0.024605466 0.08170353
0.054824848 0.027405255 0.0757506 -0.04059839 -0.052670695 -0.062710285 0.027327625 0.015265399
0.06766417 -0.070141464 0.079402775 0.049054623 -0.07573489 -0.05422357 0.016843632 0.0303282
-0.04887387 0.0654055 0.03451552 -0.06690506 0.07443947 0.060447507 0.03410058 -0.03601988
0.10074725 -0.06391464 -0.04220474 0.045147244 0.07814473 -0.07621827 0.02287291 -0.06849791
-0.032964066 0.059639223 -0.00831224 -0.03198384 -0.011993303 -0.016315594 -0.058862768 -0.08656823
-0.05855409 0.087995745 0.0041960077 -0.044064358 0.028500972 0.005202079 -0.08490626 -0.074601315
-0.03407215 -0.08435703 -0.010379972 -0.08954245 0.08648791 0.063078 0.080509834 -0.041061986
-0.052130576 0.04993793 0.031285886 0.043167863 -0.07814851 0.039359976 0.026446046 0.0299894
0.025983151 0.08143725 -0.06766797 -0.05875716 -0.028691867 -0.08201684 0.07508598 -0.00489385
-0.058819428 -0.05655138 -0.033536207 0.00412321 0.015412084 -0.029163273 -0.0253477 -0.08768259
0.044343665 -0.08044141 -0.06556155 -0.1326969 -0.05361954 -0.06895254 0.041714445 0.02535091

conv2.0.bias f4 [64]
00000000: 4df4 45bd 1743 81bd 9457 38bd 3f51 f43c
00000010: dade 78bd b7d6 aa3c bc84 febc 8b34 6bbd
00000020: a17c 423d 4c50 c73b 4f17 4fbc 1b7d 27bd
00000030: 1a02 bcbb 9669 0bbc cf69 99bd be61 d63c
00000040: 1f7d 93bd 413a 71bd 0d2c 79bd ee0c 8fbd
00000050: 9dbf 44bd 987a 443d 3621 22bc e696 5e3d
00000060: 50f8 40bc fa21 09bd b0c6 7e3d a3f3 18bd
00000070: 91a9 97bd e69c 2c3d d044 2d3d c60c 88bb
00000080: 0bf0 82bd 1e6e a13d 0aba 3c3b 40f3 26bd
00000090: 4514 c6bc 9c0f d7bc 09f5 473d 53f2 97bd
000000a0: 7509 49bd 904f 68bd 48a2 2f3d c415 3f3d
000000b0: 60c2 a73a b7a1 f53c dd3b 413d 09c6 9a3d
000000c0: 5587 9a3d 5dd1 863d 620d 493b 0d78 abbb
000000d0: c100 7dbd dd31 243c f081 e6bc 63f1 1dbd
000000e0: 8ff5 b93c c1df 103d a42b 31bd f380 92bd
000000f0: c842 02bd 5369 ebbc 7edb b63c 7588 18bd
-0.048328687 -0.063116245 -0.045005396 0.029823897 -0.060759403 0.020854337 -0.031069152 -0.057423156
0.047482137 0.00608257 -0.012639835 -0.040890794 -0.005737555 -0.00850906 -0.074908845 0.026169654
-0.07201599 -0.058893446 -0.060833026 -0.06984888 -0.0480343 0.047968477 -0.009895613 0.054343127
-0.011777952 -0.03347967 0.062201202 -0.037341725 -0.07405389 0.042141818 0.042301953 -0.0041519133
-0.06393441 0.07882331 0.0028797411 -0.040759325 -0.024179587 -0.02625256 0.048817668 -0.074192666
-0.049081285 -0.0567165 0.042879373 0.046651617 0.0012799017 0.029984338 0.04717623 0.075573035
0.07545344 0.065829016 0.0030678143 -0.005232817 -0.061768297 0.010021654 -0.02813813 -0.038560282
0.0227001 0.03536964 -0.04325451 -0.07153501 -0.03180197 -0.028736746 0.022321459 -0.03723951

conv2.1.weight f4 [64]
00000000: 5ff0 803f 19be 803f 4123 843f ba97 843f
00000010: 2e47 7e3f 023e 833f 2815 7b3f 1cae 7b3f
00000020: b62c 7d3f 122a 7a3f 25bb 823f 59f1 873f
00000030: 687d 803f 3625 803f 138d 783f 047a 803f
00000040: 83a4 803f bd0c 813f 1ae1 783f 908b 823f
00000050: 52ca 823f 2197 773f a616 773f de30 823f
00000060: 19ce 803f 81c4 793f ae78 7f3f 4105 7c3f
00000070: 84b6 7d3f 86e2 823f 61e3 7a3f c814 813f
00000080: 2f58 843f 9328 803f c7e2 7f3f edb5 803f
00000090: 632c 7d3f a14f 833f 69c1 7a3f f9f0 753f
000000a0: 23d0 803f 136a 793f 008f 803f 75d8 7f3f
000000b0: b6c9 7b3f b8e8 833f fe5c 743f 8388 803f
000000c0: 78fc 803f f42f 7f3f a336 823f 3b98 813f
000000d0: e350 7d3f 1f5d 7f3f 3a09 7b3f 22af 803f
000000e0: 97aa 773f 0d6a 803f 07b8 7d3f 3f74 793f
000000f0: 51fc 7f3f f817 813f 9f18 823f e55e 843f
1.0073355 1.0058013 1.0323259 1.0358803 0.9932736 1.0253298 0.98079157 0.98312545
0.9889635 0.97720444 1.0213362 1.0620528 1.0038271 1.0011356 0.9709026 1.0037236
1.0050205 1.0082012 0.9721848 1.0198841 1.0217993 0.9671498 0.96518934 1.0171163
1.0062896 0.97565466 0.9979352 0.98445517 0.9910662 1.022538 0.980032 1.0084467
1.0339411 1.0012382 0.9995541 1.0055519 0.98895854 1.0258676 0.9795137 0.9607082
1.0063518 0.9742748 1.004364 0.9993966 0.9835466 1.0305395 0.95454395 1.004166
1.0077047 0.99682546 1.0172924 1.0124582 0.9895155 0.99751467 0.98060954 1.0053446
0.96744674 1.0032364 0.9910893 0.97443 0.9999438 1.008544 1.0163764 1.034146

conv2.1.bias f4 [64]
00000000: cca1 b4ba 0e84 2b3c 8b9d f33a 7b8d d9bb
00000010: b25f ae3b 156f 60bb c6b1 abbb 31dd e2ba
00000020: 87fe 71bb 4a7a 8239 6198 53bb d2c0 3e3a
00000030: afc5 c2ba cc74 1e3b 7b15 edbb 1ee8 033c
00000040: b6be 24bb bf4f 39bb 1adc 1abc 9e54 843b
00000050: e4a3 193a 7723 b5bb bb85 bcbb 6941 b13b
00000060: db34 3b3a 192b 8abb 79ef 59bb ddde 1dbc
00000070: aedd b5bb f816 db3a 72ae e3bb 1a80 2dbc
00000080: b72c f43b a62d 263b a122 ce3b 820b ec3a
00000090: e49d 20ba a2f5 4dbb 8239 11bb 640b eabb
000000a0: 369d f3ba 9569 9fbb 6584 b83b 93a5 0239
000000b0: 723d 683b 3161 1d3c 5186 3bbc db8f a93b
000000c0: 8a46 60b9 1e0e adbb a484 a53b e882 023c
000000d0: 308b 0c3a 5a7c bf3a ad0a fe39 3313 56bb
000000e0: 0e4c 1abb 516b 933a f726 07bc 10a7 40bb
000000f0: 8b59 07bb aa4c a7bb e915 3b3b 5d72 a0bb
-0.0013781129 0.010468496 0.001858638 -0.0066391802 0.0053214664 -0.0034245898 -0.005239698 -0.0017308352
-0.0036925392 0.00024886645 -0.003228687 0.0007276657 -0.001485994 0.0024178503 -0.0072352267 0.0080509465
-0.0025138087 -0.0028276292 -0.00945189 0.0040384075 0.00058609084 -0.0055279094 -0.0057532466 0.005409409
0.000714136 -0.0042165634 -0.003325431 -0.009635654 -0.005550108 0.0016715219 -0.0069482857 -0.010589624
0.0074516195 0.0025356798 0.006290749 0.0018008801 -0.0006127043 -0.0031426926 -0.0022159521 -0.007142471
-0.0018586281 -0.0048648813 0.005631017 0.00012459447 0.0035437015 0.009605692 -0.011445598 0.0051746196
-0.00021388583 -0.005281224 0.0050512124 0.007965781 0.0005361317 0.0014609203 0.0004845461 -0.0032665252
-0.0023543867 0.0011247193 -0.008249036 -0.0029396452 -0.0020652737 -0.0051055746 0.0028546995 -0.0048964457

conv2.1.running_mean f4 [64]
00000000: f203 b5bd d3b5 cbbd dcbd bcbd 7f34 84bd
00000010: 278a 9bbd 5cc2 f139 1b41 1d3d e559 b8bd
00000020: 96e2 813d 06bd 1c3d ea63 29be 6c32 afbd
00000030: 5aa1 2cbd 3824 853d 8344 663c 066b 91bd
00000040: b76d 51be ce6f 1bbe b359 e13c ab61 b4bd
00000050: c956 c8bd e19c e13d 1e71 df3d 8558 34bd
00000060: cc2f c1bd 33a9 023e 5727 133d 92b7 3b3d
00000070: 54c9 23be d809 1d3d 3822 d63d a4a2 a6bc
00000080: 5cb4 3fbd 69f9 79bc 531f 66bc 7366 acbd
00000090: 089e cd3d 4bc6 adbd 7743 ca3d 155b 9abd
000000a0: 96ae 38be 29fb cfbd 554e 943d c7b7 933b
000000b0: 8a59 003d 42c5 903d 88d5 b13d d9f0 27bd
000000c0: ea55 b13d 0526 afbb fc66 c0bc 892a a6bd
000000d0: 3ed2 16bd 0586 14bd d27a 0dbe 1ad8 62bd
000000e0: 37d7 bcbc 54a9 9a3c 0610 84bd edd8 57be
000000f0: e367 8bbc 68fe 32bb 8ab5 9cbd 8b0e 0abe
-0.08838643 -0.099467896 -0.092159 -0.06455325 -0.0759471 0.0004611191 0.038392168 -0.09001521
0.06342046 0.038266204 -0.1654202 -0.08554539 -0.042146064 0.06501049 0.01405442 -0.07100491
-0.20452009 -0.15179369 0.027508592 -0.08807691 -0.09782178 0.110162504 0.10910247 -0.04402973
-0.09432945 0.12759857 0.03592619 0.045829363 -0.1599477 0.038339466 0.104557455 -0.020341225
-0.046802863 -0.015257218 -0.014045554 -0.08417978 0.10039908 -0.08485087 0.09876149 -0.07536904
-0.18035349 -0.10155327 0.07241503 0.004507992 0.03133539 0.07068874 0.08683306 -0.041001175
0.08658965 -0.0053451085 -0.023486607 -0.08113582 -0.036821596 -0.036260623 -0.13816383 -0.05538187
-0.023051841 0.01887957 -0.06448369 -0.21078844 -0.01701731 -0.0027312282 -0.07651813 -0.1348211

conv2.1.running_var f4 [64]
00000000: 670e 9d3e ff0c da3e 0fe8 a33e 5f2c 013e
00000010: d89a 203e cab2 543e b2a1 da3e c785 303e
00000020: 7929 523e a416 283e af4d 0b3e 399b 9b3e
00000030: 68f4 ac3e 365a 7e3e 2e31 923e d126 813e
00000040: 8462 af3e 680e 753e 7885 0f3e 9d11 643e
00000050: 123d 7a3e 8bc6 b23d f53d bd3e 0b3b 463e
00000060: 4ea1 9f3e 4d27 be3f c587 f33d e781 643e
00000070: b462 4e3e 2df7 793e 2bf6 f23e 8680 4d3e
00000080: 2d9d 803e a89b 883e 6785 513e 5b2f 583e
00000090: b085 933e 7237 663e 7171 443e 8f7a 883e
000000a0: a8bd e03e 9ee3 2e3e 7b75 883e c0ad 913e
000000b0: 58a5 323e a10a c13e 9f55 0e3e 8489 6b3e
000000c0: 18a8 5a3e 7112 dc3e 9dd3 c53e 6c6f 5d3e
000000d0: fadf 2c3e 1152 353e f77e f43d 1b56 503e
000000e0: c6b0 ea3d c92a 653e e9e2 753e 170c db3d
000000f0: 59ae a43e 1633 203e 4ccb 773e 5a69 1c3e
0.3067505 0.4258804 0.32012984 0.12614582 0.15684068 0.20771328 0.4270149 0.17238532
0.20523633 0.16414887 0.13603853 0.30391863 0.33780217 0.248391 0.28553146 0.25224927
0.3425485 0.23931277 0.14015758 0.22272344 0.24437359 0.08729275 0.36961332 0.1935846
0.31177753 1.4855744 0.1189113 0.22315179 0.2015484 0.24410696 0.47453436 0.20068559
0.25119916 0.26681256 0.20461045 0.21111815 0.28812933 0.22482088 0.191839 0.26656005
0.43894696 0.17079017 0.2665213 0.28452873 0.17445886 0.37703422 0.1389985 0.23001677
0.21353185 0.4298282 0.3863801 0.21624535 0.16882315 0.17707087 0.11938279 0.20345347
0.11459498 0.22379602 0.2401234 0.10695665 0.32164267 0.15644488 0.24198645 0.15274563

conv3.0.weight f4 [128, 64, 5]
00000000: d233 833b 0508 07ba 39b4 25bc 8211 0f3d
00000010: 7da8 bebc c7ca 4cbd 5cc1 803c 03e7 98bc
00000020: ea38 b0bb b753 f03a dd23 83bd 66c8 e8bc
00000030: 1ebc 4838 b163 103d 3d8a 753d acc0 513a
00000040: a2d3 0ebc c012 483d 183d 1e3c 992d 8cbc
00000050: 2b3c 2a3c 495e 06bd 4dde 963c 5b0f afbb
00000060: 494d fb3b 5dc6 0dbd 9de4 87ba 9e9e 2c3d
00000070: 4406 823c f0ce 3e3b b767 493d f015 ecbc
00000080: fa9a c13c 2ce7 3dbd 380d 773d f41f 953d
00000090: f6bd 163d e27e 01b8 8e2f d43c 798f 0e3c
000000a0: 1af0 a93d 1b81 45bd 1ae1 193d ab95 0dbd
000000b0: 32ed b63b 2c71 003c 577e 85bb 6d8d 49bd
000000c0: 19e7 ef3c b393 193d 235b 88bd d346 0bba
000000d0: 7a70 eabc 1ecc 0abb bf1f 50bb 9ad2 163d
000000e0: 2ce3 f4bb ddbc 9e3c d756 0abd b84b a3bc
000000f0: 21d3 a3bc a72f 6e3c 6568 633c 191a 1c3c
00000100: f794 2e3c c894 2c3d df3b 873b 05f6 00bd
00000110: 703a 2f3d 6193 08bb c187 a4bd e2e0 8abc
00000120: 90bc 2d3d af35 21bb ea5d eebc 6c62 16bc
00000130: 033f 103d 6058 403d 3ab3 783c 4f61 ee3b
00000140: 893b d839 d2d3 6fbd 2524 04bd dd7b 3d3d
00000150: 248e 9d3c 8a55 163d 07b5 51bd 3490 9c3c
00000160: e4e7 b8bc 5785 08bc f48f 06bd ecd7 38bd
00000170: ed4f 61bd 8f80 9fbc 68a4 0bbd edb5 89bd
00000180: 63e7 d13b 0eae f43c 834c 0abd e6da a0bc
00000190: 1dd5 b93b 9c2f d1bc b0dc 48bd 9b81 89bc
000001a0: 2173 df3c 7e9b 983c 6877 4fbc d586 ac3c
000001b0: 854c d63c a298 92bd 4765 11bb 7962 2f3c
000001c0: 6c4f e43b baa3 183d 8f37 cebc ea7f 37bc
000001d0: bbc6 2f3d 1449 093d d036 973c e1d8 ab3c
000001e0: 84ee 2dbb 2bc6 623c 023b ce3c 687b 113d
000001f0: b55e 68bb e342 253d 6c7f 313d fb2e 99bc
00000200: 8529 dcbc 8459 533d 155c 94bb 3483 723d
00000210: 5b73 b9bc 332d 203d f84a 963d 79c5 09bd
00000220: 4b24 b83c 4778 8ebd ca08 1bbb 8858 933b
00000230: d255 70bc e40e 9e3c e46e 2c3c 6ff2 8c3c
00000240: f4a2 983d 50a9 02bc ba99 90bd 0444 0bbd
00000250: c579 c8bb a9dd 983c 6258 3cbd 63f4 47bd
00000260: df73 4fbc c6b7 35bd 30e9 293d 7ae1 b9bb
00000270: e382 dbbb cbc8 42bd 65fa c5bc b3b8 603d
00000280: 5efe c13c ad3d 213d b66b 04bd 10a6 213d
00000290: a492 1fbb 286d 0a3c 5755 42bc 178a f93c
000002a0: 2329 dcbb d24a e8bb f843 ea3c 9ee6 6ebc
000002b0: 3408 883c a8b9 b23b 7459 dd3c 7416 00ba
000002c0: aaf2 cdbc 24a1 9fbc a124 bebb c9f9 d53c
000002d0: 121a 35bc 76b1 99bc 837b a03b 11ce 683c
000002e0: 0b19 8d3d 55fb 97bd 9082 033c 9cce 29bc
000002f0: dbf6 5d3d ab65 b93b 54c2 11bc 5a08 67bd
00000300: b19d c7bc d788 bcbc f77f f13b 20eb d73c
00000310: 0617 123d 6050 253c a8f4 313b e4e2 04bd
00000320: fe50 edbc 9d44 dc3c 010a 22bd 98a4 2dbd
00000330: 9970 e7bc 17c0 a53c 798e 4bbd 1b3a c5bc
00000340: 7718 88bb 5ef6 76bd 6f5b 59bd 1ddd 2e3d
00000350: ec32 f33c e542 4cbc 652b 47bd e971 cf3c
00000360: 852a 97bd 67c8 763b 7115 363d 7a1e 963a
00000370: bba8 a73b 9ce7 90ba c2a5 43bc 54c9 cebc
00000380: b279 963c 14aa 993c 74f1 433d ea29 6ebd
00000390: 1e13 b43a d5af 5f3d 9755 01bd 939b 3abd
000003a0: 256f 003d bad6 3dbd fee9 39bd afc5 10bc
000003b0: 04f9 60bd 5cd9 003d d4ba bcbc fb84 293d
000003c0: aa96 923c 9b45 d9bc f83c 93bd 3003 8ebb
000003d0: 6de7 9fba b189 603d 6d4f 413d d435 703c
000003e0: b46f 2fbc 1e78 cdbb 4cd2 91bc 5398 68bd
000003f0: 63f7 11bc a49f 003d c814 91bc 0acd 25bd
0.00400398 -0.00051510363 -0.010113769 0.034928806 -0.0232737 -0.04999807 0.015717201 -0.018664842
-0.0053778784 0.0018335496 -0.06403325 -0.02841587 4.7858914e-05 0.035251323 0.059946287 0.00080014276
-0.008717449 0.048846006 0.009658121 -0.017111586 0.010390322 -0.03280476 0.018416548 -0.0053424067
0.007669125 -0.034613002 -0.0010367815 0.042143457 0.015872128 0.0029115044 0.049171176 -0.028819054
0.023633469 -0.04636304 0.06031534 0.07281485 0.036802255 -3.0874166e-05 0.025901582 0.008701199
0.08297749 -0.048218828 0.03756819 -0.034566563 0.005582475 0.007839482 -0.004073899 -0.04920714
0.029285 0.037494373 -0.06658008 -0.0005312983 -0.028618086 -0.0021178792 -0.0031757203 0.03682194
-0.00747337 0.019377166 -0.033774223 -0.019933566 -0.019998135 0.014537728 0.01387987 0.009527707
0.010655633 0.042134076 0.0041270102 -0.031484623 0.04278034 -0.0020839798 -0.080337055 -0.016952936
0.042416155 -0.0024598648 -0.029097516 -0.009178739 0.035216343 0.04695928 0.01517945 0.0072747837
0.00041243088 -0.058551617 -0.032261033 0.046260703 0.019232817 0.03670267 -0.05119803 0.01911173
-0.022571512 -0.008332572 -0.03285213 -0.045127794 -0.055007864 -0.019470481 -0.034092337 -0.06724153
0.0064057573 0.029868152 -0.033764374 -0.019635629 0.005671157 -0.025535397 -0.04903859 -0.016785434
0.027276577 0.018628832 -0.012662746 0.021060387 0.026159534 -0.07158019 -0.002218561 0.01070463
0.0069674756 0.037265517 -0.025172977 -0.011199931 0.042914134 0.03351696 0.018458754 0.02097744
-0.0026539871 0.013841192 0.025174621 0.03551808 -0.003545684 0.04034699 0.04333441 -0.01869916
-0.026875267 0.05159904 -0.0045275786 0.059207156 -0.022638014 0.039105605 0.07338518 -0.03363559
0.022478243 -0.06956535 -0.0023656362 0.0044966377 -0.014668899 0.01929421 0.010524485 0.017205445
0.07452956 -0.007974938 -0.07060571 -0.03400041 -0.0061180317 0.018660383 -0.045982726 -0.04881705
-0.012661903 -0.044364713 0.04148215 -0.005672631 -0.0066989525 -0.047554772 -0.024167249 0.054863643
0.023680862 0.03936546 -0.032329284 0.03946501 -0.002434888 0.008448876 -0.011861167 0.030461354
-0.006718771 -0.0070889974 0.028596863 -0.014581351 0.016605474 0.005454261 0.027020194 -0.0004886158
-0.025140125 -0.019486018 -0.0058027063 0.026120083 -0.011053579 -0.018761378 0.0048975362 0.014209286
0.06889542 -0.07420985 0.008026734 -0.010364201 0.054190498 0.0056578717 -0.008896429 -0.05640445
-0.024367185 -0.02301447 0.007369991 0.026357234 0.035666488 0.010089964 0.0027153883 -0.032442942
-0.028969284 0.026888186 -0.03956032 -0.042393297 -0.028251933 0.020233197 -0.04969642 -0.024075558
-0.004153307 -0.060293548 -0.053065713 0.04269134 0.029687367 -0.012467121 -0.04862537 0.025322871
-0.07381157 0.003765607 0.044454042 0.0011453175 0.00511655 -0.0011055353 -0.011941375 -0.025242485
0.018368576 0.018757857 0.04783769 -0.05814544 0.0013738608 0.054611046 -0.031575765 -0.045558523
0.031355996 -0.046347357 -0.045389168 -0.008836194 -0.05492498 0.03145729 -0.023038305 0.041386586
0.017894108 -0.026522448 -0.07189363 -0.004333876 -0.0012199708 0.054818813 0.047194887 0.014661271
-0.010707784 -0.0062704226 -0.017800473 -0.056785893 -0.008909079 0.031402245 -0.017710105 -0.040478744

conv3.0.bias f4 [128]
00000000: a3f2 323d 31eb 3e3c 06cd 0cbd 003e 3a3d
00000010: 2217 993a 3837 13bd 0f8b e63c de1e 9fbc
00000020: 8b4b 20bd b21c b23c f8a3 b4bc 8bf9 c5bc
00000030: b218 203d d1b2 dc38 5782 00bd 4931 62bd
00000040: 6549 5f3d 9fd8 c7bb 4a1e c9bc 8a8e 22bd
00000050: 3741 373d e651 0a3d fabe b1bb 5a7f 1cbd
00000060: 17cd 09bd 9368 cc3b cf30 acbc f2e9 58bd
00000070: 3bc6 3d3d 26af 95bc 3bb9 403d 2c2d 0bbc
00000080: 05ab 47bd 624b 4e3d 32fa 593c 29e8 823c
00000090: 297b dbbc 4aa6 8ebc 2437 20bd 7180 093d
000000a0: f34b cabb 417d e23a b23d d33c 92a2 0b3d
000000b0: 271e 4a3d e7c6 003d 42b0 5a3d 5a69 49bc
000000c0: 6f06 aa3c 26fa ef3c 97ca 48bd fcbb 7c3c
000000d0: bdde be3c 246a 2b3d 5d32 c5bb 37e4 58bd
000000e0: 6d43 0f3c 6952 cd3c 0eb7 05bd 3c68 4e3d
000000f0: a13f cebc 6b70 f4bb 6c40 bd3c 35ea d2bc
00000100: c6b9 fa3c dfb0 a7bc c004 373c feeb 45bd
00000110: 9af7 4a3d 2781 1c3d 0be4 43bc b6ed b1bc
00000120: c671 bebb c175 10bd d3dc 363d e79b 643d
00000130: 9424 6f3c 708b c2bb 2665 d3bc 904b 5d3c
00000140: 6ff5 ec3c ccc5 04bc 2d19 afb9 fce5 0fbd
00000150: 4049 0f3d 3ed7 2b3d 6df3 aabb a4af 2f3d
00000160: 3210 e4bc 6437 703c 251c 46bc 1614 6e3c
00000170: 0c18 22bd fea8 2b3b 66f8 303d 9c95 1d3d
00000180: dc57 8ebc 7107 203a e7fe 5f3c 7516 2e3d
00000190: 2fec be3c c2bc 2fbd 904b ddbc a10a 2fbd
000001a0: e75f 49bc f84e 38bd f82a e3bc 0b64 1db8
000001b0: 2ec3 3fbd 784b a9bc 413d 7c3c 3cf1 0fbd
000001c0: 337b ba3c 72bc 47bd bc6c 4dbd 604c 373d
000001d0: ac70 e73c 3d3e 43bd 67aa 4b3d 1fb3 2a3d
000001e0: 0764 233d 91b7 493d 673f 503d fd2d 253d
000001f0: 7225 143d a342 22bd 1d69 5fbc e77d 2bbd
0.043688428 0.011652754 -0.034375213 0.045469284 0.0011679868 -0.035941333 0.02814248 -0.019423898
-0.039134543 0.021742199 -0.022050843 -0.024166843 0.03908605 0.000105237246 -0.0313743 -0.055222783
0.054513354 -0.0060988213 -0.024550576 -0.039686717 0.044739928 0.03376951 -0.0054243775 -0.03820739
-0.033642855 0.006238052 -0.021019368 -0.052957483 0.046331625 -0.018271994 0.04705165 -0.0084946565
-0.04874708 0.05036486 0.01330428 0.015979843 -0.026792126 -0.017413277 -0.039115086 0.033569757
-0.0061736046 0.001727976 0.025786255 0.034090586 0.04934516 0.031439688 0.05339075 -0.012293184
0.02075502 0.029294085 -0.04902133 0.015425678 0.02329957 0.04184927 -0.0060179667 -0.052952018
0.008744103 0.02506371 -0.032645278 0.050392374 -0.025176825 -0.0074596903 0.023102008 -0.025746444
0.030606162 -0.02047008 0.011170566 -0.048320763 0.049552538 0.038209107 -0.011956225 -0.021719795
-0.0058119027 -0.03526855 0.044644188 0.055812743 0.014596123 -0.0059370324 -0.025805067 0.013506785
0.028925626 -0.008103799 -0.00033397358 -0.03513144 0.034981966 0.041953318 -0.005217007 0.042892113
-0.027839754 0.014661644 -0.012091671 0.014531156 -0.039573714 0.0026193256 0.04320564 0.038472757
-0.017375879 0.00061046245 0.013671613 0.042501885 0.02330598 -0.042904623 -0.02701357 -0.042734746
-0.012290931 -0.044997185 -0.02773045 -3.752489e-05 -0.046816997 -0.02066587 0.015395463 -0.03514217
0.022763824 -0.0487637 -0.050152525 0.04475057 0.028251968 -0.047666777 0.049723055 0.04167473
0.039890315 0.04924733 0.050841715 0.04032706 0.036168523 -0.03961433 -0.013635901 -0.041868117

conv3.1.weight f4 [128]
00000000: ffdd 7f3f 97ee 7d3f be0f 7e3f 8add 7c3f
00000010: a24f 803f bc5a 813f ace9 7f3f 0025 7f3f
00000020: d2e6 823f 0dd1 7f3f e8bb 803f b504 803f
00000030: e46b 803f 0e28 803f 7ee8 7f3f 6f2c 803f
00000040: 080b 7f3f b130 7e3f c071 7f3f 9d18 803f
00000050: f3dd 7b3f 699b 7f3f 4a5a 7e3f 4905 803f
00000060: 5848 7e3f b8ce 7b3f df4a 7a3f 7ccf 803f
00000070: 0772 7e3f dc3b 7f3f e895 853f b925 803f
00000080: 9c1f 803f b031 803f 2b20 7f3f d3eb 7e3f
00000090: 8599 7f3f c1fb 7f3f 027f 803f 72fe 7a3f
000000a0: f7d7 7e3f 44be 803f 4efc 7f3f 2357 803f
000000b0: e00f 803f ee5c 813f 4349 7f3f e641 7f3f
000000c0: 67a3 7e3f 2dd0 7f3f 625a 7c3f 0757 803f
000000d0: 935e 7f3f fae8 7f3f 9a22 823f 322b 803f
000000e0: f468 7d3f 4049 813f 0844 813f b69e 7e3f
000000f0: d681 803f 0603 7f3f 48ca 793f 9de4 7f3f
00000100: c95d 803f 6450 7f3f abd6 7f3f 5979 803f
00000110: 0fc1 7f3f 1140 833f 5455 803f f731 803f
00000120: 6a51 803f 1c9a 803f 6bb2 7e3f bb31 7f3f
00000130: 2a76 803f d7a9 803f 73dd 813f 3f1d 803f
00000140: 7e13 7e3f 92a9 813f 0327 7d3f 8feb 7d3f
00000150: 96b9 803f 0d36 7d3f 24e6 7f3f 8ba6 803f
00000160: 53e9 803f 26ef 7f3f 0caf 803f fc40 803f
00000170: d86f 823f 85c1 7f3f 6729 803f d20f 803f
00000180: 71c1 7f3f c84d 803f 4f4d 7d3f 93f0 7e3f
00000190: 241e 823f 887e 7f3f bb1d 803f 3318 7d3f
000001a0: 50cd 803f c572 823f 152f 803f c83a 7f3f
000001b0: 61e6 7f3f 7801 803f a17d 7f3f f294 803f
000001c0: 3724 803f d362 803f bf5a 813f 2ecb 7f3f
000001d0: 4206 7f3f 325b 803f 5586 803f 34de 7d3f
000001e0: 1e04 7d3f ca4f 7c3f 0d7b 7e3f 8949 803f
000001f0: 381b 803f 964d 803f 81ec 7d3f 0290 7e3f
0.99948114 0.99192184 0.9924277 0.9877554 1.0024302 1.0105815 0.9996593 0.9966583
1.0226691 0.9992836 1.0057344 1.0001436 1.0032926 1.0012224 0.9996413 1.001356
0.9962621 0.9929305 0.99782944 1.0007511 0.9838554 0.9984651 0.9935652 1.0001613
0.9932914 0.983623 0.97770494 1.0063319 0.9939274 0.99700713 1.0436373 1.0011512
1.0009646 1.0015163 0.9965846 0.9957859 0.9984363 0.9999352 1.003876 0.980445
0.99548286 1.0058064 0.9999436 1.0026592 1.0004845 1.0106485 0.99721164 0.9970993
0.9946808 0.99927026 0.98575413 1.0026559 0.99753684 0.9996487 1.016681 1.0013182
0.9898827 1.0100479 1.0098886 0.99460924 1.0039623 0.9961399 0.9757428 0.9995821
1.0028621 0.9973204 0.9993693 1.0037032 0.9990396 1.0253927 1.002604 1.0015248
1.0024846 1.004703 0.99490994 0.9968526 1.0036061 1.0051831 1.0145706 1.0008925
0.9924849 1.0129874 0.9888765 0.9918756 1.0056636 0.989106 0.9996054 1.0050825
1.0071205 0.99974287 1.005342 1.0019832 1.0190382 0.9990466 1.0012635 1.0004828
0.99904543 1.0023737 0.9894609 0.9958584 1.0165448 0.99802446 1.0009073 0.9886505
1.0062656 1.0191275 1.0014368 0.9969907 0.99960905 1.0000448 0.9980107 1.0045455
1.0011052 1.0030159 1.0105819 0.999194 0.99618924 1.0027831 1.0040995 0.9916718
0.9883441 0.9855925 0.9940651 1.0022441 1.0008307 1.0023677 0.99189 0.9943849

conv3.1.bias f4 [128]
00000000: 968c 4637 5094 79b7 10be 90ba 8124 b62f
00000010: 677d 1f3b c290 7b37 3acf aeaf 98f1 86ba
00000020: cd64 113a 52c5 95b6 0e89 fdb8 4127 2fb0
00000030: 16e5 1b2e e35a bbba 2512 dc39 3508 59b9
00000040: 4a19 9f37 484a ad35 93e7 c939 eeaa 39b7
00000050: 182e 19ba a648 692f 4d17 a136 ebd3 33af
00000060: 46d4 25b5 9d0b d0b8 09bd 03bb 75ce 1b39
00000070: a3a6 1bb9 f086 8fb7 7a1d ae3a dcb5 8035
00000080: 89f9 222e e7dc 15b0 e34f f037 7313 ac39
00000090: 46cc cb38 af77 25b0 d961 8aaf a885 9b39
000000a0: ef95 d1b7 7169 03bb 6227 bdb7 d937 f12f
000000b0: 4164 9e2f 01f2 96b0 a884 5fba 836c 09ba
000000c0: 4bdf 77b9 4dfc 4e36 7f31 223b b00a 3137
000000d0: c1d3 72b9 1fc3 d4af c281 6d3a 13e9 3830
000000e0: 6171 fa37 8389 4e38 e29d 3eb8 c971 a0b7
000000f0: 667b 033a e0ec de39 5b3d 04bb 8b97 452f
00000100: a7b0 06b9 c4d9 0d3a 55af 2c3a 348b cdb7
00000110: 911b 62af b9f2 6d30 d5c3 74b6 ae4d 7fb6
00000120: d744 ffb7 1052 e0ba 219e 5aaf 7ded d1b8
00000130: f7e2 b7b7 91f2 d439 b0d4 2c36 4e04 1e2e
00000140: 6207 b8ba 4cea ebb9 8f60 37ba d34d 5bba
00000150: 8345 83bb 4464 03bb 2b6e 972f 45a0 bc38
00000160: b401 1230 ceb1 9a39 d80d 0ab6 c8d9 00af
00000170: 65e3 4eba 8284 45b7 abfa e22f 2204 f1af
00000180: 293d 2caf 0923 1e30 8fe9 7cbb c296 a139
00000190: 992f bc39 c59b 96b9 e6cb 52bb 0d03 f1b7
000001a0: 0f8d 52ba 15b6 edba 575f 7a2f 6016 80b6
000001b0: 0324 1830 e9fd b1af 93a8 96ad 3048 bc36
000001c0: 35bf 86af dd63 e52f e89d 31ba e6d3 6c35
000001d0: c74b a7ba 3c0f 0bb4 dece 14b0 c821 94b8
000001e0: 297e bf38 6c03 19b8 3568 d0bb ef30 fd2e
000001f0: ced9 afae be57 8d35 a197 a82f a0be 49bb
1.1834452e-05 -1.4876088e-05 -0.0011042971 3.3131545e-10 0.002433622 1.499447e-05 -3.179766e-10 -0.0010295389
0.00055463315 -4.463517e-06 -0.000120895085 -6.372041e-10 3.544639e-11 -0.0014294054 0.0004197519 -0.0002069779
1.8966053e-05 1.2911123e-06 0.00038510244 -1.1066657e-05 -0.00058433553 2.1217036e-10 4.8008865e-06 -1.6355244e-10
-6.177619e-07 -9.920376e-05 -0.0020101687 0.00014858863 -0.00014844029 -1.7109764e-05 0.0013283931 9.589671e-07
3.7056167e-11 -5.4519805e-10 2.864743e-05 0.00032820887 9.717843e-05 -6.019673e-10 -2.517158e-10 0.00029663485
-2.498456e-05 -0.0020051862 -2.2548895e-05 4.3877327e-10 2.8811267e-10 -1.0982718e-09 -0.0008526542 -0.0005242305
-0.00023638939 3.084325e-06 0.002474874 1.05525105e-05 -0.00023157803 -3.8701217e-10 0.0009060168 6.727003e-10
2.9855119e-05 4.9242295e-05 -4.544657e-05 -1.9126472e-05 0.0005015641 0.00042519625 -0.0020178172 1.7970885e-10
-0.00012845044 0.0005411173 0.0006587406 -2.4502726e-05 -2.0564374e-10 8.656503e-10 -3.6472823e-06 -3.8043177e-06
-3.0430425e-05 -0.00171143 -1.9883163e-10 -0.00010010132 -2.1920989e-05 0.00040616517 2.5753798e-06 3.5928864e-11
-0.0014040286 -0.00044997258 -0.00069952843 -0.0008365784 -0.004006089 -0.0020048777 2.754502e-10 8.994391e-05
5.311691e-10 0.00029505644 -2.057166e-06 -1.1718904e-10 -0.0007892161 -1.1772967e-05 4.128727e-10 -4.384058e-10
-1.5665037e-10 5.7529853e-10 -0.003859136 0.00030820636 0.00035893617 -0.00028726287 -0.003216499 -2.873086e-05
-0.00080318836 -0.001813593 2.2771239e-10 -3.817302e-06 5.5348454e-10 -3.2376526e-10 -1.7127888e-11 5.6112403e-06
-2.451032e-10 4.1725814e-10 -0.0006775544 8.8225204e-07 -0.0012763672 -1.2950926e-07 -5.413606e-10 -7.063482e-05
9.131089e-05 -3.648123e-05 -0.0063600787 1.15138e-10 -7.9967685e-11 1.0530855e-06 3.066676e-10 -0.0030783787

conv3.1.running_mean f4 [128]
00000000: b952 1a3c 8077 5fbd 4eb9 89bd e6df 373d
00000010: 2c63 1cb9 66c1 f2bd 6779 02be 9b95 d83b
00000020: f474 d5bd 3b3b a2bd b194 b3bc 8fea fdbd
00000030: 4726 5bbd db62 c53d 6f0b 023d 2092 a8bb
00000040: 35c9 7b3c a968 923d cb8e 35bc 60c4 b2bb
00000050: a1be 8f3d 8f6a c1bc 665c 06bc 0e43 49be
00000060: a975 8bb9 ffe1 6cbc 311a 0bbd 056a 15be
00000070: b1e3 963d 544d 2ebe 685d 233e 5c77 8f3d
00000080: 9490 5dbd d6e3 6e3c 1f1b b53d bd24 603d
00000090: 8cc1 ea3c e1e2 ffbd 3b82 2bbd e822 253d
000000a0: b426 da3d 124b 6c3d 87a5 f3bb e689 78bd
000000b0: 2711 36bd fa4d 7fbd 5168 1c3d b213 773d
000000c0: 95f6 053e 03c5 693d 3fab 20bc aa68 413e
000000d0: 6fdc 0b3e f913 82bd 00d0 813d 9f20 09be
000000e0: 8d92 313c 379a aa3d 7774 573c 446f 583d
000000f0: 155b 493d 452b f93d 4e8e a83c 0895 a6bd
00000100: 8582 863d 96e4 b7bc 6837 0d3d 8c57 76bc
00000110: 74ad c8bd 0838 273d 48b3 a3bd c98c 62bd
00000120: 6519 f5bc 2ec0 b7bd b7f6 963c 655b d7bc
00000130: ff64 113e b698 ad3c 6839 243e 34c9 d03d
00000140: a70d 203e b0a0 56bd dd97 c0bc a658 e8bc
00000150: 4ee4 a73c 5059 5a3d 9f47 2bbe 79fb 933d
00000160: a9b0 dc3c 2bd3 a93d 398e eb3d 257e cb3c
00000170: e6bf 8ebd 18d0 b2bb 0983 99bd 771d 063d
00000180: 9457 e4bd 8b68 983d 65c3 a9bd 3a55 203e
00000190: a746 713d 4521 13bd 177a 813d 6839 41bc
000001a0: 3e1f 1bbd 6580 033c 3ec5 e2bd 519e 5fbd
000001b0: 7b3a 44be c990 acbd d076 77bd 11d3 99bc
000001c0: a633 34bd 2a79 31bd d27a e9bc 7a39 f4bc
000001d0: 99d7 6f3d 53c0 93bd a15d 84bd 5833 9f3d
000001e0: 09d7 d5bc 655d ee3d 266e 1c3d 4e42 24bc
000001f0: f1b3 4fbd bf73 40bd 182a 273e 8f56 d73c
0.009419137 -0.054557323 -0.06724797 0.04489126 -0.00014914264 -0.11853294 -0.12741624 0.0066096312
-0.10422698 -0.079214536 -0.021921488 -0.12398254 -0.0535033 0.09637996 0.031749185 -0.0051443726
0.015367796 0.071488686 -0.011081408 -0.0054555386 0.070187815 -0.023610381 -0.00820074 -0.19654486
-0.0002659981 -0.014458179 -0.033960525 -0.14591224 0.073676474 -0.17021686 0.159536 0.07005188
-0.05409296 0.0145806875 0.088430636 0.054722536 0.028656743 -0.124944456 -0.041872244 0.040316492
0.10651913 0.05768878 -0.007435504 -0.060678385 -0.04444995 -0.062330224 0.03818542 0.060321517
0.13082345 0.05707265 -0.009806453 0.18887582 0.13658307 -0.06351466 0.06338501 -0.1339135
0.010838163 0.083301954 0.013150326 0.052840486 0.04915913 0.12166456 0.020575669 -0.08133894
0.065678634 -0.022447865 0.034476668 -0.015035521 -0.097987086 0.04082492 -0.079931796 -0.055310044
-0.029919336 -0.08972202 0.01842819 -0.026288697 0.14198683 0.021190982 0.16037524 0.101946265
0.15630208 -0.052399337 -0.023509914 -0.028362583 0.020494606 0.05330783 -0.1672654 0.07225699
0.026939707 0.0829223 0.11501736 0.024840424 -0.069701955 -0.0054569356 -0.07495696 0.032742944
-0.11149517 0.07441815 -0.08289222 0.15657511 0.05890527 -0.0359204 0.06322115 -0.011793472
-0.03787159 0.008026217 -0.11072777 -0.05459434 -0.19162934 -0.08426053 -0.060416043 -0.018777402
-0.04399457 -0.04332844 -0.028500948 -0.029812563 0.05855522 -0.07214417 -0.06463171 0.07773465
-0.026103513 0.11638907 0.038190983 -0.010025574 -0.050708715 -0.046985384 0.16324651 0.026286392

conv3.1.running_var f4 [128]
00000000: 2403 883e c9a0 c03e caad 043e fbd3 8d3e
00000010: 2ba2 2f3e e724 bb3e 7106 1b3f 0f8b 473e
00000020: 9ee0 493e 75da b23e 25d9 203e 7ed0 a53e
00000030: 0e56 e33e 1074 c63e 1c0d 093e 3e1f 753e
00000040: 887a da3e a2b3 bd3e 265c 5c3e 1c25 433e
00000050: 2e68 5f3e 4584 833e 2220 823e 7659 b33e
00000060: 8f5a 253e b466 183e 51de 2e3e 1847 013e
00000070: 410f 313e 5e39 bc3e 624a 693e 84f3 1b3f
00000080: 7575 713e 2e82 593e 85b5 5f3e fc00 f33e
00000090: 5419 af3e dae2 063f 6afb 663e fd2b 1d3e
000000a0: 2f5b aa3e ff5c 3e3e 7786 4c3e ef35 ee3e
000000b0: 9248 693e da2e 883e f134 4c3e 3df5 1d3f
000000c0: 9c6f e13e 7f7f 7e3e 85b4 0d3e 58e6 c53e
000000d0: b0dc 743f 5073 093f c7f9 123e 2fd9 983e
000000e0: 982f 8c3e c4a5 8f3e d4bb 6a3e 8a66 783e
000000f0: e783 8f3f 8626 db3e 58fb e93d 7ddc 8a3e
00000100: 3292 263e be64 3a3e 6a26 083e bfbc 483e
00000110: 61f0 0b3f 283a 8f3e acba 2b3e 3e34 c33e
00000120: 56c6 9a3e 52db 513e df79 483e 825c a73e
00000130: 5ce7 5a3e a470 d03e bc32 af3e 7fb5 203f
00000140: ad0f 4d3e bb63 5c3e cd6b d23d 58bc 0e3e
00000150: 6dcc 3f3e 5038 693e 5f71 f43e 8ed4 0c3f
00000160: 9a38 a33e e819 bb3e 7916 153f 9e0f 0a3e
00000170: 1f11 463e 8d80 2b3e 142f 753e beb0 863e
00000180: 24b2 8d3e 5422 fb3e 1081 303e 6f8c 0c3f
00000190: 378f 5a3e 73f5 883e f35b 983e a5d7 613e
000001a0: 4420 443e ddfa e43d 814d 8d3e 999f be3e
000001b0: d8f8 363f 5ccd 4a3e 4f03 893e 5157 803e
000001c0: 2ce6 8c3e 517b 2d3e 16d4 5b3e 7475 513e
000001d0: 3fd1 d13e 2fe6 933e fc54 c53e 1b27 fc3d
000001e0: ae4a 3a3e 7778 073f cd58 4d3e d6be 553e
000001f0: 49bd 803e 3e1c 5d3e 01d5 8b3f 8dc3 af3e
0.26564896 0.3762267 0.1295692 0.2770079 0.17151706 0.36551592 0.60556704 0.1948664
0.19714591 0.34932294 0.15707834 0.3238563 0.44401592 0.38760424 0.13383907 0.23937699
0.4267161 0.3705111 0.21519527 0.19057125 0.21817085 0.2568685 0.2541514 0.3502919
0.16147827 0.14882928 0.17076994 0.12624776 0.17290975 0.36762518 0.22782281 0.6091845
0.23579963 0.21241066 0.21846588 0.4746169 0.3419901 0.526899 0.22556844 0.15348811
0.33272693 0.18590163 0.1997317 0.46525523 0.2278159 0.26598245 0.1994207 0.6170233
0.44030464 0.24853323 0.13838394 0.386523 0.9564924 0.5369158 0.14353095 0.29853198
0.2738006 0.28056157 0.22923213 0.24257866 1.1212128 0.4280283 0.11424893 0.27121344
0.16266707 0.18202493 0.13295904 0.19603251 0.54663664 0.27974057 0.16770428 0.38125795
0.30229443 0.2049382 0.1957774 0.32687765 0.21377319 0.40710938 0.34218395 0.6277694
0.20025511 0.21522419 0.102744676 0.13939035 0.18730326 0.22775388 0.47742745 0.5501183
0.3187912 0.36543202 0.58237416 0.1348252 0.19342469 0.16748257 0.2394374 0.2630672
0.27674973 0.49049628 0.17236733 0.54901785 0.21343695 0.26749763 0.29757652 0.22054918
0.19152933 0.11180661 0.27598193 0.37231138 0.71473455 0.19804901 0.26760337 0.25066617
0.27519357 0.16941573 0.21467623 0.20454961 0.40979955 0.28886554 0.385414 0.12312146
0.1819255 0.5291819 0.20053406 0.2087358 0.25144413 0.21592805 1.0924379 0.3432888
