saved/cnn/sans_serif_cnn.pth (torch, 63386 bytes, 20 tensors)

cnn_block.0.weight f4 [32, 3, 5]
0	0xbc90a9f0	-0.017659158
1	0xbe129909	-0.14316191
2	0xbe7853b3	-0.24250679
3	0xbe564923	-0.20926337
4	0xbda3d049	-0.079987116
5	0x3c921864	0.017833896
6	0xbe56ea02	-0.20987704
7	0xbdd19c9a	-0.102349475
8	0x3dbb84fd	0.09156225
9	0x3e627769	0.22115864
10	0x3db50ffc	0.088409394
11	0x3dc2ac17	0.0950548
12	0x3e15862c	0.14601964
13	0x3e6dbb0e	0.23215887
14	0x3d9b88b8	0.075944364
15	0x3d97ebb9	0.074180074
16	0x3d376221	0.044771317
17	0xbd564726	-0.052313946
18	0xbdd8b76a	-0.105818585
19	0xbd5926e2	-0.053015597
20	0x3e5759cd	0.2103035
21	0x3e926d39	0.28598955
22	0xbd86f665	-0.06589965
23	0x3dfdec31	0.123985656
24	0xbd8099a9	-0.06279308
25	0xbe1cc122	-0.1530805
26	0xbd275d9f	-0.04086077
27	0x3e53748f	0.20649932
28	0x3e49afaa	0.19695917
29	0x3e822b6b	0.2542375
30	0x3e26f895	0.16305764
31	0xbcf3622f	-0.029709904
32	0x3ea63a13	0.32466182
33	0xbcfadf10	-0.030623943
34	0xbe268a19	-0.16263618
35	0xbde99d51	-0.11406959
36	0xbe20c031	-0.15698315
37	0xbe84525d	-0.25844088
38	0x3e285467	0.16438447
39	0x3b814452	0.003944912
40	0xbe827d35	-0.2548615
41	0xbe25f090	-0.16205049
42	0x3e767825	0.24069269
43	0xbe582567	-0.21108018
44	0x3dd8fdf4	0.10595313
45	0xbc8d600a	-0.017257709
46	0xbe6609f5	-0.22464736
47	0xbe8b59e7	-0.27217028
48	0x3d1d3a2a	0.038385548
49	0x3e4b9301	0.19880296
50	0xbd8a3982	-0.0674925
51	0x3e610ff1	0.21978737
52	0xbe785cae	-0.24254104
53	0xbe7bfe7d	-0.24608798
54	0x3e3baf32	0.1832855
55	0x3e519115	0.204655
56	0xbd520956	-0.051278435
57	0x3e6c8e67	0.23101197
58	0x3e3c4412	0.18385342
59	0xbc8ad83b	-0.01694881
60	0xbdcfa369	-0.1013859
61	0xbc6a9352	-0.01431735
62	0xbe12886e	-0.14309856
63	0xbd9b9b2e	-0.075979576
64	0xbe47ab75	-0.19499
65	0x3c1fd0e7	0.009754396
66	0x3e0294a6	0.12752017
67	0xbdb10dc4	-0.08645204
68	0xbe755957	-0.23959862
69	0x3e3d9385	0.18513305
70	0xbd0f7730	-0.035025775
71	0x3d42e979	0.047585938
72	0x3e260db0	0.16216159
73	0xbd47e878	-0.048805684
74	0x3e6ae9d3	0.2294076
75	0x3d837927	0.06419592
76	0xbdbbbc9f	-0.09166836
77	0x3e23e6c6	0.16006002
78	0xbe2cda64	-0.16880184
79	0xbd6fe0ea	-0.058564104
80	0x3e593987	0.21213351
81	0xbea7da53	-0.32783756
82	0x3e4d569d	0.20052572
83	0x3dd21ced	0.102594234
84	0xbdf40f51	-0.11916984
85	0x3de7c37a	0.11316581
86	0xbd71fcd1	-0.059078995
87	0xbcd3fd6c	-0.025877677
88	0xbbc5e6d3	-0.0060394793
89	0xbe14f3b0	-0.14546084
90	0xbdf596e2	-0.11991669
91	0x3df76146	0.120791
92	0x3cf6afbe	0.030113097
93	0x3d3c56b8	0.04598114
94	0x3e0ea84b	0.13931386
95	0x3beb9dfe	0.007190465
96	0x3e3c3bc3	0.18382172
97	0x3dcd94d2	0.10038151
98	0x3d7f713c	0.062363848
99	0xbe736d16	-0.23772082
100	0xbd2a62e3	-0.041598212
101	0x3db14e31	0.08657492
102	0x3df5f319	0.12009258
103	0x3e073a50	0.13205838
104	0x3d478349	0.048709188
105	0x3e9aaa28	0.30207944
106	0xbc52e15a	-0.012871111
107	0xb9a786b8	-0.00031953095
108	0xbe686ae3	-0.22697024
109	0xbe56df53	-0.20983629
110	0x3dde46d0	0.1085335
111	0x3d489549	0.048970494
112	0x3b6c1f74	0.003602949
113	0xbe781579	-0.24226941
114	0x3e8564fe	0.26053613
115	0x3bba0edc	0.005678041
116	0xbe695b8b	-0.22788827
117	0xbe0fd142	-0.1404467
118	0xbe52e5c0	-0.20595455
119	0x3dde926b	0.10867771
120	0xbe3cfe45	-0.18456371
121	0x3e5ca648	0.21547806
122	0x3db7e588	0.089793265
123	0xbe45a1e6	-0.1930004
124	0xbd50b585	-0.05095436
125	0x3e8325b6	0.2561471
126	0xbd466f51	-0.048446003
127	0xbd71802d	-0.05896013
128	0xbda2b475	-0.07944576
129	0xbe57309a	-0.21014634
130	0x3e006421	0.12538196
131	0x3cc6cc49	0.024267333
132	0xbe2258cd	-0.15854187
133	0x3e6ac404	0.22926337
134	0x3e375cff	0.17906569
135	0xbd019fd9	-0.031646583
136	0x3d92572b	0.07145532
137	0x3d48cdd1	0.049024407
138	0xbd87f063	-0.06637647
139	0xbd045076	-0.032303296
140	0xbe9f4296	-0.3110549
141	0xbe6586a1	-0.22414638
142	0x3e8aa4ce	0.2707886
143	0x3e645347	0.22297393
144	0x3e09129d	0.13386007
145	0xbe16518a	-0.14679542
146	0xbd8d3f49	-0.06896836
147	0xbe2113c2	-0.15730193
148	0x3e4183a3	0.18897872
149	0xbd8590c4	-0.065217525
150	0xbe00799e	-0.12546393
151	0x3e9b04f3	0.30277213
152	0xbe6c6e28	-0.23088896
153	0xbe3ecb7a	-0.18632308
154	0x3e03e7b6	0.1288136
155	0x3d72cbbd	0.05927633
156	0xbc94494b	-0.018101355
157	0x3d702257	0.0586265
158	0x3c94f16e	0.018181529
159	0xbd69232a	-0.0569183
160	0xbd4e1ea0	-0.050322175
161	0x3dea9355	0.114538826
162	0xbe3532c8	-0.17695153
163	0x3e5ac5fe	0.2136459
164	0xbd0fa3d7	-0.03506836
165	0xbdcb8d72	-0.09939088
166	0xbd8e7eb5	-0.06957761
167	0xbd8757a9	-0.06608517
168	0xbca3f97b	-0.020016422
169	0x3e84c371	0.2593036
170	0xbe0ab85a	-0.13546887
171	0x3e082b1d	0.13297696
172	0xbe2fa5d5	-0.17153104
173	0xbe7527cf	-0.23940967
174	0x3d931568	0.07181817
175	0x3e2cfa7b	0.16892426
176	0x3dcddc66	0.10051803
177	0xbe337687	-0.17525683
178	0xbe16ba71	-0.14719559
179	0xbcdc65f7	-0.02690409
180	0x3e12ac50	0.14323545
181	0x3db270c0	0.087129116
182	0xbe17c260	-0.14820242
183	0x3db1e4f3	0.08686247
184	0x3dd953e0	0.10611701
185	0x3de314a3	0.110879205
186	0x3cce3684	0.02517248
187	0x3da62f0c	0.08114442
188	0x3dd3a34e	0.10333882
189	0xbe591539	-0.21199502
190	0xbe37b9cb	-0.17941968
191	0xbd9c2953	-0.076250695
192	0x3db59d58	0.088679016
193	0x3e455d05	0.19273765
194	0x3de7dc13	0.11321273
195	0xbd8969fb	-0.06709667
196	0x3d591476	0.05299803
197	0xbe13a75f	-0.14419316
198	0xbd6a2b68	-0.0571703
199	0x3e346b7e	0.1761913
200	0xbe22622c	-0.15857762
201	0x3d55739c	0.052112207
202	0xbd8df6f0	-0.06931865
203	0xbddece35	-0.108791746
204	0x3dff77c0	0.124740124
205	0x3e828715	0.25493684
206	0x3b4a3c07	0.0030858533
207	0xbdcd9301	-0.100378044
208	0xbe7311e2	-0.2373729
209	0xbe234da2	-0.15947583
210	0x3c38889e	0.011263041
211	0x3deaceec	0.114652485
212	0x3d60ff93	0.054931235
213	0x3d722b40	0.059123278
214	0x3e62fc0f	0.22166465
215	0x3e842e0d	0.25816384
216	0xbe057eac	-0.13036603
217	0xbdb7ed81	-0.08980847
218	0x3e635678	0.22200954
219	0x3e2d37a2	0.16915753
220	0xbe2bdefa	-0.16784278
221	0x3bdd3795	0.0067510107
222	0xbdf6a1f1	-0.120426066
223	0x3dea49db	0.11439868
224	0x3d089fa9	0.03335539
225	0x3e30871d	0.17239042
226	0x3d7eb3d8	0.06218323
227	0xbe5c6fb7	-0.21526991
228	0xbe5d25e2	-0.21596482
229	0x3ddd0a64	0.107929975
230	0x3e434b9e	0.19071814
231	0xbcadd1a3	-0.021218127
232	0x3e75a5d5	0.23989041
233	0x3dd63008	0.1045838
234	0x3e6158bd	0.22006507
235	0xbdaec5a4	-0.08533791
236	0x3ce5451a	0.027987052
237	0xbba6a4d8	-0.005085569
238	0xbe10be2e	-0.14135048
239	0xbe74953a	-0.2388505
240	0x3e13d213	0.14435606
241	0xbe494689	-0.19655813
242	0x3d883ada	0.0665185
243	0xbe6419a1	-0.22275402
244	0xbe1b2068	-0.15149081
245	0x3e255b9e	0.1614823
246	0x3e47f289	0.19526114
247	0x3dc6ad4e	0.09701024
248	0x3e2fa86a	0.17154089
249	0x3e6611c1	0.2246771
250	0xbdcb0e3e	-0.09914826
251	0x3d9aa11c	0.075502604
252	0xbde8b419	-0.11362476
253	0x3e464b57	0.19364677
254	0x3e6712de	0.22565791
255	0x3e0a72c1	0.13520338

cnn_block.0.bias f4 [32]
0	0xbd84cade	-0.06484006
1	0xbcf93f45	-0.030425677
2	0x3e5e9061	0.21734764
3	0xbdee6b1a	-0.11641522
4	0x3df377ae	0.118880615
5	0xbd6cf727	-0.05785289
6	0x3e159cf5	0.14610656
7	0xbde0ebc6	-0.1098247
8	0xbe7a3a39	-0.24436273
9	0x3e18245c	0.1485762
10	0xbe027561	-0.12740089
11	0xbe3c925b	-0.18415205
12	0xbd1b9afd	-0.037989605
13	0x3dee5718	0.116377056
14	0xbceb07f5	-0.028690318
15	0xbe78de0b	-0.24303453
16	0xbd5f85f1	-0.054571096
17	0xbd0893b7	-0.033343997
18	0x3e0806d1	0.1328385
19	0xbc751e55	-0.014960845
20	0x3e2e47fa	0.17019644
21	0xbe7da4df	-0.24769925
22	0x3e35c1eb	0.17749755
23	0xbd2060d1	-0.03915483
24	0x3d411604	0.047140136
25	0xbcd396dc	-0.025828771
26	0xbd654994	-0.055978373
27	0x3e417e90	0.18895936
28	0x3d79c9a2	0.060983308
29	0x3be5e9b6	0.007016386
30	0x3e3666cf	0.17812656
31	0xbd62c31c	-0.055361852

cnn_block.1.weight f4 [32]
0	0x3f810b64	1.0081601
1	0x3f74e4f5	0.9566186
2	0x3f87cddc	1.0609698
3	0x3f807af3	1.0037521
4	0x3f80ca0e	1.0061662
5	0x3f78f4b2	0.97248375
6	0x3f6f6faf	0.9352979
7	0x3f82d1ca	1.0220273
8	0x3f84c4f6	1.0372608
9	0x3f81c62f	1.0138606
10	0x3f814f0b	1.0102247
11	0x3f808177	1.003951
12	0x3f7216ed	0.9456623
13	0x3f80f434	1.0074525
14	0x3f69f85d	0.913946
15	0x3f71901a	0.94360507
16	0x3f73abe6	0.9518417
17	0x3f89949d	1.0748478
18	0x3f6d75c5	0.9275783
19	0x3f6fc8e0	0.93665886
20	0x3f845ac7	1.0340203
21	0x3f6dee9d	0.9294222
22	0x3f8dcea8	1.1078691
23	0x3f88a9de	1.0676839
24	0x3f85c208	1.0449839
25	0x3f82cf72	1.0219557
26	0x3f79accf	0.9752931
27	0x3f77e34f	0.9683122
28	0x3f80403e	1.0019605
29	0x3f83120e	1.0239885
30	0x3f7d7966	0.99013364
31	0x3f883fdc	1.0644488

cnn_block.1.bias f4 [32]
0	0x3c941e8d	0.018080974
1	0xbc4c3604	-0.01246405
2	0x3ce0011a	0.027344275
3	0xbb248ef5	-0.0025109623
4	0x3c9816c4	0.018565543
5	0xbc9f62ed	-0.019456351
6	0xbc33e947	-0.010980911
7	0x3c9640c1	0.018341424
8	0x3b1e540f	0.002415899
9	0xbbd3d7b2	-0.006464922
10	0xbb812b52	-0.0039419318
11	0xbc957825	-0.018245766
12	0xbd2d6015	-0.04232796
13	0x3c2e609d	0.010643152
14	0xbb50c11e	-0.0031853388
15	0xbb8a3400	-0.0042176247
16	0xbc956a0f	-0.01823905
17	0x3ccba2f2	0.024857972
18	0xbc14f6e7	-0.009092069
19	0x3c4cf739	0.012510114
20	0x3c4624a0	0.012093693
21	0xbc979e4a	-0.018508095
22	0xbc337f8e	-0.010955704
23	0xbc37908e	-0.011203898
24	0xbc107188	-0.00881613
25	0x3aecb66a	0.0018059735
26	0x3b583702	0.0032991772
27	0x3ad988a7	0.0016596512
28	0x3bd1e47f	0.0064054127
29	0xbc6ebe00	-0.014571667
30	0xbb7720c2	-0.0037708734
31	0xbb2a1c52	-0.0025956822

cnn_block.1.running_mean f4 [32]
0	0xc0a15ea0	-5.042801
1	0x40804fa4	4.0097218
2	0xbf93b263	-1.1538814
3	0xc06a84e1	-3.6643603
4	0xc06ee5d2	-3.732777
5	0xbcbfc88b	-0.023411056
6	0x4034dc19	2.8259337
7	0x3f2af4e1	0.66779906
8	0xc00ec482	-2.230744
9	0x3f32bdd7	0.6982092
10	0xbeae06a9	-0.33989456
11	0xc05b6677	-3.428129
12	0x4045aaff	3.0885618
13	0xbfe37eba	-1.7773049
14	0x40e56de3	7.169664
15	0x40bc0ecb	5.876806
16	0x40a672c6	5.2015104
17	0xc002dabe	-2.044601
18	0x408a426f	4.3206096
19	0x401d56fc	2.458434
20	0xbf736ccf	-0.95087904
21	0x409a68ae	4.8252783
22	0xbeb12c5e	-0.34604162
23	0xbe937229	-0.28798035
24	0x3dcf5076	0.101227686
25	0xc045c4c3	-3.0901344
26	0x3f084f9d	0.5324648
27	0x3ff553ec	1.9166236
28	0xc0f38460	-7.609909
29	0xbe41fd6c	-0.18944329
30	0x3f7416eb	0.9534747
31	0xbf93ffdc	-1.1562457

cnn_block.1.running_var f4 [32]
0	0x4525c092	2652.0356
1	0x44e5ecf9	1839.4054
2	0x4426aa93	666.6652
3	0x449c3594	1249.6743
4	0x44b478de	1443.7771
5	0x42ac1972	86.0497
6	0x444c543d	817.3162
7	0x43ab8a31	343.07962
8	0x441bd32a	623.29944
9	0x43f67b3b	492.96274
10	0x42732688	60.78763
11	0x4488e16a	1095.0442
12	0x44664566	921.08435
13	0x43c78602	399.04694
14	0x4590d5f4	4634.744
15	0x4579fce9	3999.807
16	0x456602be	3680.1714
17	0x43f90c71	498.0972
18	0x44d0ee4c	1671.4468
19	0x444a5158	809.271
20	0x4379fc05	249.98445
21	0x450a8472	2216.2778
22	0x43349d95	180.61555
23	0x44536d2d	845.7059
24	0x43e0ab39	449.33768
25	0x4496ac81	1205.3907
26	0x43194d49	153.3019
27	0x43ecacd5	473.35025
28	0x45b45674	5770.8066
29	0x439f888f	319.06686
30	0x44a9538a	1354.6106
31	0x43d327cd	422.31094

cnn_block.4.weight f4 [64, 32, 5]
0	0x3ccf195e	0.02528065
1	0xbdad69b0	-0.08467424
2	0x3d02a0a9	0.0318915
3	0xbb9afab6	-0.004729594
4	0xbd11e11f	-0.035615083
5	0x3ce3643c	0.027757756
6	0xbdce6e42	-0.10079624
7	0xbcfac906	-0.030613434
8	0xbd76b892	-0.060234614
9	0x3d4e2fbe	0.0503385
10	0x3a6b8d1a	0.00089855643
11	0xbd384436	-0.044986926
12	0x3bcd7335	0.0062698373
13	0x3d0b9fbf	0.034087893
14	0x3d4b3dcb	0.049619477
15	0xbd483229	-0.04887596
16	0x3d3b34e7	0.04570475
17	0xbd45ee5e	-0.048323028
18	0x3d23c734	0.039984897
19	0x3daa3602	0.083110824
20	0xbc7d3b6f	-0.015456065
21	0xbc9ba8ef	-0.019001452
22	0xbcc00ba0	-0.023443043
23	0x3c2cdd20	0.010550767
24	0x3d1774ae	0.03697651
25	0x3db814d7	0.0898835
26	0x3d0000d8	0.031250805
27	0x3da41e7c	0.08013627
28	0x3db28de2	0.08718468
29	0x3ca130c3	0.019676572
30	0xbcffa91d	-0.03120857
31	0x3d0bde01	0.034147266
32	0x3c6ee7c9	0.014581629
33	0xbd46c23a	-0.048525073
34	0x3c92a9f2	0.017903302
35	0xbdbd81fe	-0.0925331
36	0x3daaa8e7	0.08332997
37	0xbd35ac07	-0.04435351
38	0xbc21f852	-0.009885864
39	0x3cd3291c	0.025776438
40	0x3d77a172	0.0604567
41	0x3c6e0b47	0.014529056
42	0x3d34293a	0.04398463
43	0x3cc85355	0.024453798
44	0x3d59d3aa	0.053180374
45	0x3d08fa2b	0.033441704
46	0xbcc6e432	-0.024278734
47	0x3d857010	0.06515515
48	0xbd2ff4cd	-0.04295807
49	0x3d752bdf	0.05985629
50	0xbd5e0c92	-0.054211207
51	0x3d1cb9c1	0.038263086
52	0x3b3e5d54	0.0029047327
53	0x3d9a6fe9	0.075408764
54	0x3cc6903c	0.024238698
55	0xbc52bebd	-0.012862858
56	0xbd561f30	-0.052275836
57	0xbb295b00	-0.0025841594
58	0xbcb2488d	-0.02176311
59	0xbd983a1f	-0.07432961
60	0xbd67a8c0	-0.056557417
61	0x3ca115dc	0.019663744
62	0xbb0e6ee6	-0.002173358
63	0x3d771cbb	0.060330134
64	0x3d56e713	0.052466463
65	0x3daac126	0.083376214
66	0x3d3563f6	0.044284783
67	0xbc354bf1	-0.011065469
68	0x3c0a185e	0.008428661
69	0x3da32961	0.07966877
70	0xbd6dbe5c	-0.05804287
71	0xbda76c77	-0.08174985
72	0xbd598db8	-0.05311367
73	0x3d30dece	0.043181233
74	0xbcd77093	-0.026298797
75	0xbc4625c1	-0.012093962
76	0x3d88d684	0.066815406
77	0x3d9a89de	0.07545827
78	0x3daeadbe	0.085292324
79	0xbbf739e4	-0.007544743
80	0xbc145c4a	-0.009055207
81	0x3cf42520	0.029802859
82	0x3d4568e4	0.048195735
83	0x3d4054a2	0.046955712
84	0xbd9741f2	-0.07385625
85	0xbd7ed2ff	-0.06221294
86	0xbd642d04	-0.055706993
87	0xbd0a5b13	-0.03377826
88	0x3d8aecfa	0.06783481
89	0x3d04bfb2	0.032409377
90	0x3c18f17d	0.009334919
91	0xbc37ec90	-0.0112258345
92	0x3d589887	0.052879836
93	0xbcf79f7d	-0.030227417
94	0x3db11dd7	0.086482696
95	0xbcdb3a76	-0.026761275
96	0xbd9cb663	-0.07651975
97	0x3d8ae9b3	0.06782856
98	0x3d89d05b	0.06729194
99	0x3d43c7c8	0.047797948
100	0xbcc39d61	-0.023878755
101	0x3d682095	0.056671698
102	0x3dafe943	0.08589413
103	0xbac7aceb	-0.0015234029
104	0x3d112214	0.03543289
105	0xbd3efd4a	-0.046628274
106	0x3d176faf	0.036971744
107	0x3ca0a757	0.019611044
108	0x3d2692e5	0.040667433
109	0x3d70d7d6	0.058799587
110	0xbd42c6b8	-0.047552794
111	0x3d82655f	0.06366991
112	0x3cb7e659	0.022448706
113	0x3b937d8f	0.0045010517
114	0x3bf9d3ad	0.0076241107
115	0xbd02fc84	-0.0319791
116	0x3d644a48	0.055734903
117	0x3acc5b86	0.0015591241
118	0x3d3d7276	0.046251737
119	0x3dadb2a9	0.08481342
120	0xbdd4f88e	-0.103989705
121	0x3a834fce	0.001001829
122	0xbd354492	-0.044254847
123	0xbc8e4945	-0.017368922
124	0xbd97dd72	-0.07415284
125	0x3d743c02	0.05962754
126	0x3d05e047	0.03268459
127	0xbd5c714b	-0.053818982
128	0x3d03dbcc	0.032192037
129	0x3d8eb6ec	0.06968483
130	0xbd293ca5	-0.0413176
131	0xbc693300	-0.014233351
132	0xbb952311	-0.0045512994
133	0xbcbac2ba	-0.022797931
134	0xbb05226b	-0.0020314704
135	0xbde77eea	-0.11303504
136	0xbaf8a161	-0.0018968993
137	0xbcb6d9c3	-0.022320634
138	0xbd12f1db	-0.035875183
139	0xbc557330	-0.013027951
140	0xbd3d6490	-0.046238482
141	0x3d40a169	0.047028933
142	0xbd0f670f	-0.035010394
143	0x3cb773f0	0.02239415
144	0xbc94520a	-0.018105526
145	0xbdee22ca	-0.11627729
146	0xbce7f998	-0.028317258
147	0xbadf9f0f	-0.0017060953
148	0xbb6bb375	-0.003596512
149	0x3d44ec64	0.048077002
150	0xbd7fd8ad	-0.062462498
151	0xbd165656	-0.03670343
152	0x3bbcd40b	0.005762582
153	0xbcac0ab7	-0.021001203
154	0xbc191775	-0.0093439715
155	0x3de231dd	0.11044667
156	0x3cb17e13	0.021666562
157	0xbbaf4133	-0.0053483485
158	0xbcf66096	-0.030075353
159	0x3c51affa	0.012798304
160	0xbd774df5	-0.06037708
161	0xbd21eafd	-0.039530743
162	0xbd34e31b	-0.044161897
163	0x3d7bcaa5	0.061472554
164	0xbd72b8a7	-0.05925813
165	0x3c4a256a	0.012338022
166	0xbd217a61	-0.03942335
167	0x3c09da74	0.0084139
168	0x3dba47d1	0.09095729
169	0x3d7e0915	0.06202038
170	0xbd52b52a	-0.051442303
171	0xbd908ff3	-0.07058706
172	0xbd324f15	-0.04353245
173	0xbc076683	-0.008264187
174	0xbc1bd381	-0.009510876
175	0xbc33e3f3	-0.01097964
176	0xbd848b51	-0.06471885
177	0x3d8b3aec	0.06798348
178	0xbd2513de	-0.04030215
179	0x3cb0db6b	0.021589002
180	0x3cce1a64	0.025159068
181	0xbd0fa54d	-0.035069752
182	0x3d8bc528	0.06824714
183	0xbd139458	-0.036030143
184	0x3d31f3ad	0.043445278
185	0xbd381af0	-0.044947565
186	0x3af16a19	0.001841846
187	0x3d0122d5	0.03152736
188	0x3d502b5d	0.050822604
189	0x3d13f4d3	0.036122154
190	0xbd2d88d1	-0.042366806
191	0xbcffb583	-0.031214481
192	0x3d468cfc	0.048474297
193	0x3d2845bc	0.04108213
194	0x3daefe25	0.08544568
195	0x3d87e031	0.06634558
196	0xbc21136a	-0.009831289
197	0xbd51661d	-0.051122773
198	0xbd393678	-0.04521796
199	0x3d192ca5	0.037396092
200	0xbcad7b37	-0.021176917
201	0xbca25311	-0.019815
202	0x3aeb150d	0.0017935351
203	0x3d31fd20	0.04345429
204	0x3d95ccd8	0.073144615
205	0x3d4d3d45	0.05010726
206	0xba879c23	-0.0010346215
207	0x3c5a4ec8	0.013324447
208	0x3d871428	0.065956414
209	0xbc11d522	-0.0089009125
210	0x3d0af578	0.033925503
211	0xbd38ae04	-0.04508783
212	0x3b95e94b	0.00457493
213	0xbd327fe5	-0.043579
214	0xbd029d63	-0.031888377
215	0xbcec248b	-0.028826019
216	0xbc71703d	-0.014736232
217	0x3ccec827	0.025241924
218	0x3c8211d6	0.015877645
219	0x3d6be1f1	0.05758852
220	0x3ac2282e	0.0014813
221	0xbd03d253	-0.032183003
222	0xbcb2c73d	-0.02182352
223	0xbd1ce3f8	-0.038303345
224	0x3d4a4dbf	0.04939055
225	0x3cc8559f	0.02445489
226	0xbd09d239	-0.03364775
227	0xbda89aef	-0.08232676
228	0xbd4c7b27	-0.049922135
229	0xbcda48a9	-0.026645975
230	0x3b8157dc	0.003947241
231	0xbcf2101f	-0.029548703
232	0xbc886d3d	-0.016653651
233	0x3cc1ce76	0.023658019
234	0x3bf51dd0	0.0074803606
235	0xbc19dff0	-0.00939177
236	0x3d04f90a	0.032464065
237	0x3dbc78f8	0.092027605
238	0x3c70432f	0.014664455
239	0x3d3dee45	0.04636981
240	0xbd655ec4	-0.05599858
241	0x3cb156c4	0.021647818
242	0x3d9cf7ad	0.07664428
243	0x3d8e33f9	0.06943507
244	0xbce13eba	-0.02749573
245	0xbd4f6756	-0.05063566
246	0x3d176482	0.036961086
247	0xbc8d6574	-0.01726029
248	0xbd259464	-0.04042472
249	0xbcacc200	-0.0210886
250	0xbdbac7e2	-0.09120156
251	0x3d9bcab4	0.07607022
252	0xbd79b6c8	-0.06096533
253	0x3d7ebd8a	0.062192477
254	0x3dba1137	0.09085315
255	0xbd4cc355	-0.04999097

cnn_block.4.bias f4 [64]
0	0x3cd2cfd0	0.025733858
1	0x3c212b9c	0.009837057
2	0xbc5fe996	-0.013666531
3	0x3ca95fbf	0.020675538
4	0xbd986eca	-0.07443006
5	0xbcc7a4e0	-0.02437061
6	0xbd988db4	-0.07448903
7	0xbd99614e	-0.074892625
8	0xbd547f04	-0.051878944
9	0x3d2c592d	0.042077232
10	0x3d91cdfb	0.07119366
11	0x3c12b7c4	0.008954946
12	0xbc99d429	-0.018777924
13	0xbcb9826c	-0.022645198
14	0xbd7b1414	-0.061298445
15	0xbd0c5eda	-0.034270145
16	0x3c8b40d7	0.016998691
17	0x3ca23448	0.01980032
18	0x3cd9a62a	0.026568491
19	0x3d1e5f60	0.038665175
20	0xbba0a16e	-0.0049020564
21	0xbbcc000d	-0.006225592
22	0xbd486bbf	-0.04893088
23	0x3d42f363	0.047595393
24	0x3ce08fcf	0.027412323
25	0x3d9ff0f2	0.078096285
26	0x3d2c2a34	0.042032436
27	0xbcd4bac5	-0.025967965
28	0xbd5e8a2a	-0.054330982
29	0x3d55b037	0.052170005
30	0xbc2afd0e	-0.0104363095
31	0x3d50e89a	0.051003076
32	0x3c758d52	0.014987307
33	0xbcda1d10	-0.026625186
34	0xbc1320e8	-0.008980013
35	0xbba2190c	-0.0049468335
36	0x3cc60535	0.024172405
37	0xbd3ab7a1	-0.04558528
38	0x3c2544c3	0.010087195
39	0xbb5a4780	-0.0033306777
40	0xb9915d37	-0.00027726006
41	0xbd9b162a	-0.07572587
42	0xbce312ce	-0.027718928
43	0x3d486c46	0.048931383
44	0x3d058af9	0.032603238
45	0xbc802119	-0.015640782
46	0x3d92cdaa	0.071681336
47	0xbd20b891	-0.039238516
48	0xbd9d2be2	-0.076743856
49	0x3bab6a11	0.00523115
50	0x3ccb5c7b	0.024824372
51	0xbcea83fe	-0.028627392
52	0x3d80b238	0.062839925
53	0xbccc3dfd	-0.024931902
54	0xbd661c1f	-0.056179162
55	0xbc1f2033	-0.009712267
56	0xbd77f8fe	-0.06054019
57	0x3d24df9d	0.040252317
58	0xbcdc7e1d	-0.026915604
59	0xbae70ac5	-0.0017627111
60	0xbcec2ced	-0.028830016
61	0x3cdb2375	0.026750306
62	0xbcbbf86d	-0.022945607
63	0xbc9d965a	-0.019236732

cnn_block.5.weight f4 [64]
0	0x3f7f8a00	0.99819946
1	0x3f7a0a87	0.97672313
2	0x3f800565	1.0001646
3	0x3f8070cc	1.0034423
4	0x3f8127e2	1.0090296
5	0x3f80eaca	1.0071652
6	0x3f78c503	0.97175616
7	0x3f7daa9d	0.9908846
8	0x3f8a7ffc	1.0820308
9	0x3f736893	0.9508144
10	0x3f7ea812	0.99475205
11	0x3f80be1c	1.0058017
12	0x3f80baea	1.0057042
13	0x3f88e3cf	1.0694522
14	0x3f782137	0.9692568
15	0x3f801e19	1.0009185
16	0x3f826130	1.0185909
17	0x3f803d8e	1.0018785
18	0x3f82d397	1.0220822
19	0x3f82841a	1.0196564
20	0x3f8bd37b	1.0923914
21	0x3f807dbf	1.0038375
22	0x3f7c0877	0.98450416
23	0x3f801c02	1.0008547
24	0x3f83d174	1.0298295
25	0x3f80971c	1.0046115
26	0x3f7f736b	0.9978549
27	0x3f803384	1.0015721
28	0x3f814fb8	1.0102453
29	0x3f803e81	1.0019075
30	0x3f8d0233	1.1016296
31	0x3f84ef65	1.0385557
32	0x3f7fc50b	0.9991004
33	0x3f825c81	1.018448
34	0x3f800a54	1.0003152
35	0x3f7aa264	0.9790404
36	0x3f83b7a9	1.0290424
37	0x3f80c778	1.0060873
38	0x3f7fdb1c	0.9994371
39	0x3f7a4c65	0.9777282
40	0x3f804881	1.0022126
41	0x3f7b3bcc	0.9813812
42	0x3f796667	0.9742188
43	0x3f819d3d	1.012611
44	0x3f802c65	1.0013548
45	0x3f7ff031	0.9997588
46	0x3f859757	1.043681
47	0x3f81354f	1.0094393
48	0x3f7ff9bf	0.9999046
49	0x3f814a46	1.0100791
50	0x3f7ff45d	0.99982244
51	0x3f8527c7	1.0402764
52	0x3f807562	1.0035822
53	0x3f8101ab	1.0078634
54	0x3f81fdd7	1.0155591
55	0x3f7fee31	0.99972826
56	0x3f86b2eb	1.0523351
57	0x3f8090e5	1.0044218
58	0x3f8153b1	1.0103666
59	0x3f84938d	1.0357529
60	0x3f800715	1.0002161
61	0x3f81b895	1.0134455
62	0x3f8652a7	1.0493973
63	0x3f860d17	1.0472745

cnn_block.5.bias f4 [64]
0	0xbc1ed5e2	-0.009694548
1	0xbaec4327	-0.0018025384
2	0xba72394f	-0.0009240107
3	0x3a9d828e	0.0012017058
4	0x3c0a00ed	0.008423072
5	0xbc1a7cfc	-0.009429213
6	0xbc3ebb35	-0.011641313
7	0xbbe66c6a	-0.007031967
8	0xbcfa0903	-0.030521875
9	0xbc12fa6a	-0.008970836
10	0xbc82d0d5	-0.01596872
11	0xbb0f1ce6	-0.0021837293
12	0x3bcd81c4	0.006271573
13	0xbd3a69d0	-0.045511067
14	0xba9faee6	-0.0012182861
15	0xbbb2aef6	-0.005452986
16	0xbbca3d62	-0.006171868
17	0x39e857ef	0.00044316004
18	0xbb2f9498	-0.002679145
19	0xbb6da8ff	-0.003626406
20	0x3bdfd958	0.0068313293
21	0x3c0db2e2	0.008648606
22	0xb9bcb3ea	-0.000359922
23	0x3b578f87	0.0032891945
24	0x3be96315	0.007122407
25	0xbc2977b4	-0.010343481
26	0x3bb8f08d	0.0056439103
27	0x3c3f95ac	0.011693399
28	0xbcd2ba45	-0.025723586
29	0x3bcf422c	0.006325027
30	0xbc85ebf3	-0.01634786
31	0x3b5d3224	0.003375181
32	0x3b45cc23	0.003018149
33	0x3bf9dab6	0.0076249493
34	0x3b966048	0.0045891143
35	0xbad80851	-0.0016481971
36	0xbbe7449b	-0.007057739
37	0x3be37868	0.006941844
38	0xbbe271ec	-0.006910553
39	0xbbadb556	-0.005301158
40	0xbbcacda9	-0.0061890674
41	0xbc4175e9	-0.011807897
42	0x39e6164a	0.00043885625
43	0x3b065be6	0.0020501553
44	0xbb76a80c	-0.0037636785
45	0x3b9a8b61	0.0047163223
46	0xbcb9c578	-0.022677168
47	0xba42c5ad	-0.00074299687
48	0xbb102a3e	-0.0021997835
49	0xbbe31434	-0.0069298986
50	0xbcd57115	-0.026054898
51	0xbb10a83c	-0.0022072932
52	0x3b6938c1	0.0035586806
53	0x3ba4a32d	0.005024335
54	0xbb045f71	-0.002019849
55	0xbac7cd40	-0.0015243664
56	0x39e72484	0.0004408696
57	0x3b4a9695	0.0030912508
58	0xbaee2a20	-0.0018170513
59	0xbc2736e1	-0.010205955
60	0x3b2f7424	0.0026772106
61	0xbba0b770	-0.00490468
62	0xbccf6e8c	-0.025321268
63	0xbc97458a	-0.018465776

cnn_block.5.running_mean f4 [64]
0	0x3db1165d	0.086468436
1	0xbd85a59f	-0.0652573
2	0xbdb8c493	-0.090218686
3	0x3d75dac6	0.06002309
4	0xbe09300d	-0.13397236
5	0xbd86560b	-0.0655938
6	0xbdb022c1	-0.08600379
7	0xbd90d65c	-0.07072136
8	0xbd856dcc	-0.06515083
9	0x3e1687ad	0.14700194
10	0x3e1bdebe	0.15221688
11	0x3c8b471a	0.017001677
12	0xbd1ded71	-0.03855652
13	0xbdfbdd77	-0.122981004
14	0xbd8f1d87	-0.06988054
15	0xbcf9dccb	-0.03050079
16	0xbcb0628d	-0.021531368
17	0xbc81d802	-0.01585007
18	0x3d5bc6f3	0.05365653
19	0x3cafccf9	0.021460043
20	0x3b61a9b9	0.0034433438
21	0xbd5e4f3c	-0.054274783
22	0x3c6dbdc6	0.014510578
23	0x3d820f41	0.06350566
24	0x3da12678	0.078686655
25	0x3db111a9	0.086459465
26	0x3d9986f3	0.07496443
27	0xbadde897	-0.0016930279
28	0x3c1e5d27	0.009665764
29	0xbd943d4a	-0.072382525
30	0x3d3ff251	0.04686195
31	0x3d1c6794	0.038184717
32	0xbd4260fb	-0.04745577
33	0xbcc1e759	-0.023669885
34	0xbda5a561	-0.08088184
35	0xbb94fa72	-0.004546457
36	0xbd4767a0	-0.04868281
37	0xbe1b837f	-0.1518688
38	0xbd345536	-0.044026576
39	0x3cfca666	0.030841064
40	0x3dd62b3f	0.10457467
41	0xbd7a8d89	-0.061170135
42	0x3dcb06b4	0.09913388
43	0x3b7d62d1	0.0038663635
44	0xbd5aecb3	-0.05344839
45	0xbe0a381f	-0.13497971
46	0xbcd4acb9	-0.025961267
47	0xbd7397b0	-0.059470832
48	0xbdd9bc52	-0.106316224
49	0x3d7e5fff	0.062103268
50	0x3d80f492	0.06296648
51	0xbc9c0581	-0.019045593
52	0x3d32ea62	0.043680556
53	0xbcc4121b	-0.023934415
54	0xbd2400ff	-0.040040012
55	0xbdd637c1	-0.10459853
56	0xbd5173c9	-0.051135812
57	0xbcd78302	-0.026307587
58	0xbd37ff72	-0.044921346
59	0xbd0ba5dd	-0.034093726
60	0xbdfe5a30	-0.12419546
61	0x3d831521	0.064005144
62	0x3cdebc53	0.02718941
63	0xbcdab119	-0.026695775

cnn_block.5.running_var f4 [64]
0	0x3e94da65	0.29072872
1	0x3e8c0e3d	0.27354613
2	0x3f2164df	0.6304454
3	0x3df38fe9	0.11892683
4	0x3d62d511	0.055378977
5	0x3e1b5da4	0.1517244
6	0x3e9a094a	0.30085212
7	0x3ecf03b6	0.4043252
8	0x3d4a8763	0.04944552
9	0x3f8b5680	1.0885773
10	0x3e63808f	0.2221701
11	0x3e879f44	0.26488698
12	0x3ecf198e	0.40449184
13	0x3f0c1611	0.5472117
14	0x3e3ba707	0.18325435
15	0x3e4161c3	0.1888495
16	0x3e25ec49	0.16203417
17	0x3e9520cd	0.29126588
18	0x3e05a3e3	0.13050799
19	0x3e454dee	0.19268009
20	0x3d8ca245	0.06866888
21	0x3e54af34	0.2076996
22	0x3f53eb19	0.82780606
23	0x3e14257e	0.14467427
24	0x3e109940	0.1412096
25	0x3e2e9559	0.17049159
26	0x3eb3c117	0.35108253
27	0x3e996fb0	0.29968023
28	0x3e45c016	0.19311556
29	0x3e3c63b5	0.1839741
30	0x3db252e4	0.087072164
31	0x3dc95635	0.09830896
32	0x3eae6658	0.34062457
33	0x3e6dcdda	0.23223057
34	0x3e92120f	0.28529403
35	0x3dd855f1	0.10563267
36	0x3d55daa1	0.052210454
37	0x3f1b2b7e	0.6061324
38	0x3e6f8552	0.23390701
39	0x3d56c679	0.052435372
40	0x3dc43504	0.095804244
41	0x3ec22f1c	0.37926567
42	0x3f00415e	0.5009974
43	0x3d96adce	0.07357369
44	0x3e38c407	0.18043528
45	0x3f04bb12	0.51847947
46	0x3d559d4a	0.052151956
47	0x3e712bfb	0.23551933
48	0x3e0ec915	0.13943894
49	0x3df02224	0.11725262
50	0x3e3993a8	0.18122733
51	0x3dd3072a	0.10304101
52	0x3de9c3db	0.114143096
53	0x3defddab	0.11712202
54	0x3e03cefb	0.12871926
55	0x3ed3b661	0.41350082
56	0x3db07dda	0.08617754
57	0x3dbc503f	0.09194993
58	0x3e076004	0.13220221
59	0x3d8302f2	0.06397046
60	0x3e3319be	0.17490289
61	0x3eac3a3b	0.33638176
62	0x3d7eceec	0.062209055
63	0x3d88579e	0.06657337

fc.0.weight f4 [32, 64]
0	0x3bbda1c9	0.0057871086
1	0x3e07c1f4	0.13257581
2	0xbdb769ea	-0.089557484
3	0xbc9d29b2	-0.019184921
4	0x3dabfc2a	0.08397706
5	0x3db838f2	0.089952365
6	0x3c294cf0	0.010333285
7	0x3d71dfd2	0.059051342
8	0x3e0451e5	0.12921865
9	0x3deec4c1	0.116586216
10	0xbdc2ff9a	-0.095214084
11	0xbcf1445d	-0.029451543
12	0x3d84d872	0.06486596
13	0xbdcdbdfe	-0.10046004
14	0x3c76f882	0.015073897
15	0x3e0d25ce	0.13783953
16	0xbd02cfba	-0.031936385
17	0xbd8ca59b	-0.06867524
18	0xbe046901	-0.12930681
19	0x3cfcbfee	0.030853238
20	0xbdade653	-0.084911965
21	0xbda42f68	-0.080168545
22	0x3d141e15	0.0361615
23	0xbdeb51a0	-0.11490178
24	0xbe19eddb	-0.15032141
25	0xbd95b1c1	-0.073092945
26	0x3d689bf1	0.056789342
27	0xbd2864eb	-0.041111868
28	0x3dfd9cc9	0.1238342
29	0x3d214751	0.039374653
30	0x3d8a0828	0.06739837
31	0x3d8813bb	0.06644388
32	0x3b8eeffa	0.0043621035
33	0xbd7a143f	-0.061054464
34	0xbda95f6e	-0.08270155
35	0x3cf22a44	0.02956117
36	0x3d4c149e	0.04982435
37	0x3db25eb0	0.087094665
38	0xbdb97134	-0.09054795
39	0xbb90be05	-0.0044171833
40	0xbddf8bc0	-0.10915327
41	0xbdc862a1	-0.09784437
42	0xbcc69f4d	-0.024245882
43	0xbcac134f	-0.0210053
44	0xbcf35222	-0.02970225
45	0x3c77a13b	0.015114124
46	0x3e088216	0.13330874
47	0x3da1e080	0.07904148
48	0x3bb2b996	0.0054542525
49	0x3acde7e8	0.0015709372
50	0xbdd51683	-0.104046844
51	0x3df3a920	0.118974924
52	0xbd7cf6f7	-0.06175896
53	0xbdfc0301	-0.123052604
54	0x3db993a0	0.0906136
55	0x3dd66286	0.104680106
56	0xbd3ff908	-0.046868354
57	0xbde996db	-0.114057265
58	0xb9bc14e1	-0.0003587371
59	0x3e243788	0.16036808
60	0x3d363cdf	0.044491645
61	0xbe05edeb	-0.1307904
62	0xbcde75d4	-0.027155794
63	0xbd1a20df	-0.037629005
64	0xbd64c145	-0.05584838
65	0x3ca33e3f	0.019927142
66	0x3d19a5e2	0.037511714
67	0x3baab637	0.00520971
68	0xbd339bd5	-0.043849785
69	0x3dac6fa9	0.08419735
70	0x3d32c5a8	0.04364553
71	0x3c8d1f9e	0.01722699
72	0x3e1e6154	0.15466815
73	0x3d4d61a9	0.050141964
74	0x3cd02b80	0.025411367
75	0x3d8f736b	0.07004436
76	0x3cacd684	0.021098383
77	0xbe1556e8	-0.14583933
78	0x3d786bd0	0.060649693
79	0x3decca8c	0.1156207
80	0x3d7a5658	0.0611175
81	0xbd39eea4	-0.0453936
82	0xbd8f4a78	-0.06996626
83	0xbd779698	-0.06044635
84	0xbe162b0c	-0.14664859
85	0xbdbba0bb	-0.09161516
86	0xbdcdf663	-0.1005676
87	0xbd2943ec	-0.04132454
88	0xbdb3f714	-0.08787361
89	0xbd8a5e22	-0.06756236
90	0x3d155e6e	0.03646701
91	0xbc203832	-0.009779023
92	0x3d4553d9	0.048175666
93	0x3d98ad8e	0.07454978
94	0xbd9f6d99	-0.07784576
95	0xbe0cdeb5	-0.13756831
96	0x3da71853	0.08158936
97	0xbe0093fb	-0.1255645
98	0xbdb6d5a3	-0.08927467
99	0x3d222f9e	0.039596193
100	0xbd0b5fe3	-0.03402699
101	0xbcfb947b	-0.03071045
102	0x3d800173	0.062502764
103	0x3dbeb79a	0.09312363
104	0xbe12909d	-0.14312978
105	0x3ab937a3	0.0014130961
106	0xbd9d51e4	-0.07681635
107	0x3c966bd5	0.018361965
108	0x3c9598e9	0.01826139
109	0xbce308ce	-0.02771416
110	0xbcdaaa91	-0.02669266
111	0xbdd9f33c	-0.106420964
112	0xbdfff8cb	-0.12498625
113	0x3da177e8	0.078841984
114	0xbd89095e	-0.0669124
115	0xbd771a62	-0.060327895
116	0x3df436c2	0.11924507
117	0xbdd98760	-0.10621524
118	0x3c8c5d3a	0.017134298
119	0x3d82d7bf	0.063888066
120	0xbaa8bf8d	-0.0012874469
121	0x3d000047	0.031250264
122	0xbdcc9617	-0.09989565
123	0x3de40c2f	0.11135136
124	0xbc9437f3	-0.018093085
125	0xbd24af32	-0.04020614
126	0x3de29db1	0.110652335
127	0xbe12ae8c	-0.14324397
128	0x3ddec51d	0.1087744
129	0x3c45e4bc	0.01207846
130	0x3d1e3af5	0.038630445
131	0xbe0147a0	-0.12624979
132	0xbd3e3a31	-0.046442214
133	0xbd5a87db	-0.053352218
134	0x3dc33029	0.0953067
135	0xbd6413f4	-0.05568309
136	0xbde404f0	-0.11133754
137	0xbdd0102c	-0.101593345
138	0x3d86e305	0.06586269
139	0x3e12b147	0.14325438
140	0xbe162c7f	-0.14665411
141	0xbdf206dc	-0.118177146
142	0xbafe95d7	-0.0019423318
143	0x3cd1afe0	0.025596559
144	0x3ddc9500	0.10770607
145	0xbd2b8539	-0.041875098
146	0x3d266d2d	0.040631462
147	0xbcb31b9e	-0.021863755
148	0xbba864bf	-0.005138963
149	0x3d95609a	0.07293816
150	0x3c6ad4b4	0.014332939
151	0x3e01015a	0.12598172
152	0xbb3c45fe	-0.0028728242
153	0xbd0ccdb6	-0.03437587
154	0xbd137350	-0.035998642
155	0xbc6c7730	-0.014432713
156	0xbd4e01f7	-0.050294843
157	0x3d948dc4	0.07253602
158	0x3da20a51	0.07912124
159	0x3dda5161	0.10660053
160	0xbd7046e6	-0.058661364
161	0x3c8e2bc6	0.017354857
162	0x3d9885b8	0.0744738
163	0x3db85d85	0.090022124
164	0xbddfa645	-0.10920385
165	0xbc9a6c5f	-0.018850503
166	0xbdcdf8ce	-0.10057221
167	0x3d380a14	0.044931486
168	0xbdec882c	-0.1154941
169	0x3d156545	0.03647353
170	0xbd803039	-0.06259198
171	0x3d358041	0.044311766
172	0x3c8e1319	0.01734309
173	0xbd1194df	-0.035542365
174	0xbb2ef850	-0.0026698299
175	0x3dc101ef	0.09424197
176	0xbd90b87d	-0.07066438
177	0xbde531fa	-0.11191173
178	0x3d00dbd5	0.03145965
179	0xbd33025e	-0.04370343
180	0x3df81eb5	0.12115232
181	0xbcb829f1	-0.022480937
182	0xbc9a7774	-0.018855788
183	0x3d1b7c74	0.037960485
184	0x3dbabcad	0.09118018
185	0xbd8c9448	-0.0686422
186	0xbc05baf7	-0.008162252
187	0x3dfaabb2	0.122397795
188	0xbd344836	-0.04401418
189	0x3d126fd2	0.03575117
190	0xbcae26fc	-0.021258824
191	0x3d810c62	0.0630119
192	0x3dce8363	0.10083654
193	0x3da10cf5	0.078637995
194	0xbdb64a95	-0.08900944
195	0xbe1c879a	-0.15286103
196	0x3ce7aa9d	0.028279597
197	0xbcae7960	-0.02129811
198	0x3df83a3d	0.12120483
199	0x3d1064e0	0.035252452
200	0xbd1748d8	-0.036934704
201	0xbdb92cf6	-0.09041779
202	0x3d4587a8	0.048225075
203	0xbd2c8d89	-0.042127166
204	0xbd83cb6b	-0.06435283
205	0xb934db08	-0.00017247733
206	0xbd87341e	-0.066017374
207	0xbd44eda2	-0.048078187
208	0x3d7a4151	0.061097447
209	0x3b21e431	0.0024702663
210	0x3e17421c	0.14771312
211	0x3dd29580	0.10282421
212	0xbd13f4d8	-0.036122173
213	0x3d83dc66	0.06438522
214	0x3db35c80	0.08757877
215	0xba13bfa1	-0.000563616
216	0xbddc00b7	-0.10742324
217	0x3d10b94d	0.035332967
218	0xbd598433	-0.05310459
219	0xbd56a20f	-0.052400645
220	0xbb96a67e	-0.004597484
221	0xbd3fd2b9	-0.04683182
222	0xbd85b767	-0.06529122
223	0x3c452d1e	0.012034683
224	0xbd816dd1	-0.06319774
225	0x3cacf90f	0.021114854
226	0xbdbd82ee	-0.092534885
227	0xbc33280a	-0.010934839
228	0xbe479832	-0.19491652
229	0x39573ca9	0.00020526595
230	0x3d8bf814	0.068344265
231	0x3caeda68	0.021344379
232	0x3d2065bc	0.03915952
233	0xbd01adcf	-0.031659897
234	0xbc80392f	-0.015652267
235	0x3d1c5c57	0.038174
236	0x3df77285	0.1208239
237	0xbca0ed1f	-0.019644318
238	0x3cf2c28a	0.02963378
239	0xbda9c10f	-0.08288776
240	0xbd04dac7	-0.032435205
241	0x3d0b28b4	0.033974364
242	0x3d2b8a2b	0.041879814
243	0xbda6a165	-0.08136252
244	0xbdd15330	-0.10220945
245	0xbd1a4ef2	-0.037672944
246	0xbc01e978	-0.007929198
247	0xbbc81fc3	-0.006107302
248	0xbda59a73	-0.080860995
249	0x3c4c58ef	0.012472375
250	0x3d096831	0.03354663
251	0x3ca17f84	0.019714125
252	0xbd87d864	-0.0663307
253	0xbd046968	-0.032327086
254	0x3d7b4328	0.061343342
255	0x3e13501a	0.14386025

fc.0.bias f4 [32]
0	0xbd44c278	-0.048037022
1	0x3d98cbef	0.07460772
2	0x3cb8e11c	0.022568278
3	0x3da60884	0.08107093
4	0x3d39b2c5	0.045336504
5	0xbd98e9a4	-0.074664384
6	0x3d6e531e	0.058184735
7	0x3dd1b0e1	0.10238815
8	0xbd57ddd4	-0.052701786
9	0x3c3e2f00	0.011607885
10	0x3d05c704	0.0326605
11	0xbdb54198	-0.08850402
12	0x3d80bdc4	0.06286195
13	0x3d13f6f6	0.036124192
14	0x3c24ef2f	0.010066791
15	0xbdb4eca2	-0.088341966
16	0xbde63024	-0.11239651
17	0x3db1c1c2	0.086795345
18	0x3b12a2f3	0.0022374957
19	0x3a84a336	0.0010119441
20	0xbde1c4bf	-0.110238545
21	0xbd737507	-0.059437778
22	0xbc692a13	-0.014231223
23	0xbdb39cdd	-0.08770154
24	0x3dbe8148	0.09302002
25	0xbdfa7b93	-0.12230601
26	0x3d505680	0.050863743
27	0x3ca7d8c8	0.020489112
28	0xbd35874f	-0.044318493
29	0x3dfcea7d	0.123494126
30	0xbda8b187	-0.08236986
31	0xbd0d639a	-0.034518816

fc.1.weight f4 [32]
0	0x3fa1c9f5	1.2639757
1	0x3f9cc953	1.2248939
2	0x3fa12f97	1.2592648
3	0x3fa0cb52	1.2562048
4	0x3f9ee755	1.2414347
5	0x3f7f1e35	0.9965547
6	0x3fa2424b	1.2676481
7	0x3fa83a57	1.3142804
8	0x3fb3bed1	1.4042608
9	0x3f9c0a59	1.2190658
10	0x3f7e013b	0.9922063
11	0x3fa6f608	1.3043833
12	0x3f8175f6	1.0114124
13	0x3f95ac8b	1.1693281
14	0x3f905c2a	1.1278126
15	0x3fae6b4f	1.3626498
16	0x3f959c47	1.1688317
17	0x3f980540	1.1876602
18	0x3f9df396	1.2339962
19	0x3fb2f6df	1.3981589
20	0x3f8d00b4	1.101584
21	0x3fabfe64	1.3437009
22	0x3f962c5b	1.1732286
23	0x3fa88f32	1.31687
24	0x3fabf38d	1.3433701
25	0x3faf0332	1.367285
26	0x3f9dfe4d	1.2343231
27	0x3fab3aef	1.337736
28	0x3fa318ca	1.274194
29	0x3f7643f0	0.96197414
30	0x3fad971a	1.3561738
31	0x3fa248df	1.2678488

fc.1.bias f4 [32]
0	0x3e4c0208	0.1992265
1	0x3e47480b	0.19461076
2	0x3dfaa6a4	0.122388154
3	0x3e46abd7	0.19401489
4	0x3e4373e5	0.19087179
5	0x3c494f5c	0.012286987
6	0x3e3e4afe	0.18583295
7	0x3e33f65f	0.17574452
8	0x3e5d500a	0.21612564
9	0x3d8fc9b4	0.07020894
10	0xbc9c16c3	-0.019053822
11	0x3e213baa	0.15745416
12	0x3cddd085	0.027076969
13	0x3d846628	0.06464797
14	0x3dfca152	0.12335457
15	0x3e83cfd7	0.25744507
16	0x3e095aa5	0.13413484
17	0x3e241d41	0.16026784
18	0x3dbe0341	0.092779644
19	0x3e4af36f	0.19819425
20	0x3de70e10	0.11281979
21	0x3e3e42d6	0.18580183
22	0x3e0057a0	0.12533426
23	0x3e2c51ea	0.16828123
24	0x3e6120d7	0.21985184
25	0x3e72fc51	0.23729064
26	0x3de1c4f9	0.11023898
27	0x3e54395e	0.20725009
28	0x3e231295	0.15925057
29	0xbce54376	-0.02798627
30	0x3dfac28a	0.12244137
31	0x3df63c90	0.1202327

fc.1.running_mean f4 [32]
0	0xbda18cd6	-0.078881904
1	0xba51c753	-0.0008002419
2	0x3ccf7412	0.025323901
3	0x3cf2a6c4	0.029620536
4	0x3d8c1e20	0.068416834
5	0xbc12c74d	-0.00895865
6	0xbc9430b1	-0.018089624
7	0x3dae3b12	0.085073605
8	0x3d14a461	0.036289576
9	0x3d33363d	0.043752898
10	0xb8f2185b	-0.00011543996
11	0xbd5bb90d	-0.053643275
12	0x3d89bcb7	0.067254476
13	0x3c76e2af	0.015068694
14	0xbc723eac	-0.01478545
15	0xbdcc5ac5	-0.099782504
16	0xbe10c503	-0.14137654
17	0x3d850dbe	0.06496762
18	0x3c1b71c0	0.009487569
19	0xbcba8b5f	-0.022771535
20	0xbe0ac6dd	-0.13552423
21	0xbd35f168	-0.044419676
22	0x3b4caf46	0.00312324
23	0xbdeba4c1	-0.11506034
24	0x3e23a588	0.15981114
25	0xbe2e03da	-0.16993657
26	0x3c84fbdd	0.016233379
27	0x3caf4317	0.021394296
28	0xbd527ff1	-0.051391546
29	0x3e019642	0.12654975
30	0xbe124644	-0.14284617
31	0xbbbf6550	-0.005840935

fc.1.running_var f4 [32]
0	0x38e6a39b	0.000109977285
1	0x38af1265	8.3480765e-05
2	0x3919d50b	0.00014670582
3	0x38edcc9a	0.00011339151
4	0x390f6a16	0.00013677063
5	0x3bd8ffad	0.006622276
6	0x389b11f6	7.3943214e-05
7	0x38e2abc3	0.00010808513
8	0x38e18723	0.00010754007
9	0x38831807	6.251042e-05
10	0x38c0d95c	9.19576e-05
11	0x38bc6876	8.983996e-05
12	0x3a7ac645	0.00095662876
13	0x389e4502	7.546881e-05
14	0x3895286b	7.112402e-05
15	0x38fa3a62	0.000119318036
16	0x38d576ad	0.000101787366
17	0x38ebde0a	0.00011247031
18	0x38d23520	0.000100234756
19	0x39205125	0.00015289018
20	0x38da1b40	0.00010400126
21	0x38b36acb	8.555277e-05
22	0x38c9d5b8	9.624235e-05
23	0x390579f1	0.00012729295
24	0x39110a2d	0.00013832068
25	0x38f3941c	0.000116147305
26	0x38ceb9a1	9.8574215e-05
27	0x3924c209	0.00015712543
28	0x38d64433	0.00010217018
29	0x3b1228b4	0.0022302093
30	0x38c5264f	9.4008275e-05
31	0x389a0270	7.343746e-05

fc.3.weight f4 [10, 32]
0	0xbe0b776f	-0.13619779
1	0xbd6c0e88	-0.057631046
2	0xbe76359a	-0.24043885
3	0xbe2c7bf5	-0.16844161
4	0x3e7a5eb4	0.24450189
5	0xbc8e33a8	-0.017358616
6	0xbe786d6b	-0.2426049
7	0xbbeae46c	-0.0071683433
8	0x3f47ab2a	0.7799555
9	0xbe55d752	-0.2088292
10	0x3dba290a	0.09089859
11	0x3efe099e	0.49616712
12	0xbd05a1f0	-0.03262514
13	0xbcd7b593	-0.026331699
14	0xbdedee92	-0.11617769
15	0x3f0d7c53	0.5526783
16	0x3e8646a1	0.2622576
17	0xbd823914	-0.06358543
18	0xbc3bf14c	-0.011471104
19	0xbe36ac7a	-0.17839232
20	0x3e246b38	0.16056526
21	0x3cf67400	0.03008461
22	0xbe367ffe	-0.17822263
23	0xbe4cd657	-0.20003639
24	0x3ea4cddd	0.3218831
25	0xbe75cdfa	-0.24004355
26	0xbe403112	-0.18768719
27	0xbe8d6a64	-0.27620232
28	0xbe47094c	-0.1943714
29	0x3d6a6d3f	0.05723309
30	0xbe205df9	-0.15660848
31	0xbe5b7b59	-0.21433772
32	0xbe87409b	-0.26416478
33	0xbe5f13d7	-0.21784912
34	0x3f16a5ee	0.5884694
35	0x3e8dec46	0.27719325
36	0xbea0d540	-0.31412697
37	0xbe46d075	-0.19415458
38	0xbe8b7068	-0.27234197
39	0xbdbff046	-0.093720004
40	0x3e9be332	0.30446774
41	0xbdce6b10	-0.10079014
42	0xbd70d63d	-0.058798064
43	0xbd040a1c	-0.032236204
44	0xbdee0490	-0.11621964
45	0x3e721c6b	0.23643653
46	0xbe5043ca	-0.2033836
47	0xbe8a3a01	-0.26997378
48	0xbd5eaf12	-0.05436618
49	0xbe7eccdb	-0.24882834
50	0xbe61c4ee	-0.22047779
51	0xbec15220	-0.3775797
52	0xbca646ee	-0.020297494
53	0x3f52e115	0.823747
54	0xbdba48c1	-0.09095908
55	0x3c215ad1	0.0098483125
56	0x3e2946f5	0.16530974
57	0xbe16c491	-0.14723422
58	0xbe165122	-0.14679387
59	0x3f0091e9	0.5022264
60	0xbe4cfae9	-0.2001759
61	0x3db740d9	0.089479156
62	0x3ccede57	0.025252504
63	0xbd6de9c7	-0.058084276
64	0xbe4c7cfa	-0.1996955
65	0xbbddc335	-0.0067676553
66	0xbe80dbe6	-0.2516777
67	0x3d922bae	0.071372375
68	0xbcef8ef1	-0.029242964
69	0x3afb7558	0.0019184751
70	0xbe366cd0	-0.17814946
71	0x3ee2b806	0.44281024
72	0xbe231252	-0.15924957
73	0xbc0e09b6	-0.008669307
74	0x3d6cf859	0.05785403
75	0xbe677c03	-0.226059
76	0x3d6b9c83	0.057522308
77	0xbe7a97a1	-0.24471904
78	0x3e2a7067	0.1664444
79	0xbe06f06a	-0.13177648
80	0xbe7c06ae	-0.24611923
81	0xbe60d088	-0.21954548
82	0xbe431e8b	-0.1905462
83	0x3f2ffc56	0.6874441
84	0xbe43ca3d	-0.19120117
85	0xbe33c5e5	-0.1755596
86	0xbbe2d855	-0.0069227614
87	0x3f3301e7	0.6992478
88	0xbe5cc9da	-0.21561375
89	0xbeaba384	-0.3352319
90	0xbdbeabe0	-0.09310126
91	0x3f13da87	0.5775532
92	0xbe67db88	-0.22642338
93	0xbdbff60d	-0.09373102
94	0xbdcc5f7a	-0.09979148
95	0x3e1c3ed7	0.15258346
96	0x3eabf6e8	0.33586812
97	0x3ef6d56a	0.48209697
98	0x3d54d155	0.051957447
99	0xbde2ae61	-0.110684164
100	0xbe148d52	-0.14507034
101	0x3da92bd8	0.08260316
102	0x3eed16f7	0.46306583
103	0x3f17c814	0.5928967
104	0xbe9ec42a	-0.31009036
105	0xbe940847	-0.28912565
106	0xbdbcd90e	-0.092210874
107	0xbdd112f1	-0.10208691
108	0x3e0a8850	0.13528562
109	0x3deb41a0	0.11487126
110	0x3e9ace09	0.30235317
111	0xbdc5faf2	-0.09667005
112	0xbe4dd2b5	-0.2009991
113	0xbe849a71	-0.2589908
114	0xbdbd613c	-0.092470616
115	0xbda4a477	-0.08039182
116	0x3d96a1a4	0.07355049
117	0xbcfe2431	-0.031023117
118	0x3c851b6a	0.016248424
119	0x3ed38566	0.41312712
120	0xbe800622	-0.2500468
121	0x3ea8cb8e	0.329678
122	0xbe4c7d59	-0.19969691
123	0xbe97fdc9	-0.2968581
124	0x3d6e33d0	0.05815488
125	0x3da0ecc8	0.078576624
126	0xbd7dff77	-0.06201121
127	0xbe8094c2	-0.25113493
128	0xbe56a038	-0.20959556
129	0xbdf21a17	-0.118213825
130	0x3dbb99fb	0.09160229
131	0x3eef72d6	0.467673
132	0xbe7edb31	-0.24888302
133	0xbde3e68d	-0.111279584
134	0xbe8e0e5e	-0.27745336
135	0xbcd2c63e	-0.025729295
136	0xbe7043bc	-0.23463339
137	0xbddd9f90	-0.1082145
138	0xbab0a334	-0.0013476373
139	0xbe756916	-0.23965868
140	0xbb3d608b	-0.0028896655
141	0xbe58945b	-0.21150343
142	0xbe6213b2	-0.22077826
143	0x3eccc15e	0.39991277
144	0x3e277064	0.16351467
145	0x3eb51e4d	0.3537468
146	0xbc02c44f	-0.007981374
147	0xbe868ff7	-0.2628171
148	0xbe994007	-0.2993166
149	0x3e4cad52	0.19987991
150	0xbe3bdbd5	-0.18345578
151	0xbe86313b	-0.26209435
152	0x3f2201e4	0.63284135
153	0xbe08e93e	-0.13370225
154	0x3f157a6a	0.58389914
155	0xbd9f64bc	-0.077828854
156	0x3d466cf6	0.048443757
157	0x3de57034	0.11203042
158	0xbe715e9e	-0.2357125
159	0xbe250264	-0.16114193
160	0x3ed3ec58	0.41391253
161	0x3ec87537	0.39151928
162	0xbe466c2b	-0.193772
163	0xbdded59d	-0.10880587
164	0x3e046ae8	0.12931406
165	0x3d038ca0	0.032116532
166	0xbe417c72	-0.18895128
167	0x3d15666c	0.03647463
168	0xbe823848	-0.25433564
169	0xbcfa82a5	-0.030579874
170	0xbd3c2fed	-0.045944143
171	0xbde71c51	-0.11284698
172	0xbc94af2d	-0.018149937
173	0xbdaea013	-0.085266255
174	0xbe4c4e89	-0.19951834
175	0xbd1cb37c	-0.038257107
176	0xbdb8d7ec	-0.09025559
177	0x3d69962e	0.057027988
178	0xbe477451	-0.19477965
179	0xbe39ed8b	-0.18157022
180	0xbe36a218	-0.17835271
181	0xbe0a4d66	-0.13506088
182	0xbe522810	-0.20523095
183	0xbe466e90	-0.19378114
184	0xbe6f7158	-0.23383081
185	0x3f461f46	0.7739147
186	0xbc7f13eb	-0.015568714
187	0xbe2dfff0	-0.16992164
188	0x3dcc309e	0.099702105
189	0xbda5be06	-0.08092885
190	0x3dc6509a	0.09683342
191	0x3f1fdec7	0.62449306
192	0xbe7ed497	-0.24885784
193	0x3eb408d7	0.35162994
194	0xbcc94f1e	-0.024573859
195	0xbe3c7b71	-0.18406464
196	0xbd80df00	-0.06292534
197	0xbdb3d35f	-0.0878055
198	0x3de6142b	0.112343155
199	0xbeaf7002	-0.34265143
200	0xbe52f1bc	-0.20600027
201	0xbe24d518	-0.16096914
202	0xbe18efcd	-0.14935227
203	0xbda5af27	-0.08090048
204	0x3d2db5ca	0.042409696
205	0xbdf05272	-0.11734475
206	0x3dd66f75	0.104704775
207	0x3f041cbe	0.5160636
208	0x3df092bc	0.11746737
209	0x3ea69342	0.32534224
210	0x3d6d02e0	0.05786407
211	0xbe5d0d1b	-0.2158703
212	0x3e245099	0.1604637
213	0xbe613e54	-0.21996433
214	0x3e4659c9	0.19370188
215	0xbe193706	-0.14962396
216	0xbe8c8c2a	-0.27450687
217	0xbe65c763	-0.22439341
218	0x3e759ac4	0.2398482
219	0xbd515582	-0.051106937
220	0xbe94b729	-0.2904599
221	0x3e180f2a	0.14849535
222	0x3f52e3c6	0.82378805
223	0xbe2db695	-0.16964181
224	0xbddea38b	-0.10871037
225	0xbd4806ca	-0.0488346
226	0x3ee1baec	0.44087923
227	0x3ef87671	0.48527864
228	0xbe8c5b87	-0.2741358
229	0xbca3986f	-0.019970147
230	0xbe032a5c	-0.12809128
231	0xbe7e1931	-0.24814297
232	0xbeae0239	-0.3398607
233	0x3f2471af	0.6423597
234	0xbe37874b	-0.17922704
235	0x3ce17f9d	0.027526671
236	0x3d5d3ad9	0.0540112
237	0x3f03df07	0.5151219
238	0xbd60a033	-0.054840278
239	0xbea753f4	-0.3268124
240	0xbdbe46f0	-0.09290874
241	0x3a4877c7	0.0007647243
242	0xbd8b0619	-0.067882724
243	0x3efc3ec8	0.49266648
244	0xbd979f23	-0.074034
245	0x3e569e5d	0.20958848
246	0xbe406447	-0.18788253
247	0xbe0b2b27	-0.1359068
248	0xbe9e2d04	-0.3089372
249	0xbe06a4e7	-0.13148843
250	0xbe589937	-0.21152197
251	0x3e8aff8d	0.27148095
252	0xbe5263ff	-0.20545958
253	0x3dc21807	0.09477239
254	0xbd62e0ef	-0.055390295
255	0xbe4db28d	-0.20087643

fc.3.bias f4 [10]
0	0x3d13b86f	0.03606456
1	0x3d5f3147	0.054490354
2	0xbd727399	-0.059192274
3	0x3cb9e4e0	0.022692144
4	0x3d908381	0.070563324
5	0x3de3c8b4	0.111222655
6	0x3e239e26	0.15978298
7	0x3d9ab6ce	0.075543985
8	0xbd73c85f	-0.05951726
9	0xbcc4a6da	-0.024005342
