saved/cnn/sans_serif_no_aug.pth (torch, 240453 bytes, 26 tensors)

conv1.0.weight f4 [32, 3, 5]
00000000: 65d4 9d3d fc6b c83c acbd 6e3d 0686 06be
00000010: 8d0d 763c 8f51 2a3d 23c6 2dbe 8e18 923e
00000020: 1a5f df3d 2845 1ebe 35ee 36be 0ad2 193e
00000030: 71dc 0f3e 7092 1a3c 404b f93d 27cf 393e
00000040: 007f aabd 3b7c d2bc 859c 08be e3b3 2a3b
00000050: dc4c 3cbe ee13 2ebd a8ee a5bd 796c cdbd
00000060: e49f 5dbe 1d1f 03be ed4b 74bd da2c 993d
00000070: f7dc ad3d ea29 25bd df6a f43d 42f7 1fbe
00000080: 9bdc 113e 973a 7f3e b8dd 23be d789 3bbe
00000090: 085d 8abb 41e7 00bd 7069 42bd 1d44 05be
000000a0: 8290 6e3e 910e 51bd 12d9 f83c c6bc e6bd
000000b0: 68a9 a93d ee1b 5f3e 2ae2 62bc 8e8b d5be
000000c0: e8cf 6d3e 0aa4 803d dd46 d03c 517a a0bc
000000d0: 2161 1ebd 8091 86ba 5224 cebb af58 7abd
000000e0: c33d 823e f200 7c3d 2b98 50be 42b0 003e
000000f0: c10a febd 1811 973d f703 3e3e 8a73 44be
00000100: 60a9 053d 02ee 76be 7390 333d 5d81 3a3e
00000110: ee7e 863d 041e d43d aa40 0bbe c9ad 663e
00000120: 85e3 fd3d dd15 043e f394 8f3c 22ab 3f3e
00000130: e518 1a3e 7d2a 203e e4ec 4ebd 16fa 3f3e
00000140: 26a1 50be 01df 7abe 7cf6 5b3d 4f18 ac3d
00000150: 5f8a 073e cb51 ebbc 82a7 d9bc ec7d 613e
00000160: 7975 f23d 788d 2f3e fbf0 093e 8db5 273e
00000170: c3d4 773d 6e7d 7e3b 6329 46be 66f3 86bd
00000180: 117d 27be 07a3 cf3c bf6b 11be 65a2 943e
00000190: 531f 72bd 0fde 413e 26e6 0d3e 8721 833e
000001a0: 600b 693d 314e e3bd cf0f 30be 285c 1b3e
000001b0: 7694 9abd 0398 10be 6bef 7d3e 8eda a6bd
000001c0: c845 66be 5fc2 4bbe 0cba 91bd 787b 133e
000001d0: 946c e4bd 316a 1b3e 627d 073d f5c9 b6bd
000001e0: e545 5e3e 39f5 1e3e 58f3 70bd 23fa 013d
000001f0: 21f7 363e 224f a73d fd0b 1abe 81a4 de3d
00000200: c024 213e adad 143e 4cd0 563e 69e4 b83d
00000210: b2de 6d3e 221d 183c 0568 00be 3eab 16be
00000220: 7171 0cbe 1f88 7fbe 797c 94bd f76e 02be
00000230: 3878 4a3e d451 80be 2569 14be 5bc3 363e
00000240: 9267 b0bc 4c51 5fbe deda 52be d85f 76be
00000250: 2472 833e 3752 323e d099 18be 2e3d 18be
00000260: 12a7 cc3c a350 6a3e d2c4 ce3c 777c 813d
00000270: cc14 553e cf27 35bd 7a62 b8bd 6524 d5bd
00000280: 5dbb 563e dda4 803e 4d7f a73d 045e 193e
00000290: 9e63 6f3e 172e bdbd 70c0 57be ca96 4ebe
000002a0: 7477 40be 0830 85bc afb8 883e d204 e93d
000002b0: 00f4 02be 12aa bdbd 5de3 053e 49ce 363d
000002c0: c0f5 03be 277a 4bbd d9e7 76be bb90 013e
000002d0: 5d5b 453e e99e 843d 2263 3d3e f121 77be
000002e0: bc97 57bd c274 52be 820d a43d 7be2 393d
000002f0: 8404 03be a525 eabc 05ce 813c 4616 d9bd
00000300: 884e 51be 60ae 68be fbd0 c03d 4a38 4bbe
00000310: fe4b 1abe ab2c cf3d f213 80be 1d44 cfbd
00000320: c843 a83d 17aa 1ebe f57c afbd 7de1 12be
00000330: ebfd 0e3e 43b8 243e ecec 47be 2e5e 393e
00000340: 3517 e0bc ea35 023e 2f24 ca3d 132b 1c3e
00000350: 0ecd f0bc 99a8 6e3e 70ef 3cba d823 cd3d
00000360: 6b63 e43d 0838 fb3d c32a 873d 3c4a 02be
00000370: 8cd9 463e dd65 09be 8f35 37be e576 9fbd
00000380: cdc7 7abc fdc4 09be 1c22 5e3e 8478 313d
00000390: eb1b 113e 1310 5d3e 0fc2 573e d240 cabd
000003a0: 060d c53d be9d 1dbd a631 a2bd 559f ed3d
000003b0: d5f6 f63d 1fcf 9cbc 2cdd 21be fd29 16be
000003c0: a937 49be 31eb 58be ebc0 423e 27fb 463e
000003d0: cd73 7abb be9e df3d fbf1 0cbd 1bef 463d
000003e0: 71be 3abd dc7b a83d 3a6e ccbd 1508 03bd
000003f0: 5292 483e 33a7 fd3d 3fdf 7cbe 29aa 47bd
0.07706527 0.024465553 0.058286354 -0.13137063 0.015017879 0.041581687 -0.16970114 0.2853436
0.10906811 -0.15456069 -0.17864306 0.1502153 0.14048935 0.0094343275 0.12172556 0.18145429
-0.083250046 -0.025694003 -0.13340957 0.0026047162 -0.18388695 -0.042499475 -0.08102161 -0.10030455
-0.21643025 -0.12804838 -0.05964272 0.07479258 0.08489411 -0.040323175 0.119344465 -0.15621665
0.1424431 0.24924694 -0.16002548 -0.183143 -0.004222516 -0.03147054 -0.047463834 -0.13014264
0.23297313 -0.051039282 0.030376945 -0.112664744 0.08284265 0.21787998 -0.013847867 -0.41708034
0.23223841 0.06281288 0.025424415 -0.019589575 -0.038666848 -0.0010266751 -0.006290951 -0.06111973
0.25437745 0.06152434 -0.20370547 0.12567237 -0.12404395 0.07376307 0.185562 -0.191847
0.03263223 -0.2411423 0.04383893 0.1821341 0.06567179 0.103572875 -0.13598886 0.22527231
0.123969115 0.12898965 0.01752708 0.18717626 0.15048559 0.15641208 -0.050518885 0.18747744
-0.20373973 -0.24499132 0.053701863 0.08403074 0.13236378 -0.028725525 -0.026569132 0.22020692
0.118388124 0.1714381 0.13470833 0.1637785 0.06050564 0.0038832086 -0.19351725 -0.06589393
-0.16356303 0.025346292 -0.14201258 0.29030147 -0.059111904 0.18932365 0.13857326 0.25611517
0.056895614 -0.11098898 -0.1719353 0.15171874 -0.07547848 -0.14120488 0.24798362 -0.08147155
-0.22487557 -0.19898365 -0.07115564 0.14402568 -0.11153522 0.15177228 0.03307856 -0.08925239
0.2170635 0.15523233 -0.05882582 0.03173269 0.1786771 0.0816939 -0.15043636 0.108712204
0.15736675 0.14519377 0.20977896 0.09027941 0.23229483 0.00928429 -0.1253968 -0.14713761
-0.1371515 -0.2495427 -0.07250304 -0.12737642 0.19772422 -0.2506243 -0.14493234 0.1784796
-0.021533761 -0.21808356 -0.20591304 -0.24059999 0.2567302 0.17414175 -0.14902425 -0.14867088
0.02498201 0.22882323 0.025240336 0.06322568 0.20808715 -0.044227418 -0.09003158 -0.10407332
0.20969911 0.2512578 0.081785776 0.1497727 0.23377845 -0.092373066 -0.21069503 -0.20174709
-0.18795568 -0.016258255 0.26703402 0.113778725 -0.12788391 -0.09260954 0.13075013 0.044630323
-0.12886715 -0.04967704 -0.2411188 0.12652867 0.19273134 0.06475622 0.18494847 -0.24134041
-0.05263494 -0.20552352 0.08010389 0.045382004 -0.12794691 -0.028582403 0.015845308 -0.105999514
-0.20440114 -0.22722769 0.0941486 -0.19845691 -0.15068051 0.101159416 -0.25015217 -0.101204135
0.08216053 -0.15494572 -0.085687555 -0.1434383 0.1396405 0.16085915 -0.19523972 0.18102333
-0.027354816 0.12715879 0.09870183 0.15250807 -0.029394653 0.23306502 -0.000720731 0.10016602
0.11151775 0.122665465 0.06599953 -0.1272363 0.19418925 -0.13417764 -0.17891525 -0.07786349
-0.015306425 -0.13454051 0.21692699 0.043327823 0.14170806 0.21588163 0.21070121 -0.09875645
0.09621625 -0.038480513 -0.07919626 0.11602656 0.12058798 -0.019141732 -0.15807027 -0.14664455
-0.19650139 -0.21183468 0.19018905 0.19431745 -0.0038215995 0.109189495 -0.034410458 0.048567872
-0.045591775 0.08226749 -0.099819615 -0.03199013 0.19587067 0.12385406 -0.24694537 -0.04874626

conv1.0.bias f4 [32]
00000000: dda3 6dbe c983 e1bc 7555 afbd b8f5 2abe
00000010: 65d7 093d e494 533e b03c 953d cafe 45be
00000020: f2d2 b83b 2b00 3cbe c8a8 253d df75 71be
00000030: 753e 02be e033 a8bd 2351 30bd 895f 2abd
00000040: cccc cb3d 1f58 17be bb5a 79be dc4a 793d
00000050: 6ba6 3b3b 7457 793e 6498 663e ae05 f2bd
00000060: 6dc8 d7bd 32f9 58be 1b3b 56be 3535 523e
00000070: 4b56 5d3e 09e7 e6bd 1a37 443e 1e2e 683e
-0.2320704 -0.02752866 -0.085612215 -0.16695297 0.03365268 0.20662266 0.07286966 -0.19335476
0.005640381 -0.18359439 0.040444165 -0.2358012 -0.12719138 -0.08213019 -0.043046128 -0.041595016
0.09951171 -0.1477971 -0.24351017 0.060862407 0.0028633128 0.24349767 0.2251907 -0.118174896
-0.10536275 -0.2118881 -0.20920984 0.2052811 0.2161495 -0.11274535 0.19161645 0.22673842

conv1.1.weight f4 [32]
00000000: 948d 803f 0259 7f3f eaf3 833f 59b8 7f3f
00000010: eb90 783f be4e 773f e0ef 7e3f b281 803f
00000020: ffcd 7b3f ab29 7e3f 80af 773f 11a0 853f
00000030: ee54 813f efa7 7f3f 4796 7e3f 3a3e 7e3f
00000040: 5b3f 7e3f c2f3 783f 0ff9 7f3f 4e02 833f
00000050: 22ca 733f 4941 833f f699 853f b002 843f
00000060: 1c6d 813f 083e 813f ac85 7b3f a59d 7a3f
00000070: 248e 843f 195a 803f fff8 7a3f 44c7 7f3f
1.0043206 0.9974519 1.0308812 0.9989067 0.9709613 0.96604526 0.9958477 1.003958
0.983612 0.9928233 0.96752167 1.0439473 1.0104043 0.9986562 0.99448055 0.993137
0.9931542 0.97246945 0.9998941 1.0235078 0.95230305 1.0254298 1.043761 1.031332
1.0111423 1.0097055 0.9825084 0.97896796 1.0355878 1.0027496 0.9803619 0.9991343

conv1.1.bias f4 [32]
00000000: 28af 30bb e382 34bb 533c bb3b 427f 12bc
00000010: 02bc 6cbc a9a3 61ba f976 1d3c b8ff a0bb
00000020: 4a2b 123c 4338 1ebb a530 ccbb 50a3 043c
00000030: 624a 953b 57e1 b2ba d3f5 02bc 55c9 28bb
00000040: b8ed 273c 1f9d b9bb d1b7 03bb be70 3fbb
00000050: f7bf 58bb ce80 64bb 9cb3 bfbb 92e1 293b
00000060: cd51 ba3b df36 3c3a 110d b0bb e1e3 63bc
00000070: 6209 993a 5fa9 ad3b 1363 7abc bac4 073b
-0.002695987 -0.0027543835 0.0057139783 -0.008941473 -0.014449121 -0.0008607456 0.009610885 -0.0049132966
0.008921454 -0.0024142421 -0.006231385 0.008095577 0.0045559863 -0.0013647479 -0.007993179 -0.002575477
0.010249548 -0.0056644822 -0.0020098577 -0.0029211487 -0.0033073404 -0.0034866813 -0.0058502685 0.0025921804
0.005686021 0.0007179807 -0.0053726514 -0.013909311 0.001167577 0.0052997316 -0.01528241 0.0020716623

conv1.1.running_mean f4 [32]
00000000: 9243 2240 2f0e 39c1 bba6 87c0 2c51 e03e
00000010: 2828 0240 cd83 ba40 f0ee bd3f 01aa 29c1
00000020: 540f 5641 3a15 36c1 1a4c b73e 2535 a1c0
00000030: 6fe5 fbbf 8dae 38c1 2197 3641 e7ba 0641
00000040: 2678 0440 375d 9c40 725b 83c1 1c14 2241
00000050: 7744 3f40 decc b73e a1f4 3dc0 5318 f4bf
00000060: 178d 91c0 f02d 1e3e c45a 6841 fa99 6340
00000070: 57b8 3a40 3122 20c1 5448 2941 89d8 5cc1
2.5353742 -11.565963 -4.239103 0.4381193 2.033701 5.828589 1.4838543 -10.604005
13.378742 -11.380182 0.35800248 -5.0377374 -1.9679393 -11.542615 11.411897 8.42063
2.0698333 4.886379 -16.419651 10.1299095 2.9885538 0.3589849 -2.968056 -1.9069923
-4.548473 0.15447211 14.52216 3.556273 2.9175012 -10.0083475 10.580158 -13.802865

conv1.1.running_var f4 [32]
00000000: d646 e443 67aa dd45 530c b444 d4f6 3443
00000010: e9c0 2044 a934 0e45 f78b ee43 a2f2 a645
00000020: 3c82 f845 d4a6 bd45 8984 a643 04ba 0b45
00000030: 0d54 3044 84b9 bb45 31c0 bd45 148a 6145
00000040: 115e 0f44 d9db a644 041c 5946 fdaa a745
00000050: f18d f143 71db 5e44 eb7f 7c44 9cdc 8243
00000060: 5547 8044 83bf 3144 4785 1946 aceb 4544
00000070: bb64 db44 624e 9545 975e 9e45 fd35 0b46
456.5534 7093.3003 1440.3851 180.96417 643.0142 2275.2913 477.09348 5342.329
7952.2793 6068.8535 333.03543 2235.626 705.3133 6007.1895 6072.024 3608.63
573.4698 1334.8702 13895.004 5365.3735 483.10892 891.4288 1009.9987 261.7235
1026.2291 710.9924 9825.319 791.6824 1755.1478 4777.798 5067.8237 8909.497

conv2.0.weight f4 [64, 32, 5]
00000000: dac5 b3bd 8b29 bbbd 7eec 89bd 004f 803d
00000010: 27e9 7abd 58aa a23c 4240 133d 5333 163d
00000020: eca5 95bd 1ac4 89bd b5e7 6ebd f136 a0bd
00000030: 2938 91bd d1d7 d53c 6d7f efbc a78d c13c
00000040: df7c 0ebc 088c 823c 39a2 9cbc 6288 483c
00000050: 4d12 85bc 7045 233d e071 07bd c06f e63c
00000060: fa1e d5bc 23be 65bd 6448 8cbd aebb acbc
00000070: 4cab ba3c b204 15ba 12c5 c2bd 9204 26bd
00000080: 0877 97bd 12b6 24bd fe12 9d3c c06f 06bc
00000090: 3fb9 993c 01c9 96bd 8097 433d 4616 143d
000000a0: 59cd e7bc 8b04 3d3d b348 e3ba 16e3 7c3d
000000b0: 2d97 96bd 6770 3f3d a114 48bd a8bc 173c
000000c0: b7be 9b3d 6b09 e0ba 7c76 88bd 72da 5dbd
000000d0: 9f76 01bc 47e1 92bd 89cf 1bbd 9027 86bd
000000e0: f1fa 8bbd ee3b 023d 7479 643d 355e 813d
000000f0: 3356 3ebd 08ed 023d 3aeb 31bd 6cee 2b3c
00000100: 9be8 90bc b2a5 90bd 1365 2cbd 58b1 313d
00000110: c3b4 943b 530d 513d 5f24 8fbd 212e 013c
00000120: 9014 c33b c2c9 dfbc 4614 afbd acbd 3b3d
00000130: 57b6 86bc 1f25 4e3d fd90 063d 4f64 c2bc
00000140: 5f1a f63b b2e2 f23c b00f 6abd 3251 4ebd
00000150: ee97 ac3c 2bc8 1f3d 790a 033d 278c 1dbd
00000160: b36c 683d e3ee 43bd cb5d b0bc 1143 673c
00000170: 342f 26bd 18be 6cbc ce93 4d3d fb91 89bd
00000180: d7fc 573d 6ac5 893d 1a94 693d a94b 763d
00000190: c678 62bd 93d5 4fbc 3268 c8bc 4e52 9a3b
000001a0: b6d7 993c cd96 24bd 031f a8bb 21a2 a53d
000001b0: f404 4c3d 29cf 983d 4e73 a13c 42b3 08bd
000001c0: b074 85bd 0e36 19bc e57a 693d 5ed3 32bd
000001d0: 8a35 7a3d 2f2b ee3c 534b 093b 15ae 403c
000001e0: 1834 84bd 2727 033d f5f1 e53c 4db6 ea3a
000001f0: 519e 363d 1560 abbd 12e3 2f3c 7c82 30bd
00000200: 6ad8 73bd 631f 68bd fbde 96bb 25e9 8fbd
00000210: 3a61 ce3c d2a3 4abd c0b9 183d 3ddb 5b3d
00000220: dc94 99bc 4598 643d 4de1 92bd a76f 61bd
00000230: fc20 a4bd 39e4 a2bd 4656 95bc 13dc 9a3d
00000240: 43e4 b13c 92c3 273d a2f7 813d 4125 95bd
00000250: e739 15ba d40d d73c c7a3 49bd ad1b 5f3d
00000260: ebbc 00bd c150 c6bc 23a7 5ebd f3ac 063d
00000270: b867 88bd b54b 48bd f015 27bd 2566 50bc
00000280: bb73 16bd 6720 fd3b d90b 74bb 8b8b 2b3d
00000290: e023 88bc 03a8 23bd 38d8 773d cb6c 04bd
000002a0: b714 79bc 0c2a 8a3c 6230 ae3d aeed 9c3d
000002b0: badb 9dbd e26c 1b3c 7fac 83bd 1fe0 f93d
000002c0: 2749 833d 6109 b1bd 41f4 9f3b 851b 97bc
000002d0: 8b5e 583c 2dbf 94bd f2d5 08bd 3aaa 033d
000002e0: d589 a3bd 9099 b3bc 0753 ab3c 086d ffbc
000002f0: f80c f03c 6a51 c2bd e164 813d 8f10 9bba
00000300: b7d9 f8bb 785f c33a bef6 0e3a a2e0 aabd
00000310: dac7 c5bc 8f47 483c 042c 833d a45f 723c
00000320: 1470 5b3d 5e1b 413c adcc c03c 0d5d 76bd
00000330: 7800 863c 5c85 1b3d 88ab a43d f280 8d3c
00000340: 9efe 6b3d 47f6 6ebd 0c64 253d 98de ccbc
00000350: 0225 1cbd 9f5c d63c dcfd 303d 984a afbd
00000360: e558 a0bc 3dde 4f3d 4c47 a0bc 0299 43bd
00000370: 14ea 5ebd d820 863d b167 b23d c71e 50bd
00000380: df55 c1bc 03c5 24bd 3384 473d d621 9cbd
00000390: c1bd 303d a0d2 4a3d 6618 0e3d b42c 11bc
000003a0: daea 1d3d f168 14bd 3e4f 1f3d 620b 0539
000003b0: a662 97bd 1a30 70bd 757e 6dbd 6a0d e03c
000003c0: 125a 133d 6c74 183d 3721 1bbd 7537 47bd
000003d0: 796a 63bd 765b bcb9 03c7 efbc 706b 5d3d
000003e0: a283 b4bc bdea 8cbd 3d5f a43d 2855 86bc
000003f0: 035d 8abd 467c 143d f564 02bb eff0 5bbd
-0.087779716 -0.09138783 -0.067345604 0.06265068 -0.061257508 0.019856617 0.035949953 0.03667004
-0.07307038 -0.067268565 -0.05832644 -0.07822979 -0.0709079 0.026103886 -0.029235566 0.023627115
-0.008696764 0.015935913 -0.019120323 0.012239547 -0.016244078 0.039861143 -0.033067584 0.028129458
-0.026015747 -0.05608953 -0.06849745 -0.021085586 0.022786759 -0.00056845986 -0.095102444 -0.040531702
-0.0739575 -0.0402127 0.019174095 -0.008205354 0.01876509 -0.07362557 0.047751904 0.036154054
-0.02829616 0.04614691 -0.0017340392 0.061740004 -0.07353053 0.046738055 -0.0488478 0.009261288
0.07604735 -0.001709265 -0.06663224 -0.054163404 -0.007901817 -0.071718745 -0.038039718 -0.06550515
-0.06834973 0.031795435 0.05577989 0.06316797 -0.046468925 0.031964332 -0.04343722 0.010493856
-0.01768904 -0.07062854 -0.04208858 0.04338202 0.00453815 0.051038098 -0.06989359 0.007884533
0.005953379 -0.027317885 -0.08548789 0.045835182 -0.016444368 0.05032837 0.032853115 -0.023729471
0.007510468 0.029649112 -0.057143867 -0.050370403 0.02106854 0.039009254 0.03199241 -0.038463738
0.05674429 -0.047835242 -0.021529099 0.014115111 -0.04057236 -0.014449619 0.050189786 -0.06717297
0.05273136 0.06727107 0.057026006 0.06013075 -0.05529096 -0.012685197 -0.024463747 0.0047095185
0.018779617 -0.040182877 -0.00513065 0.08087564 0.04980941 0.07461388 0.019708302 -0.03337408
-0.06516397 -0.009351267 0.057001967 -0.043658607 0.061086215 0.029073326 0.0020949438 0.011760254
-0.064552486 0.03201976 0.028069476 0.0017907113 0.044584576 -0.083679356 0.01073529 -0.04309319
-0.05953256 -0.056670558 -0.004604218 -0.07026891 0.025192846 -0.049472637 0.03728652 0.05367588
-0.01874774 0.055809278 -0.07171879 -0.05503812 -0.08014104 -0.07953686 -0.018229615 0.07561507
0.021715289 0.040957995 0.0634606 -0.07282496 -0.0005692527 0.026251711 -0.049228456 0.054469753
-0.031430166 -0.024208428 -0.054358613 0.03287978 -0.06660408 -0.048900325 -0.040792406 -0.012719666
-0.036731463 0.00772481 -0.0037238507 0.041881125 -0.016618669 -0.03995515 0.060508937 -0.032330316
-0.015202693 0.016865753 0.08505322 0.07662521 -0.07707925 0.009486409 -0.064293854 0.12200951
0.06410437 -0.08644367 0.0048814123 -0.01844574 0.013206135 -0.072630264 -0.03340716 0.032144763
-0.07985274 -0.02192381 0.020913614 -0.03117992 0.029303059 -0.09488185 0.06318069 -0.0011830496
-0.007594313 0.0014905771 0.00054536376 -0.083436266 -0.024143148 0.012224092 0.0640488 0.01479331
0.053573683 0.01178631 0.023535097 -0.060147334 0.016357645 0.03796898 0.080405295 0.0172734
0.05761587 -0.058340337 0.040378615 -0.025008485 -0.03812123 0.026167212 0.04321085 -0.085591495
-0.019573638 0.050749052 -0.019565247 -0.04775334 -0.054422453 0.06549233 0.08711184 -0.0508106
-0.023600517 -0.040226948 0.04871006 -0.07623641 0.043149713 0.049517274 0.034691237 -0.008860756
0.03855405 -0.036232892 0.03889393 0.00012688109 -0.073918626 -0.058639623 -0.057981927 0.027350146
0.03597457 0.037220404 -0.037873473 -0.048636872 -0.055521462 -0.00035926298 -0.0292697 0.05405754
-0.022035424 -0.0688071 0.08025978 -0.016398028 -0.06756022 0.03625133 -0.00198966 -0.05369657

conv2.0.bias f4 [64]
00000000: 5bfc 4f3d bc5f ddbb ea6d 8cbd 07e7 be3c
00000010: ee35 313c 30ec 8bbc 2651 a3bc 4cef f0bc
00000020: 0788 243d 0e4c 293d cec5 36bc 29d3 ea3c
00000030: 4ff1 953d 5bcc 65bd d2aa 883d 91bd 8e3d
00000040: e235 993d 910c 003d 5966 8cbc b550 5bbd
00000050: 637c 81ba c3fd f73c 0186 863d 5891 51bc
00000060: 2ef0 563d 72eb 023b f275 19ba 44fa 883d
00000070: 9caa a0bd 9c47 423d 138f 7dbc f181 cf3c
00000080: 96c0 6abc 7d1b 17bd f808 71bd f5ce 9fbd
00000090: 117f 0c3d ae69 94bd 0ec1 9e3d a9a7 a13c
000000a0: fc0b fabc 7ebd 863c 9915 283d 61db 593c
000000b0: 82f5 343d f4e8 1bbd e3b9 95bd 4bfa 84bd
000000c0: a5ef 23bc f174 a63a d91a 663d 3d81 66bc
000000d0: 2303 0dbd 36a2 91bd 65b0 873d 7d76 ff3b
000000e0: 771a 16bc ef31 893c 71dd 283d d6db 313c
000000f0: d9bd 6b3b 963d 4e3c 1286 61bd bca7 bdbc
0.050777774 -0.006755797 -0.06856902 0.023303522 0.0108160805 -0.017080396 -0.019936156 -0.02941098
0.04016879 0.041332297 -0.011155559 0.028665142 0.073214166 -0.05610309 0.066732064 0.06969751
0.074809805 0.031261984 -0.017138647 -0.053543765 -0.0009878989 0.03027237 0.06568528 -0.012791
0.052475147 0.0019976762 -0.0005854062 0.066883594 -0.07845041 0.047431573 -0.015476006 0.025330516
-0.014328143 -0.03689145 -0.058846444 -0.07803146 0.034300867 -0.07246719 0.07751666 0.019733267
-0.030523293 0.016447779 0.041036222 0.013296933 0.044179447 -0.03806396 -0.07310846 -0.06493052
-0.010005866 0.0012699646 0.056177948 -0.014068899 -0.03442682 -0.071110174 0.066254415 0.0077961073
-0.009161583 0.016747443 0.041226808 0.010855636 0.0035971312 0.012587925 -0.0550595 -0.023151271

conv2.1.weight f4 [64]
00000000: b115 7f3f 3da3 813f 698d 7d3f 1c02 803f
00000010: c69a 7c3f 85b4 803f e97f 7e3f 0001 7e3f
00000020: b561 7f3f 2df2 803f 0ab3 813f 9d6a 843f
00000030: 3531 803f 52da 803f 5903 7d3f f733 793f
00000040: 3a55 7e3f 73f7 7e3f 9a03 803f 1431 803f
00000050: d967 7e3f f404 7d3f 4bd9 803f 2ae6 7f3f
00000060: 68e4 7b3f abca 7b3f d97a 7e3f bc1d 7d3f
00000070: abdd 7c3f fda3 813f 5970 7f3f 74e7 7c3f
00000080: 5df1 813f 1a78 803f 2ea1 7d3f 43b7 7f3f
00000090: c141 7f3f 3832 823f b5d8 823f c890 7f3f
000000a0: 0250 833f bbf4 7e3f e0cb 7b3f 73b1 813f
000000b0: 1708 803f d2b2 813f a1cb 773f 240b 803f
000000c0: 267f 803f 8d61 7b3f 844c 7e3f 4123 7d3f
000000d0: ae94 7f3f 52e1 823f 58f9 7f3f 7528 823f
000000e0: 3258 7f3f d505 803f 54db 7d3f 027c 803f
000000f0: b478 7f3f 0d78 833f 1352 803f cb61 813f
0.99642473 1.0127941 0.990439 1.0000644 0.98673666 1.005509 0.99413925 0.99220276
0.99758464 1.0073906 1.0132763 1.0345036 1.0015017 1.0066626 0.98833233 0.9734492
0.99348795 0.9959633 1.0001099 1.0014977 0.9937721 0.9883568 1.0066313 0.9996058
0.98395395 0.9835612 0.994062 0.98873496 0.9877574 1.012817 0.99780804 0.9879067
1.0151783 1.0036652 0.99074066 0.9988901 0.9970971 1.0171576 1.0222384 0.99830294
1.0258791 0.9959218 0.98357964 1.0132278 1.0002469 1.0132697 0.9679509 1.00034
1.0038803 0.98195726 0.99335504 0.9888192 0.9983624 1.0225012 0.99989843 1.0168597
0.9974395 1.000178 0.99162793 1.0037844 0.99793553 1.0271012 1.0025047 1.0107969

conv2.1.bias f4 [64]
00000000: 13dd c0ba 477f 36ba 94d3 d9ba 7559 9aba
00000010: 2e98 2aba bfde 983b f000 ce3b a38b 4039
00000020: e41d 163b cd96 7bba e2c9 cd3b a235 d3ba
00000030: 7fcf 223b 26de 28bb e3ae 82bb 83c5 68ba
00000040: 32c4 80bb 25c7 b73a 824c d73b a761 e9b8
00000050: 42da d3ba 8b93 33bb 9933 da3b 9b0c 453a
00000060: a9af caba 12f3 31bb c43d 423b 17c7 34bb
00000070: 6489 23bb 6456 ed39 5ef7 8e3b 5f63 423b
00000080: 1d45 8d3a 2d81 113b 90e8 93bb 827a 3e3b
00000090: 6712 9abb eecb 9abb 134e 5fbb a73d b9ba
000000a0: 207b 203a be69 1b3b 2fbd f1bb e611 5b3a
000000b0: f298 85b8 a6d9 0cbb ddee e6bb b0eb 2bb9
000000c0: fa9e 103a 792f a7bb 2f06 2c3b fd95 3a38
000000d0: 156e 86bb a3c0 06bb a909 353a 7cf1 97bb
000000e0: 384b 723a 6080 7fb9 98c6 f4b9 cd9f 843a
000000f0: 3d7c 9fbb 74b3 77bb d2e4 1a3b 6339 083b
-0.0014714323 -0.0006961715 -0.0016618841 -0.0011775928 -0.0006507662 0.0046652253 0.006286733 0.00018362566
0.0022906 -0.0009597361 0.00628017 -0.0016114006 0.0024842916 -0.0025767176 -0.0039881333 -0.0008879529
-0.0039296383 0.0014021142 0.0065703997 -0.00011128495 -0.0016163068 -0.0027401175 0.006658983 0.0007516832
-0.0015463728 -0.0027152938 0.0029638866 -0.0027584487 -0.0024953717 0.0004526853 0.0043629846 0.002966128
0.0010778044 0.002220224 -0.0045138076 0.002906472 -0.0047019008 -0.0047240173 -0.0034073635 -0.0014132754
0.00061218627 0.002371415 -0.007377289 0.0008356854 -6.3704225e-05 -0.0021492033 -0.0070475177 -0.00016395631
0.00055168534 -0.0051020947 0.0026248803 4.4485543e-05 -0.0041024783 -0.0020561598 0.00069060415 -0.0046369415
0.0009242776 -0.00024366518 -0.0004668727 0.0010118425 -0.0048671053 -0.0037796171 0.0023634923 0.0020786158

conv2.1.running_mean f4 [64]
00000000: f992 00be 8f92 a7bd 65de 793d 6cf7 043e
00000010: 6f50 613e 3745 24be e19f 78bd a32a 763d
00000020: 48dd bcbc 0808 cfbe f7c4 7fbd c910 503d
00000030: 03c6 42bd d1e5 8ebe 4ba8 f63a 3490 403e
00000040: 3fd2 de3d 4817 233e a92a 243e 6085 62be
00000050: 499f ca3d c243 603d 1afb 9f3d e547 303d
00000060: 3224 31bc 6196 533e 1743 803d 7f37 853d
00000070: 2116 7c3a 7553 843d 8e5a 1bbe 50b8 863e
00000080: 4d13 2dbe 5532 57bd b1f3 0cbd 4f4e e3bd
00000090: e398 f63d 07e0 91be 6c10 2f3c d6f4 29be
000000a0: 4e9b 6a3c 1d5a babe 06e7 4e3e 659b acbe
000000b0: 916d 50bd da43 3d3d 5464 973d 00bc dfbd
000000c0: 0d31 91bd 4bf2 023e 3fa8 863e 7dfb 8dbd
000000d0: 5eaa 0fbe 57df a33e a400 e7bd dbd4 3b3d
000000e0: cd97 e6bd de7a aa3d dd80 023e 4613 8c3e
000000f0: 78cb cabd 0343 2abd bd60 c6bd 75d8 6cbd
-0.12556066 -0.08182251 0.061003108 0.12985009 0.22003339 -0.16042028 -0.060699347 0.060099255
-0.023054734 -0.40435815 -0.0624437 0.050797258 -0.04755212 -0.2790971 0.0018818466 0.18805009
0.10879945 0.1592685 0.16031899 -0.22121191 0.098936625 0.05475212 0.07811566 0.043037314
-0.010811852 0.20662834 0.06262796 0.06504726 0.00096163346 0.06461231 -0.15171263 0.26312494
-0.16901894 -0.052538235 -0.03441209 -0.110989206 0.120408796 -0.28491232 0.010685068 -0.16597304
0.014319254 -0.36396876 0.20205316 -0.33712307 -0.05088574 0.046207286 0.07392183 -0.1092453
-0.07089434 0.1278774 0.26300237 -0.06932733 -0.14029834 0.32006332 -0.11279419 0.04585729
-0.112594225 0.08324216 0.1274447 0.27358454 -0.0990209 -0.041567814 -0.0968642 -0.057823617

conv2.1.running_var f4 [64]
00000000: 0ec4 763f 9969 d43e a99c a33f 9920 8d3e
00000010: 6bca 4240 6420 463f 650a d33d 215d 183f
00000020: 0235 fc3d 658e ca40 2f4d 9b3e 64ba a63e
00000030: 762d a13e 640d 4d40 0598 0f3f a9bd 683f
00000040: 4dcf 413e 4670 023f f505 b13e ed7f 7a3e
00000050: 25cc ba3e 470b 843e fa73 233e aa81 883e
00000060: a257 213e f07c a83f 0eb4 583e 92d1 013e
00000070: 1cc2 c43e 6bd9 5f3e 4390 213f b855 5f40
00000080: 328b bf3f 1e2b 063f db4b b23e 7222 cb3e
00000090: 3db1 c53d f431 8c3e 9dda b83d e087 bc3f
000000a0: 7fb8 203e 2899 9140 c4fc 1b3f d0bc 8040
000000b0: bf85 d93e 421d 113e 452b 3c3f 7ab7 b13e
000000c0: 7433 8f3e 36e9 923e 6016 ee3f cf2d f43d
000000d0: 2297 153f c5b4 8c40 2a77 593f 1e33 803e
000000e0: a750 883f 677f 793e 7e0a 0b3e c6fe 6e40
000000f0: 2023 653e 0f80 6c3e e10e 343e ca3b ec3d
0.96392906 0.41486815 1.2782184 0.27563933 3.0436046 0.77393174 0.10304717 0.59517103
0.12314798 6.329882 0.30332324 0.3256408 0.31479996 3.2039423 0.5609134 0.909144
0.18926735 0.50952566 0.34574857 0.24462862 0.36483875 0.25789854 0.1596221 0.26661426
0.15756086 1.3163128 0.21162435 0.12677601 0.38429344 0.21860282 0.6311075 3.4896069
1.4964354 0.5240954 0.34823498 0.39674717 0.09652946 0.2738186 0.09026072 1.4728966
0.1569538 4.549946 0.60932565 4.0230484 0.42484853 0.14171317 0.73503524 0.34710294
0.27968943 0.2869355 1.8600578 0.119228 0.58433735 4.3970666 0.84947455 0.25039
1.0649613 0.24365006 0.13578221 3.7343001 0.2237668 0.23095725 0.17583801 0.11534841

conv3.0.weight f4 [128, 64, 5]
00000000: e43a 2f3d b864 48bd 9aa6 0fbd a183 033d
00000010: 3bb4 d23a d304 56bd f9f2 a63c 5ca8 57bc
00000020: 0266 713d e9f6 ddbc 786b 49bd 2dfa 0c3d
00000030: b6d5 2abc 2ef3 6b3d 9e28 7f3c d50a 4dbd
00000040: 54d5 b7bc e135 f03c 523d f0bc eaf2 8fbc
00000050: 8c59 5cbd a770 36bd fcf6 703d 37d0 b7bb
00000060: e7fe 86bc 99cb e63c a942 32bd a4d5 dc3c
00000070: 5c9b c8bb dc01 06bd f1ff f93c 0630 523c
00000080: 0242 27bd 05f5 9b3c 1f2d 2cbd 325b 2b3c
00000090: 79f9 4d3d dacb 2fbc a7d5 f33c 1d86 543d
000000a0: 2c8b 673d 5e4f 6d3d a76f 1d3d b209 8f3c
000000b0: 79f2 b03c e5fe 3d3d c7fc c73c b9ea 143d
000000c0: 9c31 4f3d d25e 0bbd 8a62 3fbc c193 5eba
000000d0: a22b 44bd 6611 e83a 87f8 d1bc 1f78 923c
000000e0: 7793 e8ba 6bff 823d 40e7 143d 3d9a 82bd
000000f0: 08fc bfbc 9816 55bc df5b 233d 512e c1bc
00000100: af26 c5b9 055e 483d 448d 12bc 2aea 223b
00000110: 4d49 ba3c 8357 0d3d 01ca 91bc 0c77 afbc
00000120: 4ac5 003d ecbb 1abd 5379 bebb 94e3 5b3c
00000130: 5eef 213d c9f3 ee3c a42f 683d 0c6c 5dbc
00000140: 6488 cbbc e8ef 623d b4ee a0bc 1c18 04bd
00000150: 24c7 a9bc 44ad a1bc 915b 083b 9a8d 32bd
00000160: e12b 4b3c eba4 223d 3a71 21bd ae21 2abd
00000170: 97e2 da3c bd72 37bd 1d96 3c3c 443d 5c3c
00000180: 0b69 343d 52f2 60bc 84f3 bf3c 1d49 02bc
00000190: e074 89bc 9d51 4a3d 8ecb dfbc 4800 573c
000001a0: ed53 963c 58f1 62bd 38b5 2fbd 87b8 e33c
000001b0: 1bed 9b3c 0472 1bbc a071 f4bc 29d0 abbc
000001c0: 9aa8 2f3d a11e 49bd 1040 19bc 590e 1fbd
000001d0: db30 2abd a2c4 2bbb df7a 32bc 6ed2 8fbd
000001e0: ae02 eb3c 82e6 bdba 2ca6 733d 1895 93bc
000001f0: c8b5 17bd 58b3 123d 7429 6ebd 5c55 d2b8
00000200: 8735 ae3c 3384 21bd c238 fabb 3ea2 373b
00000210: b4e1 0dbd 7891 c83c 7a16 d73c dc5e 15bd
00000220: 72c5 cabb 7892 5b3c 8f03 1e3d eeca b6bb
00000230: 000d f5bc 243e 7ebd dba9 1abc 3c4f c23c
00000240: d5d2 dbbc a5d5 2e3d 455a 19bb 1b7d 4e3c
00000250: b030 a6bc e33e 5dbd 2443 6cbc d314 2f3d
00000260: dea4 3f3d ed4c ebbc e8f5 b53c 1b1e 5c3c
00000270: 75c5 4b3d f03a 043d d850 8bbb 7ba6 edbc
00000280: 0084 eabc 5f19 fe3c f61f 753c 1594 ac3c
00000290: 9a3b 5e3d 0a83 573d ee39 473d 8cc9 56bd
000002a0: 0b46 163d 897e 3f3d ad77 bdbc a43c 8ebc
000002b0: 30a4 603d c333 493c bb70 223d 006a 823c
000002c0: 79ea 47bd de03 f33b 2046 74bd 5ac5 49bc
000002d0: c25a 0b3d 8a61 aabc 037d dabc 2e22 ccbb
000002e0: f03d 04bd b30e 58bc 6f92 233d 1f7b 243c
000002f0: 52b6 d0bc ea33 b0bc 3cb7 5ebc 4c9a 88bc
00000300: 7a3a 5bbc 4400 2fbd c6f0 d33a 62d1 e1bc
00000310: 8062 a33c da91 b03c 0af4 4f3d edcc 633d
00000320: 27fa 163d e47b e2bc 2810 d0bc 4565 08bb
00000330: 86d9 e53c 3c7e 9cbc dfc2 443d 0d81 c63c
00000340: 0cce 2e3d 472b 823b 0d4d 42bd f971 d5bc
00000350: c3dd 37bc 3d6d 50bc 4984 72bc 96ad 5fbd
00000360: 7e1f e6bc e57a 213d 97d2 07bd 19ec 83bd
00000370: 4df6 183d 0f12 5b3c 2528 2d3c 206b fa3b
00000380: b528 273c fdce 85bc 34f9 a1bc 16d6 fa39
00000390: 61a2 b23c bbd4 223d cafc 79bb 509a 8ebc
000003a0: 2d14 9bbc e163 343d c396 913c ba35 513d
000003b0: de10 5e3d 43b9 fe3c b17b cbbc 78db 2e3c
000003c0: 791e e8bc 97e8 56bd 417d c13c 6293 eebc
000003d0: edbc 0a3d 877c 58bd dfcf 193d ed55 fa3c
000003e0: 56f6 1d3d 1137 453d 0f5a 2c3b 6b9c 40bd
000003f0: 7ef4 873b a085 f3bc 837a 36bd 9d78 a13b
0.04278077 -0.048924178 -0.035070993 0.032107953 0.0016075441 -0.052250694 0.02037953 -0.013162699
0.058935173 -0.027095275 -0.049174756 0.034418274 -0.010426929 0.05760496 0.015573649 -0.05005916
-0.02244059 0.029322566 -0.029326115 -0.017571885 -0.053796336 -0.044541027 0.058829293 -0.005609538
-0.016478969 0.028173255 -0.043520603 0.02695734 -0.006122036 -0.032716617 0.03051755 0.0128288325
-0.040834434 0.019037733 -0.04203522 0.010458754 0.050286744 -0.010729754 0.029764963 0.051885713
0.05652921 0.05793702 0.038436558 0.017460678 0.021599995 0.046385664 0.024412526 0.03635666
0.05058442 -0.034025975 -0.011681208 -0.0008490645 -0.047893174 0.001770538 -0.025631202 0.017879544
-0.0017744143 0.06396373 0.03635335 -0.06377075 -0.023435608 -0.013005875 0.039882537 -0.023581656
-0.0003760359 0.04891779 -0.008944813 0.002485881 0.02274003 0.034507286 -0.017796518 -0.02141907
0.03143815 -0.037776873 -0.005812803 0.013420958 0.03953492 0.02916898 0.05668606 -0.01351453
-0.02484531 0.055404574 -0.019645073 -0.032249555 -0.02072484 -0.01973594 0.002080653 -0.043592073
0.012400598 0.03970806 -0.039414622 -0.041536026 0.026719375 -0.044787157 0.011510399 0.013442341
0.04404549 -0.013729649 0.023431547 -0.007952002 -0.016779363 0.04939424 -0.027318742 0.013122626
0.018350566 -0.055405945 -0.042897433 0.02779795 0.01903396 -0.009487633 -0.029839337 -0.020973282
0.0428854 -0.049101476 -0.009353653 -0.038832042 -0.0415505 -0.0026209732 -0.010893553 -0.07022558
0.028687801 -0.0014488252 0.059484646 -0.01801543 -0.037038594 0.035815567 -0.058145 -0.0001002948
0.021265758 -0.039432716 -0.0076361606 0.0028020288 -0.034639075 0.024483427 0.026255835 -0.036467418
-0.006188088 0.01340162 0.038577612 -0.0055783903 -0.029913425 -0.06207098 -0.009439911 0.023719423
-0.026833931 0.042684216 -0.0023399752 0.01260307 -0.020286888 -0.05401505 -0.014420304 0.04274447
0.04678809 -0.028723205 0.022211984 0.013434912 0.049748857 0.03228277 -0.0042515807 -0.029010048
-0.028627396 0.031017957 0.014961233 0.021066705 0.05425606 0.052615203 0.04863923 -0.052438304
0.036687892 0.046751533 -0.023128355 -0.0173629 0.05484408 0.012280407 0.03965829 0.015919685
-0.048807595 0.0074162325 -0.05963719 -0.012315119 0.0340221 -0.020798463 -0.026670938 -0.0062296605
-0.03228563 -0.013187098 0.03993457 0.01003912 -0.025477562 -0.02150913 -0.013593491 -0.016675137
-0.013380641 -0.042724863 0.0016169779 -0.027565662 0.01994443 0.021553922 0.050769843 0.055615354
0.036859658 -0.027646966 -0.025398329 -0.0020812314 0.028057825 -0.019103162 0.048037406 0.024231458
0.04267697 0.003972444 -0.047436763 -0.026055323 -0.011222306 -0.012721357 -0.014802047 -0.054608904
-0.028091189 0.039423842 -0.03315982 -0.064415164 0.037344266 0.013371005 0.010568653 0.007642165
0.010202576 -0.016334051 -0.01977215 0.00047843222 0.021805944 0.039753657 -0.0038145059 -0.017407566
-0.018930519 0.044040564 0.017772084 0.05107663 0.054215305 0.031094199 -0.024839254 0.010672443
-0.028334843 -0.05246791 0.023619296 -0.029123012 0.03387158 -0.052853134 0.037551757 0.03055855
0.038565002 0.04814822 0.0026298796 -0.04702417 0.004149019 -0.029726803 -0.04455043 0.0049277083

conv3.0.bias f4 [128]
00000000: e4a5 0fbd e98b dfba 8e57 84bb 9788 b5bc
00000010: 3cd9 8a3c c1da 033a 23d3 62bd 57a8 3ebd
00000020: 769a 3abd cb8a c0bc 89eb 183d 2932 853c
00000030: 0957 eabc d5ca 143d 156d 933c 1e1b 0c3c
00000040: baf7 be3c d449 bd3c ba2f 01bd 9b2f 083d
00000050: 3a94 313d 3a00 a93b 96d1 973c 18a4 c3bc
00000060: f2eb 42bd 97ba 41bd d643 01bd 7704 05bd
00000070: 2e06 03bd fd74 8abc 363a fe3c 8a2b d0ba
00000080: 3fe5 81ba 47cc 113c 44f5 88bc 3b56 39bd
00000090: 7d04 4bbd 8f82 15bd 1359 acbc b4e3 d7bc
000000a0: b83b fcbc c3a0 303d b206 fcbc 1dea 173d
000000b0: e39b 173d 4b09 913c 793c ed3c 9f25 64bd
000000c0: c754 5a3d 4278 283d 95c8 acbc 7c58 2b3d
000000d0: 79c1 f2bc 8942 0fbb 9bb6 763c cf77 4e3c
000000e0: 66c3 5a3d a9a6 643d b2b0 7e3c 7ab4 09bc
000000f0: ee59 bdbc 6e08 4fbd a354 57bd ffc4 e4bc
00000100: e76d 473c 2e82 24bd 083b 18bc ce19 24bd
00000110: a0ca 863c bf36 c93a 25de d03b 2679 2f3b
00000120: 3490 5d3b 9293 babc ceed 5c3d c223 2a3d
00000130: 9993 00bd be48 c63c 56d5 57bd b3ca 2bbd
00000140: 2482 19bc b43f 0f3d 9810 1b3d d948 4f3d
00000150: cadd afbc d3ef 69bc 90ed bcbc 54a6 2c3d
00000160: 343a 58bb e07e 5dbd a04e 283c e735 21bd
00000170: 130e 523d b8fa 61bd 0dc1 b53c dbe1 413d
00000180: cb81 b0bb 5060 dbbc a048 4b3d d6c9 54bd
00000190: d69f 2f3c c080 073d b0d0 253d 0ddb 663c
000001a0: 404a d63c a384 e2bc d81b d8bc fe8f 0bbd
000001b0: 5c53 0fbc a6ff b53c 4011 333d b546 08bd
000001c0: 0489 a03c d1c9 ecbc 5ca6 0c3d 4671 29bd
000001d0: c1e2 92bc ae84 563c 110f b0bc 281b 4cbd
000001e0: 0dff a03c 50e7 a4bc f23f d43b 882a 313c
000001f0: 8d6d 6b3c b5de 72bc a30c c13c df2e a0bc
-0.035070315 -0.0017055246 -0.0040387576 -0.022159858 0.016949289 0.000502985 -0.055377137 -0.04654726
-0.04555746 -0.023503682 0.037334 0.01625927 -0.028605955 0.03632625 0.01799635 0.008551387
0.023311485 0.023106493 -0.031539656 0.033248525 0.04335425 0.0051574977 0.018532556 -0.023881957
-0.047588296 -0.047297087 -0.031558834 -0.03247496 -0.031988315 -0.016901487 0.031033617 -0.0015882116
-0.000991024 0.008898801 -0.016718514 -0.04524825 -0.049564827 -0.036501464 -0.021038568 -0.026353694
-0.030790195 0.043122064 -0.030764911 0.037088502 0.0370139 0.017704627 0.0289595 -0.05569994
0.053303506 0.04113031 -0.021091739 0.041832432 -0.02963327 -0.0021859726 0.015058185 0.012601807
0.053409003 0.055823002 0.015545057 -0.008404845 -0.02311417 -0.05054515 -0.05257095 -0.027925966
0.012172199 -0.04016321 -0.009291418 -0.04006367 0.016454041 0.0015351399 0.006374138 0.002677509
0.0033807876 -0.022775445 0.053937726 0.041538008 -0.03139076 0.024204608 -0.052693687 -0.041941356
-0.009369407 0.03497286 0.037857622 0.050606582 -0.021468062 -0.01427837 -0.023062497 0.04215081
-0.0032993676 -0.054076076 0.010272652 -0.039358046 0.051282953 -0.055170745 0.02218678 0.047334533
-0.0053865663 -0.026779324 0.049629807 -0.0519503 0.01071926 0.03308177 0.040482223 0.014090312
0.026158452 -0.027651137 -0.026380464 -0.03407287 -0.008747902 0.02221663 0.043717623 -0.033270556
0.019596584 -0.028904827 0.03433834 -0.04136779 -0.01793039 0.013093157 -0.02149156 -0.049830586
0.019652868 -0.02012983 0.0064773494 0.010813363 0.014369381 -0.014823605 0.023565596 -0.0195536

conv3.1.weight f4 [128]
00000000: 19bf 7f3f 09d8 803f 491f 803f f831 823f
00000010: d95d 803f e6ab 7f3f 72ef 7e3f 52f8 7f3f
00000020: 3b02 803f 49cf 803f 216f 7f3f f5c8 803f
00000030: 8eee 7f3f fb96 7c3f 4c60 813f 278a 7e3f
00000040: a995 7d3f 8b84 7c3f c76a 7f3f 9960 803f
00000050: 9372 7e3f e03d 803f 3ddd 7f3f 74d7 7f3f
00000060: 8017 7d3f a05b 803f f7e8 7e3f 98e2 803f
00000070: 99a6 7e3f 7ecb 7d3f be79 803f 9e0d 803f
00000080: ec14 803f 20de 7f3f e59c 7e3f 9036 803f
00000090: 3cc6 7f3f 2af3 7f3f 075f 803f 5955 7f3f
000000a0: 8889 7d3f 7b11 7f3f 9bcf 833f 1d33 7f3f
000000b0: 65e6 803f 2393 7f3f 8a97 7f3f 88ec 7f3f
000000c0: 5f65 813f 3904 803f 86cf 7f3f 1c66 7f3f
000000d0: 6dbe 813f 2551 7f3f 3489 803f 6ae4 7e3f
000000e0: b168 7e3f dd9e 7f3f 62c7 7f3f 23cf 7f3f
000000f0: 3716 7e3f 1790 803f 5184 7f3f 12cb 7e3f
00000100: cbd5 803f 95f7 803f 1e67 7e3f 42e9 7f3f
00000110: fbe4 803f 6002 803f 3714 803f 5e4a 7e3f
00000120: 72d9 7f3f 9e35 7e3f e0c0 7f3f da87 803f
00000130: 5854 7f3f be89 7e3f 3d7a 7f3f 4ce0 813f
00000140: 36b6 7f3f 22e0 7f3f d98a 803f a511 803f
00000150: f43d 803f a50e 803f 1824 803f f200 7f3f
00000160: 8724 823f 9635 7e3f 80d4 7e3f 72f8 7d3f
00000170: 3a61 7f3f 7505 803f bbc0 7d3f 3048 803f
00000180: 9c89 803f 8c2c 7d3f fdc9 7e3f c540 813f
00000190: c074 7f3f 1d19 803f f2f3 803f 8148 7e3f
000001a0: 91e0 7d3f 6d99 813f d33f 803f a7e2 7e3f
000001b0: 83fb 7f3f 943e 813f c500 803f 8093 803f
000001c0: 8350 7f3f c28f 7f3f 95f3 7f3f 010b 803f
000001d0: f7a5 7e3f 72cc 7f3f d2f4 7f3f dbae 7f3f
000001e0: 80cd 7f3f 87f5 7f3f 65b9 7e3f edb0 7f3f
000001f0: 9508 803f 1dbe 7f3f 6e3b 803f 4271 813f
0.99900967 1.0065929 1.0009547 1.0171499 1.002864 0.9987167 0.99584115 0.9998828
1.0000681 1.0063258 0.99778944 1.0061327 0.9997338 0.9866788 1.0107512 0.99429554
0.9905649 0.98639745 0.99772304 1.0029479 0.99393576 1.0018883 0.9994696 0.9993813
0.98863983 1.0027962 0.99574226 1.0069151 0.9947296 0.9913863 1.0037153 1.0004156
1.0006385 0.9994831 0.9945815 1.0016651 0.99911857 0.99980414 1.0029 0.99739605
0.9903798 0.9963605 1.0297731 0.9968737 1.0070311 0.9983389 0.99840605 0.99970293
1.0109061 1.0001289 0.9992603 0.9976518 1.0136238 0.9973319 1.0041871 0.9956728
0.99378496 0.9985178 0.9991361 0.9992544 0.9925265 1.0043973 0.99811274 0.9952861
1.0065244 1.0075556 0.99376094 0.999653 1.0069879 1.0000725 1.0006169 0.99332225
0.9994117 0.99300563 0.9990368 1.0041459 0.99738073 0.9942893 0.99795896 1.0146575
0.99887407 0.99951375 1.0042373 1.0005385 1.0018907 1.0004469 1.0011015 0.9961082
1.0167397 0.99300516 0.99543 0.9920722 0.9975773 1.0001665 0.9912221 1.002203
1.0041995 0.988961 0.9952696 1.0097891 0.9978752 1.0007664 1.0074446 0.9932938
0.99170786 1.0124947 1.0019478 0.99564594 0.9999315 1.0097222 1.0000235 1.0045013
0.99732226 0.9982873 0.9998105 1.0003358 0.9947199 0.99921334 0.9998294 0.99876183
0.99922943 0.9998402 0.9950164 0.9987934 1.0002619 0.99899465 1.0018137 1.0112689

conv3.1.bias f4 [128]
00000000: 1217 9d38 65db 11b9 76fc 1338 c872 1eba
00000010: 5d5e 1aba 641e e8b8 faa5 7538 dd14 e2b2
00000020: 2b81 5db2 1c9b e7b2 e879 c0b1 9896 94b8
00000030: 243e ae31 9e12 ef38 c26a 6238 d039 2ab2
00000040: dd30 42b8 8b35 29b9 8acb 5fb7 ff9b fd38
00000050: 8d8e 6aba 1174 28b9 648c eeb2 fc8d dcb2
00000060: 0bb6 78b8 ff64 9cb7 b92f 6d37 4d6b 5fb9
00000070: c82d e7b9 8bcd 9137 f48a 0cb3 b4cf 9fba
00000080: e465 71b7 e86a 79b2 90d3 ffb2 a78f e8b2
00000090: 3887 f032 e03b 9bb2 1ccd 4c32 1ce5 f6b2
000000a0: 9a95 fbba bc72 cab9 b660 f3b8 012c adb8
000000b0: 1b34 c43a 6c18 daae 7739 a032 6017 87b0
000000c0: cc22 8aba 2c37 d3b7 c5ae 4c38 1abd cf31
000000d0: 28a6 c3ba 532c 9eb8 009e 93b7 69cb 4638
000000e0: f35a 42bb 5d31 6939 e332 8fb5 32ff 35b7
000000f0: 83bc 3237 e3e8 e5b8 679e bc3a ee1c a238
00000100: 4771 623a 14ca 083a dbd6 beb8 205f c9b2
00000110: 8fda b932 a811 a931 b176 f5b1 4769 bb35
00000120: 201c e539 c308 85b9 d747 17b2 d3f5 f1b9
00000130: be55 4839 1c15 a03a 6b19 1033 8222 4d39
00000140: dbd9 03b9 9941 9732 7bd9 6db7 aa49 ceb8
00000150: 4d25 a2ba 136a 9832 0f54 5dba d96b 8437
00000160: cbdd f738 28a5 3bb8 5126 acb1 a2a3 2f32
00000170: be27 06b7 eb73 be32 3aad f632 95d3 3231
00000180: 052f 48b8 de4f 2d37 0fab d2b9 3b8d d1b7
00000190: 602b 2133 7b0b 17ba a077 01b7 509f a5b8
000001a0: 098b cf38 f531 eeb6 1956 92b9 b33d 5138
000001b0: b1ae 36b2 abd7 4a38 2615 0b38 71c9 e132
000001c0: e0cb 323a 2195 acb1 1069 fcba 4da7 7f32
000001d0: 1426 9fb8 1d28 ab39 dfee e8b2 253f b6b8
000001e0: 473f efb1 0b91 10b3 72cc 7db7 56c9 b2b1
000001f0: 5fa2 8a32 93ae 05b6 d437 3732 6ce6 a0b5
7.4906406e-05 -0.00013910008 3.5282654e-05 -0.00060443254 -0.0005888695 -0.00011068283 5.856713e-05 -2.631935e-08
-1.28932625e-08 -2.6962475e-08 -5.6017946e-09 -7.08524e-05 5.071131e-09 0.00011399876 5.3982025e-05 -9.908447e-09
-4.6298712e-05 -0.00016137042 -1.3339226e-05 0.00012093037 -0.00089476333 -0.00016064967 -2.7770689e-08 -2.5675938e-08
-5.929735e-05 -1.864368e-05 1.4137412e-05 -0.0002130691 -0.00044093863 1.738106e-05 -3.2722667e-08 -0.0012192638
-1.4388443e-05 -1.4518015e-08 -2.9782115e-08 -2.707368e-08 2.8001168e-08 -1.8071603e-08 1.1920999e-08 -2.8742356e-08
-0.0019194365 -0.00038613926 -0.00011605157 -8.257479e-05 0.0014969142 -9.9178304e-11 1.8652583e-08 -9.829186e-10
-0.0010538935 -2.5178852e-05 4.8800157e-05 6.0459913e-09 -0.0014926838 -7.542283e-05 -1.759734e-05 4.739632e-05
-0.002965626 0.00022239001 -1.066914e-06 -1.0847858e-05 1.0653518e-05 -0.000109629495 0.0014390469 7.7301505e-05
0.00086380955 0.00052181 -9.099926e-05 -2.3442738e-08 2.1636223e-08 4.9205546e-09 -7.143932e-09 1.3963225e-06
0.00043699238 -0.00025374265 -8.805691e-09 -0.00046150255 0.00019105428 0.0012213322 3.355073e-08 0.00019563179
-0.00012574291 1.7608544e-08 -1.4176937e-05 -9.8365665e-05 -0.0012370736 1.7743366e-08 -0.00084430067 1.5785847e-05
0.0001181919 -4.4738088e-05 -5.010215e-09 1.02235465e-08 -7.996276e-06 2.2171625e-08 2.8716943e-08 2.602268e-09
-4.7727506e-05 1.0330199e-05 -0.0004018177 -2.4980507e-05 3.7525183e-08 -0.00057619036 -7.7168515e-06 -7.8974874e-05
9.8964265e-05 -7.0987685e-06 -0.00027911438 4.9886945e-05 -1.06335145e-08 4.836141e-05 3.315988e-05 2.6285052e-08
0.0006820541 -5.022813e-09 -0.0019257385 1.4880993e-08 -7.5888034e-05 0.00032645548 -2.711698e-08 -8.690198e-05
-6.9630093e-09 -3.365953e-08 -1.5127576e-05 -5.203371e-09 1.6139152e-08 -1.992016e-06 1.0664696e-08 -1.198799e-06

conv3.1.running_mean f4 [128]
00000000: 6b07 38bd 0a21 acbd 9764 e6bb ee5c cb3c
00000010: a280 203e a9ae 1d3d e614 a23d 7c7d 38be
00000020: cbdb 2ebe 39e8 773e a001 35bd f75f a13d
00000030: 397a 6fbe 82e8 233e 1e94 1d3e 8b52 a4bd
00000040: 37f3 353e 8a53 e73d 5f81 b83e de39 91bd
00000050: bd14 6abd a15f 003e 444a 2ebe d530 bfbe
00000060: 297f ea3d 21b4 4dbe 0721 933d 14e4 253e
00000070: b9c6 e83c f64e 173e 0c73 8abd 71b4 dbbb
00000080: ef5c 15bd 54bf 39be 9248 013e d1d2 6fbc
00000090: f1f4 56be 35cf 5fbb 1017 16be ee6c bcbd
000000a0: 9967 933d b917 143e 7e17 edba 3732 e2bd
000000b0: aece 643c 5eab adbd 379c 42bd d65e 43be
000000c0: 20dd 8dbd f291 04be b26c 0c3e 1edb 80be
000000d0: e856 e1bd 53ad 47be db0b 353d f3b8 c13d
000000e0: b702 88bd c623 adbc ce2a 383d c73e 173e
000000f0: 12be a13a 1d14 c63d 7110 12bd a3f8 31bd
00000100: 3bb3 123e 5614 3dbc 8e55 cb3e 1b7a 91bd
00000110: 39eb abbc 4f34 a9bd 2627 c7bd dce2 bc3c
00000120: d3cc a3bd ad58 173e a8b0 d1bd 8ef4 513e
00000130: 5507 913b 8f09 843e 84ad 4ebe 1783 f03a
00000140: 7f0b 8f3d 2b06 92bd e01e 383d 500b 423e
00000150: aa24 d63c 92eb 14be 4270 8c3e 00bb 2dbe
00000160: 5495 373d 22de b8bc 38dd d3bd 6f4b 90be
00000170: fd47 753e 1816 fdbd 6e70 0b3e a688 21be
00000180: 538e 9a3d 8edf 383e 2a5c 423e 1abd 96bd
00000190: 1703 a4bd dfe8 15bc ea86 5e3b 81e5 903e
000001a0: f50f 723e 7845 193e e6ff 37bc 7df0 283e
000001b0: d8bd 43bd c291 e23d eb41 8bbd 41c1 8d3e
000001c0: f67e 2f3e 6116 63be 09e3 b63c 3e69 f7bd
000001d0: 32a9 173e 5444 503e cbea 9fbd fab5 76bd
000001e0: b981 08be 652a ddbd 2a1d 943d eca6 08be
000001f0: 1ee6 5c3d 85fa 08bd 58de 96bd f601 073e
-0.04492895 -0.08404739 -0.007031034 0.024824586 0.1567407 0.038496647 0.07914142 -0.18016618
-0.17076032 0.2420968 -0.044191003 0.07879632 -0.23386468 0.16006663 0.15388533 -0.08023556
0.1776856 0.11295231 0.36036202 -0.070911154 -0.057148684 0.1253648 -0.17020518 -0.37341943
0.11450035 -0.20088245 0.07184034 0.16200286 0.02841507 0.14776215 -0.06760225 -0.00670486
-0.03646558 -0.18139392 0.1262534 -0.014637665 -0.20991875 -0.0034150605 -0.14657235 -0.09200464
0.07197494 0.14462174 -0.0018088666 -0.11044734 0.013965292 -0.08479951 -0.04751226 -0.19079146
-0.06926942 -0.12946299 0.13713339 -0.25167173 -0.11002904 -0.19499712 0.04420076 0.094591044
-0.06641143 -0.021135222 0.044962697 0.14770041 0.001233997 0.09671805 -0.03566021 -0.04345001
0.14326183 -0.011540493 0.3971371 -0.07103368 -0.020986186 -0.0826193 -0.09724264 0.023057394
-0.079980515 0.14779921 -0.10238773 0.20503446 0.004425923 0.25788543 -0.20183378 0.0018349615
0.069846146 -0.07130083 0.04495132 0.18949628 0.02614053 -0.14542988 0.27429396 -0.16965866
0.044820145 -0.022566859 -0.103449285 -0.2818255 0.23953243 -0.1235773 0.13617107 -0.15774783
0.075466774 0.1805403 0.1898047 -0.07360287 -0.08008402 -0.009149759 0.0033954927 0.28300098
0.236389 0.14967906 -0.011230445 0.16497989 -0.04778847 0.11062957 -0.06799682 0.27686504
0.17138276 -0.22176506 0.022325056 -0.1208062 0.14810637 0.20338565 -0.07808455 -0.06023214
-0.13330735 -0.10799102 0.07232125 -0.13344926 0.053930394 -0.03344204 -0.073666275 0.13184342

conv3.1.running_var f4 [128]
00000000: 2614 003f 8e28 243e e75b 023e f7c9 8d3d
00000010: a6be e73e 0df2 9d3d 2b00 583f cd27 903e
00000020: 5a76 1a3f d809 2c3f 68ee bb3e 2d68 233e
00000030: f4f5 de3e 87fd f73e d517 193e e1a0 603f
00000040: c906 513e 8fd7 143e 4ae7 9540 f638 2b3f
00000050: 5ca8 953d 20c5 fa3d 485e 3f3f 0c8f e13f
00000060: b68a a13f ac34 173f 492e 9c3e 9da9 3140
00000070: 3e20 6d3e 4f9b 353f 3122 1d3f 7268 3a3e
00000080: 1a90 3c3e 930e b13e 7a5d 033f 8b55 223e
00000090: d178 243f d2be 033f d99e ec3e 6f3b cb3e
000000a0: e0f6 ab3e 080e 523e 0143 073e 7a38 c33e
000000b0: aa12 933f 23b5 aa3e ff6a 223e bcad c63e
000000c0: 72d0 ba3d c52e 6a3f e96c a23f 6f66 c43f
000000d0: 5d2a b53d 13d3 813f fdd1 db3e e4a2 9a3e
000000e0: 5f45 f63d 62f8 0e3f 9f01 5c3e 4997 e53e
000000f0: 2e55 293e 491b 903e bf45 3e3e 594a af3d
00000100: bbb3 8c3e 410a cf3d 8764 8f40 29c1 a83e
00000110: 3e77 db3d c7da 0c3e 8246 1e3f 35aa 553e
00000120: e8f1 143f f2b7 103f 837b b03e d8e4 b13f
00000130: a375 ac3d 725a 1640 f8b2 1b3f 8459 823d
00000140: 2f5b 5c3e a3f7 893e 29d2 6d3e 1f05 593f
00000150: 4804 1a3e b0dd ba3e 5294 b13f aa3e 673f
00000160: ebf5 ea3d 0202 8b3d f98d 813e 520a 823f
00000170: 9844 7f3f 13d0 413e cfd4 713e 6828 ba3f
00000180: 62ab 5b3f 70f9 c23e 61e7 5f3f 6d6a d03d
00000190: 43b4 d73e cacd 9b3e 3f4a fc3d 925d 3040
000001a0: d38f 1b3f 742c 003f 4d43 c73d 2914 3d3f
000001b0: 9fcf fb3d bdb8 6f3e 305a aa3e 0b3c af3f
000001c0: a609 d33f 2ca4 2a3f 9dc9 0b3e 7261 c93e
000001d0: 4272 5b3f e574 bd3f 2885 043f d432 5b3e
000001e0: 6113 6b3e 7309 d63e 7f72 ad3e b904 063f
000001f0: 8ae4 0c3e 17c5 563e fb69 233e 7b1e e63e
0.50030744 0.16031095 0.1273037 0.06923287 0.4526264 0.07712183 0.84375256 0.28155366
0.6033684 0.6720252 0.36705327 0.15957709 0.43547022 0.48435614 0.14950497 0.8774548
0.20412745 0.14535354 4.6844835 0.6688379 0.073075026 0.1224463 0.74753237 1.762178
1.2620456 0.59064746 0.30504063 2.7759774 0.2315683 0.7094011 0.61380297 0.18203905
0.18414345 0.34581432 0.5131451 0.15852945 0.6424685 0.51463044 0.4621494 0.39693782
0.33586788 0.20513165 0.13209154 0.38129026 1.1490071 0.3334132 0.15861128 0.38804424
0.09121789 0.91477615 1.2689487 1.534376 0.08845971 1.014254 0.42933646 0.302024
0.1202495 0.5584775 0.21484993 0.44841984 0.165364 0.28145817 0.18581294 0.085591026
0.27480873 0.10109378 4.4810214 0.3295987 0.10716103 0.13755332 0.61826336 0.2086571
0.5818162 0.5653068 0.34469232 1.3897963 0.08420875 2.3492703 0.6081996 0.0636473
0.21519159 0.26946744 0.23224701 0.8477344 0.15040696 0.3649726 1.3873389 0.9032999
0.114726864 0.06787492 0.2530363 1.01594 0.9971404 0.1892703 0.23616336 1.4543581
0.85808384 0.3808093 0.8746243 0.10176549 0.42129716 0.30430442 0.12318849 2.755711
0.60766333 0.5006783 0.097296335 0.73858887 0.1229546 0.23410316 0.33271933 1.3690199
1.648732 0.66656756 0.13651128 0.39332157 0.8572122 1.4801298 0.5176568 0.21406108
0.22956611 0.41804084 0.33876416 0.52350956 0.13759056 0.20973621 0.15958397 0.4494513
