saved/cnn/serif_cnn.pth (torch, 63386 bytes, 20 tensors)

cnn_block.0.weight f4 [32, 3, 5]
-0.18947764 0.14132261 0.12285153 0.1753834 0.057493366 0.07687524 0.11202235 -0.13497531
0.114298105 -0.20281026 -0.115687996 -0.20333262 0.11140431 -0.13319914 -0.07691405 -0.036760774
0.110010535 0.1861191 -0.12986755 0.20599279 0.2379516 0.07891989 -0.1586115 -0.22496058
-0.034404878 0.1585241 0.225808 0.05630222 0.09154404 0.06143197 -0.058989882 0.028953634
0.21808277 0.15625171 0.21848077 0.09494802 -0.15244499 -0.06297243 -0.29107708 0.03200284
0.16890998 0.1196975 0.09515813 -0.0214068 0.1892409 0.09638012 -0.06486055 0.15165374
-0.01827788 -0.16956574 -0.21140154 -0.083751 0.08598431 -0.07572819 0.160674 -0.15080355
0.24602222 0.18983519 -0.13071716 0.25286224 -0.072733745 -0.11636842 -0.04287285 -0.18325931
0.093599744 -0.06659856 0.06607121 -0.26183873 -0.012273048 -0.11988829 0.17791113 0.12974577
0.24461327 0.15229706 -0.11921567 -0.25377148 0.15790589 0.21038069 0.023040323 0.15494134
0.19356577 0.1132671 0.23980123 0.11853473 -0.052325282 0.14650321 -0.1959949 0.07392461
0.19867723 -0.037068088 -0.06503777 0.1456061 0.11377039 -0.24290475 0.012477742 0.0013287535
-0.27162042 0.34930623 0.10882793 -0.10930886 0.11032006 -0.01207351 0.15966038 -0.20584762
0.07189944 -0.04158699 0.11474872 -0.035299364 0.11451052 -0.1644926 -0.26273033 -0.110266574
0.03560274 0.17125264 0.16992146 -0.011073673 -0.20985237 0.16649264 0.19266567 0.19807559
0.15224239 0.19279344 -0.002347739 0.028652117 -0.15539537 0.078945406 0.1471373 0.08292028
0.11392814 0.22032276 0.11761689 0.15805659 0.058886386 0.045127254 -0.2369358 0.1652292
0.25184408 0.21714094 -0.03963397 0.1072049 -0.16843542 0.14947173 0.17196622 0.15484624
-0.10230998 -0.1439285 -0.20795485 -0.012982263 0.19581074 0.11680307 0.2946611 0.15194084
0.05331774 -0.25713924 -0.3356408 -0.08206714 0.066497706 0.015238453 -0.087446965 0.1595417
-0.059754997 -0.066518195 0.21535657 0.043741435 0.1878403 0.29237333 -0.072891384 0.12496964
-0.23110159 -0.058467366 -0.06687833 -0.16918297 0.04395564 -0.04279769 -0.00022945287 -0.0958328
0.20403606 0.21504772 -0.2347679 0.23862667 -0.14995898 -0.0011931409 0.16092175 0.21702366
0.059729815 0.31512076 -0.18300572 0.037519056 -0.19213179 -0.21476157 -0.06998106 -0.13845572
-0.116003715 -0.028013943 0.011087085 -0.25849998 -0.0607327 -0.008942272 0.119098224 -0.12007489
-0.19425859 0.13683856 0.23494922 0.17822152 0.12004702 -0.03233523 -0.10674022 -0.05984735
0.017023904 0.16237433 0.03270879 0.17122121 0.23045065 0.012511033 -0.22258218 0.20900455
0.028835315 -0.17328298 -0.25285056 -0.0037224586 -0.16421515 0.1448138 0.00087941624 0.10859705
-0.22500812 -0.18544142 0.081393935 -0.19177578 0.027584488 0.023349658 0.23447002 0.19047341
0.07476448 0.116214946 -0.14543855 -0.09329792 -0.07522959 0.07491148 0.018205436 -0.09076966
0.08804927 0.22203496 0.22588496 -0.01977592 -0.14433797 -0.13169216 0.07570264 0.22425358
-0.047335442 0.07953185 0.037013825 -0.1367133 -0.20678958 -0.20865618 0.13274477 0.034517404
00000000: 6d06 42be e0b6 103e 9599 fb3d b597 333e
00000010: 2a7e 6b3d c470 9d3d f96b e53d f836 0abe
00000020: 2015 ea3d 7ead 4fbe d4ed ecbd 6d36 50be
00000030: f127 e43d 5b65 08be 1d85 9dbd 7792 16bd
00000040: 344d e13d 0196 3e3e 00fc 04be c6ef 523e
00000050: 96a9 733e c0a0 a13d 0e6b 22be 115c 66be
00000060: 21ec 0cbd 2454 223e 363a 673e 289d 663d
00000070: 717b bb3d 17a0 7b3d 609f 71bd 2c30 ed3c
00000080: 1751 5f3e 7300 203e 6cb9 5f3e 1c74 c23d
00000090: 8a1a 1cbe b0f7 80bd 0e08 95be 6915 033d
000000a0: bdf6 2c3e f623 f53d 44e2 c23d 505d afbc
000000b0: 5ec8 413e f162 c53d 9cd5 84bd 1e4b 1b3e
000000c0: 7ebb 95bc a4a2 2dbe a579 58be a585 abbd
000000d0: 8b18 b03d 6217 9bbd ba87 243e 3f6c 1abe
000000e0: 40ed 7b3e 2864 423e b8da 05be 2977 813e
000000f0: 6ef5 94bd 9152 eebd 719b 2fbd 54a8 3bbe
00000100: 39b1 bf3d d364 88bd 5850 873d ba0f 86be
00000110: e514 49bc fe87 f5bd 562e 363e 13dc 043e
00000120: e77b 7a3e c3f3 1b3e 5827 f4bd 56ee 81be
00000130: 15b2 213e 096e 573e 0fbf bc3c f1a8 1e3e
00000140: 1b36 463e 95f8 e73d 748e 753e 56c2 f23d
00000150: 0953 56bd f004 163e e3b2 48be c965 973d
00000160: 0b72 4b3e b5d4 17bd 8632 85bd c419 153e
00000170: 7300 e93d 06bc 78be 716f 4c3c 9229 ae3a
00000180: d511 8bbe 44d8 b23e 2ee1 de3d 53dd dfbd
00000190: 7cef e13d f9cf 45bc 037e 233e b8c9 52be
000001a0: 0340 933d 1f57 2abd 6001 eb3d 1196 10bd
000001b0: 7e84 ea3d c070 28be 9784 86be 71d3 e1bd
000001c0: 2ed4 113d da5c 2f3e e4ff 2d3e 5a6e 35bc
000001d0: 8ae3 56be 0c7d 2a3e 264a 453e 54d4 4a3e
000001e0: 6ee5 1b3e a56b 453e 86dc 19bb d8b7 ea3c
000001f0: f71f 1fbe 21ae a13d 29ab 163e 1cd2 a93d
00000200: 2853 e93d 4a9c 613e 20e1 f03d 96d9 213e
00000210: da32 713d 5bd7 383d 4c9f 72be d831 293e
00000220: b5f1 803e 325a 5e3e 3b57 22bd 3e8e db3d
00000230: 567a 2cbe 1e0f 193e ea17 303e 0390 1e3e
00000240: e587 d1bd fe61 13be 1ef2 54be 8fb3 54bc
00000250: 9c82 483e 7336 ef3d d2dd 963e 6196 1b3e
00000260: b463 5a3d c1a7 83be 1cd9 abbe d112 a8bd
00000270: f32f 883d b4aa 793c 6517 b3bd e65e 233e
00000280: a8c1 74bd b13a 88bd 6f86 5c3e 382a 333d
00000290: 3559 403e f5b1 953e 1448 95bd 15f0 ff3d
000002a0: e5a5 6cbe 7a7b 6fbd 82f7 88bd 4d3e 2dbe
000002b0: d40a 343d a14c 2fbd 4999 70b9 fd43 c4bd
000002c0: d4ee 503e 7835 5c3e ff66 70be 8d5a 743e
000002d0: d98e 19be 2a63 9cba acc8 243e 733b 5e3e
000002e0: 40a7 743d 8257 a13e da65 3bbe 95ad 193d
000002f0: 32be 44be 75ea 5bbe 3b52 8fbd 56c7 0dbe
00000300: 5b93 edbd 7f7d e5bc 9ba6 353c 1c5a 84be
00000310: dac2 78bd 9b82 12bc c5e9 f33d d3e9 f5bd
00000320: b9eb 46be 681f 0c3e 8796 703e b47f 363e
00000330: 36db f53d f271 04bd 9e9a dabd 7f22 75bd
00000340: b775 8b3c 7545 263e a7f9 053d 9d54 2f3e
00000350: 41fb 6b3e 13fb 4c3c 95ec 63be 4a05 563e
00000360: 0a38 ec3c 1871 31be a175 81be 7ef4 73bb
00000370: 0428 28be 124a 143e a088 663a 2168 de3d
00000380: 8768 66be 5be4 3dbe ddb1 a63d df60 44be
00000390: ddf8 e13c c847 bf3c e918 703e 760b 433e
000003a0: 1f1e 993d 1a02 ee3d d8ed 14be fb12 bfbd
000003b0: f911 9abd 316b 993d 9123 953c 72e5 b9bd
000003c0: 2d53 b43d 225d 633e 634e 673e 1c01 a2bc
000003d0: 55cd 13be 4fda 06be fc09 9b3d bba2 653e
000003e0: cfe2 41bd 98e1 a23d cf9b 173d 92fe 0bbe
000003f0: a6c0 53be f7a9 55be 3fee 073e 1f62 0d3d

cnn_block.0.bias f4 [32]
0.050324943 -0.167162 -0.130472 -0.09933541 0.2428399 0.044634204 0.20063652 0.24522367
0.1953677 -0.0567157 0.15307641 0.0015318014 -0.25338158 -0.023834573 -0.14031732 -0.15451542
0.032611776 0.15331423 -0.1791441 0.22810341 0.056317106 0.19813614 -0.036516275 0.012916341
0.0077075325 0.15374611 -0.013271162 -0.060634788 0.23650618 0.23021829 0.051940385 0.21637139
00000000: 8721 4e3d 842c 2bbe 749a 05be 5d70 cbbd
00000010: 06ab 783e 5bd2 363d a973 4d3e ea1b 7b3e
00000020: 780e 483e b94e 68bd 10c0 1c3e bac6 c83a
00000030: 3bbb 81be b940 c3bc 58af 0fbe 4a39 1ebe
00000040: ed93 053d 68fe 1c3e 8d71 37be f193 693e
00000050: c4ac 663d 33e4 4a3e 1792 15bd 109f 533c
00000060: 788f fc3b 9f6f 1d3e 4a6f 59bc 2f5c 78bd
00000070: ad2e 723e 58be 6b3e 71bf 543d 7690 5d3e

cnn_block.1.weight f4 [32]
0.9591677 0.96988344 1.0249178 1.0201962 1.0016881 0.9678353 0.989551 1.0223019
0.9762437 0.9569267 1.0031872 1.010166 1.0453739 1.0073344 1.0161065 0.9841823
0.96352786 1.033652 1.017723 1.0032282 0.9584705 1.0284674 0.94673645 1.0400183
1.0261312 0.9807523 0.97946197 1.0226319 0.9648648 1.0350798 1.0122963 1.0196717
00000000: 048c 753f 484a 783f 8230 833f ca95 823f
00000010: 5137 803f 0ec4 773f 3753 7d3f cada 823f
00000020: 1beb 793f 26f9 743f 7068 803f 1f4d 813f
00000030: d0ce 853f 55f0 803f c70f 823f 5ff3 7b3f
00000040: c3a9 763f b54e 843f bf44 823f c869 803f
00000050: 535e 753f d2a4 833f 525d 723f 521f 853f
00000060: 4458 833f 9512 7b3f 05be 7a3f 9ae5 823f
00000070: 6101 773f 7f7d 843f ed92 813f 9a84 823f

cnn_block.1.bias f4 [32]
0.011862069 0.0010158671 -0.001982906 0.019531434 0.0006667273 -0.013892066 -0.005271881 -0.008789919
-0.017432613 -0.018022122 0.0030250207 0.0030855061 -0.0018774836 -0.008882205 -0.00063804444 -0.016786043
0.0018033722 -0.0056662415 -0.00086626987 0.008518543 -0.0047986684 0.010836492 -0.012078184 -0.011428459
0.013496501 -0.005088022 4.3506232e-05 -0.0068890504 -0.008830544 0.0148058785 0.00858932 0.012799855
00000000: 2059 423c d826 853a a4f3 01bb 6300 a03c
00000010: 50c7 2e3a 8c9b 63bc bebf acbb 9803 10bc
00000020: d7ce 8ebc 21a3 93bc 6d3f 463b 3436 4a3b
00000030: e515 f6ba ab86 11bc 7042 27ba e282 89bc
00000040: 215f ec3a e1ab b9bb 6316 63ba 5c91 0b3c
00000050: 263e 9dbb 8b8b 313c 93e3 45bc 6e3e 3bbc
00000060: 6e20 5d3c 6cb9 a6bb 767a 3638 8bbd e1bb
00000070: fcad 10bc 5b94 723c 38ba 0c3c 7cb6 513c

cnn_block.1.running_mean f4 [32]
2.387757 1.816223 0.7216072 -1.501443 -6.753162 9.046051 0.7289191 0.014602614
8.971058 8.313515 0.33414012 -1.8922948 -0.16644041 1.9117444 0.043665573 2.7537286
5.4784694 -5.1746697 -7.6632137 1.1848245 2.1896672 -1.9604462 5.0163865 -2.3847919
-4.283671 4.228723 1.4461914 4.6983924 3.3683844 -0.90176016 -7.8031616 -0.38076413
00000000: 03d1 1840 ff79 e83f 40bb 383f 492f c0bf
00000010: e719 d8c0 a0bc 1041 719a 3a3f cd3f 6f3c
00000020: 7489 0f41 2804 0541 6a14 ab3e b736 f2bf
00000030: 5b6f 2abe 0ab4 f43f acda 323d 173d 3040
00000040: 9f4f af40 e596 a5c0 0c39 f5c0 54a8 973f
00000050: 8223 0c40 e7ef fabf 3d86 a040 6ea0 18c0
00000060: d513 89c0 b351 8740 cd1c b93f 3b59 9640
00000070: 9c93 5740 c1d9 66bf 80b3 f9c0 84f3 c2be

cnn_block.1.running_var f4 [32]
617.0991 641.355 905.1161 298.0775 3678.628 6686.713 120.46425 277.97635
6030.82 5200.318 380.65308 565.4772 555.5882 1396.6835 561.7535 1403.1862
2254.318 2906.985 5146.5547 286.2755 666.8224 566.9853 1906.7722 685.8987
1813.0928 1948.2816 325.96494 2987.7527 922.0052 354.71448 7239.192 81.656265
00000000: 5846 1a44 b856 2044 6e47 6244 ec09 9543
00000010: 0cea 6545 b4f5 d045 b2ed f042 f9fc 8a43
00000020: 8f76 bc45 8b82 a245 9853 be43 8a5e 0d44
00000030: a5e5 0a44 df95 ae44 3970 0c44 f565 af44
00000040: 17e5 0c45 c3af 3545 70d4 a045 4423 8f43
00000050: a2b4 2644 0fbf 0d44 b658 ee44 8479 2b44
00000060: f8a2 e244 0389 f344 83fb a243 0bbc 3a45
00000070: 5580 6644 745b b143 8939 e245 0250 a342

cnn_block.4.weight f4 [64, 32, 5]
0.059222672 0.00382775 0.071601614 -0.020952035 -0.02322285 0.025894536 -0.022924172 -0.05150715
-0.010536152 0.0390681 0.00817156 0.0016705362 -0.06686349 0.043560278 -0.0015750643 -0.08404279
0.024111368 0.05441517 0.012203768 0.0878153 0.01280951 0.013461716 0.0129327625 0.04848487
-0.0630307 -0.04412043 -0.036158025 -0.039176907 -0.03205558 0.010726626 -0.04768281 0.009222794
0.009833029 -0.021090195 0.07902987 -0.02693535 -0.026357654 0.03329432 0.07811041 0.010643679
0.0052656014 -0.02346177 -0.022394953 -0.038092595 0.024784226 -0.031965155 -0.018256042 -0.016681775
-0.05652359 -0.03179604 -0.00012687338 0.012970589 -0.07350541 -0.029790042 0.03564935 -0.017477661
-0.0023919079 0.05302552 0.07498843 -0.014621781 0.028821535 -0.0441747 0.030111475 -0.03477441
-0.031842157 -0.0072453204 0.06030501 0.0053937677 0.048975717 -0.047147546 0.0641348 0.025846178
0.016037231 0.043441307 -0.051085215 -0.0024451117 0.06330396 -0.057203718 0.03179351 -0.0062574833
0.061693255 -0.028381594 -0.027847415 -0.044479713 0.046304725 -0.029170593 -0.0022420906 -0.032441787
0.063412145 0.034005344 0.08625117 -0.030461567 0.053500973 -0.01903494 0.07782555 0.01855248
-0.03697243 -0.0371822 -0.05458191 0.017922198 0.03220695 -0.052925758 0.094962955 -0.063653104
-0.06579405 0.048994116 0.032745775 0.0053886827 0.0015150964 0.07293493 0.0428423 0.013429264
-0.0059578265 -0.072146915 0.06946265 0.07668508 0.055375908 0.049152404 -0.07761316 -0.016270665
0.038200404 -0.0076473877 0.0025206015 0.011798624 -0.07314836 0.0742319 -0.0070761456 0.0025163349
0.0327979 0.0047393083 0.035956476 0.049727898 -0.011122484 -0.055879068 0.017767757 -0.001037531
0.024283314 0.08473169 0.07502256 -0.066518836 -0.05195801 -0.057590563 0.06366562 -0.004160111
-0.09015735 -0.12347068 -0.055531673 0.028278312 0.03682675 0.026186869 -0.025359418 -0.047958873
0.087133884 -0.007281597 0.07983787 -0.0003392583 -0.03342591 -0.0763342 0.0062607005 -0.03531864
0.0068973806 -0.029414156 -0.047450755 0.0021189922 0.005902019 0.04350628 -0.008777289 -0.029822877
0.023990268 -0.06994419 -0.060185887 0.057889584 -0.03833793 0.0125213815 -0.010149106 -0.007203212
0.03665462 -0.064571016 -0.07539865 0.03135988 0.06549237 0.042326685 0.04859133 -0.020869594
-0.07021838 -0.037463363 -0.07147902 0.057302535 0.07039299 -0.06692878 -0.017207948 -0.06864786
0.02982261 -0.040416367 0.052003317 -0.031810813 0.014032685 0.043128464 -0.06434307 0.010849958
-0.034531437 -0.06282483 -0.044240344 -0.07114042 -0.045667563 -0.05075998 -0.01786878 0.072417416
-0.04753182 0.05733093 -0.068438254 0.054909095 0.014108005 -0.034668043 0.04555157 0.0066385875
0.017784683 -0.052661337 0.00022207886 0.02201033 0.009006067 -0.07239361 -0.024741884 -0.07117985
0.014737631 0.042432178 -0.025917033 -0.03575762 -0.037110507 0.06687492 0.009469872 0.07403321
-0.047581617 -0.03180857 0.07168403 -0.0683583 0.07399392 -0.008749382 -0.07775648 0.04784486
-0.047622528 -0.06505026 0.008242025 -0.029610664 -0.054756552 -0.0022277192 -0.06758016 -0.07760362
0.0037934135 0.04283715 -0.07588748 0.03630954 0.0646067 0.056010105 0.020291114 0.07069921
00000000: 7993 723d fdda 7a3b dea3 923d 9aa3 abbc
00000010: d93d bebc c720 d43c 79cb bbbc 29f9 52bd
00000020: d39f 2cbc df05 203d 02e2 053c e5f5 da3a
00000030: baef 88bd 436c 323d 6372 ceba a01e acbd
00000040: 3485 c53c 71e2 5e3d 50f2 473c 82d8 b33d
00000050: fbde 513c 878e 5c3c f0e3 533c 1298 463d
00000060: 3d16 81bd a0b7 34bd 701a 14bd f777 20bd
00000070: b64c 03bd bbbe 2f3c 0d4f 43bd 341b 173c
00000080: b61a 213c 58c5 acbc 6ada a13d 86a7 dcbc
00000090: 02ec d7bc a05f 083d 5af8 9f3d d362 2e3c
000000a0: 118b ac3b e632 c0bc 9f75 b7bc fb06 1cbd
000000b0: 4a08 cb3c e5ed 02bd b28d 95bc 38a8 88bc
000000c0: 4885 67bd 903c 02bd 5009 05b9 9882 543c
000000d0: 018a 96bd 3f0a f4bc 0e05 123d 502d 8fbc
000000e0: 8ec1 1cbb 4a31 593d 8993 993d 3290 6fbc
000000f0: 241b ec3c 88f0 34bd 57ac f63c 9d6f 0ebd
00000100: ec6c 02bd 276a edbb 6302 773d 34be b03b
00000110: c39a 483d c91d 41bd 1b59 833d 5dbb d33c
00000120: 8360 833c 83ef 313d bb3e 51bd 2b3e 20bb
00000130: 82a5 813d 724e 6abd e939 023d 930b cdbb
00000140: 11b2 7c3d 8480 e8bc 4320 e4bc 5c30 36bd
00000150: 06aa 3d3d 2bf7 eebc 0af0 12bb aee1 04bd
00000160: 3ade 813d 3049 0b3d 74a4 b03d 898a f9bc
00000170: d623 5b3d 2aef 9bbc 0163 9f3d 5ffb 973c
00000180: 6770 17bd 5d4c 18bd 4891 5fbd 93d1 923c
00000190: 6feb 033d aec8 58bd f07b c23d 8f5c 82bd
000001a0: 08bf 86bd 0eae 483d 6f20 063d 8c93 b03b
000001b0: 3396 c63a e95e 953d 687b 2f3d 6a06 5c3c
000001c0: df39 c3bb c3c1 93bd 6f42 8e3d 110d 9d3d
000001d0: d9d1 623d 0854 493d a6f3 9ebd 0f4a 85bc
000001e0: 0778 1c3d f096 fabb ad30 253b 044f 413c
000001f0: cfce 95bd e506 983d 03df e7bb 18e9 243b
00000200: 1757 063d 334c 9b3b 1947 133d 7baf 4b3d
00000210: 143b 36bc 73e1 64bd b08d 913c c3fd 87ba
00000220: cded c63c cf87 ad3d 6ea5 993d 073b 88bd
00000230: ecd1 54bd 15e4 6bbd 1f63 823d 8a51 88bb
00000240: 6ba4 b8bd 32de fcbd 2e75 63bd eba7 e73c
00000250: a5d7 163d d885 d63c 8ebe cfbc 8670 44bd
00000260: 4073 b23d 769a eebb 0a82 a33d 7ade b1b9
00000270: 9be9 08bd 1b55 9cbd 9026 cd3b 47aa 10bd
00000280: 6c03 e23b f5f5 f0bc b95b 42bd cade 0a3b
00000290: b965 c13b a433 323d 9ece 0fbc 1b4f f4bc
000002a0: 3d87 c43c e63e 8fbd 7a85 76bd a11d 6d3d
000002b0: 3c08 1dbd 7b26 4d3c 7048 26bc ec08 ecbb
000002c0: 2823 163d cf3d 84bd 9b6a 9abd 3873 003d
000002d0: dd20 863d bf5e 2d3d b407 473d b6f6 aabc
000002e0: a7ce 8fbd 2f73 19bd 9863 92bd 10b6 6a3d
000002f0: 332a 903d f511 89bd aff7 8cbc 4097 8cbd
00000300: 8c4e f43c a28b 25bd 6e01 553d 0e4c 02bd
00000310: 59e9 653c 79a7 303d 4dc6 83bd 06c4 313c
00000320: d670 0dbd 4eaa 80bd 5d35 35bd 12b2 91bd
00000330: e90d 3bbd b2e9 4fbd 8c61 92bc 954f 943d
00000340: bab0 42bd d6d3 6a3d 5b29 8cbd 5ce8 603d
00000350: 4325 673c 1400 0ebd 4894 3a3d 8288 d93b
00000360: 2fb1 913c 6ab3 57bd d7dd 6839 024f b43c
00000370: 2f8e 133c 1a43 94bd 7eaf cabc bec6 91bd
00000380: 1b76 713c 5dcd 2d3d f54f d4bc 9576 12bd
00000390: 3001 18bd b8f5 883d 8627 1b3c b99e 973d
000003a0: f1e4 42bd b449 02bd 14cf 923d 70ff 8bbd
000003b0: 208a 973d 9159 0fbc ca3e 9fbd f9f8 433d
000003c0: d70f 43bd 1239 85bd 8f09 073c 1092 f2bc
000003d0: 6848 60bd edfe 11bb 7867 8abd a6ee 9ebd
000003e0: eb9a 783b 0276 2f3d e56a 9bbd 50b9 143d
000003f0: 8450 843d da6a 653d 8d39 a63c bfca 903d

cnn_block.4.bias f4 [64]
-0.045282334 0.044095695 -0.05457365 0.011677087 -0.057142146 -0.022927433 -0.057026315 -0.055282257
-0.016750915 -0.056026384 0.044853874 0.06561469 0.076238684 0.05589512 0.033113305 0.066089265
-0.029869873 -0.0051914332 0.04773901 0.034704313 0.01395666 0.035846274 -0.004178446 -0.065754764
-0.07600627 0.02593553 0.07610001 -0.012392109 -0.06145627 -0.030655095 0.07601941 -0.038640916
-0.018149639 0.03369406 -0.06050515 -0.0030518218 -0.07831406 0.010943475 -0.060883325 -0.023534501
0.07296747 -0.0033674773 -0.047712002 -0.061208244 -0.029032378 0.03628073 -0.06700065 0.06454386
0.058647137 -0.010960478 0.05903632 0.053850736 -0.06285904 0.03909166 0.029689431 0.05228854
-0.044738416 -0.034333456 -0.04317181 0.06983867 -0.008582612 0.008624834 -0.0053557227 0.040307555
00000000: f879 39bd b09d 343d 9f88 5fbd 4151 3f3c
00000010: e20d 6abd 50d2 bbbc 6d94 69bd a66f 62bd
00000020: 3739 89bc ec7b 65bd b2b8 373d ff60 863d
00000030: 0723 9c3d 48f2 643d d1a1 073d cf59 873d
00000040: aab1 f4bc e61c aabb fb89 433d 1c26 0e3d
00000050: 7aaa 643c 8bd3 123d 58eb 88bb 6faa 86bd
00000060: 2da9 9bbd c076 d43c 52da 9b3d 4608 4bbc
00000070: 92b9 7bbd 6520 fbbc 10b0 9b3d f045 1ebd
00000080: 8dae 94bc c802 0a3d 40d4 77bd 1301 48bb
00000090: 1f63 a0bd 434c 333c cb60 79bd 6dcb c0bc
000000a0: f86f 953d e5b0 5cbb a96d 43bd 7fb5 7abd
000000b0: 4fd5 edbc 1a9b 143d a337 89bd 922f 843d
000000c0: fb37 703d 9493 33bc 11d0 713d 9792 5c3d
000000d0: 3ebc 80bd 941e 203d 4037 f33c 822c 563d
000000e0: a13f 37bd 3da1 0cbd edd4 30bd 9407 8f3d
000000f0: 159e 0cbc 2d4f 0d3c 0f7f afbb 8919 253d

cnn_block.5.weight f4 [64]
1.0355992 0.99962515 1.0099463 0.9918441 0.99221444 1.0098267 1.00591 1.0253917
1.0161084 1.0136994 0.9977789 0.97842854 1.000677 1.0099883 0.97798246 1.0030956
1.0213636 1.0176324 1.0026962 0.98439467 1.0035223 0.9980619 1.0470989 0.9979188
1.002488 0.9981874 0.9700647 1.0618938 1.022301 1.0296378 0.98112166 1.0003463
1.0169922 1.0301583 0.99751174 0.98768866 1.0144778 1.0036973 1.0329559 0.98605376
1.0337906 0.9989972 1.0289892 0.9961384 1.0097938 0.99659085 1.0494857 1.0010706
0.9985638 1.0362171 0.989173 0.9930754 1.0088453 1.0002298 1.0010159 1.0270417
1.0209953 0.9840902 0.99998987 0.9867549 0.9897722 0.99877083 1.0001951 1.0139997
00000000: 848e 843f 6fe7 7f3f ec45 813f 7fe9 7d3f
00000010: c401 7e3f 0042 813f a9c1 803f 0940 833f
00000020: d70f 823f e7c0 813f 706e 7f3f 4b7a 7a3f
00000030: 2f16 803f 4c47 813f 0f5d 7a3f 7065 803f
00000040: 0bbc 823f c741 823f 5958 803f 4a01 7c3f
00000050: 6b73 803f fc80 7f3f 5607 863f 9b77 7f3f
00000060: 8751 803f 3689 7f3f 2956 783f 23ec 873f
00000070: c2da 823f 2ccb 833f ca2a 7b3f 590b 803f
00000080: cd2c 823f 3adc 833f ee5c 7f3f 2ad9 7c3f
00000090: 69da 813f 2779 803f e637 843f 056e 7c3f
000000a0: 4053 843f 48be 7f3f ebb5 833f ed02 7f3f
000000b0: ec40 813f 9420 7f3f 8c55 863f 1523 803f
000000c0: e1a1 7f3f c3a2 843f 713a 7d3f 303a 7e3f
000000d0: d821 813f 8807 803f 4a21 803f 1a76 833f
000000e0: f9af 823f 56ed 7b3f 56ff 7f3f f89b 7c3f
000000f0: b661 7d3f 72af 7f3f 6506 803f beca 813f

cnn_block.5.bias f4 [64]
-0.013819232 -0.00026949772 0.0014962478 -0.00013646783 -0.009414915 0.005957541 -0.0031613924 0.0014062383
-0.010084713 -0.01525179 -0.005497619 -0.0005814997 0.004110638 -0.0076609617 -0.005431511 -0.002114098
-0.013010075 -0.0014491824 -0.0041499073 -0.010439092 -0.005051306 -0.00449779 -0.016320236 0.0037048412
-0.0005906457 -0.0054659 -0.00035158562 -0.017037503 0.0014642996 -0.009225256 0.0015388266 0.0037213853
0.00064839295 -0.020810788 -0.012936223 -0.0016734204 -0.00092331675 -0.007913862 -0.02154618 -0.00569835
-0.0009742555 0.004487739 -0.008952694 0.0022997735 -0.0029070543 0.003212147 -0.014390407 0.0069152885
-0.004800455 -0.021286601 -0.002580934 -0.0032121495 0.0013973211 5.4985594e-05 0.0060412954 -0.0112847425
-0.0020369648 -0.0028025955 0.00088677235 0.002732479 -0.013584196 -0.0009849933 0.004954944 0.0075784437
00000000: 0f6a 62bc 5f4b 8db9 bf1d c43a ce18 0fb9
00000010: 0441 1abc 7a37 c33b 5d2f 4fbb 8751 b83a
00000020: 5a3a 25bc a5e2 79bc 5f25 b4bb c96f 18ba
00000030: 88b2 863b ce08 fbbb d1fa b1bb ae8c 0abb
00000040: 3628 55bc 7ef2 bdba f2fb 87bb ba08 2bbc
00000050: 6d85 a5bb 3262 93bb 04b2 85bc eccc 723b
00000060: 90d5 1aba 4b1b b3bb 0655 b8b9 3c92 8bbc
00000070: beed bf3a 8725 17bc 74b2 c93a 7ce2 733b
00000080: eaf8 293a 637b aabc 74f2 53bc ac56 dbba
00000090: bd0a 72ba 25a9 01bc 9d81 b0bc 39b9 babb
000000a0: 2e65 7fba e20d 933b 52ae 12bc ccb7 163b
000000b0: 4784 3ebb e282 523b bec5 6bbc a599 e23b
000000c0: 234d 9dbb 3d61 aebc e324 29bb ed82 52bb
000000d0: 5126 b73a 55a0 6638 0ff6 c53b a4e3 38bc
000000e0: 997e 05bb c0ab 37bb 4976 683a 6413 333b
000000f0: 3f90 5ebc e41a 81ba 155d a23b 9854 f83b

cnn_block.5.running_mean f4 [64]
-0.0028062302 0.009089051 -0.0723854 0.051228046 -0.0070641516 -0.02128595 -0.004452417 -0.06702105
-0.04229399 -0.10237247 0.050187755 0.14868525 0.010985479 0.059773877 0.07775407 0.021900054
0.06929997 -0.020630816 -0.032262683 0.10273225 -0.017119747 -0.06665976 0.012869005 -0.10498565
-0.05109621 -0.03516863 0.14991824 -0.028406424 -0.12291567 -0.043833055 0.072643325 -0.16423205
-0.06641583 0.029996097 -0.010557259 0.048166744 -0.11324577 0.119215 -0.040703297 0.028402152
0.10628876 0.063669406 -0.031033522 -0.050588235 0.037367035 -0.04127349 -0.04821233 0.016903164
-0.075515375 -0.012693046 0.13322698 0.04153807 -0.10256963 -0.072580315 -0.06612537 0.03213323
-0.051301055 -0.013660508 -0.17557463 0.028939677 0.020888321 -0.013790681 -0.023053352 0.008337122
00000000: bbe8 37bb 3eea 143c cc3e 94bd 80d4 513d
00000010: 667a e7bb df5f aebc 95e5 91bb 5542 89bd
00000020: 763c 2dbd a8a8 d1bd ad91 4d3d f240 183e
00000030: 70fc 333c 74d5 743d 873d 9f3d be67 b33c
00000040: 25ed 8d3d f501 a9bc e025 04bd 4965 d23d
00000050: b63e 8cbc ea84 88bd 85d8 523c b702 d7bd
00000060: 424a 51bd fb0c 10bd 2b84 193e 97b4 e8bc
00000070: 36bb fbbd 4a8a 33bd 06c6 943d 722c 28be
00000080: 0605 88bd 60ba f53c 5bf8 2cbc 7e4a 453d
00000090: 66ed e7bd fe26 f43d 80b8 26bd a1ab e83c
000000a0: ecad d93d 1b65 823d 033a febc 9c35 4fbd
000000b0: 2d0e 193d 640e 29bd 4b7a 45bd 8178 8a3c
000000c0: cea7 9abd 7ef6 4fbc a76c 083e d323 2a3d
000000d0: 0710 d2bd fda4 94bd bd6c 87bd 229e 033d
000000e0: 0e21 52bd 53d0 5fbc d6c9 33be e712 ed3c
000000f0: fc1d ab3c 4ff2 61bc 62da bcbc 6d98 083c

cnn_block.5.running_var f4 [64]
0.07373077 0.35691854 0.12577575 0.13584837 0.17050284 0.13345161 0.5057127 0.06304412
0.19601692 0.07564049 0.2894898 0.43919033 0.34688413 0.16681013 0.34871447 0.09285923
0.13795078 0.08467842 0.23359779 0.1860012 0.09036127 0.70117277 0.034899354 0.31771344
0.106680475 0.40930238 0.6031267 0.03770829 0.06342766 0.070486285 0.16910627 0.8003877
0.07347626 0.04052102 0.122538336 0.26047412 0.04621224 0.2282323 0.056616053 0.5795705
0.18760063 0.27066582 0.11440898 0.21039706 0.12595707 0.23005892 0.052007437 0.2479626
0.82370514 0.06212475 0.63858324 0.3495033 0.14321885 0.447948 0.8165573 0.053536117
0.054374028 0.25562057 0.61070484 0.36208478 0.15440585 0.29640388 0.14906463 0.08025463
00000000: 2800 973d 07be b63e 5ccb 003e d61b 0b3e
00000010: 4c98 2e3e 8aa7 083e 6376 013f 471d 813d
00000020: a9b8 483e 67e9 9a3d 0238 943e 8edd e03e
00000030: cc9a b13e 46d0 2a3e b48a b23e fb2c be3d
00000040: f842 0d3e e16b ad3d 4234 6f3e 1977 3e3e
00000050: 540f b93d 0f80 333f a0f2 0e3d 56ab a23e
00000060: 4b7b da3d 1590 d13e 8366 1a3f 0274 1a3d
00000070: 5ce6 813d 1d5b 903d 322a 2d3e 35e6 4c3f
00000080: b97a 963d 5ef9 253d 61f5 fa3d dd5c 853e
00000090: 0c49 3d3d bab5 693e 3ce6 673d bb5e 143f
000000a0: 611a 403e b694 8a3e 414f ea3d 5472 573e
000000b0: e4fa 003e 9194 6b3e c005 553d e8e9 7d3e
000000c0: 57de 523f 8676 7e3d 317a 233f 19f2 b23e
000000d0: f6a7 123e 7159 e53e e609 513f b048 5b3d
000000e0: 4db7 5e3d b3e0 823e 2757 1c3f 2d63 b93e
000000f0: 911c 1e3e 40c2 973e 66a4 183e 8a5c a43d

fc.0.weight f4 [32, 64]
0.07367621 0.056039672 0.044301733 0.013012458 0.09117593 0.016661474 -0.06955295 0.09212174
-0.1432449 -0.07196701 0.019314077 0.010634576 0.09048991 -0.11382216 -0.13912052 -0.0884906
0.12915194 0.07805738 -0.049468745 0.09673023 0.11909984 0.033622324 -0.0474235 0.022124216
0.007354557 0.08829232 -0.0065228855 -0.012879703 -0.03487183 0.0020238943 -0.07179546 0.05118639
0.0031508054 -0.09364719 -0.06446657 0.0853188 0.018459471 0.11961958 -0.0564861 -0.0048026345
-0.06848072 -0.02932122 0.097425096 -0.026983747 -0.042169925 0.10782002 -0.070234336 -0.02482156
-0.06886024 -0.110754825 0.09562086 -0.06615957 0.017999658 -0.064024605 0.05571071 -0.019407656
-0.069104664 0.061886106 -0.037164286 0.001416609 -0.044666234 0.06020997 -0.080837585 0.054332387
0.052392088 0.11758623 -0.021843933 0.023844302 -0.115195654 0.007836371 -0.059703927 -0.09346432
-0.15182777 0.13507307 -0.0004908559 0.071410544 0.0376608 0.11506341 0.02772622 0.056183346
0.071223825 -0.009347956 -0.07504655 0.0009242546 0.14210851 0.06359009 -0.13161756 0.08361326
-0.011460282 -0.051929254 -0.04808888 0.125963 -0.037053496 -0.0021057392 0.1353591 -0.024930423
-0.10853874 -0.13084206 -0.13485235 -0.08295979 -0.038835675 -0.07740369 0.029868623 0.016460642
-0.033005353 0.08208747 0.0030731114 -0.12044981 -0.11068327 -0.007007679 -0.039478943 -0.038102888
-0.056738477 0.011476435 -0.056514498 -0.112873815 0.05285353 0.090639524 0.09477332 -0.053782452
0.10300655 0.008364445 -0.061245937 -0.039461218 0.08302149 0.07850521 0.07406174 0.06358221
-0.069101214 0.004307071 -0.098450296 -0.017829379 0.14806052 -0.073785156 0.04040539 -0.098037295
0.031482667 0.11765525 0.045163155 0.08109667 0.017120467 -0.0067172404 -0.06409342 -0.03506997
-0.07280723 -0.11601542 0.1349391 0.047398828 -0.06824344 0.07896427 0.014340283 0.043903384
-0.112440266 -0.03498216 -0.03867371 0.10705627 0.09897579 -0.040436234 0.0033844544 0.013431166
-0.10930396 -0.05532158 0.14041762 -0.006791574 0.031442367 0.005413115 0.058587965 -0.0973962
-0.12376989 0.021748051 0.052224517 -0.05381984 -0.08229789 -0.08225417 0.098707594 0.10887894
0.1076711 -0.123298734 -0.041091003 -0.002094782 0.03944236 -0.0620689 0.08721257 -0.008977465
-0.12945448 -0.013564848 0.10445707 0.03954186 -0.010739618 -0.006264205 0.029437056 -0.0051008766
-0.030172542 -0.10198661 0.09454746 -0.03948486 -0.080587134 -0.13347493 0.021475848 0.06487447
0.062451236 -0.030358907 0.10807447 -0.09319011 0.027216958 0.037375323 -0.008821791 0.09897346
0.099324055 0.046744756 -0.009118279 -0.06611916 -0.10834183 -0.07250486 -0.1661676 0.14757931
-0.019465923 -0.10459743 0.10978791 -0.10511255 0.14202534 -0.03477833 -0.08255393 0.033630338
-0.014900491 0.17728744 0.032551046 -0.13211279 0.035796672 -0.057399068 0.09336118 -0.034304433
-0.0008775228 -0.021460997 -0.0122962585 0.07854535 0.0009637058 0.14257987 -0.042238254 0.0339192
0.03520059 0.0026433372 -0.013672274 0.106404535 -0.009763329 -0.09466049 -0.0030503406 -0.11636818
0.0712699 0.08919716 -0.09120976 0.01155501 0.07272506 0.065740526 -0.06775545 -0.06025457
00000000: 8ee3 963d db89 653d bc75 353d 3432 553c
00000010: 72ba ba3d a57d 883c c771 8ebd 53aa bc3d
00000020: cbae 12be 7163 93bd 8e38 9e3c a53c 2e3c
00000030: c652 b93d 981b e9bd 9c75 0ebe 8f3a b5bd
00000040: 6840 043e 8cdc 9f3d bd9f 4abd 801a c63d
00000050: 9eea f33d 90b7 093d 253f 42bd d83d b53c
00000060: 7ffe f03b 9bd2 b43d eebd d5bb 6405 53bc
00000070: c4d5 0ebd 50a3 043b 8009 93bd d2a8 513d
00000080: be7d 4e3b 19ca bfbd 0d07 84bd 9fbb ae3d
00000090: 5138 973c 1cfb f43d f85d 67bd 6b5f 9dbb
000000a0: 9f3f 8cbd 0e33 f0bc cf86 c73d 050d ddbc
000000b0: 5fba 2cbd bed0 dc3d 05d7 8fbd 9656 cbbc
000000c0: 9906 8dbd 6dd3 e2bd dfd4 c33d ab7e 87bd
000000d0: 0574 933c 551f 83bd ea30 643d cefc 9ebc
000000e0: bf86 8dbd 497c 7d3d 9439 18bd 83ad b93a
000000f0: f1f3 36bd bb9e 763d 2d8e a5bd a38b 5e3d
00000100: 1699 563d 0dd1 f03d 0cf2 b2bc 2055 c33c
00000110: b3eb ebbd 1f64 003c 1b8c 74bd 396a bfbd
00000120: bd78 1bbe 9850 0a3e c8ac 00ba b13f 923d
00000130: 3642 1a3d 5da6 eb3d 1922 e33c 8220 663d
00000140: ccdd 913d 2b28 19bc 01b2 99bd ad49 723a
00000150: e584 113e 853b 823d c1c6 06be 6e3d ab3d
00000160: e8c3 3bbc c5b3 54bd d8f8 44bd 72fc 003e
00000170: 68c5 17bd 7100 0abb 939b 0a3e e33a ccbc
00000180: 8f49 debd 76fb 05be bc16 0abe d3e6 a9bd
00000190: 2812 1fbd d385 9ebd 0baf f43c 78d8 863c
000001a0: 9f30 07bd 7a1d a83d 4166 493b 64ae f6bd
000001b0: e9ad e2bd aca0 e5bb acb4 21bd c611 1cbd
000001c0: 9b66 68bd a807 3c3c bf7b 67bd 632a e7bd
000001d0: f17c 583d 37a1 b93d 8418 c23d fd4a 5cbd
000001e0: 19f5 d23d 060b 093c 05dd 7abd 16a2 21bd
000001f0: 2c07 aa3d 57c7 a03d aead 973d 6437 823d
00000200: f084 8dbd 5522 8d3b 4fa0 c9bd eb0e 92bc
00000210: 2d9d 173e ac1c 97bd 1f80 253d c7c7 c8bd
00000220: f8f3 003d 3cf5 f03d 00fd 383d 0316 a63d
00000230: 3940 8c3c 4c1c dcbb 6943 83bd 87a5 0fbd
00000240: f51b 95bd 7e99 edbd 7a2d 0a3e 4625 423d
00000250: 37c3 8bbd 05b8 a13d 82f3 6a3c 09d4 333d
00000260: 1547 e6bd 7449 0fbd 5368 1ebd 5140 db3d
00000270: d2b3 ca3d 77a0 25bd b9cd 5d3b 650e 5c3c
00000280: c1da dfbd e298 62bd a3c9 0f3e da8b debb
00000290: b6c9 003d 8060 b13b eff9 6f3d a977 c7bd
000002a0: 117b fdbd f828 b23c 60e9 553d 3172 5cbd
000002b0: cc8b a8bd e074 a8bd 3527 ca3d ecfb de3d
000002c0: aa82 dc3d 0c84 fcbd 0a4f 28bd 9c48 09bb
000002d0: 508e 213d f53b 7ebd 819c b23d 3816 13bc
000002e0: b78f 04be 193f 5ebc 97ed d53d a5f6 213d
000002f0: 39f5 2fbc f643 cdbb fb25 f13c 4125 a7bb
00000300: 682c f7bc 5bde d0bd 19a2 c13d e0ba 21bd
00000310: de0a a5bd a7ad 08be 1eee af3c e8dc 843d
00000320: decc 7f3d 3eb3 f8bc 2656 dd3d 75da bebd
00000330: 19f6 de3c de16 193d 4689 10bc 99b2 ca3d
00000340: 696a cb3d 6e77 3f3d d664 15bc 7b69 87bd
00000350: 52e2 ddbd 6e7d 94bd d727 2abe 081f 173e
00000360: 0077 9fbc 2d37 d6bd 7cd8 e03d 4045 d7bd
00000370: 176f 113e b973 0ebd 0912 a9bd f7bf 093d
00000380: 3021 74bc d78a 353e 3f54 053d 9348 07be
00000390: 889f 123d 491b 6bbd 2534 bf3d ce82 0cbd
000003a0: 8f09 66ba f9ce afbc 3f76 49bc 62dc a03d
000003b0: 34a1 7c3a 7500 123e 0502 2dbd dcee 0a3d
000003c0: 7e2e 103d d73b 2d3b ac01 60bc 9fea d93d
000003d0: 5ff6 1fbc 5cdd c1bd 39e8 47bb 7152 eebd
000003e0: f4f5 913d 00ad b63d 2fcc babd 3a51 3d3c
000003f0: e0f0 943d f8a2 863d 5fc3 8abd 7fcd 76bd

fc.0.bias f4 [32]
-0.08376246 -0.101568036 -0.08387801 0.03610167 -0.0482903 -0.010469629 0.009492978 -0.11922483
0.118398234 -0.0038093755 0.10977613 -0.05854061 0.10048114 0.07522535 -0.10470975 -0.057110213
-0.06340479 -0.037483215 -0.117701374 -0.104695804 0.09763057 0.01159598 0.02796709 0.07023138
0.091013566 -0.11224797 0.068529405 -0.0780635 0.12407639 -0.052945457 -0.080583 0.027977806
00000000: a78b abbd e702 d0bd 3cc8 abbd 58df 133d
00000010: 0dcc 45bd cf88 2bbc 7088 1b3c 262c f4bd
00000020: c67a f23d b7a6 79bb 4fd2 e03d 47c8 6fbd
00000030: 0ec9 cd3d c00f 9a3d 1172 d6bd 66ec 69bd
00000040: 5fda 81bd 0088 19bd 6b0d f1bd c16a d6bd
00000050: 89f2 c73d 11fd 3d3c 3d1b e53c 78d5 8f3d
00000060: 5265 ba3d 44e2 e5bd 2559 8c3d c2df 9fbd
00000070: c31b fe3d 56dd 58bd b308 a5bd b631 e53c

fc.1.weight f4 [32]
1.0541419 1.17807 1.1505044 1.1997392 1.0636913 1.0949122 0.99485844 1.2700988
0.9771529 1.0106964 1.0379604 1.09253 1.3107548 1.1165141 1.2033527 1.2354469
1.185319 1.0090652 1.2286692 1.1211572 1.2650851 1.2317054 1.0467732 1.3206521
1.2417705 1.164391 1.0125059 1.1592022 1.2286537 1.1742285 1.2975798 1.2680686
00000000: 1fee 863f ffca 963f ba43 933f 0e91 993f
00000010: 0927 883f 1526 8c3f 0baf 7e3f 9992 a23f
00000020: b126 7a3f 805e 813f e3db 843f 06d8 8b3f
00000030: d0c6 a73f efe9 8e3f 7607 9a3f 2023 9e3f
00000040: 88b8 973f 0c29 813f 0845 9d3f 1482 8f3f
00000050: 4fee a13f 86a8 9d3f aafc 853f 210b a93f
00000060: 56f2 9e3f c40a 953f cb99 813f bd60 943f
00000070: 8644 9d3f 1f4d 963f 1817 a63f 1250 a23f

fc.1.bias f4 [32]
0.026651166 0.14572167 0.07296529 0.13154945 0.043659933 0.073093705 0.021230642 0.19164166
-0.0554659 0.01740629 0.030690094 0.05911041 0.18878108 0.08028046 0.19017254 0.2148423
0.13510337 0.028284622 0.19501826 0.103699945 0.15488723 0.118777364 0.05377821 0.13626403
0.10393758 0.1437087 0.046190258 0.15309028 0.20515114 0.08454998 0.10008175 0.20884617
00000000: 8c53 da3c 1038 153e d36e 953d e6b4 063e
00000010: c2d4 323d 27b2 953d e2eb ad3c b63d 443e
00000020: 3630 63bd a397 8e3c cb69 fb3c c21d 723d
00000030: d44f 413e 156a a43d 97bc 423e 9fff 5b3e
00000040: 8a58 0a3e 27b5 e73c deb2 473e a360 d43d
00000050: c29a 1e3e 8c41 f33d 8a46 5c3d cc88 0b3e
00000060: 3add d43d 6028 133e ff31 3d3d b3c3 1c3e
00000070: 2413 523e 8a28 ad3d a9f7 cc3d c5db 553e

fc.1.running_mean f4 [32]
-0.06547236 -0.09753231 -0.07551103 0.043486647 -0.005813227 0.0002467295 0.0943507 -0.120053865
0.10831106 0.05618259 0.12888148 -0.038973276 0.1493426 0.03694395 -0.09256003 -0.07149159
-0.08126133 -0.036517896 -0.11157647 -0.13800745 0.063955076 -0.0106688505 0.034220867 0.066366695
0.12651908 -0.13457358 0.09709033 -0.07247858 0.08414591 -0.06261789 -0.08115207 0.019843685
00000000: 5f16 86bd 05bf c7bd 87a5 9abd 0e1f 323d
00000010: e27c bebb 795b 8139 f13a c13d cdde f5bd
00000020: 30d2 dd3d b71f 663d 82f9 033e 71a2 1fbd
00000030: 44ed 183e 8a52 173d 1d90 bdbd 2f6a 92bd
00000040: 576c a6bd ca93 15bd 3482 e4bd d351 0dbe
00000050: e1fa 823d 67cc 2ebc 2e2b 0c3d 43eb 873d
00000060: 388e 013e a8cd 09be 4cd7 c63d a66f 94bd
00000070: b154 ac3d cf3d 80bd 0e33 a6bd 398f a23c

fc.1.running_var f4 [32]
0.00019070433 0.00020630987 0.00010360293 0.000102074795 0.00014889866 7.120844e-05 0.0035865372 0.00012309766
0.0011333836 8.0700185e-05 0.00012754154 0.00010572867 0.000120010554 6.597262e-05 0.000110996705 9.43296e-05
8.075177e-05 0.0022172672 0.00010155312 8.406112e-05 7.665106e-05 0.00011751152 0.00030428858 0.00011322294
9.3511524e-05 0.000121051184 0.0028996973 7.620225e-05 9.295981e-05 0.0001507675 0.0001402751 9.578196e-05
00000000: cef7 4739 e254 5839 6645 d938 fd10 d638
00000010: ae21 1c39 bd55 9538 1c0c 6b3b c713 0139
00000020: 0b8e 943a 953d a938 acbc 0539 a6ba dd38
00000030: 2dae fb38 c85a 8a38 e7c6 e838 d2d2 c538
00000040: 4759 a938 924f 113b ebf8 d438 f849 b038
00000050: b9bf a038 8470 f638 ec88 9f39 1a72 ed38
00000060: 9e1b c438 dcdc fd38 d908 3e3b c5ce 9f38
00000070: 6bf3 c238 5817 1e39 cf16 1339 8cde c838

fc.3.weight f4 [10, 32]
-0.17205624 -0.24699485 -0.2063424 0.2908887 -0.052406102 -0.21835348 -0.020493723 -0.1805195
0.077179246 -0.10377639 0.11125011 -0.163102 0.5967589 0.020759 -0.009393159 -0.20548256
0.19693616 0.11907192 -0.018598871 -0.26745948 -0.103677325 -0.026292443 -0.09233384 -0.1151932
0.66538996 -0.05660668 -0.0626472 -0.2493248 -0.16176215 -0.045365553 -0.119846985 -0.29430592
0.014340585 0.04359032 -0.040182788 0.5283808 0.29970512 -0.3039604 -0.078345016 -0.06261249
0.03412486 0.03516947 -0.00704768 0.08048851 -0.16502467 -0.06333339 -0.24317661 -0.056070395
-0.111748025 -0.118865386 0.02513088 0.025974814 -0.20512463 -0.124594465 -0.23864564 0.71536684
-0.13786101 0.37241703 -0.021569576 -0.2935811 -0.12566611 -0.026475776 -0.14960113 -0.2719736
0.05310029 0.47486168 0.01348501 -0.0021974235 0.09061059 -0.20221488 -0.0771214 -0.22733063
-0.013504371 -0.18198982 0.081296355 -0.08323967 -0.2592048 -0.049293272 0.17697713 -0.30553797
0.13751154 0.14165612 -0.14623669 -0.1972031 -0.2603246 -0.2829198 0.11287047 -0.09996266
-0.10300045 0.2147239 0.012738983 -0.0035392402 -0.12317975 0.105406374 0.762642 0.118514515
-0.12306772 0.25908104 -0.24037258 -0.25925913 -0.11690805 0.06437181 -0.08306852 0.38974035
-0.12194154 0.03530038 0.33236215 0.024273159 -0.16297835 0.02464509 -0.22390762 0.18626092
-0.23533729 0.21639778 0.4989939 0.31947687 -0.20109992 0.015862757 0.020422269 -0.2270716
-0.20700492 -0.04023417 0.032447856 0.3585644 -0.31250805 -0.19030122 -0.12909545 0.12852383
-0.25498343 -0.15935634 0.5318041 -0.07877934 -0.07879233 0.044950068 -0.1328178 -0.25454143
0.08818823 0.012267517 0.012746385 -0.11023472 -0.015640523 0.28958827 -0.32575226 0.110135145
-0.052373383 -0.15450981 -0.2915921 -0.24675573 0.11949037 0.54616994 0.21024989 -0.19161646
-0.16140719 0.0077495244 0.03458826 -0.25734738 0.159852 0.5619443 -0.04290318 -0.14225788
0.027299497 0.02605609 -0.062043365 -0.10706016 -0.15882118 0.04829088 -0.06354049 -0.08158375
0.15323864 -0.06618346 -0.08469624 -0.062944084 -0.2888591 0.43502918 -0.24361381 0.3382623
-0.19490081 -0.048596114 0.4163792 -0.10910071 -0.213479 -0.11730526 0.10464295 -0.1783975
-0.0032272353 -0.28405827 0.09429433 0.019577635 0.28077826 -0.0018437161 -0.24054667 0.64302015
-0.16758956 0.0071614957 -0.17121075 -0.103201434 0.045165718 0.094417974 -0.06919199 -0.2458165
-0.039693955 -0.09327387 -0.09725975 -0.24250285 0.4540119 0.00033310943 0.124507755 -0.3139999
-0.14720285 -0.02909653 0.10982601 -0.19364798 0.5905939 -0.18631224 0.19636504 -0.045861002
-0.018712722 -0.13353299 0.22905666 0.025223557 0.48882392 -0.13511513 -0.23351587 -0.06966699
0.2284581 0.08857227 0.075265475 -0.05454302 0.00935122 0.2823014 -0.1477003 -0.20869459
0.031567268 0.011376063 -0.23251173 -0.17332481 0.082958825 -0.110799156 -0.2956202 0.5102693
0.248618 -0.049980883 -0.2125244 0.18375413 -0.19353727 0.36895913 -0.09438437 0.44168106
-0.15457554 0.3443067 -0.03243858 0.006689239 -0.17775133 -0.24069692 -0.12511633 -0.1655007
00000000: 832f 30be 38ec 7cbe 6c4b 53be 5def 943e
00000010: c8a7 56bd 0e98 5fbe 74e2 a7bc 1bda 38be
00000020: 2710 9e3d b788 d4bd 19d7 e33d 3604 27be
00000030: 31c5 183f c70e aa3c c4e5 19bc 056a 52be
00000040: a2a9 493e fbdb f33d a95c 98bc 73f0 88be
00000050: c754 d4bd 4063 d7bc 8619 bdbd 6aea ebbd
00000060: ff56 2a3f 68dc 67bd 2d4d 80bd 004f 7fbe
00000070: faa4 25be 3bd1 39bd 5672 f5bd 44af 96be
00000080: c6f4 6a3c c38b 323d b596 24bd f743 073f
00000090: f372 993e b3a0 9bbe 5a73 a0bd fa3a 80bd
000000a0: 82c6 0b3d dd0d 103d 3af0 e6bb 29d7 a43d
000000b0: 3afc 28be f0b4 81bd 4a03 79be 12aa 65bd
000000c0: 26dc e4bd b26f f3bd 46df cd3c 22c9 d43c
000000d0: 310c 52be 622b ffbd 865f 74be 4822 373f
000000e0: 702b 0dbe 72ad be3e aeb2 b0bc 4350 96be
000000f0: 9eae 00be bae3 d8bc 0a31 19be 2040 8bbe
00000100: b17f 593d 1221 f33e 3bf0 5c3c a602 10bb
00000110: 0c92 b93d 6b11 4fbe d3f1 9dbd 5cc9 68be
00000120: 7041 5dbc 8a5b 3abe b47e a63d 8f79 aabd
00000130: 7eb6 84be bee7 49bd 7e39 353e 796f 9cbe
00000140: d3cf 0c3e 4d0e 113e 12bf 15be 9cef 49be
00000150: 4449 85be ddda 90be a228 e73d 39b9 ccbd
00000160: e6f1 d2bd 95e0 5b3e 2bb7 503c 99f2 67bb
00000170: aa45 fcbd 4cdf d73d 823c 433f bdb7 f23d
00000180: ee0a fcbd 45a6 843e 3b24 76be 9dbd 84be
00000190: 7d6d efbd 5ed5 833d d41f aabd 0c8c c73e
000001a0: 7cbc f9bd 2297 103d 5f2b aa3e 81d8 c63c
000001b0: cce3 26be 80e4 c93c 0a48 65be 2fbb 3e3e
000001c0: 42fc 70be 6197 5d3e 217c ff3e 7992 a33e
000001d0: 23ed 4dbe 9df2 813c 9a4c a73c 7585 68be
000001e0: 19f9 53be 96cc 24bd 0be8 043d c195 b73e
000001f0: 0e01 a0be 53de 42be 9931 04be c09b 033e
00000200: 308d 82be 4f2e 23be 5024 083f 1057 a1bd
00000210: e05d a1bd 901d 383d 6401 08be 4153 82be
00000220: 089c b43d b2fd 483c 37d6 503c bec2 e1bd
00000230: 8e20 80bc ea44 943e 00c9 a6be 898e e13d
00000240: 7985 56bd d237 1ebe 8f4b 95be 89ad 7cbe
00000250: 5eb7 f43d cbd1 0b3f bf4b 573e 1b37 44be
00000260: ed47 25be b9ef fd3b 6bac 0d3d 09c3 83be
00000270: 3eb0 233e 95db 0f3f 3fbb 2fbd 0dac 11be
00000280: 32a3 df3c 9573 d53c 2f21 7ebd 5b42 dbbd
00000290: 05a2 22be a8cc 453d 8421 82bd 6215 a7bd
000002a0: 97ea 1c3e 328b 87bd 3975 adbd d4e8 80bd
000002b0: 57e5 93be 25bc de3e e675 79be b730 ad3e
000002c0: 1494 47be b80c 47bd a82f d53e 3170 dfbd
000002d0: 3d9a 5abe bd3d f0bd 0b4f d63d d6ad 36be
000002e0: 0680 53bb 1670 91be 631d c13d 4761 a03c
000002f0: 2bc2 8f3e d9a8 f1ba de51 76be f89c 243f
00000300: 999c 2bbe fbaa ea3b df51 2fbe 465b d3bd
00000310: b0ff 383d 365e c13d 88b4 8dbd 52b7 7bbe
00000320: 2196 22bd 5f06 bfbd 1f30 c7bd ab52 78be
00000330: 3f74 e83e 31a5 ae39 ecfd fe3d 98c4 a0be
00000340: 58bc 16be d95b eebc 76ec e03d a84b 46be
00000350: 2931 173f a3c8 3ebe eb13 493e bfd8 3bbd
00000360: 6c4b 99bc dfbc 08be d48d 6a3e a2a1 ce3c
00000370: 2147 fa3e 9f5b 0abe c91e 6fbe 91ad 8ebd
00000380: ecf0 693e 6165 b53d c924 9a3d 8068 5fbd
00000390: dc35 193c cf89 903e bf3e 17be 09b4 55be
000003a0: ae4c 013d ab62 3a3c 8e17 6ebe 0f7c 31be
000003b0: 51e6 a93d abea e2bd 885b 97be 02a1 023f
000003c0: b895 7e3e c1b8 4cbd ff9f 59be 0b2a 3c3e
000003d0: a22e 46be 36e8 bc3e 984c c1bd 0524 e23e
000003e0: 0d49 1ebe f848 b03e 51de 04bd 6731 db3b
000003f0: 7204 36be 4179 76be 7f1e 00be 0479 29be

fc.3.bias f4 [10]
0.12191116 0.08364824 -0.029744975 0.01288817 -0.21046562 0.057791542 0.08089417 -0.11156614
-0.0943286 -0.026984887
00000000: 8fac f93d c54f ab3d bcab f3bc e728 533c
00000010: 4d84 57be d3b6 6c3d d8ab a53d ca7c e4bd
00000020: 5a2f c1bd 690f ddbc
