saved/cnn/serif_no_aug.pth (torch, 240453 bytes, 26 tensors)

conv1.0.weight f4 [32, 3, 5]
-0.22055447 -0.018666994 -0.045708336 0.2709011 0.036983315 0.19248943 -0.020144071 -0.1435303
-0.27267602 0.11182781 0.115284525 0.18441267 -0.13071816 -0.21750367 -0.2166831 -0.042320237
-0.010304994 -0.24792579 -0.21971409 0.27415475 0.08741385 0.02123886 0.21805985 -0.14179207
0.21038224 -0.21341789 -0.25022587 -0.12125513 -0.0036457488 0.24609293 -0.085918166 0.0897456
-0.14184178 0.17512718 -0.20054388 -0.10890976 -0.13863266 -0.039398663 -0.20048758 -0.20216742
-0.12125688 -0.12017865 0.23667404 0.24281317 -0.025279855 -0.10504033 0.1995202 -0.09723394
-0.08582013 0.22449778 -0.1259233 -0.05644722 0.0312932 -0.20948112 0.08427892 -0.17015228
0.2545921 0.058428045 -0.14019841 -0.13328582 0.20700113 -0.14841111 -0.011756597 0.21750242
-0.08405977 0.23552793 0.24033408 -0.18981685 -0.14407499 0.071016856 0.13626699 0.028949097
-0.048929784 -0.13567954 -0.12883964 -0.28673083 -0.083357416 -0.0651488 -0.12880501 -0.010975235
0.17479524 0.12495425 0.120532036 -0.011760893 0.06286341 -0.16602427 -0.12015265 0.021067586
0.21060671 -0.105700806 -0.057071615 0.095562264 -0.0244963 0.027433053 -0.15115121 -0.27789637
0.034989905 0.1363159 -0.14023416 0.25948942 -0.05654682 -0.16382208 0.078145325 -0.15431659
-0.076983355 -0.0033964792 -0.2130927 -0.1755318 0.04255525 0.14277582 -0.11715224 -0.010507191
-0.09897741 0.03399336 0.18967699 -0.15587205 -0.11736044 -0.20436397 0.0006661807 -0.2489738
0.15680748 -0.31513438 0.26687214 -0.111011066 0.063811384 -0.014124388 -0.15570033 0.09997371
0.18342786 -0.08269397 0.24570908 0.07117101 0.055010714 -0.012502604 0.26017553 0.24055274
-0.11461284 0.17665616 0.027291482 0.02210596 0.031093191 0.24682099 0.18473908 0.2246782
-0.027848266 0.20322727 0.034117974 0.23132406 0.20578969 -0.18096137 -0.21565305 0.052111574
-0.15290119 0.15308204 0.2618249 -0.20090955 -0.0976971 0.21987791 0.15712836 0.14637949
0.16278152 -0.16724654 0.21831433 -0.18967286 0.17751998 -0.013212997 0.16327202 -0.057338648
0.025212305 0.1943953 0.12596038 -0.053973105 -0.2131287 0.12389273 -0.0011695325 -0.22746103
-0.2069778 -0.17575422 -0.03773252 -0.18255568 0.15842648 -0.18312429 -0.033693366 -0.08163737
-0.077201314 -0.12605342 0.16603562 -0.10312072 0.015952026 -0.19152825 0.17277691 -0.22729349
0.17243452 -0.22627354 -0.109012894 -0.13047838 0.08288283 0.058095664 0.19248602 0.21852489
-0.24568744 0.010481955 -0.23796187 0.022490256 0.22869371 -0.06951021 0.25791925 -0.07254523
0.25808045 0.23490967 0.24277654 -0.25180253 -0.0005689574 -0.20095655 -0.06684018 -0.25713816
0.21594508 0.17207007 0.11620373 -0.12398568 -0.18709531 0.09316316 0.10145323 0.1873015
0.097748704 -0.17511913 0.1320497 0.23713331 0.029765708 0.191133 0.04071531 0.06658259
0.03904769 0.2156154 0.1646966 0.081407644 0.21916509 0.053607393 0.19971289 0.16799852
-0.18331581 -0.20470907 -0.069053374 0.22679979 -0.13687848 0.21821748 0.15460594 0.2234643
-0.034082726 0.10628076 -0.055966124 0.25358334 0.19277997 -0.089059845 -0.0796364 -0.20366229
00000000: 08d9 61be 86eb 98bc aa38 3bbd 8db3 8a3e
00000010: d17b 173d f31b 453e 2e05 a5bc 9bf9 12be
00000020: 319c 8bbe fb05 e53d 4b1a ec3d add6 3c3e
00000030: fbda 05be 48b9 5ebe 2de2 5dbe fc57 2dbd
00000040: 47d6 28bc 42e0 7dbe bbfc 60be 035e 8c3e
00000050: 0806 b33d 1efd ad3c 154b 5f3e f131 11be
00000060: 716e 573e 388a 5abe 9b1d 80be 9c54 f8bd
00000070: 84ed 6ebb c9ff 7b3e ddf5 afbd 8bcc b73d
00000080: f93e 11be 8a54 333e 605b 4dbe 150c dfbd
00000090: b8f5 0dbe 7e60 21bd 9e4c 4dbe fa04 4fbe
000000a0: 8755 f8bd 3920 f6bd ae5a 723e 04a4 783e
000000b0: b317 cfbc 621f d7bd 064f 4c3e 9722 c7bd
000000c0: 77c2 afbd bfe2 653e 0af2 00be 3335 67bd
000000d0: 4c2d 003d 3882 56be 6d9a ac3d 663c 2ebe
000000e0: e559 823e 3f52 6f3d 2c90 0fbe 147c 08be
000000f0: 1bf8 533e 15f9 17be be9e 40bc f4b8 5e3e
00000100: 8727 acbd 3c2e 713e 231a 763e 595f 42be
00000110: 6588 13be 4971 913d 9389 0b3e a826 ed3c
00000120: 996a 48bd 94ef 0abe 8aee 03be 62ce 92be
00000130: 4bb7 aabd bc6c 85bd 76e5 03be 79d1 33bc
00000140: 86fd 323e 04e8 ff3d 80d9 f63d c3b0 40bc
00000150: 88be 803d 4402 2abe 9812 f6bd ee95 ac3c
00000160: 49a9 573e aa79 d8bd edc3 69bd 26b6 c33d
00000170: 77ac c8bc 48bb e03c 62c7 1abe 6f48 8ebe
00000180: 9351 0f3d 6596 0b3e 8b99 0fbe ccdb 843e
00000190: a39d 67bd fac0 27be a80a a03d 2b05 1ebe
000001a0: 73a9 9dbd 7797 5ebb f934 5abe 9cbe 33be
000001b0: 6a4e 2e3d d333 123e 83ed efbd 5a26 2cbc
000001c0: abb4 cabd 9f3c 0b3d af3a 423e ec9c 1fbe
000001d0: ac5a f0bd ca44 51be a1a2 2e3a fdf2 7ebe
000001e0: 2492 203e 4b59 a1be 77a3 883e c559 e3bd
000001f0: 8baf 823d fa69 67bc e86f 1fbe 04bf cc3d
00000200: 83d4 3b3e 755b a9bd 299b 7b3e 1bc2 913d
00000210: ea52 613d b9d7 4cbc ba35 853e 7553 763e
00000220: 23ba eabd 5ae5 343e 6392 df3c 8f17 b53c
00000230: 26b7 fe3c a4be 7c3e 3e2c 3d3e 0b12 663e
00000240: 0c22 e4bc cf1a 503e 4abf 0b3d 37e0 6c3e
00000250: 88ba 523e f04d 39be 27d4 5cbe f272 553d
00000260: 2192 1cbe 8ac1 1c3e ea0d 863e 3cbb 4dbe
00000270: 6b15 c8bd ad27 613e 42e6 203e 81e4 153e
00000280: 33b0 263e ad42 2bbe cb8d 5f3e 9a39 42be
00000290: ccc7 353e 537b 58bc c830 273e eedb 6abd
000002a0: 098a ce3c 900f 473e c2fb 003e e712 5dbd
000002b0: 693e 5abe 79bb fd3d 004b 99ba 8beb 68be
000002c0: fdf1 53be eaf8 33be 6a8d 1abd e0ef 3abe
000002d0: 8d3a 223e ef84 3bbe 0e02 0abd 7e31 a7bd
000002e0: b91b 9ebd 2614 01be 3e05 2a3e f530 d3bd
000002f0: d3ad 823c fb1f 44be 6eec 303e a0bf 68be
00000300: ad92 303e 40b4 67be 2742 dfbd 209c 05be
00000310: 79be a93d b8f5 6d3d 0e1b 453e fdc4 5f3e
00000320: 7d95 7bbe 81bc 2b3c 47ac 73be 7c3d b83c
00000330: af2e 6a3e 5e5b 8ebd fe0d 843e 9892 94bd
00000340: 1f23 843e 298c 703e 6a9a 783e 43ec 80be
00000350: 1626 15ba 8ec7 4dbe 81e3 88bd 9da7 83be
00000360: b520 5d3e 2333 303e 39fc ed3d 34ec fdbd
00000370: ea95 3fbe 54cc be3d b6c6 cf3d f7cb 3f3e
00000380: 7930 c83d 6e52 33be 0938 073e 13d3 723e
00000390: 37d7 f33c 5fb8 433e 19c5 263d 745c 883d
000003a0: 78f0 1f3d 49ca 5c3e 3aa6 283e 0db9 a63d
000003b0: d06c 603e 6d93 5b3d 8981 4c3e ce07 2c3e
000003c0: 24b7 3bbe 419f 51be db6b 8dbd 343e 683e
000003d0: df29 0cbe 6774 5f3e 0551 1e3e d3d3 643e
000003e0: 549a 0bbd baa9 d93d bc3c 65bd add5 813e
000003f0: 1d68 453e 0265 b6bd 6918 a3bd d98c 50be

conv1.0.bias f4 [32]
0.20608577 0.17049503 -0.07558896 -0.12689075 -0.14439785 -0.05268402 -0.12976056 0.0601457
0.08451402 0.25465015 0.15367584 -0.24191569 0.20281558 -0.24973463 -0.094829224 -0.2330841
0.15973729 0.23080246 -0.25034165 0.18812104 0.0065026437 -0.02998165 -0.14499208 0.11295124
0.21374717 -0.053772394 -0.01567155 -0.024750823 -0.16220994 -0.1542754 0.1185067 -0.13721286
00000000: 2608 533e 4096 2e3e 62ce 9abd a6ef 01be
00000010: 08dd 13be 33cb 57bd f4df 04be 565b 763d
00000020: b015 ad3d 8161 823e 335d 1d3e bfb8 77be
00000030: e3ae 4f3e 6fba 7fbe d335 c2bd 99ad 6ebe
00000040: 2c92 233e 7b57 6c3e c82c 80be cda2 403e
00000050: 2114 d53b 149c f5bc ce78 14be fb52 e73d
00000060: 8ae0 5a3e 7140 5cbd 9f61 80bc 3dc2 cabc
00000070: 5d1a 26be 5ffa 1dbe a4b3 f23d 8781 0cbe

conv1.1.weight f4 [32]
1.0099243 0.98618 1.0033067 1.016312 0.97905654 1.0058066 1.0196301 1.0142606
0.9683306 0.9927134 1.0013148 0.9845983 0.99798524 1.00175 0.99394315 0.9885549
0.9801885 1.0182413 0.9992586 0.98894656 0.9881652 1.0048803 1.0126865 0.9803767
0.99919254 1.0251399 1.0119696 0.9894386 0.97998255 0.9906931 1.0639836 0.9992622
00000000: 3345 813f 4b76 7c3f 5b6c 803f 8316 823f
00000010: 73a3 7a3f 45be 803f 3d83 823f 4bd3 813f
00000020: 84e4 773f 7722 7e3f 152b 803f a20e 7c3f
00000030: f67b 7f3f 5839 803f 0f73 7e3f ef11 7d3f
00000040: a2ed 7a3f bb55 823f 69cf 7f3f 9a2b 7d3f
00000050: 65f8 7c3f eb9f 803f b69f 813f f8f9 7a3f
00000060: 15cb 7f3f c937 833f 3888 813f d94b 7d3f
00000070: 23e0 7a3f 109e 7d3f 9d30 883f a6cf 7f3f

conv1.1.bias f4 [32]
0.0051655774 -0.009769416 -0.0030345493 0.007789186 -0.0035480584 -0.0025485598 -0.0019138156 0.0012061517
-0.011131594 -0.002354017 2.4607567e-05 7.815907e-05 -0.00036975252 -0.0030015626 0.0038504319 -0.0013298728
-0.0026321814 0.007288808 0.002296591 -0.005068736 -0.0041147354 -0.009619299 0.00081421575 -0.004802619
-0.0050240066 0.0037403512 0.006060908 0.0003094252 -0.0076991725 -0.0010452662 -0.012604424 -0.0074464516
00000000: 0144 a93b e70f 20bc 4adf 46bb 6e3c ff3b
00000010: 8b86 68bb bd05 27bb ffd8 faba bc17 9e3a
00000020: 4a61 36bc da45 1abb 596c ce37 55e9 a338
00000030: 58db c1b9 ddb5 44bb 8757 7c3b 204f aeba
00000040: ad80 2cbb f4d6 ee3b 6782 163b a417 a6bb
00000050: e7d4 86bb 449a 1dbc 1871 553a 4a5f 9dbb
00000060: 6ca0 a4bb ae20 753b 959a c63b 593a a239
00000070: 5749 fcbb 5001 89ba c982 4ebc 5d01 f4bb

conv1.1.running_mean f4 [32]
-2.1281343 3.6112185 -15.978756 -3.4899282 7.2764544 -0.4004006 -1.9273944 -3.8371322
1.6108421 18.983408 5.397643 4.4442186 -7.747531 1.7065731 -2.1016612 16.410517
7.061541 -3.5595949 -9.592966 15.18329 3.0627663 -0.26088396 -13.33241 9.381448
1.2743564 -2.013865 -1.2249097 10.008373 3.0497468 2.1898692 -0.25885016 1.2382476
00000000: 5a33 08c0 341e 6740 fca8 7fc1 fc5a 5fc0
00000010: b7d8 e840 4f01 cdbe dcb4 f6bf 9393 75c0
00000020: 1330 ce3f 05de 9741 7eb9 ac40 0a37 8e40
00000030: c6eb f7c0 fd70 da3f 9e81 06c0 bd48 8341
00000040: 25f8 e140 67d0 63c0 ca7c 19c1 c1ee 7241
00000050: 5d04 4440 9592 85be 8d51 55c1 691a 1641
00000060: 1c1e a33f 2ae3 00c0 d7c9 9cbf 4c22 2041
00000070: 0d2f 4340 d126 0c40 0288 84be e67e 9e3f

conv1.1.running_var f4 [32]
557.62103 1632.8138 11245.054 885.7309 2461.828 2003.1544 480.2652 1077.4261
224.8447 14629.842 2410.8872 1025.9482 2705.6167 1335.7128 650.4529 11828.8
4572.1836 760.9774 3941.631 8859.742 1431.843 275.8033 8909.449 3784.9114
784.3054 1178.6135 373.17163 4144.82 617.83453 2894.8423 858.4355 1051.685
00000000: bf67 0b44 0b1a cc44 37b4 2f46 c76e 5d44
00000010: 3fdd 1945 f164 fa44 f221 f043 a3ad 8644
00000020: 3ed8 6043 5e97 6446 32ae 1645 583e 8044
00000030: de19 2945 cff6 a644 fc9c 2244 33d3 3846
00000040: 78e1 8e45 8e3e 3e44 195a 7645 f86e 0a46
00000050: fafa b244 d3e6 8943 cc35 0b46 958e 6c45
00000060: 8c13 4444 a253 9344 f895 ba43 8f86 8145
00000070: 6975 1a44 7aed 3445 df9b 5644 ec75 8344

conv2.0.weight f4 [64, 32, 5]
0.06370237 0.005550331 0.068658605 0.034607768 0.010501202 0.04941152 0.023853913 -0.026857695
0.06707846 0.022705594 0.055279084 0.042700067 -0.045192394 -0.054176174 -0.015177394 -0.004792605
0.04666293 0.026138706 0.014771064 0.047724444 0.062122665 -0.08233213 -0.08767219 0.07366879
0.050942753 0.024833767 0.050607506 -0.07246638 -0.07606844 -0.08242265 0.043306466 0.00748708
-0.048569612 -0.071651965 0.07732806 0.053324234 0.028835678 -0.059807137 -0.026808595 -0.07032942
-0.04092186 0.07065753 0.0412835 0.033653077 -0.033538174 -0.016815085 0.020501232 0.0006459415
-0.016110953 0.046502333 0.017848296 0.0026845988 -0.047791794 -0.06387647 0.063369215 0.026720608
0.069810174 -0.014079048 -0.019518305 0.03513433 -0.04647741 -0.022592548 -0.047295846 -0.053725526
0.05701317 0.013826855 -0.018747201 0.044256996 -0.06322038 0.011729063 -0.035983242 0.068980075
-0.03777588 0.086435966 0.014132328 0.029927716 0.051768173 0.01758912 -0.06864911 0.054098286
-0.06505041 0.023462573 0.06827737 -0.053450294 -0.044506717 0.051004723 -0.03561118 0.019407518
0.021647304 0.042330395 -0.051903345 -0.06726082 -0.006638691 0.07515785 -0.032848127 0.015789587
-0.0010646548 -0.03545139 -0.06695607 0.071173504 0.07479962 -0.05670152 0.030393539 -0.03439254
0.004708177 0.017709153 -0.0058303 0.07088215 -0.009763906 0.078475945 -0.07481317 0.06288521
-0.06129084 -0.0048314515 0.052467387 -0.02813163 -0.019193599 -0.06756023 0.073252335 -0.047697395
0.038162764 0.038567897 0.045470614 -0.039008636 0.08315786 0.016775843 -0.07256729 -0.06430392
0.036752686 -0.029744502 0.04294248 0.0015770791 0.043184906 0.046162754 -0.022320742 -0.07089233
-0.0074175037 0.06667184 -0.025348239 -0.06685397 -0.06536596 0.07591355 0.077090785 0.045363422
0.009477096 0.07178908 -0.05304642 0.018735245 0.05905975 0.046679497 0.05276355 0.025388066
-0.04168527 0.026921965 -0.0029650962 -0.078611664 -0.061930865 0.05421067 0.017586369 0.06015112
0.041737415 -0.053948063 0.0419292 0.00864273 -0.072963454 -0.023623431 0.065746166 0.049859907
-0.013602002 -0.04611209 0.04435337 -0.07617487 0.019686578 0.07443895 0.060339876 0.027345315
0.057281867 -0.050217055 -0.06675124 0.027151603 -0.023916284 -0.008662894 0.025360167 0.06307903
0.048144866 -0.038886037 0.026811086 0.059374038 0.03832148 0.031560663 0.05002676 -0.074381255
-0.024448218 -0.042251576 -0.0045658 0.06855197 -0.0067873774 0.06997112 -0.050548274 -0.038514405
0.04440941 -0.024557363 -0.0134715885 -0.0064090486 -0.03492335 -0.08558814 0.012668471 0.037230294
0.02340173 -0.016007932 0.058279615 -0.004169663 -0.014282998 0.044768315 0.05898442 -0.06580961
0.08281823 0.06700813 0.012347888 -0.010434148 -0.046923663 0.02926567 -0.021501765 -0.016644783
-0.06754422 0.0072856457 -0.016842991 0.034636915 0.022857215 -0.045431666 0.038928006 -0.052227307
-0.043279476 -0.068937905 0.014940139 0.012071147 0.079542175 0.066081084 -0.014262494 0.04866603
-0.037465088 0.025871072 0.0062638307 -0.05069146 -0.048332963 -0.0020917875 -0.024867896 -0.07313966
-0.010015295 -0.02322444 0.026719002 0.06047576 0.05274499 -0.04785298 -0.0117681725 0.02260554
00000000: 6376 823d 8ddf b53b e29c 8c3d e0c0 0d3d
00000010: 3c0d 2c3c bc63 4a3d 4869 c33c ab04 dcbc
00000020: 6e60 893d 1501 ba3c 526c 623d 44e6 2e3d
00000030: a91b 39bd d6e7 5dbd 9baa 78bc 490b 9dbb
00000040: a121 3f3d d720 d63c 5502 723c b57a 433d
00000050: 5674 7e3d bf9d a8bd 7a8d b3bd aadf 963d
00000060: 59a9 503d 2f70 cb3c d149 4f3d 4169 94bd
00000070: c5c9 9bbd 35cd a8bd 1f62 313d 2e56 f53b
00000080: eef0 46bd 44be 92bd 2d5e 9e3d 836a 5a3d
00000090: cd38 ec3c 54f8 74bd b39d dbbc df08 90bd
000000a0: ae9d 27bd e5b4 903d e318 293d cfd7 093d
000000b0: 535f 09bd cabf 89bc 33f2 a73c 6654 293a
000000c0: 1efb 83bc 3b79 3e3d 9736 923c 18f0 2f3b
000000d0: 54c1 43bd abd1 82bd b8c7 813d 2de5 da3c
000000e0: a3f8 8e3d cfab 66bc dae4 9fbc 04e9 0f3d
000000f0: 195f 3ebd 0214 b9bc 4ab9 41bd 4c0f 5cbd
00000100: a486 693d 098a 623c bb93 99bc d346 353d
00000110: b079 81bd 412b 403c 2a63 13bd 6d45 8d3d
00000120: e2ba 1abd 5705 b13d 488b 673c f82a f53c
00000130: dd0a 543d 0f17 903c e897 8cbd 2a96 5d3d
00000140: 2639 85bd 9534 c03c 01d5 8b3d b2ee 5abd
00000150: ad4c 36bd 54ea 503d 07dd 11bd 84fc 9e3c
00000160: b055 b13c a362 2d3d 9a98 54bd 0ac0 89bd
00000170: 6089 d9bb 5cec 993d c28b 06bd 2a59 813c
00000180: e38b 8bba 7a35 11bd 4420 89bd 6ac3 913d
00000190: 8b30 993d da3f 68bd dffb f83c 31df 0cbd
000001a0: 0d47 9a3b c912 913c 1a0c bfbb a92a 913d
000001b0: caf8 1fbc ffb7 a03d a637 99bd f6c9 803d
000001c0: 1b0c 7bbd 2751 9ebb 0be8 563d 4e74 e6bc
000001d0: e53b 9dbc 055d 8abd 5205 963d 585e 43bd
000001e0: 8f50 1c3d 5ff9 1d3d 653f 3a3d 85c7 1fbd
000001f0: ab4e aa3d 7e6d 893c 299e 94bd c6b1 83bd
00000200: fc89 163d beaa f3bc 74e4 2f3d feb5 ce3a
00000210: a8e2 303d 2815 3d3d fdd9 b6bc ff2f 91bd
00000220: 880e f3bb 3f8b 883d 1ca7 cfbc bcea 88bd
00000230: 97de 85bd 9078 9b3d c6e1 9d3d ffce 393d
00000240: d245 1b3c 2706 933d 3447 59bd a87a 993c
00000250: a3e8 713d 0033 3f3d 981e 583d a2fa cf3c
00000260: 2cbe 2abd 748b dc3c 0f52 42bb 27ff a0bd
00000270: 38ab 7dbd 020c 5e3d 4a11 903c 0561 763d
00000280: daf4 2a3d a5f8 5cbd f4bd 2b3d 3d9a 0d3c
00000290: dd6d 95bd ed85 c1bc eda5 863d e739 4c3d
000002a0: eeda 5ebc 08e0 3cbd e1ab 353d 9201 9cbd
000002b0: bf45 a13c 7373 983d f226 773d 4803 e03c
000002c0: 64a0 6a3d 66b0 4dbd e0b4 88bd 0a6d de3c
000002d0: 15ec c3bc d0ee 0dbc 20c0 cf3c 942f 813d
000002e0: 8d33 453d f746 1fbd eca2 db3c 3132 733d
000002f0: fcf6 1c3d c145 013d dce8 4c3d 3355 98bd
00000300: a147 c8bc fd0f 2dbd b59c 95bb fa64 8c3d
00000310: a668 debb 054d 8f3d b50b 4fbd 48c1 1dbd
00000320: a4e6 353d 862c c9bc f0b7 5cbc ff02 d2bb
00000330: c90b 0fbd d648 afbd 6b8f 4f3c cb7e 183d
00000340: fcb4 bf3c 1123 83bc 9bb6 6e3d aba1 88bb
00000350: 3c03 6abc fb5e 373d a699 713d 30c7 86bd
00000360: 9b9c a93d 8f3b 893d cc4e 4a3c fdf3 2abc
00000370: 0733 40bd 8fbe ef3c 7824 b0bc a45a 88bc
00000380: a054 8abd 6dbc ee3b 50fa 89bc 70df 0d3d
00000390: 0e3f bb3c 8e16 3abd f972 1f3d 4dec 55bd
000003a0: d245 31bd 512f 8dbd 7cc7 743c 0fc6 453c
000003b0: 02e7 a23d 8555 873d 3cad 69bc 0856 473d
000003c0: fe74 19bd 92ef d33c d240 cd3b d9a1 4fbd
000003d0: c9f8 45bd 5f16 09bb c2b7 cbbc 3fca 95bd
000003e0: 3117 24bc 2e41 bebc cfe1 da3c 6eb5 773d
000003f0: 210b 583d 7d01 44bd 4bcf 40bc 412f b93c

conv2.0.bias f4 [64]
-0.0044054934 -0.06424681 0.04211454 -0.06429623 0.009074538 -0.0046034697 0.03680586 -0.053872984
0.03231207 -0.034544125 -0.05714969 -0.00035013078 -0.044403862 -0.014929616 -0.07544089 -0.052079055
-0.046739407 -0.0047877245 0.027222455 0.047499496 0.0055104042 0.023526236 -0.03191165 -0.03962422
0.053246945 -0.07090356 -0.008276684 -0.05393384 0.06529299 0.026120987 -0.065961845 -0.049686242
0.0692439 5.7912333e-05 -0.009475788 -0.02765755 0.024655845 -0.018972177 -0.06301936 -0.001556049
-0.06464043 -0.02542012 0.06637302 0.052026913 0.026915053 0.07495541 0.008983065 0.042356834
0.038088027 -0.052679915 0.064460404 0.029356461 -0.016726466 -0.043514807 0.05074772 -0.07572752
-0.047486756 0.06553665 -0.03505763 -0.049788937 0.047505293 0.048699204 -0.054229885 0.016555095
00000000: f55b 90bb d593 83bd 4c80 2c3d bead 83bd
00000010: 5fad 143c b4d8 96bb bec1 163d eba9 5cbd
00000020: a959 043d 247e 0dbd cb15 6abd c291 b7b9
00000030: d3e0 35bd 599b 74bc c180 9abd d950 55bd
00000040: d271 3fbd 58e2 9cbb a001 df3c d58e 423d
00000050: 9f90 b43b 18ba c03c cab5 02bd 024d 22bd
00000060: 7819 5a3d e335 91bd ee9a 07bc bbe9 5cbd
00000070: 55b8 853d aefb d53c 0117 87bd cd83 4bbd
00000080: bfcf 8d3d e5e6 7238 5640 1bbc 1692 e2bc
00000090: 0efb c93c 8a6b 9bbc 4b10 81bd 57f4 cbba
000000a0: 3462 84bd db3d d0bc 94ee 873d 2c1a 553d
000000b0: f57c dc3c 3982 993d b52d 133c 5c7e 2d3d
000000c0: 3102 1c3d e5c6 57bd d103 843d f67c f03c
000000d0: f105 89bc 953c 32bd d7dc 4f3d 0817 9bbd
000000e0: 7981 42bd 1438 863d 9798 0fbd 7cef 4bbd
000000f0: e994 423d d178 473d 2820 5ebd 8d9e 873c

conv2.1.weight f4 [64]
0.98496675 1.0044656 1.0100609 0.9981205 1.0067236 1.0135816 0.9906886 0.9943689
1.0093384 1.0043956 0.9985096 1.0090368 1.0022856 0.9941072 1.0016211 0.99977344
0.99696255 1.0049806 0.99909025 0.99834657 0.9987808 1.0057665 0.9911525 1.0020741
1.0041409 1.0128284 1.0044928 1.0135976 1.0018044 0.9870637 1.0021302 0.9994083
1.0005125 1.0021479 0.989069 1.00531 1.0049638 0.98574036 0.99934334 1.0191504
1.0035958 1.0012307 0.98460764 0.99685526 0.9909751 1.0057476 1.0033599 0.99404866
0.99801815 0.9998441 0.9958918 0.977537 1.0011637 0.9871364 1.0182488 0.99111986
0.99215174 0.996242 1.0003963 1.0005953 1.0062767 1.0126814 0.98803836 1.0019674
00000000: c826 7c3f 5492 803f ad49 813f d384 7f3f
00000010: 52dc 803f 0bbd 813f c59d 7d3f f68e 7e3f
00000020: 0032 813f 0990 803f 539e 7f3f 1e28 813f
00000030: e54a 803f cf7d 7e3f 1f35 803f 27f1 7f3f
00000040: f038 7f3f 34a3 803f 61c4 7f3f a493 7f3f
00000050: 19b0 7f3f f5bc 803f 2cbc 7d3f f743 803f
00000060: b087 803f 5ca4 813f 3893 803f 91bd 813f
00000070: 203b 803f 35b0 7c3f cd45 803f 39d9 7f3f
00000080: cb10 803f 6246 803f a033 7d3f 00ae 803f
00000090: a7a2 803f 7b59 7c3f f7d4 7f3f 8573 823f
000000a0: d475 803f 5428 803f 3f0f 7c3f e831 7f3f
000000b0: 8bb0 7d3f 56bc 803f 196e 803f f979 7e3f
000000c0: 1e7e 7f3f c8f5 7f3f c4f2 7e3f dd3f 7a3f
000000d0: 2226 803f f9b4 7c3f fa55 823f 08ba 7d3f
000000e0: a8fd 7d3f b709 7f3f fc0c 803f 8213 803f
000000f0: adcd 803f 8b9f 813f 15f0 7c3f 7840 803f

conv2.1.bias f4 [64]
-0.0038286424 -0.0021145686 -0.0015936142 -0.0019628217 0.0014058175 -0.0026486116 -0.0025662363 -0.0009258661
-0.0043186876 0.0010352227 0.0010200733 0.0019466934 0.0010849449 -0.00045081798 0.000585225 -0.0023329814
-0.001005312 0.001645878 -0.0018779632 -0.00012817266 -0.00039948293 -0.0014308115 -0.003615429 -0.0016644974
-0.0017765176 -0.0034047929 0.0050427592 0.002323709 0.0018966869 -0.0024034714 -0.0021505402 -0.00071994145
0.0051461793 0.0019784842 -0.0020212638 -0.0010823288 0.002449169 -0.0015545792 -0.00019732927 -0.004518047
0.00041710128 0.0021637876 -0.0053920606 -0.005153957 -0.001373415 -0.0018180322 0.0021453465 -0.002006833
-0.0010282877 0.00019921287 -0.0024273454 -0.0017619858 -0.00226777 -0.005496444 -0.0009080447 0.0020483735
0.0012907517 0.00036390783 0.0023440516 -0.00030618862 -0.00073799357 0.0023955887 -0.000593422 -0.001391425
00000000: f6e9 7abb 9394 0abb d2e0 d0ba afa2 00bb
00000010: 6843 b83a 5494 2dbb 4d2e 28bb d2b5 72ba
00000020: c783 8dbb 4fb0 873a fbb3 853a 3128 ff3a
00000030: b634 8e3a c45b ecb9 c969 193a efe4 18bb
00000040: acc4 83ba 80ba d73a fd25 f6ba 1666 06b9
00000050: b171 d1b9 118a bbba d5f0 6cbb 442b daba
00000060: 0ada e8ba f222 5fbb bb3d a53b 5e49 183b
00000070: 409a f83a 8f83 1dbb 14f0 0cbb 74ba 3cba
00000080: 48a1 a83b 75a9 013b 2e77 04bb eedc 8dba
00000090: 3d82 203b 06c3 cbba 2cea 4eb9 200c 94bb
000000a0: 63ae da39 55ce 0d3b e2af b0bb 86e2 a8bb
000000b0: 2904 b4ba 0a4b eeba f198 0c3b 1285 03bb
000000c0: 9cc7 86ba cce3 5039 1914 1fbb 6ff2 e6ba
000000d0: de9e 14bb 841b b4bb d909 6eba 013e 063b
000000e0: 712e a93a e2ca be39 a99e 193b f187 a0b9
000000f0: e975 41ba 4fff 1c3b e08f 1bba 7a60 b6ba

conv2.1.running_mean f4 [64]
0.09374711 -0.056095365 0.031667225 0.13743694 -0.041232128 0.02692873 0.03403188 0.021395033
0.055062495 -0.011842215 -0.009143453 -0.022311067 -0.1434684 0.020655422 -0.21411392 -0.12098134
0.069816604 -0.15925992 0.05735267 -0.014417493 0.09755702 0.101081446 -0.032112762 0.08284883
0.07526177 -0.13305001 -0.092007935 -0.09844674 0.049628954 -0.08510357 -0.20537831 -0.14828677
-0.019818926 -0.027604118 0.05347974 -0.024688412 0.0006327048 0.0244766 -0.13349348 0.00035766044
-0.08469998 0.06817452 0.107313626 0.07597447 0.08042158 0.1413058 -0.12808816 0.030842602
-0.023873221 -0.06388857 0.05069573 0.0126449345 -0.068975605 -0.030056829 0.08535629 0.05494106
-0.07768585 0.114601664 -0.06460063 -0.13240355 0.11784011 0.025456572 0.060966767 -0.0843124
00000000: 7cfe bf3d 41c4 65bd 7eb5 013d 45bc 0c3e
00000010: 05e3 28bd a499 dc3c 0365 0b3d a344 af3c
00000020: 3689 613d da05 42bc 6cce 15bc b3c5 b6bc
00000030: 61e9 12be 8f35 a93c ae40 5bbe 11c5 f7bd
00000040: 02fc 8e3d 0815 23be a2ea 6a3d 5937 6cbc
00000050: facb c73d ca03 cf3d ac88 03bd a6ac a93d
00000060: d822 9a3d 433e 08be a86e bcbd 729e c9bd
00000070: bb47 4b3d c84a aebd b14e 52be 7dd8 17be
00000080: 4d5b a2bc 0822 e2bc 920d 5b3d 5a3f cabc
00000090: 1adc 253a 2783 c83c 84b2 08be 5f84 bb39
000000a0: 2f77 adbd 159f 8b3d 3fc7 db3d 8198 9b3d
000000b0: 12b4 a43d 78b2 103e 8b29 03be a0a9 fc3c
000000c0: c691 c3bc 03d8 82bd 53a6 4f3d b32c 4f3c
000000d0: 1543 8dbd bd39 f6bc 47cf ae3d e009 613d
000000e0: c219 9fbd 47b4 ea3d 564d 84bd cc94 07be
000000f0: 2856 f13d 4d8a d03c 4ab8 793d fbab acbd

conv2.1.running_var f4 [64]
0.33445555 0.2404583 0.12321354 0.25887254 0.17243727 0.062817894 0.24525012 0.18852633
0.1803758 0.084715396 0.38610741 0.13838439 0.2766629 0.27074274 0.49632078 0.17989774
0.07691455 0.26393422 0.31541723 0.17512509 0.18178752 0.45561403 0.10616948 0.10768424
0.101097785 0.15458371 0.29103658 0.15923518 0.15682058 0.054878287 0.20899285 0.20437579
0.4160088 0.31719536 0.10634306 0.09284246 0.1197847 0.24406984 0.5113728 0.06838355
0.13406907 0.33980212 0.350013 0.07044411 0.19153197 0.17525576 0.2808766 0.10932028
0.23979978 0.25473833 0.13609235 0.112210035 0.11389204 0.12732002 0.0924797 0.8137504
0.1509438 0.20397943 0.15915579 0.12489958 0.13178171 0.15406236 0.2332278 0.084112264
00000000: c23d ab3e b33a 763e 6157 fc3d f18a 843e
00000010: 6593 303e aba6 803d d922 7b3e 0c0d 413e
00000020: 6fb4 383e 447f ad3d dfaf c53e a3b4 0d3e
00000030: c2a6 8d3e cb9e 8a3e c21d fe3e 1d37 383e
00000040: 6085 9d3d 6322 873e 5e7e a13e fe53 333e
00000050: 8226 3a3e 3e46 e93e 626f d93d 8e89 dc3d
00000060: 5b0c cf3d 314b 1e3e bf02 953e 8c0e 233e
00000070: 9395 203e 0ec8 603d 3902 563e e347 513e
00000080: 1bff d43e 6e67 a23e 64ca d93d 3024 be3d
00000090: ae51 f53d 72ed 793e 54e9 023f ad0c 8c3d
000000a0: 6749 093e 8bfa ad3e e734 b33e 0045 903d
000000b0: f520 443e 3f76 333e 0fcf 8f3e 50e3 df3d
000000c0: 138e 753e 106d 823e cb5b 0b3e 60ce e53d
000000d0: 3b40 e93d 2e60 023e ff65 bd3d f251 503f
000000e0: 0391 1a3e fcdf 503e bcf9 223e 5acb ff3d
000000f0: c9f1 063e 86c2 1d3e 45d3 6e3e 0d43 ac3d

conv3.0.weight f4 [128, 64, 5]
0.016399283 0.010231317 0.01576183 -0.0026935693 -0.007487537 -0.01872402 -0.016345007 0.04512081
0.052580737 -0.05462735 -0.045125596 0.028775096 0.047646914 -0.005342072 0.011645221 -0.009942821
0.054742195 0.019713743 0.018120408 -0.04865314 0.04698098 -0.03192201 0.016061693 0.010581935
-0.017195592 -0.017585838 0.02707052 0.033305507 -0.04406525 0.015003768 -0.008972191 -0.030249327
-0.0472124 0.020874107 -0.027901763 0.056084897 -0.008515606 0.0015643865 -0.032731876 0.042437024
-0.01920641 0.03517602 0.0010200888 -0.009708624 0.022420082 0.01081355 -0.012154842 -0.044491936
0.049493942 -0.030176125 -0.030171568 -0.03313588 -0.06065258 -0.0001206513 0.028474148 -0.010371976
0.0017477369 -0.019613797 0.019751275 0.04219004 0.007691739 0.032341838 0.054337654 -0.015194598
-0.007550803 0.050870866 -0.06262862 0.049414273 0.0031410402 0.044063877 -0.04833177 0.013997783
0.03754084 0.017932719 0.04886221 -0.047962666 -0.012459308 -0.016333027 0.019838952 -0.043897778
0.021380333 -0.03536261 -0.0071925144 0.047922604 -0.022769308 -0.02729959 0.058441028 0.037102982
0.0104166465 0.052007046 -0.022127079 -0.022636978 -0.05137842 -0.043934494 -0.0005965726 0.056291543
-0.028619254 0.021692686 -0.05925478 0.024421642 -0.0041172146 0.00783853 -0.04642249 -0.056897517
0.038376633 0.002928809 -0.06790165 0.04238802 -0.010760433 0.00040029854 0.016571715 -0.021034118
-0.0045448444 -0.03258648 -0.021289514 0.056741845 0.031987127 -0.038624134 0.031140968 0.031397305
-0.00020642944 -0.034576487 0.021089377 0.040344786 -0.012266445 -0.012232439 -0.039256956 -0.02269971
0.0057724654 0.016133448 -0.007653641 0.0043175314 -0.033641826 -0.030452395 0.059080906 -0.046255812
0.015478367 0.045086462 -0.028024646 -0.029477343 0.08407873 -0.015445369 -0.026439449 -0.044520434
0.049361523 -0.023644388 0.009507745 0.012228767 -0.043059576 -0.048718784 0.0021257263 -0.002539578
0.0046794023 0.0038338373 0.008131531 -0.021446548 -0.0333275 0.00075420906 -0.051171806 0.013013156
-0.0011034273 -0.004027151 0.037670787 0.054903682 -0.019183828 0.006271249 -0.048294183 0.034186814
-0.021725995 0.01337423 0.0365497 0.039056115 0.061931625 0.04681638 0.02932124 0.047040418
0.019780345 -0.0536891 -0.05180853 -0.034324158 0.009862952 0.040900607 -0.021280074 -0.021996383
-0.039802313 0.015476023 -0.05972644 -0.04376609 0.054042708 0.014460727 0.046081435 0.0031363727
0.009616605 -0.034196626 0.04313839 0.039932497 -0.042411365 0.019445753 -0.022457277 -0.008665797
-0.0060834023 0.024387985 -0.0081140725 -0.04207603 0.022218224 -0.003146127 -0.028976632 -0.00848361
-0.005745194 -5.123484e-05 -0.022035789 -0.039454952 0.034255557 -0.040513992 -0.025699921 0.044989787
-0.019450344 0.047010396 0.017144328 -0.02331366 -0.0032854571 0.043091927 0.0033483882 -0.043524694
0.03689066 -0.02645896 -0.047910925 -0.055980857 0.005247915 0.006463525 0.013017074 0.05083302
0.032139085 -0.022165526 0.013820907 0.026461476 -0.009955788 -0.028314957 0.031765968 0.040519796
0.0039647296 -0.052259732 0.032078095 -0.036819737 0.027086062 -0.008740879 -0.0065433863 -0.03134792
-0.03356397 -0.022321843 -0.005164197 -0.030299546 -0.0010218967 0.041047983 -0.005388261 0.0317026
00000000: ca57 863c 41a1 273c f41e 813c 9886 30bb
00000010: 035a f5bb 1e63 99bc f7e5 85bc 99d0 383d
00000020: e65e 573d eec0 5fbd 9ed5 38bd c0b9 eb3c
00000030: 6929 433d 8c0c afbb 99cb 3e3c 37e7 22bc
00000040: 5a39 603d b77e a13c 4071 943c 8448 47bd
00000050: 216f 403d a7c0 02bd d093 833c da5f 2d3c
00000060: c5dd 8cbc 2d10 90bc ffc2 dd3c 5b6b 083d
00000070: c37d 34bd 5dd2 753c 1900 13bc 70cd f7bc
00000080: ca61 41bd 2d00 ab3c 3d92 e4bc 47b9 653d
00000090: 0a85 0bbc 1a0c cd3a dc11 06bd 72d2 2d3d
000000a0: c356 9dbc bb14 103d 80b4 853a ec10 1fbc
000000b0: 52aa b73c 512b 313c 1a25 47bc 2d3d 36bd
000000c0: 29ba 4a3d ec33 f7bc 5d2a f7bc 7db9 07bd
000000d0: d76e 78bd 2c06 fdb8 9e42 e93c 38ef 29bc
000000e0: 5214 e53a 1dad a0bc 6dcd a13c 77cf 2c3d
000000f0: fc0a fc3b e078 043d 2991 5e3d c3f2 78bc
00000100: ba6c f7bb f85d 503d 6f43 80bd 9f66 4a3d
00000110: e9d9 4d3b 537c 343d 89f7 45bd f556 653c
00000120: 6dc4 193d a3e7 923c be23 483d 8074 44bd
00000130: 2022 4cbc d7cc 85bc 4c85 a23c 28ce 33bd
00000140: cf25 af3c 62d8 10bd 2faf ebbb 7e4a 443d
00000150: b386 babc 64a3 dfbc dc5f 6f3d 4cf9 173d
00000160: 95aa 2a3c 5705 553d d943 b5bc 2f71 b9bc
00000170: 2e72 52bd a8f4 33bd 4f63 1cba f691 663d
00000180: ed72 eabc dcb4 b13c 24b5 72bd e50f c83c
00000190: b3e9 86bb 2d6d 003c 8225 3ebd 5f0d 69bd
000001a0: d130 1d3d 43f1 3f3b 0510 8bbd 0f9f 2d3d
000001b0: 874c 30bc 29df d139 68c1 873c be4f acbc
000001c0: ebec 94bb 6779 05bd 5967 aebc 236a 683d
000001d0: ef04 033d 5734 1ebd 581b ff3c 769a 003d
000001e0: fb74 58b9 13a0 0dbd a1c3 ac3c 9340 253d
000001f0: 33f9 48bc 916a 48bc e7cb 20bd bef4 b9bc
00000200: f326 bd3b 4b2a 843c 65cb fabb 147a 8d3b
00000210: 03cc 09bd 4d77 f9bc d2fe 713d bc76 3dbd
00000220: fa98 7d3c 95ac 383d f193 e5bc 787a f1bc
00000230: 7831 ac3d 930e 7dbc 8b97 d8bc 0f5b 36bd
00000240: 4f2f 4a3d e0b1 c1bc 5fc6 1b3c 2b5b 483c
00000250: 3d5f 30bd 598d 47bd c54f 0b3b 0c6f 26bb
00000260: ac55 993b 1e41 7b3b 1d3a 053c acb0 afbc
00000270: 6b82 08bd 1db6 453a 8799 51bd 2235 553c
00000280: e0a0 90ba 31f6 83bb af4c 1a3d afe2 603d
00000290: 6727 9dbc 0d7f cd3b 1fd0 45bd 7907 0c3d
000002a0: b7fa b1bc 961f 5b3c 23b5 153d 4ef9 1f3d
000002b0: 04ac 7d3d 88c2 3f3d 1933 f03c 74ad 403d
000002c0: 640a a23c 1ae9 5bbd 2e35 54bd 7d97 0cbd
000002d0: 3898 213c 6587 273d 8d53 aebc c231 b4bc
000002e0: c007 23bd 258f 7d3c b6a3 74bd 1244 33bd
000002f0: e35b 5d3d afec 6c3c e3bf 3c3d 9a8b 4d3b
00000300: f78e 1d3c c311 0cbd e1b1 303d 4290 233d
00000310: 8ab7 2dbd b34c 9f3c 53f8 b7bc fdfa 0dbc
00000320: 4757 c7bb 50c9 c73c e3f0 04bc ea57 2cbd
00000330: fe02 b63c 412f 4ebb 6760 edbc d7fe 0abc
00000340: 2e42 bcbb fee4 56b8 6684 b4bc 849b 21bd
00000350: 8e4f 0c3d 00f2 25bd a488 d2bc 3647 383d
00000360: 5456 9fbc f98d 403d 4372 8c3c 4afc bebc
00000370: d350 57bb 2981 303d a270 5b3b f346 32bd
00000380: a91a 173d 76c0 d8bc 3f3e 44bd 2f4c 65bd
00000390: b4f6 ab3b facb d33b 9145 553c 4936 503d
000003a0: 46a4 033d 7a94 b5bc 1671 623c bdc5 d83c
000003b0: 9a1d 23bc c5f4 e7bc 081d 023d 16f8 253d
000003c0: 90ea 813b 4d0e 56bd 5264 033d 4bd0 16bd
000003d0: 97e3 dd3c e735 0fbc e769 d6bb ad66 00bd
000003e0: 607a 09bd 4cdc b6bc 6d38 a9bb c136 f8bc
000003f0: 2af1 85ba ee21 283d 0290 b0bb 96da 013d

conv3.0.bias f4 [128]
-0.016373586 -0.02189795 0.028757373 -0.0016319341 -0.05513192 -0.022920847 0.0043462487 -0.031506233
-0.002468506 0.016930804 0.039898586 -0.01559561 -0.028953949 0.014218961 -0.037440553 0.048735004
-0.012440552 -0.0125111835 -0.038318824 0.012676497 -0.005223951 0.00908684 -0.048444275 0.014368008
-0.044131733 0.044289555 0.0046700793 -0.02179629 -0.005381188 -0.010324025 0.044515878 0.035286862
0.040295273 -0.033482164 -0.026666969 -0.008993584 -0.02602392 -0.051078066 -0.03136789 -0.02058764
0.030054802 -0.026730198 0.055845328 -0.050019324 0.021394178 0.023867415 -0.037243865 0.03845833
0.016016083 -0.0012156406 0.017094404 -0.04834988 0.041312248 0.050813626 0.0064830943 -0.051243767
-0.01928424 0.042751085 0.024569128 -0.031834282 -0.029230464 0.019744424 -0.03964316 0.029268723
0.03595509 -0.023603829 -0.010043277 -0.020746544 -0.05513714 0.010770846 0.05332229 0.018789833
0.017011324 -0.010561837 -0.04557407 -0.0038639016 -0.0030893313 -0.03388114 0.043267485 0.053783685
-0.016184349 -0.020540332 -0.02417995 0.0275914 0.02177252 -0.0052826675 0.04906367 -0.018621307
-0.0017613487 0.0033443228 0.038844753 -0.017903393 -0.020150496 -0.015967747 -0.04555822 0.028166063
-0.042435005 0.032134704 -0.03201654 0.051392987 -0.013121513 -0.007265861 0.021440426 0.02566479
-0.039466057 0.015528197 -0.0010271826 -0.01497853 0.026063437 -0.013554214 0.049628068 -0.029200723
0.031994138 -0.024970675 0.048296027 0.034941655 -0.033273533 0.00570112 0.0040661474 0.019411717
-0.035470627 0.04351709 -0.041558713 -0.052877776 0.010169666 -0.042304736 -0.0042883917 -0.049775276
00000000: e621 86bc 5463 b3bc 9594 eb3c 9fe6 d5ba
00000010: 02d2 61bd 80c4 bbbc fa6a 8e3b ae0c 01bd
00000020: a9c6 21bb 78b2 8a3c b36c 233d bb84 7fbc
00000030: d530 edbc a5f6 683c 445b 19bd 5b9e 473d
00000040: 75d3 4bbc b5fb 4cbc 33f4 1cbd 15b1 4f3c
00000050: ad2d abbb f8e0 143c 816d 46bd cb67 6b3c
00000060: 7ac3 34bd f768 353d 7707 993b 228e b2bc
00000070: ad54 b0bb 1926 29bc 4856 363d f588 103d
00000080: a80c 253d 9824 09bd b074 dabc d359 13bc
00000090: 1e30 d5bc 3c37 51bd 9e7b 00bd 69a7 a8bc
000000a0: 7d35 f63c 4af9 dabc 12be 643d 10e1 4cbd
000000b0: d842 af3c 9985 c33c 068d 18bd 7b86 1d3d
000000c0: 2934 833c 2156 9fba 9009 8c3c 860a 46bd
000000d0: 0837 293d f321 503d 2370 d43b fce4 51bd
000000e0: fcf9 9dbc c31b 2f3d 3245 c93c aa64 02bd
000000f0: ba74 efbc 0fbf a13c de60 22bd f6c4 ef3c
00000100: a545 133d d15c c1bc 8f8c 24bc a8f4 a9bc
00000110: 7bd7 61bd 3478 303c 7968 5a3d 23ed 993c
00000120: 555b 8b3c 8e0b 2dbc e0ab 3abd 8339 7dbb
00000130: 6176 4abb f3c6 0abd 3f39 313d 484c 5c3d
00000140: 0a95 84bc 3344 a8bc 0815 c6bc 5c07 e23c
00000150: 495c b23c 3a1a adbb fdf6 483d b68b 98bc
00000160: 0edd e6ba 6d2c 5b3b ad1b 1f3d 23aa 92bc
00000170: a712 a5bc cbce 82bc 429b 3abd 84bc e63c
00000180: 54d0 2dbd ae9f 033d c723 03bd 7481 523d
00000190: 9dfb 56bc 7616 eebb d5a3 af3c f73e d23c
000001a0: 29a7 21bd fb69 7e3c 87a2 86ba 8268 75bc
000001b0: fd82 d53c 7e12 5ebc cd46 4b3d 5b36 efbc
000001c0: 490c 033d 4d8f ccbc 0ed2 453d fb1e 0f3d
000001d0: d449 08bd 76d0 ba3b 513d 853b 5205 9f3c
000001e0: a649 11bd fa3e 323d 7839 2abd 5e96 58bd
000001f0: ac9e 263c bb47 2dbd a385 8cbb 29e1 4bbd

conv3.1.weight f4 [128]
1.0054815 0.99436015 0.99756354 0.9991799 0.99508595 1.003452 1.0005722 1.0012721
1.0026667 0.98875064 0.9970343 1.0124757 0.9940557 1.0174026 0.99905384 0.99942994
0.99570584 0.99745625 0.9989358 0.99941456 0.99984 0.9964963 0.9947807 1.0114701
1.000012 1.0016418 0.99358493 1.0026315 1.0065724 1.0030649 0.99911296 1.0028322
1.00874 0.99942 0.999782 0.99009305 1.0011189 1.0004373 0.99611455 0.9953342
1.0100226 1.0001255 0.9872086 1.0007651 0.9997479 1.0001451 1.0033218 1.0006897
1.012362 0.9995283 1.0048262 0.9938392 0.9915682 0.9953267 0.9941723 1.0032439
0.9964201 0.9995931 0.99804956 1.0022562 0.99665093 1.0290062 1.001742 0.99787843
0.99736965 0.9924159 0.9988813 0.99813795 0.99861515 1.0248024 0.9918798 0.9992333
1.0115995 1.0004497 0.9989438 1.0001318 1.0012313 0.9923511 1.0087545 0.9943736
0.9914875 1.0114512 1.0002561 1.0002741 0.99724686 1.0008702 0.9959447 0.99732274
0.99634296 1.0110215 0.99824524 1.0053145 0.99751145 0.9992823 0.9936735 1.0029951
1.0013858 0.99662274 1.0069108 0.9967508 1.0024731 1.0084296 0.9946213 0.9959484
0.9997484 0.9964876 0.9984157 0.9984693 0.99907225 1.0027008 0.9940337 0.99670357
0.9995327 1.0031657 1.0020174 0.99503154 0.99876696 0.99930894 0.99093705 1.0001792
0.99202216 1.0035256 0.986847 1.0010017 1.0047585 0.9999135 1.0013487 1.0015827
00000000: 9eb3 803f 638e 7e3f 5360 7f3f 41ca 7f3f
00000010: f4bd 7e3f 1d71 803f c012 803f af29 803f
00000020: 6257 803f c31e 7d3f a43d 7f3f ce98 813f
00000030: 6f7a 7e3f 403a 823f fec1 7f3f a4da 7f3f
00000040: 94e6 7e3f 4b59 7f3f 42ba 7f3f a2d9 7f3f
00000050: 84f5 7f3f 621a 7f3f f3a9 7e3f da77 813f
00000060: 6500 803f cc35 803f 955b 7e3f 3b56 803f
00000070: 5dd7 803f 6e64 803f dec5 7f3f ce5c 803f
00000080: 641e 813f fdd9 7f3f b7f1 7f3f bd76 7d3f
00000090: aa24 803f 540e 803f 5d01 7f3f 39ce 7e3f
000000a0: 6c48 813f 1d04 803f b4b9 7c3f 1219 803f
000000b0: 7aef 7f3f c104 803f d96c 803f 9a16 803f
000000c0: 1495 813f 16e1 7f3f 259e 803f 3f6c 7e3f
000000d0: 6ad7 7d3f bbcd 7e3f 1382 7e3f 4c6a 803f
000000e0: 6315 7f3f 55e5 7f3f 2d80 7f3f ee49 803f
000000f0: 8424 7f3f 7ab6 833f 1539 803f f674 7f3f
00000100: 9e53 7f3f f80e 7e3f afb6 7f3f f885 7f3f
00000110: 3ea5 7f3f ba2c 833f d6eb 7d3f c1cd 7f3f
00000120: 187c 813f bc0e 803f c8ba 7f3f 5204 803f
00000130: 5928 803f b90a 7e3f de1e 813f 458f 7e3f
00000140: 20d2 7d3f 3c77 813f 6408 803f fb08 803f
00000150: 924b 7f3f 841c 803f 3bf6 7e3f 8b50 7f3f
00000160: 5510 7f3f 2769 813f 008d 7f3f 25ae 803f
00000170: e95c 7f3f f7d0 7f3f 6361 7e3f 2562 803f
00000180: 692d 803f ab22 7f3f 74e2 803f 0f2b 7f3f
00000190: 0a51 803f 3914 813f 809f 7e3f 79f6 7e3f
000001a0: 83ef 7f3f d019 7f3f 2c98 7f3f af9b 7f3f
000001b0: 33c3 7f3f 8058 803f fe78 7e3f f727 7f3f
000001c0: 60e1 7f3f bc67 803f 1b42 803f 63ba 7e3f
000001d0: 31af 7f3f b6d2 7f3f 0dae 7d3f df05 803f
000001e0: 2af5 7d3f 8773 803f 01a2 7c3f d320 803f
000001f0: ed9b 803f 55fa 7f3f 322c 803f dd33 803f

conv3.1.bias f4 [128]
4.8406124e-10 -0.00022524536 -3.0985723e-06 -0.00080084056 -2.5993742e-05 -2.8853897e-10 5.9111432e-08 1.8832251e-10
5.600761e-10 -0.0013317909 -0.00050406187 -2.4774413e-06 -0.0006754056 0.00021569463 1.1362171e-05 -9.2155235e-11
7.4289255e-07 -1.0312622e-10 -6.248565e-10 3.9638604e-10 -4.0720372e-10 -0.00015328781 -3.183321e-05 -3.5231085e-05
5.156334e-10 -6.595039e-10 0.00080702757 1.8822393e-05 0.0010068121 3.975046e-05 3.567864e-06 -0.00014796322
9.106876e-10 2.0607685e-10 0.00037819124 -0.0006705177 0.00035404725 3.7132225e-10 -0.0001151798 -1.0061863e-06
0.000106955384 2.1169908e-11 -0.00032061528 -4.790474e-10 -3.0166095e-10 -3.4572865e-06 4.0944433e-06 2.0388939e-10
-0.00021556659 -5.288948e-07 -2.4173582e-05 -0.00079101045 3.096605e-10 1.588819e-05 -9.9125406e-05 -9.981685e-10
3.8171294e-10 2.328052e-10 -1.4197654e-10 -1.1146315e-06 -2.333487e-07 -0.0010272011 -0.0007230383 2.5171354e-10
0.00014796662 -0.0008917415 1.2482871e-12 -1.0642841e-10 2.2179644e-10 -9.746072e-06 -0.001029941 -0.0009034528
-0.0003459658 8.448403e-10 7.847087e-05 9.5838545e-11 -1.1251755e-06 6.5079957e-06 -0.00025468096 -2.2400995e-06
0.00012405204 -0.00017744717 -1.8275809e-10 -0.0013776512 -2.0236312e-06 1.257792e-09 -2.765711e-06 5.6489503e-06
-0.0007587908 -7.465555e-05 -0.001036256 -6.547994e-06 -0.000860834 4.806269e-10 1.7912268e-10 4.75627e-10
-3.3373956e-07 -5.8948303e-06 -3.90852e-07 -7.375373e-05 -5.268e-05 -0.0009470885 0.00037913126 3.6528883e-05
4.1594922e-10 -0.001552853 -2.997125e-10 1.2392453e-09 -7.812495e-10 -0.0016115006 3.3694938e-05 -6.1093465e-06
8.386817e-10 -0.00030794984 6.0947547e-10 9.228172e-10 7.465126e-10 0.00012673039 -0.00041981423 7.583718e-10
-0.0009667375 7.949288e-10 0.00084433035 1.2655224e-10 -4.7294463e-10 -4.843712e-12 -1.7225586e-10 3.2094374e-10
00000000: c80e 0530 d72f 6cb9 11f1 4fb6 80ef 51ba
00000010: 230d dab7 40a0 9eaf b5e1 7d33 1310 4f2f
00000020: daf3 1930 7d8f aeba 0523 04ba 1e42 26b6
00000030: b40d 31ba 162c 6239 27a0 3e37 c9a6 caae
00000040: 306b 4735 e7c6 e2ae 5ec2 2bb0 60ea d92f
00000050: d4dc dfaf e2bb 20b9 a684 05b8 17c5 13b8
00000060: 7abc 0d30 7648 35b0 b48e 533a c8e4 9d37
00000070: 02f7 833a bbb9 2638 706f 6f36 9326 1bb9
00000080: f153 7a30 7a95 622f f847 c639 aec5 2fba
00000090: 6b9f b939 f622 cc2f af8c f1b8 4c0c 87b5
000000a0: 3c4d e038 6536 ba2d 4118 a8b9 f7ad 03b0
000000b0: 01d7 a5af bb03 68b6 0063 8936 c32d 602f
000000c0: b709 62b9 60f9 0db5 5fc8 cab7 d05b 4fba
000000d0: d73c aa2f a147 8537 8ce1 cfb8 ef2f 89b0
000000e0: 52d9 d12f d7f8 7f2f d81a 1caf 729a 95b5
000000f0: 678e 7ab4 26a3 86ba 478a 3dba 8861 8a2f
00000100: 7d27 1b39 c2c3 69ba 48ae af2b de09 eaae
00000110: 26de 732f 0f83 23b7 16ff 86ba b1d5 6cba
00000120: be62 b5b9 5a3a 6830 ba90 a438 4ec0 d22e
00000130: bc04 97b5 425f da36 b386 85b9 9e54 16b6
00000140: f713 0239 1d11 3ab9 d4f1 48af 4e92 b4ba
00000150: b8cd 07b6 9fde ac30 8e9a 39b6 1d8c bd36
00000160: 97e9 46ba 6590 9cb8 fbd2 87ba d7b6 dbb6
00000170: 98a9 61ba 1d1d 0430 8df2 442f 46bd 0230
00000180: d12c b3b4 35cc c5b6 4ad6 d1b4 3bac 9ab8
00000190: b8f4 5cb8 0946 78ba 23c6 c639 9736 1938
000001a0: a6ab e42f 1a89 cbba c9c4 a4af 1152 aa30
000001b0: 8cbf 56b0 fd38 d3ba aa53 0d38 e3fe ccb6
000001c0: fa88 6630 5474 a1b9 0688 2730 7da9 7d30
000001d0: 2733 4d30 eee2 0439 831a dcb9 ac75 5030
000001e0: a86c 7dba 2482 5a30 0d56 5d3a 4a25 0b2f
000001f0: 8500 02b0 476c aaac b765 3daf d170 b02f

conv3.1.running_mean f4 [128]
-0.0152069405 0.062183436 -0.023612354 0.021145878 0.04806313 0.011019159 -0.05002311 -0.10353866
-0.07811764 0.07829528 0.12011851 0.08507923 0.10280739 0.072349556 -0.006155149 -0.117711216
-0.10836507 0.15452085 -0.07928542 -0.017841985 -0.11955618 0.19633333 0.039246827 -0.0038450423
-0.19209772 -0.015407021 0.09925332 0.08456755 -0.03231479 0.0284005 0.17189068 0.06888792
0.176381 -0.089041255 0.09075415 0.14100926 -0.055590317 -0.12569174 -0.09519981 -0.115804285
-0.066925734 -0.114825904 0.26277274 -0.22131816 0.008795633 0.0794887 0.023667598 -0.10199071
-0.096916966 -0.06594142 -0.054173253 -0.047228843 0.2089038 0.078970306 -0.064274065 -0.124140196
-0.087805875 -0.12980111 0.1338936 -0.21380517 0.11296467 -0.038315672 -0.06287392 -0.034521215
-0.1152148 -0.029402936 -0.028223021 -0.08826204 -0.006278334 0.012729143 -0.019248178 -0.006065527
0.09771187 -0.023867 -0.015301123 -0.10733559 0.10197436 0.04759768 0.038356695 0.030250223
0.061171364 -0.02048171 -0.044255376 0.0014446819 0.17122999 0.06450206 -0.050671343 0.11512892
-0.07757027 0.055564515 0.063129224 0.08383584 0.06514268 -0.08941775 -0.024856552 0.17367321
-0.07826547 0.24174109 0.066181414 0.15105864 -0.011988226 -0.0410822 0.14794892 0.15640594
-0.22122282 0.09231843 0.011891018 -0.021023525 -0.0488977 -0.06655373 0.13931592 -0.038630314
-0.090389974 -0.13957588 -0.064943545 0.1150832 -0.123778485 0.026267968 -0.07700159 -0.09728909
0.04087533 0.0036233542 0.10248475 -0.011253559 0.18456468 -0.2306726 0.16151972 -0.096944496
00000000: 8826 79bc 0fb4 7e3d b26e c1bc 1f3a ad3c
00000010: d8dd 443d b489 343c 08e5 4cbd 140c d4bd
00000020: 24fc 9fbd 4759 a03d b200 f63d 053e ae3d
00000030: ae8c d23d 012c 943d 22b1 c9bb 9412 f1bd
00000040: 81ee ddbd b73a 1e3e 6560 a2bd 5b29 92bc
00000050: dfd9 f4bd 9b0b 493e 48c1 203d 1bfd 7bbb
00000060: 44b5 44be bb6d 7cbc 5345 cb3d c031 ad3d
00000070: 835c 04bd 2aa8 e83c 1c04 303e 1c15 8d3d
00000080: 399d 343e 435b b6bd 50dd b93d bb64 103e
00000090: acb2 63bd 56b5 00be 1ef8 c2bd cc2a edbd
000000a0: 5c10 89bd d829 ebbd 268a 863e 3aa1 62be
000000b0: 8f1b 103c f9ca a23d 8de2 c13c 81e0 d0bd
000000c0: 677c c6bd 4c0c 87bd c6e4 5dbd 0873 41bd
000000d0: e1ea 553e 2fbb a13d 1fa2 83bd 373d febd
000000e0: 91d3 b3bd 95ea 04be 671b 093e beef 5abe
000000f0: 055a e73d e5f0 1cbd 0bc4 80bd 1e66 0dbd
00000100: bdf5 ebbd 6dde f0bc f733 e7bc bac2 b4bd
00000110: 7cba cdbb e58d 503c 5bae 9dbc 54c1 c6bb
00000120: 291d c83d ba84 c3bc 90b1 7abc c3d2 dbbd
00000130: efd7 d03d c9f5 423d e91b 1d3d 51cf f73c
00000140: d38e 7a3d 42c9 a7bc 2045 35bd 7b5b bd3a
00000150: ea56 2f3e a819 843d c18c 4fbd b6c8 eb3d
00000160: 29dd 9ebd 9e97 633d e549 813d 20b2 ab3d
00000170: 8769 853d a720 b7bd f89f cbbc 64d7 313e
00000180: a649 a0bd fa8a 773e 1f8a 873d 1eaf 1a3e
00000190: 446a 44bc cf45 28bd ec7f 173e e128 203e
000001a0: 3c88 62be 7211 bd3d 8bd2 423c 8739 acbc
000001b0: f448 48bd 524d 88bd d5a8 0e3e d23a 1ebd
000001c0: 611e b9bd fbec 0ebe 1f01 85bd beb0 eb3d
000001d0: 937f fdbd ec2f d73c 02b3 9dbd 813f c7bd
000001e0: e46c 273d cc75 6d3b 86e3 d13d d960 38bc
000001f0: 86fe 3c3e 7035 6cbe 6d65 253e d68a c6bd

conv3.1.running_var f4 [128]
0.14299127 0.3314592 0.17012028 0.1764821 0.75334644 0.17386308 0.14403617 0.29539594
0.3116525 0.23005971 0.4743292 0.16952361 0.5669509 0.19933124 0.08142269 0.7432539
0.33925682 0.28444716 0.20841555 0.6165535 0.2953667 0.529716 0.8026699 0.14535698
0.4093135 0.2282014 0.9041632 0.20286743 0.08908144 0.14797176 1.0007491 0.3488199
0.1810229 0.37373474 0.6417057 0.4586676 0.317394 0.24568886 0.11292094 0.19166915
0.23470636 0.27190456 0.9147641 0.41524267 0.36445963 0.24093345 0.2708877 0.2424286
0.10690459 0.36396936 0.3445294 0.104897395 0.9161692 0.19364065 0.2321311 0.29228976
0.14993282 0.65506804 0.4267229 0.39913055 0.77282995 0.1758806 0.08403198 0.3199459
0.22706349 0.09680779 0.12305602 0.17198963 0.30764392 0.13411656 0.079578385 0.09500289
0.21534409 0.10609431 0.22037788 0.5517764 0.43229663 0.31678697 0.1381339 0.20763277
0.48254824 0.1393277 0.26175296 0.075013064 0.29713067 0.21804947 0.2438442 0.45295176
0.107724026 0.092798226 0.103579864 0.16086458 0.5360212 0.51880985 0.336667 0.54874766
0.19184841 0.8057264 0.58648795 0.124505654 0.11546581 0.08495667 0.41654044 0.6747429
0.86410594 0.13226925 0.16605592 0.14270076 0.55322224 0.12827675 1.0003642 0.28283823
0.7172513 0.12825641 0.2770071 0.276283 0.31404975 0.5079346 0.056968577 0.678123
0.15530917 0.12056328 0.18176489 0.3116101 0.4341728 0.72343844 0.7930229 0.23883031
00000000: 4e6c 123e 05b5 a93e 0334 2e3e b9b7 343e
00000010: 50db 403f 2a09 323e 387e 133e 233e 973e
00000020: eb90 9f3e c694 6b3e 47db f23e 9997 2d3e
00000030: b223 113f 7d1d 4c3e f0c0 a63d e345 3e3f
00000040: 12b3 ad3e 0fa3 913e e36a 553e 73d6 1d3f
00000050: 4e3a 973e 789b 073f c67b 4d3f 76d8 143e
00000060: 8a91 d13e a1ad 693e 3d77 673f 7bbc 4f3e
00000070: 5470 b63d e985 173e 8c18 803f 8698 b23e
00000080: 115e 393e 295a bf3e d346 243f 7bd6 ea3e
00000090: 7781 a23e dc95 7b3e 1843 e73d eb44 443e
000000a0: dd56 703e 1337 8b3e fb2d 6a3f b09a d43e
000000b0: 749a ba3e 42b7 763e cbb1 8a3e 343f 783e
000000c0: cbf0 da3d 315a ba3e 2866 b03e 72d4 d63d
000000d0: 118a 6a3f bc49 463e c6b3 6d3e 01a7 953e
000000e0: fd87 193e 8ab2 273f 6d7b da3e d75a cc3e
000000f0: 2fd8 453f 0b1a 343e f518 ac3d f3cf a33e
00000100: 5583 683e 2a43 c63d cb04 fc3d 0d1e 303e
00000110: 8183 9d3e da55 093e fef9 a23d e090 c23d
00000120: 2983 5c3e f947 d93d bdaa 613e 3841 0d3f
00000130: fc55 dd3e e731 a23e f972 0d3e af9d 543e
00000140: 9010 f73e ecab 0e3e 7c04 863e 73a0 993d
00000150: 8321 983e 5c48 5f3e 4bb2 793e 4be9 e73e
00000160: 6a9e dc3d ff0c be3d ae21 d43d afb9 243e
00000170: af38 093f b9d0 043f 9e5f ac3e ba7a 0c3f
00000180: e973 443e 1644 4e3f 1324 163f d2fc fe3d
00000190: 5779 ec3d c3fd ad3d ca44 d53e f3bb 2c3f
000001a0: 0c36 5d3f 9771 073e 900a 2a3e 2620 123e
000001b0: f99f 0d3f fb5a 033e ef0b 803f 2cd0 903e
000001c0: c89d 373f a655 033e e0d3 8d3e f774 8d3e
000001d0: 21cb a03e 0008 023f e257 693d 7899 2d3f
000001e0: 5e09 1f3e e2e9 f63d 9320 3a3e 5c8b 9f3e
000001f0: e64b de3e 4333 393f 8c03 4b3f ef8f 743e
