saved/cnn/serif_similar.pth (torch, 239877 bytes, 26 tensors)

conv1.0.weight f4 [32, 3, 5]
0	0xbe68e6b7	-0.2274426
1	0x3cf519fd	0.029919619
2	0xbe502028	-0.20324767
3	0x3db8038e	0.08985053
4	0x3ca52cc2	0.020162944
5	0xbe793220	-0.24335527
6	0x3e985a33	0.29756317
7	0xbda8bc75	-0.0823907
8	0x3e82466e	0.2544436
9	0x3ce3c277	0.027802689
10	0xbd22b91c	-0.039727315
11	0x3e217fd3	0.15771417
12	0x3e6bc04b	0.23022573
13	0xbda6af51	-0.08138908
14	0x3e658ca0	0.22416925
15	0xbdd1e312	-0.10248388
16	0xbe15fd9c	-0.14647526
17	0xbe2b348f	-0.16719268
18	0x3dceec78	0.101036966
19	0x39bce339	0.00036027448
20	0xbc8b1ec8	-0.016982451
21	0x3e3df1da	0.1854929
22	0x3e0d811f	0.13818787
23	0x3e59559a	0.2122406
24	0x3d0a9de6	0.03384199
25	0x3d949ac0	0.07256079
26	0x3dd1f6a7	0.10252123
27	0x3e5f23db	0.21791022
28	0x3e2063e9	0.15663113
29	0x3e19df6a	0.15026632
30	0x3d0f693e	0.035012476
31	0x3e59158f	0.2119963
32	0x3db72232	0.08942069
33	0x3e3de486	0.18544206
34	0x3dd3557c	0.10319039
35	0x3e3c4490	0.1838553
36	0xbd923efe	-0.07140921
37	0xbdb6fbe6	-0.089347646
38	0x3e717803	0.23580937
39	0xbe560e65	-0.20903929
40	0xbe234268	-0.159433
41	0x3e00b367	0.12568437
42	0xbd98d011	-0.074615605
43	0xbd751dda	-0.05984292
44	0xbe64cc0b	-0.22343461
45	0x3e71457d	0.23561664
46	0x3e78d1e7	0.24298821
47	0x3de7d568	0.11320001
48	0x3ded2894	0.11580005
49	0x3e0b3d64	0.13597637
50	0xbd8e4101	-0.06945992
51	0x3b1e18ae	0.0024123597
52	0x3d84d0eb	0.064851604
53	0xbe6960ab	-0.22790782
54	0xbe571ecd	-0.21007843
55	0x3e8297f6	0.25506562
56	0xbe6a311a	-0.22870293
57	0x3dc7f5e2	0.09763695
58	0x3e7669f1	0.24063851
59	0x3c98dc02	0.018659595
60	0xbe4f5eda	-0.20251027
61	0x3de1aa95	0.11018864
62	0xbdb70a26	-0.089374825
63	0x3e44cd5a	0.1921896
64	0x3e0b48ea	0.13602033
65	0xbe6db912	-0.2321513
66	0xbe461e53	-0.19347505
67	0xbcca0902	-0.024662498
68	0xbe1ec227	-0.1550375
69	0x3d93f761	0.07224918
70	0x3e3fb546	0.18721494
71	0xbe015eb9	-0.1263379
72	0xbcbf8c7c	-0.023382418
73	0xbddee75b	-0.10883971
74	0xbe716eb4	-0.23577386
75	0xbda2fcbc	-0.079583615
76	0xbe49c6cf	-0.19704746
77	0x3e1b1d65	0.15147932
78	0x3e2bbf4c	0.16772193
79	0xbda709d2	-0.0815617
80	0x3d739595	0.059468824
81	0xbe3e93e6	-0.18611106
82	0xbc81db3f	-0.015851615
83	0xbda021c9	-0.07818944
84	0xbe686119	-0.2269329
85	0x3dde62c0	0.10858679
86	0xbdcde7e5	-0.10053996
87	0x3d78bdda	0.06072793
88	0x3c0bee51	0.008540706
89	0x3cec5df2	0.02885339
90	0x3ca317e4	0.019908853
91	0x3d92e8cd	0.071733095
92	0x3e701e94	0.23449165
93	0xbe6ba819	-0.23013343
94	0x3dcd34f3	0.10019865
95	0x3e90804e	0.2822289
96	0x3e30fea1	0.17284633
97	0xbe8e98b8	-0.2785089
98	0xbced6204	-0.028977402
99	0xbe8ad37c	-0.27114475
100	0xbe82b896	-0.25531453
101	0xbcbcd6ad	-0.023051584
102	0xbc0b502a	-0.008502999
103	0x3df03418	0.11728686
104	0xbe1708d9	-0.14749469
105	0x3dffffa2	0.1249993
106	0x3caf0478	0.021364436
107	0xbe870a86	-0.26375216
108	0xbd5793c4	-0.052631155
109	0x3e2584c3	0.16163926
110	0xbdf7d48c	-0.12101087
111	0xbeb6e9c8	-0.35725236
112	0x3ec1a7ac	0.37823236
113	0x3e924738	0.2856996
114	0xbe3acbce	-0.18241808
115	0x3e33df4e	0.17565653
116	0x3de226c6	0.11042552
117	0x3b9a534a	0.004709636
118	0xbdc2e068	-0.09515458
119	0xbdc07608	-0.09397513
120	0xbe57a5bf	-0.21059321
121	0x3de793e4	0.11307505
122	0x3ea85be0	0.32882595
123	0xbd586022	-0.052826054
124	0xbe281d95	-0.16417535
125	0x3df0fc2c	0.11766848
126	0xbd333179	-0.043748353
127	0x3e7deb69	0.24796833
128	0x3d85ece0	0.06539321
129	0x3e6cf98e	0.23142073
130	0xbdb0262f	-0.08601033
131	0x3e569209	0.20954145
132	0xbe41f4a0	-0.18940973
133	0x3d2c7952	0.042107888
134	0x3d9f10d6	0.07766883
135	0xbe5d2fa3	-0.21600203
136	0xbe5b0a99	-0.21390761
137	0xbe20a7b0	-0.15688968
138	0xbe08219f	-0.13294075
139	0xbe831610	-0.2560277
140	0xbe60b08b	-0.21942346
141	0xbcd6714b	-0.02617707
142	0xbd128076	-0.03576704
143	0xbe57c1d5	-0.21070035
144	0xbd262a34	-0.04056759
145	0x3d4af9ec	0.04955475
146	0xbdf14550	-0.117807984
147	0x3df7de0b	0.12102898
148	0xbd721b52	-0.059108086
149	0x3e243c0d	0.16038533
150	0xbe4dc54e	-0.20094797
151	0xbdee3f95	-0.11633221
152	0x3dea35ed	0.11436067
153	0x3e6c89bb	0.23099415
154	0x3e1efc42	0.15525916
155	0x3e9aa151	0.302012
156	0xbe9eeb2e	-0.31038803
157	0xbd3c8e0d	-0.046033908
158	0xbdd0cb4b	-0.10195025
159	0x3d866cd0	0.06563723
160	0x3e18b0d7	0.14911209
161	0xbe5ae3b3	-0.21375923
162	0x3dfc11bb	0.12308069
163	0x3e440984	0.19144255
164	0x3e42e2aa	0.19031778
165	0x3e726bdd	0.23673959
166	0xbe9cfcda	-0.3066166
167	0xbd136bc1	-0.035991434
168	0x3ea87a75	0.32905927
169	0xbd6c1a95	-0.057642538
170	0xbde568da	-0.112016395
171	0xbda4e070	-0.080506206
172	0xbb26c28f	-0.0025445556
173	0x3e25442c	0.16139287
174	0x3d27d075	0.040970284
175	0xbe31096b	-0.17288749
176	0xbe652589	-0.223776
177	0xbe7775f1	-0.24166085
178	0x3e6f1604	0.23348242
179	0xbd8c7141	-0.06857539
180	0x3e2fb5d3	0.17159204
181	0x3e3b4f5f	0.18291996
182	0xbe659dd8	-0.22423494
183	0x3c8be7af	0.017078249
184	0x3d0a8c92	0.033825465
185	0xbdf73da6	-0.120723054
186	0x3e7e6018	0.24841344
187	0xbe23c489	-0.15992941
188	0x3e54d073	0.20782642
189	0xbc918eb5	-0.017768243
190	0xbe71f0f8	-0.23627079
191	0x3e4eb831	0.20187451
192	0xbe278054	-0.16357547
193	0x3e3ec7ea	0.18630949
194	0xbd2494ea	-0.040181078
195	0xbda94b98	-0.082663715
196	0xbe75b200	-0.23993683
197	0x3e77108e	0.24127409
198	0x3e980d4c	0.29697645
199	0xbd11fe4d	-0.03564291
200	0x3dc409c3	0.095721744
201	0x3e2e8f21	0.17046787
202	0xbbe07036	-0.006849314
203	0xbe3cfb2b	-0.18455188
204	0xbdfb0883	-0.12257483
205	0xbd2cea54	-0.04221566
206	0x3e72a6f6	0.23696503
207	0xbe5c8850	-0.21536374
208	0xbe567236	-0.20942006
209	0xbc995384	-0.018716581
210	0x3dcb2758	0.099196136
211	0x3d6fb6fd	0.05852412
212	0xbdfb511b	-0.12271329
213	0xbe8f7ee4	-0.28026497
214	0x3d7e98a1	0.062157277
215	0x3e1620f2	0.14661005
216	0x3e643a4a	0.2228786
217	0x3e5d8cc9	0.21635737
218	0xbe7906ed	-0.24319048
219	0x3d2021f2	0.039094873
220	0xbe48af61	-0.19598152
221	0xbe2b7def	-0.16747259
222	0xbe160add	-0.14652582
223	0x3e4233b6	0.18965039
224	0x3e83ed88	0.2576716
225	0xbde23572	-0.1104535
226	0x3dee31ba	0.11630578
227	0xbe7c52cb	-0.24640958
228	0x3e7758c0	0.24154949
229	0xbdd3b028	-0.103363335
230	0x3e5a211c	0.21301693
231	0x3de1167d	0.109906174
232	0xbe8c2065	-0.27368465
233	0xbe20f360	-0.1571784
234	0x3e9929ad	0.2991461
235	0xbd3edfda	-0.0466002
236	0x3e0e5bc3	0.13902192
237	0xbdfa6013	-0.12225356
238	0xbe034bde	-0.1282191
239	0x3e538852	0.20657471
240	0x3e18d62a	0.14925447
241	0x3e66a9da	0.2252573
242	0xbe437b5f	-0.19090031
243	0xbda3b496	-0.079934284
244	0x3e29636a	0.1654183
245	0xbe2fca23	-0.17166953
246	0x3e3e063e	0.18557069
247	0xbca4d4ed	-0.020121062
248	0x3d848ae6	0.06471805
249	0x3db13ed9	0.08654565
250	0x3e156696	0.14589915
251	0xbe3b3c3c	-0.18284696
252	0xbdc793cf	-0.09744989
253	0xbe0a3d87	-0.13500033
254	0xbdd3f74d	-0.10349903
255	0xbe495ffc	-0.19665521

conv1.0.bias f4 [32]
0	0x3e571278	0.21003139
1	0x3df18139	0.117922254
2	0xbd6a4278	-0.057192296
3	0x3dafeb89	0.08589847
4	0xbe0b7a72	-0.13620928
5	0xbd2c8ef5	-0.042128522
6	0xbdcda144	-0.100405246
7	0xbe2928a6	-0.16519412
8	0x3e816fb8	0.25280547
9	0x3d9cfcf2	0.07665433
10	0xbcf8ec32	-0.030386064
11	0xbc16aac8	-0.009195991
12	0xbd2b7c9f	-0.041866895
13	0x3e4c1b7a	0.19932356
14	0xbd1a670e	-0.037695937
15	0x3dd51f0a	0.10406311
16	0xbe7c7fb0	-0.24658084
17	0xbe5c242b	-0.21498172
18	0xbe840bb8	-0.2579019
19	0x394dd118	0.00019628217
20	0xbe3a75d1	-0.18209006
21	0x3db719c4	0.08940461
22	0x3e020a28	0.12699187
23	0xbbdd6f91	-0.0067576845
24	0x3e4542e9	0.19263805
25	0x3e7a687b	0.24453919
26	0x3dc45a04	0.095874816
27	0xbe59f52d	-0.21284933
28	0xbe2e7627	-0.17037259
29	0xbe76cd40	-0.24101734
30	0x3dc471e2	0.09592034
31	0x3d4c693c	0.049905047

conv1.1.weight f4 [32]
0	0x3f8a23ff	1.0792235
1	0x3f8125a8	1.0089617
2	0x3f788a11	0.9708567
3	0x3f781e90	0.96921635
4	0x3f8027a6	1.00121
5	0x3f80750b	1.0035719
6	0x3f8097bc	1.0046306
7	0x3f84133a	1.0318367
8	0x3f7d85d5	0.99032336
9	0x3f803010	1.0014668
10	0x3f7b1523	0.9807913
11	0x3f7f056d	0.99617654
12	0x3f75a367	0.9595246
13	0x3f7707a3	0.9649603
14	0x3f8164be	1.0108869
15	0x3f6e959f	0.93197054
16	0x3f6f4f05	0.9347995
17	0x3f80874a	1.0041287
18	0x3f82f8d5	1.0232188
19	0x3f813bf8	1.0096426
20	0x3f820f55	1.0160929
21	0x3f72148e	0.94562614
22	0x3f86ab13	1.0520958
23	0x3f7e4ae7	0.9933304
24	0x3f825654	1.0182595
25	0x3f7db0cb	0.9909789
26	0x3f7f147d	0.9964064
27	0x3f8596bb	1.0436624
28	0x3f810fe5	1.0082976
29	0x3f80cb8a	1.0062115
30	0x3f80d794	1.0065789
31	0x3f840e86	1.0316932

conv1.1.bias f4 [32]
0	0xbc4923ce	-0.012276603
1	0xbabb7413	-0.0014301561
2	0xbd0205aa	-0.031743683
3	0xbc5aeab5	-0.013361623
4	0x3c64babb	0.013960536
5	0x3c46e173	0.012138712
6	0x3c50563b	0.012715871
7	0xbcbf04d2	-0.023317728
8	0x3b9d21e0	0.004795298
9	0x3ac3a27f	0.0014925747
10	0x3cf412ce	0.029794123
11	0x3cfff30c	0.031243823
12	0xbc902972	-0.017597888
13	0x3c180d85	0.009280567
14	0xbc80a902	-0.01570559
15	0xbc6da469	-0.0145045305
16	0xbd02fbb2	-0.031978317
17	0x3c34fd6c	0.011046749
18	0x3ca012c3	0.019540196
19	0x3c31d43d	0.010853824
20	0x3c647111	0.013942973
21	0xbc820fb9	-0.015876638
22	0x3c2a42f4	0.010391939
23	0x3cd20b24	0.025640078
24	0x3c4fb37a	0.012677068
25	0xbcf0c8fd	-0.029392714
26	0x3c7370a0	0.014858395
27	0x3b38070a	0.0028080367
28	0xb9d1427a	-0.00039913115
29	0x3c5da727	0.013528622
30	0xbb91f246	-0.00445393
31	0x3b9de30b	0.0048183254

conv1.1.running_mean f4 [32]
0	0x3bd77c7a	0.006576118
1	0x40bc9a89	5.893864
2	0x413fd10b	11.988536
3	0x40be74ab	5.9517417
4	0xc112dc23	-9.178744
5	0xc11f4aad	-9.955731
6	0x3fb0ea1c	1.3821445
7	0xbeed8396	-0.46389455
8	0x4153c20e	13.234877
9	0xc1e00347	-28.0016
10	0x3f667447	0.90021175
11	0x40305f20	2.755806
12	0x40cf3676	6.475398
13	0x4016e3b4	2.357648
14	0x40a3b123	5.115373
15	0x40104ba6	2.2546172
16	0x40ebddc7	7.3708224
17	0xc16fc171	-14.984727
18	0xc0b8733c	-5.7640667
19	0xc0b94a32	-5.790307
20	0xbfa10d23	-1.2582134
21	0x418fb007	17.96095
22	0xbf8125f8	-1.0089712
23	0xbf6a36bc	-0.9148977
24	0xbe436c59	-0.190843
25	0x418c6e42	17.553837
26	0x3ff12f26	1.8842514
27	0xc0b4ff20	-5.656143
28	0xc13c42eb	-11.766337
29	0xc16e7047	-14.902411
30	0xc11aae03	-9.667483
31	0xbfb35347	-1.4009789

conv1.1.running_var f4 [32]
0	0x44b51e9d	1448.9567
1	0x457ba847	4026.5173
2	0x45d290aa	6738.083
3	0x45b5bbe7	5815.488
4	0x4595be54	4791.791
5	0x45909712	4626.884
6	0x44c6a729	1589.2238
7	0x4410fa89	579.9146
8	0x46012ba3	8266.909
9	0x46f6698b	31540.771
10	0x4458a4bf	866.57416
11	0x44314c70	709.19434
12	0x44e4d261	1830.5743
13	0x44772f58	988.73975
14	0x45156725	2390.4465
15	0x441f551a	637.3297
16	0x451a39dc	2467.6162
17	0x4618e7db	9785.964
18	0x44e4f6d8	1831.7139
19	0x44eb8071	1884.0138
20	0x444cf3f7	819.81195
21	0x46535746	13525.818
22	0x4524318d	2627.097
23	0x44c8ad24	1605.4106
24	0x44789055	994.2552
25	0x4640b6b2	12333.674
26	0x4418225d	608.5369
27	0x4578eb5a	3982.7095
28	0x45b655b7	5834.7144
29	0x460adaa8	8886.664
30	0x458100f4	4128.119
31	0x449dd555	1262.6666

conv2.0.weight f4 [64, 32, 5]
0	0x3d3c7985	0.046014328
1	0x3d81c1ff	0.0633583
2	0x3d423695	0.047415335
3	0xbcb9556e	-0.022623744
4	0x3d4da109	0.050202403
5	0xbdb92bd6	-0.09041564
6	0x3c8f7469	0.017511563
7	0xbc90fb66	-0.017698001
8	0x3d8de270	0.06927955
9	0x3d8d57e5	0.0690153
10	0xbd3f855a	-0.046758033
11	0xbd18da8d	-0.0373178
12	0xbcf6ae7b	-0.030112496
13	0x3d2d42c5	0.042300005
14	0x3cb89434	0.022531606
15	0xbd179f84	-0.03701736
16	0x3d4a4aa0	0.049387574
17	0xbd05232b	-0.032504242
18	0x3ce7303a	0.028221238
19	0x3d9888f5	0.074479975
20	0xbdc95f27	-0.09832602
21	0xbc6b4ec0	-0.014362037
22	0xbd12f5e6	-0.03587904
23	0xbcc60aff	-0.024175165
24	0xbc06c2f6	-0.008225193
25	0x3a50fbd4	0.00079720956
26	0xbd89b315	-0.0672361
27	0x3d11dd62	0.035611518
28	0x3d6b3cb5	0.05743094
29	0xbc7c59cb	-0.015402268
30	0xbd5f47ec	-0.05451195
31	0x3c95066b	0.018191537
32	0x3d541ce8	0.05178538
33	0x3c73c6b5	0.014878918
34	0xbcd2b237	-0.025719745
35	0xbd474c9f	-0.048657056
36	0x3d2bdd43	0.04195906
37	0xbdf25cb6	-0.118340895
38	0xbd947be3	-0.07250192
39	0x3c20fef9	0.009826415
40	0x3d6df38a	0.058093585
41	0x3d5efcd1	0.054440323
42	0x3c882b65	0.016622255
43	0xbdd22178	-0.1026029
44	0xbc399964	-0.011328075
45	0xbd64fe27	-0.05590644
46	0xbd775b2c	-0.060389683
47	0x3d323be8	0.043514162
48	0xbd188501	-0.037236217
49	0x3bbcc904	0.0057612676
50	0x3db30407	0.087410025
51	0x3d47f82b	0.048820656
52	0x3d8baa8f	0.06819641
53	0xbd09daf7	-0.033656087
54	0x3d2c86f2	0.04212088
55	0x3da99852	0.08281006
56	0x3b8ca277	0.0042918283
57	0x3d05b2f2	0.03264136
58	0xbd681507	-0.05666068
59	0x3c2bf9ad	0.010496539
60	0xbd2a0e2e	-0.04151743
61	0x3d84df41	0.06487895
62	0xbd149135	-0.036271293
63	0xbd8beffd	-0.068328835
64	0xbd7eed7b	-0.062238198
65	0x3cfa03c5	0.030519376
66	0xbd4797a1	-0.04872859
67	0xbcc03731	-0.023463817
68	0xbd99101f	-0.07473778
69	0xbd043d69	-0.032285128
70	0xbd1767c2	-0.036964186
71	0x3c81ed49	0.015860217
72	0xbdad1df6	-0.0845298
73	0xbc8bb6ad	-0.01705488
74	0xbd5e48c7	-0.054268625
75	0x3db18e9d	0.086697794
76	0xbcb1ebbe	-0.021718856
77	0x3ce00de5	0.027350375
78	0x3c0e71c6	0.008694118
79	0x3c16f268	0.009213068
80	0xbd386d7d	-0.04502629
81	0x3d365eb5	0.044523913
82	0x3cff73ba	0.031183112
83	0x3d279265	0.040911097
84	0x3d5a005e	0.053223006
85	0xbd8fb32e	-0.07016598
86	0xbc863602	-0.016383175
87	0x3daf425e	0.085575804
88	0xbca19bb7	-0.019727571
89	0x3d46016b	0.048341196
90	0xbcde7e78	-0.027159914
91	0x3d918c48	0.07106835
92	0x3c8fdd99	0.01756172
93	0xbd9b5021	-0.07583643
94	0x3d8a6532	0.06757583
95	0xbd849f73	-0.06475725
96	0xbda45f7a	-0.08026023
97	0xbd8b19ad	-0.06792007
98	0xbda6ff6b	-0.08154186
99	0x3d53571f	0.051596757
100	0x3cb5e5fd	0.022204394
101	0x3db24692	0.087048665
102	0xbc5fbcce	-0.013655854
103	0x3da0e78e	0.078566656
104	0x3ca71a8e	0.020398404
105	0xbc86ecec	-0.016470395
106	0x3c7b3a54	0.015333731
107	0xbd2ed517	-0.042683687
108	0x3d5e55a8	0.054280907
109	0x3d647a37	0.055780616
110	0x3cc31082	0.023811582
111	0x3d70fe06	0.058836006
112	0xbd2bca83	-0.041941177
113	0x3db28cd4	0.08718267
114	0xbd22a55f	-0.03970849
115	0x3db60b63	0.088888906
116	0xbb35b275	-0.0027724777
117	0x3d3d695f	0.046243068
118	0xbd05fab7	-0.032709803
119	0xbd0277af	-0.03185242
120	0x3ca06daf	0.019583551
121	0xbb9074de	-0.004408463
122	0x3d9bb82a	0.07603486
123	0x3cbea623	0.02327258
124	0xbd033dd1	-0.032041375
125	0xbd42d820	-0.047569394
126	0x3cb6a9a1	0.022297682
127	0xbc79f933	-0.015257168
128	0xbda706f9	-0.08155627
129	0xbd490974	-0.04908128
130	0x3d4c3eb5	0.04986449
131	0x3d951fd6	0.07281463
132	0xbd2db0e9	-0.042405043
133	0xbdbf3c18	-0.09337634
134	0x3c5a2409	0.0133142555
135	0x3d16099d	0.03663026
136	0x3c2728ee	0.0102026295
137	0x3d068b86	0.032847904
138	0x3d91eda8	0.071254075
139	0xbcfc200d	-0.030777002
140	0x3d62cb70	0.055369794
141	0xbd81d278	-0.06338972
142	0xbcebde28	-0.028792456
143	0xbd08ec4c	-0.033428475
144	0x3d3c70a6	0.046005867
145	0x3c3ebc87	0.011641628
146	0xbd048f5c	-0.03236328
147	0x3dacd115	0.08438317
148	0x3d83b516	0.06431024
149	0xbc467611	-0.01211311
150	0x3d64fddc	0.05590616
151	0x3ddc3c29	0.10753662
152	0xbce9558e	-0.028483178
153	0x3d9dba03	0.077014945
154	0xbd60129f	-0.05470526
155	0xbd987d09	-0.074457236
156	0xbc722b49	-0.014780828
157	0xbdbb1f24	-0.09136799
158	0xbbdf8b6d	-0.006822041
159	0x3c948165	0.018128106
160	0x3d01327f	0.031542297
161	0x3c8e6aa0	0.017384827
162	0xbc11d87a	-0.00890171
163	0xbc231fd0	-0.009956315
164	0x3d9d5a7b	0.076832734
165	0xbc4005e9	-0.011720159
166	0x3ca75aa2	0.02042896
167	0xbd1c3dc6	-0.03814485
168	0xbb22c32b	-0.0024835567
169	0x3cc0ce3c	0.02353584
170	0xbc1b7d77	-0.009490362
171	0x3d2120b5	0.039337832
172	0x3bdcfb6b	0.0067438385
173	0x3d8df078	0.069306314
174	0x3dad7d4e	0.084711656
175	0xbbc1bec4	-0.0059126336
176	0xbb945721	-0.004526988
177	0xbdce04e2	-0.10059525
178	0xbd0f53af	-0.034991916
179	0x3d850210	0.06494534
180	0x3d551ef3	0.05203147
181	0x3c2c653d	0.010522184
182	0x3d67413b	0.056458693
183	0x3c5f4a07	0.013628489
184	0x3c5623de	0.013070075
185	0x3cfa0d17	0.03052382
186	0x3d6026af	0.05472439
187	0xbac4c97f	-0.0015013664
188	0x3d627808	0.055290252
189	0xbd0feea1	-0.035139684
190	0xbc171e93	-0.009223598
191	0x3c9e4203	0.019318586
192	0xbdd30d37	-0.10305255
193	0xbda9e585	-0.082957305
194	0xbc6dd4f9	-0.014516109
195	0xbd28f058	-0.041244835
196	0x3d50942c	0.050922558
197	0xbd98e8e8	-0.07466298
198	0x3b2f6d1d	0.0026767917
199	0xbcf16fa6	-0.029472183
200	0xbd4fcf6b	-0.05073492
201	0xbd8c31f4	-0.06845465
202	0xbbbf3cca	-0.005836104
203	0x3c4833cc	0.012219381
204	0x3d600434	0.05469151
205	0x3d29dcd7	0.041470375
206	0xbd8ad735	-0.06779329
207	0xbd67f04a	-0.056625642
208	0xbc5f506f	-0.013630017
209	0xbd30d764	-0.043174163
210	0x3d9fe973	0.07808199
211	0xbd96099d	-0.07326052
212	0xbd192be8	-0.037395388
213	0xbd38c250	-0.045107186
214	0x3daccd7c	0.084376305
215	0xbca80079	-0.020508038
216	0x3ced5430	0.028970808
217	0xbd0424cd	-0.03226166
218	0xbcf755a5	-0.030192206
219	0x3d7b75be	0.061391585
220	0x3d64a908	0.055825263
221	0xbd855f10	-0.06512272
222	0xbd6197a3	-0.055076253
223	0xbc8121e6	-0.015763234
224	0x3d5d541b	0.054035287
225	0x3ce1a4f5	0.027544478
226	0xbcdf74e0	-0.02727741
227	0xbd5811e9	-0.052751455
228	0xbd8b4b51	-0.06801475
229	0xbd79d283	-0.060991775
230	0x3db9f7a3	0.09080436
231	0xbd1a40f5	-0.037659604
232	0x3c2279b3	0.009916711
233	0xbcf7ba7f	-0.030240295
234	0x3d9eeef5	0.07760421
235	0x3cd62911	0.026142629
236	0x3cec6f01	0.028861525
237	0xbd06d3bc	-0.03291677
238	0x3d1ef647	0.038809087
239	0x3d23d702	0.03999997
240	0xbcfa9851	-0.030590208
241	0xbdd73ea4	-0.105099946
242	0xbc71ac07	-0.014750487
243	0xbda1bf73	-0.07897844
244	0x3deb7130	0.11496198
245	0x3d73dfcf	0.059539612
246	0xbc7080fa	-0.014679188
247	0xbc54833a	-0.01297074
248	0x3c76c794	0.015062232
249	0xbd289148	-0.041154176
250	0x3da7a8bc	0.081864804
251	0xbd8566ce	-0.06513749
252	0x3d36e599	0.044652555
253	0x3d92a089	0.07159526
254	0x3d9f2d98	0.07772368
255	0xbd6c9253	-0.057756733

conv2.0.bias f4 [64]
0	0xbd918fe6	-0.071075246
1	0xbcdd5cbf	-0.027021764
2	0xbd53e739	-0.051734183
3	0x3d619dad	0.055082012
4	0xbd84f830	-0.064926505
5	0xbd556be0	-0.05210483
6	0xbd5773b0	-0.052600563
7	0x3d1cadf2	0.038251825
8	0x3cf041d8	0.029328272
9	0xbd84df99	-0.0648796
10	0x3c78e09e	0.015190272
11	0x3d8e1eb1	0.06939448
12	0x3d1ec410	0.0387612
13	0xbd34aa9f	-0.04410803
14	0x3cf8ff37	0.030395133
15	0xbcbeacc7	-0.023275746
16	0xbc543089	-0.012951025
17	0x3d808d14	0.062769085
18	0xbd19a2f7	-0.03750893
19	0xbda03cd2	-0.078241006
20	0xbd791bba	-0.060817458
21	0x3d00d469	0.03145257
22	0xbd3ad3b3	-0.04561205
23	0xbd485bb5	-0.048915584
24	0x3d8ebc36	0.06969492
25	0x3d380e13	0.044935297
26	0xbc633c50	-0.01386936
27	0xbc981268	-0.018563464
28	0xbd7bde8e	-0.06149154
29	0xbc39d4c0	-0.011342227
30	0xbaa1628d	-0.0012312696
31	0xbc39890e	-0.01132418
32	0x3c843b41	0.016141536
33	0xbbc5758b	-0.006025975
34	0x3d30df57	0.043181743
35	0x3cd4c65a	0.025973488
36	0x3cd6b707	0.026210321
37	0x3d92dfca	0.071715906
38	0x3d06c01c	0.032898054
39	0x3d4e03c1	0.05029655
40	0x3c4d07e1	0.0125140855
41	0xbda1b703	-0.07896235
42	0xbd0db6f7	-0.034598317
43	0x3c252e9c	0.010081913
44	0xbc32bbe8	-0.010909058
45	0xbd7fb8f5	-0.06243225
46	0xbc826103	-0.0159154
47	0x3d3f62a1	0.04672492
48	0xbd9452a1	-0.07242323
49	0x3d87b043	0.06625416
50	0x3d70529b	0.05867253
51	0xbcceb8ea	-0.025234658
52	0x3d9abd9d	0.07555697
53	0xbd0ca508	-0.034337074
54	0x3d9799e3	0.074023984
55	0xbd83e973	-0.06441011
56	0xbc9f0a2a	-0.019414026
57	0x3ce2ec53	0.027700579
58	0x3b6b8451	0.003593702
59	0xbd771d7c	-0.060330853
60	0x3b20e7af	0.0024552157
61	0x3cad4424	0.021150656
62	0x3d8582c3	0.065190814
63	0x3c3e0fff	0.011600493

conv2.1.weight f4 [64]
0	0x3f74c890	0.95618534
1	0x3f8330f5	1.0249316
2	0x3f80d9b1	1.0066434
3	0x3f7c3c07	0.98529094
4	0x3f7a2012	0.97705185
5	0x3f81146c	1.0084357
6	0x3f78806c	0.97070956
7	0x3f7d4559	0.9893394
8	0x3f7ec4e6	0.99519193
9	0x3f828c39	1.0199043
10	0x3f7945fb	0.97372407
11	0x3f81c7fe	1.0139158
12	0x3f77505d	0.96607
13	0x3f79cd3c	0.9757879
14	0x3f8075fd	1.0036007
15	0x3f82dca3	1.0223583
16	0x3f7bf9e8	0.984282
17	0x3f7f0c3b	0.9962804
18	0x3f82b061	1.0210077
19	0x3f793fab	0.97362775
20	0x3f821487	1.0162514
21	0x3f7fc7fd	0.9991453
22	0x3f8265d6	1.0187328
23	0x3f7d66a9	0.9898477
24	0x3f86796f	1.0505809
25	0x3f804fa9	1.002431
26	0x3f8223e4	1.0167203
27	0x3f79dd15	0.9760297
28	0x3f81b04b	1.0131925
29	0x3f80e184	1.0068822
30	0x3f80109d	1.000507
31	0x3f81fa12	1.015444
32	0x3f7f5d83	0.9975206
33	0x3f775fe0	0.9663067
34	0x3f803b36	1.001807
35	0x3f845bc9	1.0340511
36	0x3f7db41f	0.9910297
37	0x3f81a784	1.0129247
38	0x3f77f68e	0.9686059
39	0x3f7c37d9	0.98522717
40	0x3f8299d1	1.0203191
41	0x3f8146fb	1.0099787
42	0x3f80391f	1.0017432
43	0x3f8015ad	1.0006615
44	0x3f838ec7	1.0277947
45	0x3f81430f	1.009859
46	0x3f81c6d0	1.0138798
47	0x3f789f79	0.97118336
48	0x3f81f34c	1.0152373
49	0x3f7b5674	0.9817879
50	0x3f7c7b23	0.9862539
51	0x3f7b7081	0.9821854
52	0x3f81ef10	1.0151081
53	0x3f81f87a	1.0153954
54	0x3f7906a4	0.9727576
55	0x3f82a6cf	1.0207156
56	0x3f80fc9e	1.0077093
57	0x3f7b055d	0.9805506
58	0x3f77e985	0.968407
59	0x3f7f900f	0.9982919
60	0x3f827a89	1.0193645
61	0x3f7e4ced	0.9933613
62	0x3f819fbd	1.0126873
63	0x3f84e11b	1.0381197

conv2.1.bias f4 [64]
0	0xbadee8c4	-0.0017006625
1	0xba96e294	-0.0011511617
2	0xb9af7ed5	-0.00033473098
3	0xbc155b61	-0.009116025
4	0xbb7744cf	-0.0037730222
5	0x3b48710a	0.0030584955
6	0xbc8a51a4	-0.016884632
7	0xbc858def	-0.01630303
8	0xbbf09982	-0.0073425183
9	0x39283b86	0.00016043903
10	0x3b6857ab	0.0035452645
11	0x3c283543	0.010266605
12	0xba932f32	-0.0011229275
13	0xbc5a02bf	-0.013306319
14	0xbaab525a	-0.0013070807
15	0x3b066fcd	0.0020513416
16	0xbbe2d816	-0.006922732
17	0x3a365e1f	0.0006956774
18	0x3c429a5c	0.011877622
19	0xbba02ca8	-0.004888136
20	0xbb9ca7e3	-0.004780756
21	0xbaec3e0e	-0.0018023865
22	0xbbaf72d3	-0.0053542643
23	0xbbbc6dac	-0.0057503786
24	0x3a34244f	0.00068718655
25	0xba931fb7	-0.0011224662
26	0xbaf22253	-0.0018473364
27	0xbc1d9720	-0.009618551
28	0xbba8b922	-0.0051490227
29	0xb9b51f55	-0.00034546354
30	0x3b819740	0.003954798
31	0xb8c69e27	-9.470834e-05
32	0xbc0f03e9	-0.00872896
33	0x3b15a38c	0.0022833077
34	0xbb69d70f	-0.0035681163
35	0xba39a9a4	-0.00070824684
36	0xbb6c87a5	-0.0036091593
37	0xbc03192b	-0.008001606
38	0x3bccd793	0.0062512844
39	0xbc6693ab	-0.014073293
40	0x3c54ba91	0.012983934
41	0xbb1b9350	-0.0023738928
42	0xbc24601a	-0.010032678
43	0x3c0174b2	0.0079013575
44	0x3b50094a	0.0031743818
45	0x3b8d34a2	0.004309253
46	0x3b44b02f	0.003001224
47	0xbc08afdd	-0.00834271
48	0x3b34450e	0.002750698
49	0x3bb1a400	0.0054211617
50	0xbbc991fd	-0.0061514364
51	0xbbb9f461	-0.005674884
52	0x3b56f2fe	0.0032798643
53	0x3bd0fb8c	0.006377643
54	0xbb44d733	-0.0030035495
55	0x3b41028d	0.0029450983
56	0xbc00c6b0	-0.007859871
57	0xbb00e396	-0.0019666902
58	0xbab2ae51	-0.0013632273
59	0xbc105de2	-0.008811446
60	0x3c2ac92d	0.010423941
61	0x3b889613	0.004168281
62	0xbae62843	-0.0017559606
63	0xbab5f98e	-0.0013883577

conv2.1.running_mean f4 [64]
0	0xbd453bb5	-0.048152644
1	0x3d2219be	0.03957533
2	0xbde33feb	-0.11096176
3	0x3e24438c	0.16041392
4	0x3d18c714	0.03729923
5	0xbdf4000d	-0.11914072
6	0x3e03d5e7	0.12874566
7	0x3e463b3e	0.19358537
8	0x3dc35f04	0.09539607
9	0xbd34e88c	-0.044167086
10	0x3d404723	0.04694284
11	0xbb0e8a4b	-0.002174991
12	0x3e32a5d8	0.17446077
13	0x3cd4dace	0.02598324
14	0xbd06dcd0	-0.032925427
15	0xbc56e431	-0.0131159285
16	0xbd3bb32a	-0.04582516
17	0xbc893a38	-0.016751394
18	0xbd6bec7f	-0.057598587
19	0xbdad5051	-0.08462585
20	0xbdbcc062	-0.092163816
21	0xbe200cab	-0.15629832
22	0xbe0a7622	-0.13521627
23	0xbd9fe4df	-0.078073256
24	0xbc7377bc	-0.01486009
25	0xbd7aa6b6	-0.061194144
26	0xbd90ea66	-0.07075958
27	0xbb289b74	-0.0025727423
28	0xbdd665ad	-0.10468612
29	0xbc6e6c9a	-0.01455226
30	0xbe1ee918	-0.15518606
31	0xbdb90050	-0.09033263
32	0xbddd8e9d	-0.10818217
33	0x3d96b376	0.07358448
34	0x3cb5d07b	0.022194138
35	0xbdd36f9f	-0.103240244
36	0x3bef7a72	0.007308298
37	0x3caca00f	0.021072416
38	0x3d696cd9	0.05698857
39	0x3e121777	0.14266764
40	0xbe13d810	-0.1443789
41	0xbe3e3d70	-0.18578124
42	0xbd387e19	-0.04504213
43	0xbce59cf5	-0.028028945
44	0xbdb366a0	-0.087598085
45	0xbe3559b1	-0.17709996
46	0xbd5f17a9	-0.054465923
47	0x3da7c263	0.08191373
48	0xbe1c2fd2	-0.15252617
49	0x3e0a2775	0.13491614
50	0x3e1bb287	0.15204822
51	0x3ce9328f	0.028466491
52	0x3daeb1e3	0.08530023
53	0xbe4509b8	-0.19241989
54	0x3e750b9d	0.23930211
55	0xbd09921b	-0.033586603
56	0xbdf80b0f	-0.12111484
57	0xbd2e4080	-0.04254198
58	0x3d0a7577	0.03380343
59	0x3cc36d42	0.02385581
60	0xbe242b58	-0.1603216
61	0x3dfdba18	0.1238901
62	0x3d35d451	0.044391934
63	0x3c8ee59c	0.01744347

conv2.1.running_var f4 [64]
0	0x3e1ae18d	0.15125103
1	0x3ea53df2	0.32273823
2	0x3ec94ec8	0.39317918
3	0x3e8efe41	0.27928355
4	0x3efd41b1	0.4946418
5	0x3e958777	0.29204914
6	0x3efb1194	0.4903685
7	0x3ef4b0bd	0.4779109
8	0x3ea799e7	0.32734606
9	0x3e37ce3c	0.17949766
10	0x3e544c4c	0.2073223
11	0x3e2bbc11	0.1677096
12	0x3e85d95b	0.26142392
13	0x3e92f9aa	0.28706104
14	0x3e2e8948	0.17044556
15	0x3e7f3111	0.24921061
16	0x3e395a41	0.18100835
17	0x3e9ae018	0.30249095
18	0x3ec9aa46	0.3938772
19	0x3e350385	0.17677124
20	0x3e3af2c7	0.18256675
21	0x3f554c9c	0.8332002
22	0x3ea05281	0.31312945
23	0x3e8f0f97	0.27941582
24	0x3e803e66	0.25047606
25	0x3e2e46d9	0.17019214
26	0x3e8c2cbd	0.27377883
27	0x3e6557e5	0.2239681
28	0x3e9ea8fa	0.30988294
29	0x3e6e0976	0.23245797
30	0x3f537bda	0.8261086
31	0x3f153f5d	0.5829981
32	0x3f2b6896	0.6695646
33	0x3e57c495	0.21071084
34	0x3e8406e3	0.25786504
35	0x3de8e257	0.11371296
36	0x3e409ab7	0.18809019
37	0x3ea2e766	0.31817168
38	0x3e843640	0.2582264
39	0x3f7561de	0.9585246
40	0x3e9ef0cb	0.31043085
41	0x3ddfdb7f	0.109305374
42	0x3e17b549	0.14815249
43	0x3ea8a591	0.32938817
44	0x3ebacb0e	0.36483043
45	0x3ea943bd	0.33059493
46	0x3e598488	0.21241963
47	0x3e47be8a	0.19506279
48	0x3e611183	0.21979336
49	0x3e3323ca	0.17494121
50	0x3e2055db	0.15657751
51	0x3e4d9fba	0.20080462
52	0x3e658253	0.22412996
53	0x3ea68374	0.32522166
54	0x3eb94777	0.36187336
55	0x3edb4d32	0.42832333
56	0x3e2942cf	0.16529392
57	0x3e10b84f	0.14132808
58	0x3e86d004	0.26330578
59	0x3e9db7cf	0.30804297
60	0x3e970314	0.29494536
61	0x3e5d6453	0.21620302
62	0x3e7adf17	0.24499165
63	0x3e935af2	0.28780323

conv3.0.weight f4 [128, 64, 5]
0	0xbd4df247	-0.05027988
1	0xbd469d0d	-0.04848962
2	0xbd5fdf69	-0.05465642
3	0x3c5fd946	0.013662642
4	0xbb1ebc95	-0.002422129
5	0xbd1ae1e2	-0.037813075
6	0x3d6e9cee	0.05825513
7	0x3cb954b1	0.022623392
8	0x3d70b333	0.058764648
9	0xbd4622c3	-0.048372995
10	0xbd4135f6	-0.0471706
11	0xbd37a560	-0.04483545
12	0xbcb2b495	-0.021814624
13	0x3d29c7c1	0.041450266
14	0x3c73f4e3	0.0148899285
15	0x3d2c4e58	0.042066902
16	0x3ce5083f	0.027958034
17	0x3d4f5f74	0.05062814
18	0xbd7dcb23	-0.061961304
19	0x3d6436ff	0.05571651
20	0x3cf292bb	0.029610982
21	0x3b0a7ea4	0.0021132613
22	0xbd5e8793	-0.054328512
23	0x3d010af2	0.03150458
24	0x3d679eca	0.056547917
25	0xbd527ba0	-0.05138743
26	0x3c5709b5	0.013124873
27	0x3d416a98	0.047220796
28	0xbd2acd57	-0.041699734
29	0x3c67761c	0.014127281
30	0xbd1d5e16	-0.038419805
31	0x3d046835	0.032325942
32	0xbd7fe2fb	-0.062472325
33	0xbcd5a92f	-0.02608165
34	0x3cacb777	0.021083577
35	0x3c169049	0.009189674
36	0x3d50861d	0.05090915
37	0xbbaa888f	-0.0052042673
38	0xbccb5e25	-0.024825165
39	0xbcd5af59	-0.026084589
40	0xbd3125cc	-0.043248937
41	0xbcda30ec	-0.026634656
42	0xbd049e29	-0.032377396
43	0x3ccc2d72	0.024924014
44	0xbd26a49c	-0.040684327
45	0x3cb0f12b	0.021599373
46	0x3d425d8a	0.047452487
47	0xbcacb4e1	-0.021082344
48	0xbc24a50b	-0.010049115
49	0x3ce26553	0.027636206
50	0xbd162377	-0.036654916
51	0xbcb7a3eb	-0.02241703
52	0xbc6e0f7b	-0.014530058
53	0x3ba5dcfa	0.005061743
54	0x3d3814f4	0.044941857
55	0x3d1a78fd	0.03771304
56	0xbd2ad5eb	-0.041707914
57	0x3d27bc31	0.040950958
58	0x3b6c73b4	0.0036079707
59	0xb8b27ab5	-8.5105574e-05
60	0x3c33ca8c	0.010973584
61	0x3d5ad700	0.053427696
62	0x3b8834a5	0.0041566663
63	0xbd0a2a12	-0.033731528
64	0xbc7407de	-0.014894454
65	0xbc1dc2bf	-0.009628951
66	0xbcac716a	-0.021050174
67	0xbc9e2b31	-0.019307705
68	0xbd334986	-0.04377129
69	0xbcb4d173	-0.02207253
70	0x3d261930	0.040551364
71	0xbc407468	-0.011746503
72	0x3bdef239	0.0068037775
73	0xbd1961e3	-0.037446868
74	0x3d0a8c0e	0.033824973
75	0xbd0fe166	-0.035127066
76	0xbccc8eae	-0.024970379
77	0xbc9fa5a9	-0.019488173
78	0xbcc35105	-0.023842344
79	0xbd79da96	-0.060999475
80	0xbcffdab3	-0.031232214
81	0x3c91a40a	0.017778415
82	0xbc5bead0	-0.013422683
83	0xbd118ed2	-0.035536595
84	0x3d353697	0.044241514
85	0xbd35019d	-0.04419099
86	0xbd74e0a8	-0.05978456
87	0x3d4c155d	0.04982506
88	0xbd264fca	-0.040603437
89	0x3d0892fa	0.033343293
90	0xbcb6dc94	-0.022321977
91	0xbd37c98c	-0.044869944
92	0xbd22f52d	-0.0397846
93	0xbd3f2731	-0.046668235
94	0x3c8b3676	0.016993742
95	0x3d570231	0.052492324
96	0xbcae423e	-0.021271821
97	0x3cd3a812	0.025836978
98	0xbd4fd83f	-0.050743338
99	0x3c9adf50	0.018905312
100	0xbd79e6c1	-0.06101108
101	0x3c51cb50	0.012804821
102	0xbc9153f0	-0.01774022
103	0x3bf4a966	0.007466483
104	0x3d03f693	0.032217573
105	0xbb98d640	-0.0046642125
106	0x3cb619c6	0.022229087
107	0x3cd58d19	0.026068257
108	0x38d8e86c	0.000103429746
109	0xbd15164b	-0.036398213
110	0xbbf99163	-0.0076162084
111	0x3b8cece0	0.0043006986
112	0x3d21a8de	0.039467685
113	0x3d421d41	0.04739118
114	0xbc82027e	-0.015870329
115	0xbc4c522c	-0.012470763
116	0xbd0bc13f	-0.03411984
117	0x3d582e58	0.05277857
118	0x3c40dd60	0.01177153
119	0x3d678bf5	0.056529958
120	0x3cd087e9	0.025455432
121	0x3c1a6511	0.00942351
122	0xbd46ef15	-0.04856785
123	0x3d3b2bc9	0.045696054
124	0xbc6fb589	-0.014630684
125	0xbd527da4	-0.05138935
126	0x3cfed200	0.031105995
127	0x3d052a27	0.032510903
128	0xbbfc234c	-0.0076946374
129	0xbd2ff212	-0.042955466
130	0x3d34b50d	0.044117976
131	0xbd35729b	-0.04429875
132	0x3ca8ef9c	0.020622067
133	0xbd1b18c7	-0.037865426
134	0xbd39c387	-0.045352485
135	0xbd516030	-0.051117122
136	0xbb92307d	-0.0044613467
137	0xbca91bbb	-0.020643106
138	0xbb14c51e	-0.0022700499
139	0xbd18bb33	-0.037287902
140	0x3d6c86a7	0.057745602
141	0x3d353cfa	0.044247605
142	0x3cdd0037	0.026977642
143	0x3ce85312	0.028359924
144	0xbcbe8ee0	-0.023261487
145	0x3c87aefa	0.016562928
146	0xbd53c131	-0.051697914
147	0xbc80ea60	-0.015736759
148	0x3c897997	0.016781611
149	0x3cc3a162	0.023880664
150	0x3b3db708	0.0028948206
151	0xbd481d72	-0.048856206
152	0x3d2bb36e	0.041919164
153	0xbc2e5da6	-0.010642445
154	0xbd2441c2	-0.040101774
155	0xbd34816c	-0.04406874
156	0xbd197033	-0.037460517
157	0xbb0dc529	-0.002163241
158	0x3c020f29	0.007938185
159	0x3d0cdd53	0.03439076
160	0x3d291388	0.041278392
161	0xbd1e1e54	-0.038603142
162	0xbb7b28cc	-0.0038323877
163	0x3ccfe7e9	0.025379138
164	0x3d3aa1c2	0.04556442
165	0xbd72dd5f	-0.059293147
166	0xbcac9456	-0.021066826
167	0x3b252c8c	0.0025203554
168	0xbd51422b	-0.051088493
169	0xbd11d3ee	-0.035602503
170	0x3d255cf3	0.040371846
171	0x3d1a0102	0.037598617
172	0x3c9faefb	0.019492617
173	0xbae58d61	-0.0017513448
174	0x3b419977	0.0029540935
175	0xbc8b2b0f	-0.016988305
176	0x3cfc20f3	0.03077743
177	0xbaeb56e4	-0.0017954973
178	0x3d045224	0.032304898
179	0xbc48b84a	-0.012250969
180	0x3bdca8a8	0.0067339726
181	0x3cf43eec	0.02981516
182	0x3d2c7a6a	0.04210893
183	0x3d37498e	0.04474788
184	0xbb5f56d7	-0.003407886
185	0xbb7fe61b	-0.0039047066
186	0xbbecaefd	-0.0072230087
187	0xbcbaae74	-0.022788264
188	0x3bb2dbc8	0.005458329
189	0x3c40fc76	0.011778941
190	0xbd66f06c	-0.056381628
191	0x3c5a3694	0.0133186765
192	0xbc5bfcf0	-0.013427004
193	0xbc64683f	-0.01394087
194	0x3a4cfb09	0.00078193896
195	0x3c825983	0.015911823
196	0xbb594485	-0.0033152413
197	0x3ccc44d0	0.024935156
198	0xbd4ba21d	-0.04971515
199	0x3d05684e	0.032570176
200	0xbc3d7f5e	-0.011566011
201	0xbd618687	-0.055059936
202	0xbd641762	-0.055686362
203	0xbd4bddd1	-0.049772087
204	0x3c610e6a	0.013736347
205	0x3d4487c1	0.047981028
206	0x3cea556a	0.028605182
207	0x3ccae639	0.024767982
208	0xbcafbcfd	-0.021452421
209	0xbb4c9a15	-0.003121977
210	0xbd6107d2	-0.0549391
211	0xbd7b58b6	-0.0613639
212	0xbd1ce39e	-0.03830301
213	0xbcb366ef	-0.021899668
214	0x3c381250	0.011234835
215	0xbd46c3b1	-0.04852647
216	0x3d10615b	0.035249095
217	0x3c843195	0.016136924
218	0xbb6e2b62	-0.0036341776
219	0x3bce41ff	0.0062944884
220	0x3cce42a4	0.025178261
221	0xbd2ec609	-0.04266933
222	0x3bf61f17	0.0075110304
223	0xbd23db22	-0.040003903
224	0x3cd563d7	0.026048584
225	0xbcc4af0f	-0.024009256
226	0x3be29971	0.0069152643
227	0xbd12e2a8	-0.035860687
228	0xbcd4d1da	-0.025978971
229	0xbd3e1e94	-0.04641588
230	0xbd00034b	-0.03125314
231	0xbd13907f	-0.036026474
232	0x3c92dc3b	0.01792728
233	0xbb3f510d	-0.0029192597
234	0x3d8248db	0.06361552
235	0xbd4eea74	-0.05051656
236	0xbc1ab5d6	-0.009442767
237	0xbccc5dec	-0.02494713
238	0xbc30866f	-0.010774239
239	0x3c84f59a	0.016230393
240	0xbcb188b7	-0.021671636
241	0xbc3a3cb0	-0.011367008
242	0x3c458842	0.012056412
243	0xbb1d155e	-0.0023969035
244	0xbd18045d	-0.037113536
245	0xbd18d5a9	-0.037313137
246	0x3d0c72c3	0.034289133
247	0x3bcdba5c	0.0062783193
248	0x3d69a8e9	0.05704585
249	0xbbff05bd	-0.0077826665
250	0xbbedff39	-0.007263091
251	0x3cecb5f1	0.02889535
252	0x3d47875f	0.048713084
253	0x3c1178c3	0.0088788895
254	0x3d429631	0.047506515
255	0x3cdb9509	0.026804464

conv3.0.bias f4 [128]
0	0xbd0e31d3	-0.034715485
1	0xbd31e51e	-0.043431394
2	0x3d0f25b0	0.03494805
3	0xbc9b22f5	-0.018937567
4	0xbbd781f2	-0.00657677
5	0x3d4492c4	0.04799153
6	0xbd4eaadd	-0.050455917
7	0xbcdba11b	-0.02681022
8	0xbd22f603	-0.039785396
9	0xbd226c52	-0.039654084
10	0x3b175e80	0.0023097098
11	0xbd2aa60f	-0.041662272
12	0x3d482a9b	0.048868757
13	0xbc8574cc	-0.016291045
14	0x3c7f79d4	0.015593011
15	0xbca173ea	-0.019708592
16	0x3cde03dc	0.02710145
17	0x3c680dd0	0.014163449
18	0xbcd37210	-0.025811225
19	0x3bf3c595	0.007439325
20	0xbbbc5e42	-0.005748541
21	0x3d17030f	0.03686815
22	0x3cc75a90	0.024335176
23	0x3c97314d	0.018456126
24	0xbc26f865	-0.010191058
25	0xbd5d2644	-0.05399157
26	0x3cf302d2	0.02966443
27	0xbc8599eb	-0.016308745
28	0xbc6d279f	-0.014474778
29	0xbca4fddf	-0.020140586
30	0x3a2e0e94	0.00066397456
31	0xbcebb329	-0.028771954
32	0x3a110570	0.0005532121
33	0xbce22cb4	-0.027609207
34	0xbd50c7a1	-0.05097163
35	0xbc969b6e	-0.018384662
36	0x3d211bd2	0.039333172
37	0x3b82305f	0.0039730514
38	0xbd00d6c2	-0.03145481
39	0xbd49c12c	-0.04925649
40	0x3c00aeca	0.007854173
41	0x3d5fa4e2	0.054600604
42	0x3d00c2d2	0.031435795
43	0x3c62d43a	0.013844544
44	0xbb01fd7f	-0.0019834933
45	0x3d5081fa	0.050905205
46	0xbcd6e0c1	-0.026230218
47	0x3ca77b3f	0.02044451
48	0xbd097925	-0.033562798
49	0xbd2d08ff	-0.042244907
50	0xbbae204b	-0.005313908
51	0xbc548678	-0.012971513
52	0x3cbbd14d	0.02292695
53	0x3cc870e2	0.02446789
54	0x3d108bd4	0.0352896
55	0xbd271e53	-0.040800404
56	0x3d482acd	0.048868943
57	0xbb4f4703	-0.003162802
58	0xbd4997f9	-0.049217198
59	0xbc86573e	-0.016399022
60	0xbc6d38fa	-0.014478916
61	0xbd499fab	-0.049224537
62	0xbd5294fe	-0.05141162
63	0x3cba8311	0.022767575
64	0x3ca85fe3	0.020553535
65	0xbd2b3da5	-0.041806836
66	0x3d392311	0.045199458
67	0x3d044e9c	0.03230153
68	0xbb899508	-0.004198674
69	0xbcc2ae4b	-0.02376475
70	0x3d4ae0fa	0.04953096
71	0x3ce5592d	0.027996624
72	0xbc286c24	-0.010279689
73	0x3b751b16	0.0037400178
74	0x3d15927a	0.036516644
75	0xb8f2452e	-0.00011552345
76	0xbc7233fc	-0.014782902
77	0xbc68c38d	-0.014206779
78	0x3ce4e816	0.027942698
79	0xbd574fc1	-0.052566294
80	0xbd580d53	-0.052747082
81	0x3d59f7d1	0.05321485
82	0xbcecb127	-0.028893067
83	0x3d00f0ff	0.03147983
84	0xbcfe3f7e	-0.031036135
85	0x3c40a636	0.011758378
86	0xbbd45421	-0.0064797555
87	0xbd3f2f52	-0.046675988
88	0x3d5f0327	0.054446366
89	0x3d21084d	0.039314557
90	0xbc040ebf	-0.008060156
91	0x3c9d90d2	0.019234095
92	0x3b972330	0.004612349
93	0x3d493855	0.049125988
94	0xbcd7ef43	-0.026359206
95	0x3d50dcd6	0.050991856
96	0xbcccfcfe	-0.02502298
97	0x3d577523	0.052601945
98	0x3d4bbd70	0.04974121
99	0x3d50226b	0.050814074
100	0x3b0038b2	0.0019565043
101	0x3d50704c	0.050888345
102	0x3d164305	0.03668501
103	0xbc3177a5	-0.010831748
104	0xbd24a55f	-0.040196773
105	0x3d2aa6d9	0.041663025
106	0x3cbcd67d	0.023051495
107	0x3a9cc47d	0.0011960414
108	0x3c35f87b	0.011106606
109	0xbc3b5ae7	-0.011435247
110	0x3ce57886	0.028011572
111	0x3c82df22	0.015975539
112	0x3c155d20	0.009116441
113	0xbd01fab1	-0.03173322
114	0x3c0f914c	0.008762669
115	0x3bde188e	0.0067778295
116	0xbcc7b19d	-0.024376685
117	0x3be20885	0.0068979883
118	0x3b7fbaed	0.0039021329
119	0x3d4759f1	0.04866976
120	0xbcc77c08	-0.024351135
121	0x3d328d01	0.043591503
122	0x3d376fd1	0.04478437
123	0xbc2ff4b2	-0.010739492
124	0xbca09166	-0.019600581
125	0xbd5b18a4	-0.053490296
126	0xbcbd5fa5	-0.023116896
127	0x3bbf1c37	0.005832221

conv3.1.weight f4 [128]
0	0x3f80591d	1.0027195
1	0x3f7ff3bb	0.9998128
2	0x3f7fb223	0.9988119
3	0x3f7f7ca5	0.9979957
4	0x3f7fc725	0.99913245
5	0x3f811fcc	1.0087829
6	0x3f7fb812	0.99890244
7	0x3f800bbd	1.0003582
8	0x3f80c27e	1.0059354
9	0x3f7de865	0.9918273
10	0x3f800c97	1.0003842
11	0x3f824ba6	1.0179336
12	0x3f7d931f	0.99052614
13	0x3f8072eb	1.003507
14	0x3f81599d	1.0105473
15	0x3f7f3096	0.9968351
16	0x3f7e4e9a	0.99338686
17	0x3f8191f7	1.012267
18	0x3f80226f	1.0010508
19	0x3f8092ff	1.004486
20	0x3f800ac4	1.0003285
21	0x3f802559	1.0011398
22	0x3f80adda	1.0053055
23	0x3f7de80c	0.991822
24	0x3f7ee2d2	0.9956485
25	0x3f80925e	1.0044668
26	0x3f8072c2	1.0035021
27	0x3f7e9118	0.99440145
28	0x3f7e2609	0.9927679
29	0x3f7f4fe4	0.9973128
30	0x3f78e485	0.97223693
31	0x3f80a6fe	1.0050962
32	0x3f805aee	1.002775
33	0x3f80b558	1.0055342
34	0x3f813b0c	1.0096145
35	0x3f811a4f	1.0086154
36	0x3f80f703	1.0075382
37	0x3f7fe2e3	0.99955577
38	0x3f806a69	1.0032474
39	0x3f7cf77f	0.9881515
40	0x3f82660b	1.0187391
41	0x3f7e2378	0.9927287
42	0x3f804070	1.0019665
43	0x3f818c96	1.0121028
44	0x3f7c0a4b	0.98453206
45	0x3f801671	1.0006849
46	0x3f7fbae6	0.9989456
47	0x3f7f99a2	0.998438
48	0x3f7e3105	0.9929355
49	0x3f80cec8	1.0063105
50	0x3f7d2687	0.98886913
51	0x3f7d6d30	0.9899473
52	0x3f805026	1.0024459
53	0x3f7f6dc1	0.99776846
54	0x3f7fea96	0.99967325
55	0x3f807d07	1.0038155
56	0x3f80923b	1.0044626
57	0x3f7ffa0c	0.99990916
58	0x3f7e77d8	0.9940162
59	0x3f7f953f	0.99837106
60	0x3f8001ae	1.0000513
61	0x3f7f8531	0.9981261
62	0x3f80972e	1.0046136
63	0x3f7f7ca0	0.9979954
64	0x3f7e6dc3	0.99386233
65	0x3f804591	1.002123
66	0x3f7f32bb	0.99686784
67	0x3f7e21b3	0.9927017
68	0x3f7f7f04	0.99803185
69	0x3f7f0a6d	0.99625283
70	0x3f8015d1	1.0006658
71	0x3f80f6c6	1.0075309
72	0x3f7f7ea0	0.9980259
73	0x3f800593	1.0001701
74	0x3f7c8286	0.9863666
75	0x3f7fb6ff	0.99888605
76	0x3f801ea6	1.0009353
77	0x3f7cab79	0.98699147
78	0x3f80df3f	1.0068129
79	0x3f80bfc0	1.0058517
80	0x3f80818f	1.0039538
81	0x3f80ae7c	1.0053248
82	0x3f81e9cf	1.0149478
83	0x3f803a06	1.0017707
84	0x3f8065ff	1.0031127
85	0x3f7e9f3f	0.9946174
86	0x3f808a09	1.0042125
87	0x3f80002e	1.0000055
88	0x3f7f4b60	0.9972439
89	0x3f8128aa	1.0090535
90	0x3f809a7f	1.0047148
91	0x3f8092f2	1.0044844
92	0x3f7dd28a	0.9914938
93	0x3f8070bb	1.0034403
94	0x3f831770	1.0241528
95	0x3f7fcf5c	0.9992578
96	0x3f7f66b4	0.9976609
97	0x3f812085	1.0088049
98	0x3f7c5e62	0.98581517
99	0x3f807cfb	1.0038141
100	0x3f7fe0bf	0.9995231
101	0x3f7f8f0d	0.99827653
102	0x3f7d2801	0.98889166
103	0x3f7e2612	0.9927684
104	0x3f7dc7b3	0.9913284
105	0x3f8026de	1.0011861
106	0x3f7c32b9	0.98514897
107	0x3f813c3b	1.0096506
108	0x3f805150	1.0024815
109	0x3f8002e9	1.0000888
110	0x3f808aa7	1.0042313
111	0x3f7fdc28	0.99945307
112	0x3f7fc230	0.9990568
113	0x3f81148c	1.0084395
114	0x3f80e490	1.0069752
115	0x3f80af02	1.0053408
116	0x3f7cf23f	0.9880714
117	0x3f801cb1	1.0008756
118	0x3f8146b0	1.0099697
119	0x3f7f8415	0.99810916
120	0x3f8087c3	1.0041431
121	0x3f7b24e5	0.9810317
122	0x3f7f3474	0.9968941
123	0x3f7d119e	0.98855007
124	0x3f817514	1.0113854
125	0x3f7e80ef	0.9941549
126	0x3f7fc584	0.9991076
127	0x3f7e6226	0.9936851

conv3.1.bias f4 [128]
0	0xaf1a0699	-1.4008562e-10
1	0x2f964985	2.733708e-10
2	0xb72722bb	-9.962062e-06
3	0xb943bb5c	-0.00018666446
4	0x2faccc41	3.143175e-10
5	0xb7307186	-1.0516849e-05
6	0xb130a1c3	-2.5703322e-09
7	0xaf6682f7	-2.0964906e-10
8	0xb7b3694b	-2.1387494e-05
9	0xbaeb3df4	-0.0017947541
10	0x309f68c6	1.1598551e-09
11	0x383110cc	4.221573e-05
12	0xb9ebfe64	-0.0004501223
13	0xba13ff0a	-0.0005645609
14	0xb022f893	-5.92885e-10
15	0x399be39e	0.00029733492
16	0x39c08a60	0.0003672419
17	0xba259d1a	-0.00063176604
18	0x2e945721	6.745738e-11
19	0xb9e565c6	-0.0004375411
20	0xb001e345	-4.7252896e-10
21	0x30d6d483	1.5630949e-09
22	0xb079caaa	-9.0873675e-10
23	0xb81baf30	-3.7118036e-05
24	0xbb3ccb75	-0.0028807793
25	0x370b843b	8.315833e-06
26	0xb8177dd1	-3.611838e-05
27	0x38d8a699	0.00010330714
28	0x3656be58	3.199928e-06
29	0xb890489b	-6.879979e-05
30	0x39e34431	0.0004334762
31	0xb0d7ee54	-1.5711046e-09
32	0x30423ca9	7.066299e-10
33	0x305d0bc9	8.041608e-10
34	0x30bfdd64	1.3960002e-09
35	0xb0d22a63	-1.5291558e-09
36	0xb58a083f	-1.0284201e-06
37	0xba2a549f	-0.0006497595
38	0xbba153f3	-0.0049233376
39	0x38bc7d6c	8.9879e-05
40	0xb03f213a	-6.9532613e-10
41	0x3b9083fa	0.004410264
42	0x3122e571	2.3704525e-09
43	0x31353620	2.6369733e-09
44	0x3a08c671	0.00052175584
45	0xb06beb91	-8.582726e-10
46	0x30d3703a	1.5384167e-09
47	0xb48e8ad6	-2.6550578e-07
48	0xb07fb2ca	-9.3022534e-10
49	0x312936ba	2.4623845e-09
50	0xba8547a5	-0.0010168446
51	0xb590c413	-1.0785901e-06
52	0x308397e0	9.57467e-10
53	0xba88db2f	-0.0010441298
54	0xb8e65976	-0.00010983918
55	0xbb0e2072	-0.002168682
56	0xb04011de	-6.9874584e-10
57	0xb0dc51cc	-1.6030355e-09
58	0x3b05c66c	0.0020412458
59	0x30b06182	1.2833399e-09
60	0xb06808b3	-8.441347e-10
61	0xb74d034e	-1.2219722e-05
62	0x3449b92d	1.878695e-07
63	0xb91f3961	-0.00015184797
64	0x38fc945c	0.000120439305
65	0xb05f5e01	-8.1260515e-10
66	0xaf3ec278	-1.7349489e-10
67	0x3b526b41	0.0032107385
68	0xafa15292	-2.93444e-10
69	0x396fd7df	0.00022873234
70	0x2fa816bd	3.0575179e-10
71	0xb6b0778e	-5.2591267e-06
72	0xbabfb8f5	-0.0014627265
73	0xb0c39154	-1.4229422e-09
74	0x3b3f85f9	0.002922414
75	0xb8c39463	-9.325964e-05
76	0x2f9d36d8	2.8597102e-10
77	0x3bcb0d5e	0.006196662
78	0x318684cb	3.91501e-09
79	0x385c27a5	5.248901e-05
80	0xb80d2190	-3.3648277e-05
81	0xbb55b13f	-0.0032606868
82	0xbba4736d	-0.0050186426
83	0xaf13b019	-1.3432135e-10
84	0x3a8a9835	0.0010573926
85	0xb789a586	-1.640875e-05
86	0x309f459d	1.1588558e-09
87	0x30ebcfa9	1.7157521e-09
88	0x35f8060a	1.8479197e-06
89	0xb5abb144	-1.2792084e-06
90	0xb9b72d8c	-0.00034938415
91	0xb862acb7	-5.4043452e-05
92	0x38210e95	3.839897e-05
93	0xb0366cd3	-6.6365863e-10
94	0xb95e71a3	-0.00021213903
95	0xba9e7ccf	-0.0012091639
96	0x39a55048	0.00031531067
97	0x363f9a04	2.8550867e-06
98	0xbb4101d3	-0.002945055
99	0xb80c730d	-3.348575e-05
100	0x2fbb8523	3.41097e-10
101	0xb6c79216	-5.947669e-06
102	0xbba5ba6a	-0.0050576227
103	0xb1216169	-2.3483955e-09
104	0x388d5e90	6.7410176e-05
105	0xb51dd71d	-5.880009e-07
106	0xbb6f148c	-0.0036480753
107	0xb987b847	-0.00025886504
108	0xb56563d8	-8.545444e-07
109	0x30bd98bb	1.3794969e-09
110	0x36e6d8e8	6.8797854e-06
111	0xb0e9dc79	-1.7015643e-09
112	0x37a52a7a	1.9689312e-05
113	0xbb2fe926	-0.0026841848
114	0xb67b9fb1	-3.7494867e-06
115	0x3021ea4f	5.890443e-10
116	0xb5eedc6f	-1.7796536e-06
117	0xb07860e2	-9.0359553e-10
118	0xb7a81228	-2.0035615e-05
119	0x386d97a0	5.6646415e-05
120	0xb6ea0342	-6.9741227e-06
121	0x3a31e67f	0.0006786361
122	0x387498c5	5.831641e-05
123	0xb7957df9	-1.7820845e-05
124	0xb817b6a3	-3.61713e-05
125	0x3af56997	0.0018723485
126	0xaf3b6369	-1.7042869e-10
127	0xb7dbda4d	-2.6208489e-05

conv3.1.running_mean f4 [128]
0	0xbe4b3cb1	-0.1984737
1	0xbe3898d7	-0.18027054
2	0xbdbd6a60	-0.09248805
3	0x3d1bfbb7	0.03808185
4	0xbe30df39	-0.17272653
5	0x3e34dd78	0.17662609
6	0x3d5cf246	0.053941987
7	0xbd8842fb	-0.066534005
8	0xbc64bbbe	-0.013960777
9	0x3d80e398	0.0629341
10	0xbdc8cde7	-0.09804898
11	0x3c9d77df	0.019222198
12	0x3dd2ff8a	0.103026465
13	0xb8cac1f5	-9.668238e-05
14	0x3e1b8624	0.1518789
15	0x3dbcaa21	0.09212137
16	0xbd6ed5f4	-0.05830951
17	0xbded26b6	-0.11579649
18	0xbdcf8ab7	-0.1013388
19	0x3d74a49a	0.05972729
20	0xbd9f7bd6	-0.07787292
21	0xbd8d78ff	-0.06907844
22	0xbddf81fc	-0.109134644
23	0x3c181ab8	0.009283714
24	0x3d57e390	0.052707255
25	0x3d428dcb	0.047498506
26	0x3d9742c9	0.07385785
27	0x3d974a3f	0.07387208
28	0xbdf5623e	-0.11981629
29	0x3db62860	0.0889442
30	0x3d8b6afe	0.068075165
31	0xbe1f48cf	-0.15555118
32	0xbe086e3e	-0.13323304
33	0x3db20606	0.08692555
34	0x3d05a2f9	0.032626126
35	0xbd92d1e7	-0.07168942
36	0x3d95f6da	0.07322474
37	0x3dbe2303	0.09284022
38	0xbd935a0e	-0.07194911
39	0x3cf902f3	0.030396914
40	0xbd3f7621	-0.046743516
41	0x3e610de4	0.21977955
42	0x3c267a1f	0.010160952
43	0xbcb03a0e	-0.021512058
44	0x3cf882c7	0.030335797
45	0xbcb2ba22	-0.02181727
46	0xbe4da639	-0.2008294
47	0xbe137c38	-0.14402854
48	0xbddfd863	-0.10929944
49	0x3c4916c8	0.012273498
50	0xbcec8627	-0.028872563
51	0xbd9dfbc2	-0.077140346
52	0xbdee1a90	-0.1162616
53	0x3e6b63a8	0.22987235
54	0x3e1d9894	0.15390235
55	0xbd8b9a6d	-0.06816564
56	0xbe4dc7cb	-0.20095746
57	0xbe16b2b6	-0.1471661
58	0xbaae873e	-0.0013315452
59	0xbd863044	-0.06552175
60	0xbe0fe852	-0.14053467
61	0xbdffe10c	-0.12494096
62	0xbc875168	-0.01651831
63	0x3c6efdb7	0.0145868575
64	0x3dd7fa47	0.105457835
65	0xbdee1ce5	-0.11626605
66	0x3e475c7b	0.19468872
67	0x3bb52816	0.0055284603
68	0xbd0d57d8	-0.034507602
69	0x3ddb184f	0.10697996
70	0xbd04c5a2	-0.03241504
71	0x3dd9c45f	0.10633158
72	0xbd233e75	-0.039854486
73	0xbd62c5f3	-0.05536456
74	0x3dfa950c	0.1223546
75	0x3d9a8ecf	0.0754677
76	0xbda033ab	-0.07822355
77	0x3dc1a3a8	0.09455043
78	0x3e0d4b9f	0.13798378
79	0xbdaf0fdb	-0.08547946
80	0xbccba6ee	-0.024859872
81	0x3c1035c2	0.008801879
82	0xbd6c2468	-0.057651907
83	0x3d8087f6	0.062759325
84	0xbd7678ee	-0.06017392
85	0x3ca0404b	0.019561907
86	0xbcc4ba0d	-0.024014497
87	0xbe18938e	-0.14900038
88	0x3d4edf24	0.050505772
89	0x3def3ce9	0.116815396
90	0x3d9f5488	0.07779795
91	0xbd43f5c7	-0.047841813
92	0x3db50256	0.08838336
93	0xbd703bbe	-0.058650725
94	0x3d8c4e47	0.06850868
95	0x3e22379a	0.15841523
96	0xbc90d1ad	-0.017678106
97	0x3e010345	0.12598903
98	0xbd8ca42d	-0.068672515
99	0xbcb9156b	-0.02259322
100	0xbdc6c7fa	-0.09706111
101	0x3cf22b72	0.029561732
102	0xbc64be56	-0.013961395
103	0x3e12f1d4	0.14350063
104	0x3e208bd1	0.15678336
105	0x3d13dd4a	0.03609971
106	0xbd2b2d6c	-0.041791365
107	0xbd84baf6	-0.064809725
108	0x3d4e1653	0.05031426
109	0xbda927d6	-0.08259551
110	0x3d934e9e	0.071927294
111	0xbe071219	-0.13190497
112	0x3cc615b3	0.024180269
113	0xbd9877f7	-0.074447565
114	0x3da297e7	0.07939129
115	0xbe2d6a07	-0.16934977
116	0x3d640341	0.055667166
117	0xbe072069	-0.13195957
118	0x3d3fca2c	0.046823665
119	0x3e23a5c1	0.15981199
120	0xbda9cd72	-0.08291139
121	0x3d978efe	0.074003205
122	0x3e74e189	0.2391416
123	0x3e1519f1	0.14560677
124	0x3e24e867	0.1610428
125	0x3c1f83f3	0.009736049
126	0xbdccb797	-0.099959545
127	0xbdd9f676	-0.10642712

conv3.1.running_var f4 [128]
0	0x3f19a0b5	0.60010844
1	0x3f43b91e	0.7645434
2	0x3f0695ca	0.5257231
3	0x3f15fbbf	0.5858726
4	0x3eeaabec	0.4583429
5	0x3f1a8702	0.60362256
6	0x3e895f14	0.2683035
7	0x3ebc9847	0.36834928
8	0x3eb56306	0.3542711
9	0x3e34aa07	0.17642985
10	0x3eefaabd	0.4680995
11	0x3ea36794	0.3191496
12	0x3e13c1c3	0.14429383
13	0x3e6244a3	0.22096495
14	0x3e972961	0.29523757
15	0x3eacd17d	0.33753577
16	0x3e42aefd	0.19012065
17	0x3e6ed3f7	0.23323046
18	0x3e94253d	0.2893466
19	0x3e63bbc9	0.22239603
20	0x3ed8be4e	0.4233269
21	0x3e9db2c5	0.30800453
22	0x3e9f77e1	0.31146148
23	0x3e13043d	0.14357086
24	0x3e4164f4	0.18886167
25	0x3e84dbbd	0.25948897
26	0x3e47c189	0.19507422
27	0x3ead55d7	0.33854553
28	0x3eddfd48	0.433573
29	0x3edfe97d	0.43732825
30	0x3e50b51e	0.2038159
31	0x3eee44f7	0.4653699
32	0x3eec0077	0.46094105
33	0x3f41d7aa	0.757197
34	0x3eff7ac0	0.49898338
35	0x3e979f03	0.29613504
36	0x3e92bec2	0.28661162
37	0x3f2cce54	0.6750233
38	0x3e56bacd	0.20969696
39	0x3e80dfe6	0.2517082
40	0x3ea5ea69	0.32405403
41	0x3f47c606	0.78036535
42	0x3eadb01c	0.33923423
43	0x3e8c0a37	0.27351543
44	0x3e231f24	0.15929848
45	0x3eb66d38	0.35630202
46	0x3f36e9aa	0.71450293
47	0x3f12c5ed	0.5733326
48	0x3f0bb0cb	0.5456664
49	0x3e3e33a0	0.18574381
50	0x3e0a073a	0.13479319
51	0x3e2f2897	0.17105328
52	0x3ec33fd4	0.38134634
53	0x3f8962e5	1.0733305
54	0x3ee726c3	0.4514676
55	0x3e3220db	0.17395346
56	0x3f09baa6	0.5380043
57	0x3f236d31	0.6383849
58	0x3ea6c67e	0.32573313
59	0x3e6dc1ff	0.23218535
60	0x3ec3d119	0.38245466
61	0x3eb98c24	0.3623973
62	0x3eaf1a6e	0.34199852
63	0x3ecc3264	0.39882195
64	0x3e8573d0	0.2606492
65	0x3e932247	0.2873709
66	0x3f292fa8	0.6608834
67	0x3e9cf97f	0.306591
68	0x3ee7d0a2	0.45276362
69	0x3eef0416	0.46682805
70	0x3f0222b6	0.50834215
71	0x3eed86ba	0.4639185
72	0x3e34bea0	0.17650843
73	0x3f1992cb	0.59989613
74	0x3ebe6c65	0.37192073
75	0x3e5743ef	0.21022008
76	0x3e9f27f3	0.31085166
77	0x3e5998cf	0.21249698
78	0x3f2241cc	0.6338165
79	0x3e825444	0.25454915
80	0x3e9165fd	0.28398123
81	0x3e179ea3	0.14806609
82	0x3e551c56	0.2081159
83	0x3e839760	0.25701427
84	0x3e98697a	0.29767972
85	0x3e64cd3e	0.22343919
86	0x3e656cd0	0.2240479
87	0x3f166643	0.5874979
88	0x3eac91c5	0.33704963
89	0x3e824a02	0.25447088
90	0x3ed973d3	0.4247118
91	0x3e9bf25e	0.3045835
92	0x3e49ccff	0.19707106
93	0x3ec709dd	0.38874713
94	0x3eb0f53b	0.34562096
95	0x3ee45a88	0.4460032
96	0x3e599137	0.21246801
97	0x3ee810ec	0.4532541
98	0x3e682266	0.22669372
99	0x3ea1fd80	0.31638718
100	0x3f29e9c6	0.66372335
101	0x3e444954	0.19168597
102	0x3e707ca2	0.23485044
103	0x3f824a80	1.0178986
104	0x3f77e246	0.9682964
105	0x3ef97ef2	0.48729664
106	0x3e9bca18	0.30427623
107	0x3e9d49ce	0.3072037
108	0x3ec4744c	0.38369977
109	0x3ecde6eb	0.4021524
110	0x3e813d01	0.25241855
111	0x3ed7d177	0.42151996
112	0x3e9e2c80	0.30893326
113	0x3e50f282	0.2040501
114	0x3ebeae6c	0.37242448
115	0x3f3a2b9b	0.72722787
116	0x3e4a680b	0.19766252
117	0x3f005e80	0.50144196
118	0x3ea4bdef	0.32176158
119	0x3eae732f	0.34072253
120	0x3ed3f42f	0.41397235
121	0x3e0d5362	0.1380134
122	0x3fa7f96b	1.3122991
123	0x3ecfd867	0.4059479
124	0x3f265702	0.64976513
125	0x3e4ec8d6	0.201938
126	0x3f65f20d	0.89822465
127	0x3ef1bd27	0.47214624
