saved/cnn/serif_trans.pth (torch, 240453 bytes, 26 tensors)

conv1.0.weight f4 [32, 3, 5]
00000000: 5896 2d3e a1f3 643e b454 5cbe 5903 bd3d
00000010: 66f5 bdba 25d4 84be 886f 5e3e ef98 17bd
00000020: 51f7 023e e674 a3bd cd5b 333d 68d7 bdbd
00000030: f959 1d3d 8282 93bd 0e72 7bbd 6451 d83d
00000040: d5e5 ff3c 5a50 53bc 0c2b 423e fa45 93bd
00000050: 6ed7 983c c005 0cbe 4d58 553e 00cf 1f3c
00000060: 85e8 4d3e ac1b f63d c7c9 74bd 42b8 54be
00000070: 63bc 10be c9ea 173c 201a 17be fb61 41bd
00000080: 6c3f c23d 8bab a53e c29a d13d a953 8abe
00000090: d717 8ebd fd6f 36be 6fd5 413e e521 e23c
000000a0: 1ff0 6cbe f1da 103e dd32 1bbd 1bef 19be
000000b0: f0bb 573e 0b74 f5bd e633 b0bd 6355 203d
000000c0: 482a 03be 8eac d4bd a8f8 893e 286f 63bd
000000d0: 86e1 8b3e 79fb 78bd 882a 3f3a 623b 6fbe
000000e0: cfcc 11bd 51e3 583e 8680 193e d6e3 403e
000000f0: 2913 293e 86b8 63be b252 1a3c 2793 09be
00000100: e4fd 69bd ed02 30bd a3f4 05be fa4e f0bd
00000110: cdbe 553d cb2d 533e 4890 f53d 2f90 0fbe
00000120: 33e1 2b3d 454f 273e 5997 be3c 8bec b0be
00000130: 6436 bc3c 47ac 483e 32cc 903e 1b9b cbbd
00000140: 91e0 8d3e e0d0 ae3d eb49 07bd 8cd9 77be
00000150: ef3c debd 005e c1bd b67c 28be 9f0c 523e
00000160: 58d8 af3d 0b1a 6e3e 600b 333e 6ba7 873d
00000170: 7bb9 b83d c8aa a63d 2f20 93be 4cc1 99bd
00000180: fe0a 903e e504 27be 6adb 54be ba14 d4bd
00000190: 9f02 c5bd f2be 0b3e 7117 82bd 1782 18be
000001a0: fc8c eabd 8f0d 9ebe f774 f93d 0cc7 533d
000001b0: 715f 033e 1837 a23c b16b d5be c3d0 113f
000001c0: d16e 8fbc 3a87 c3bd 58eb 2dbc b84b 09be
000001d0: 2159 aebd cf70 61be 158e 0a3e b340 2abe
000001e0: 0b2f f63d 92e9 363e 27ce 1ebe f16b ec3d
000001f0: a4ba 843e c2b8 84bd fbfb 35be dc82 4dbe
00000200: 0f46 013e cf0b 1fbe 3c2e 73bd 496d 103d
00000210: 213c 26be 48c3 4abe 15de 273e 26bd 983e
00000220: c217 c13c 49cb 76bd 1a38 bebd 2e72 58be
00000230: e8f7 a6be b6a4 563d 7d49 643e 22eb 993e
00000240: fd32 04be 351d a03c f0cc 60be c203 50bd
00000250: 7bc1 4ebe 3081 8fbd bb95 c7bd cbdb 34be
00000260: 0b77 64be c6e8 803e 036e 233e 8672 62be
00000270: d025 f53d a158 653e a772 0e3c 51dd 47be
00000280: 97d5 6ebe 9c77 ffbc ada2 2a3e dd4d 403e
00000290: 220a 65be 2732 6cbd 316f 7b3e f054 273e
000002a0: 0b80 9dbd 59b4 59be 6cee 0e3d 7521 49bc
000002b0: abf9 f4bd a5c9 9a3d f317 463e a19a 6cbe
000002c0: 1b20 62be b5f4 47be f08c 2f3e dd39 50bd
000002d0: 38ac cebe 5f85 bd3e 92e7 933c 525a 78bd
000002e0: f218 05be 69b8 a43c 7608 293e 0df2 b4bc
000002f0: 2424 8bbe 4146 9a3e 194f 02be 25da e83d
00000300: d05a 5b3d f333 70be ae2c 82be 155a b9ba
00000310: 27fe b73d 9d06 4abe 6b11 fdbd 3ce7 56be
00000320: 7912 193d 369f 993d 6bc8 833e 4127 3c3e
00000330: 11f0 7c3e cebc 82be 308f 85bb 58e2 263d
00000340: 8343 513e 755c 8abd 5f89 413e 766e 283e
00000350: c56e 473e 1cca 49bd d5dc 8bbe 18f7 3dbe
00000360: cd4a 0dbd b10f 6abe 6b46 e4bd 9191 8c3e
00000370: fdf6 06bd 572c e9bd 047f f4bd 0b4d 773e
00000380: 9f66 523e 4660 5abe 0c9b 3abe 7314 18be
00000390: 4d40 dcbd 5938 a8bc 6b47 31be 839b 68bd
000003a0: f76b 48be a528 6ebe f9db ba3d 47a4 e9bd
000003b0: b4c1 eebc 51b7 973c c12d b8bd 75fe 6b3e
000003c0: f1f7 aa3d 98a6 fcbd 3a76 c2bd 2992 403e
000003d0: b76e c43d 1053 003e 635e 383e 073a 9dbe
000003e0: 5b51 ae3d 668d 023e 79ef 963d 8318 493d
000003f0: 46c0 b33d 6a07 583e 918f 163e 5b86 a2be
0.16951883 0.22358562 -0.21516687 0.09229154 -0.001449269 -0.25943103 0.21722233 -0.037011083
0.12789656 -0.07981281 0.04378872 -0.09269601 0.038415883 -0.07202627 -0.061388068 0.10562399
0.031237522 -0.012897575 0.18961734 -0.07191081 0.018657412 -0.13674068 0.20834465 0.0097539425
0.2010823 0.12016997 -0.059762742 -0.20773414 -0.14134364 0.009272286 -0.1475606 -0.047212582
0.09484753 0.3235744 0.10234596 -0.27016953 -0.06938141 -0.17816158 0.18929075 0.027604053
-0.23138474 0.1414602 -0.037890304 -0.15032618 0.21067786 -0.11985024 -0.08603649 0.03914393
-0.12809098 -0.10384475 0.26947522 -0.05552593 0.27320498 -0.060786698 0.00072924094 -0.23362496
-0.03559571 0.21180464 0.14990434 0.18836913 0.16511215 -0.22238359 0.00941913 -0.1343504
-0.057126895 -0.04297154 -0.13081603 -0.117338136 0.052183915 0.20622937 0.1199041 -0.14019845
0.041962814 0.16338833 0.023265528 -0.34555468 0.022975154 0.19596969 0.2828079 -0.099416934
0.27710393 0.085359335 -0.033029478 -0.24204081 -0.10851466 -0.09441757 -0.16453823 0.20512627
0.08586186 0.23252122 0.17484808 0.06623729 0.090197526 0.08138043 -0.28735492 -0.075075716
0.28133386 -0.16310461 -0.20786825 -0.10355516 -0.096196406 0.13647059 -0.06352127 -0.14893375
-0.11452672 -0.3086972 0.121805124 0.051703498 0.12829377 0.019801661 -0.41683725 0.5695917
-0.017508896 -0.09547277 -0.010615192 -0.1340779 -0.08513094 -0.2201569 0.13530762 -0.16626243
0.120206915 0.17862538 -0.15508328 0.11544026 0.25923645 -0.06480552 -0.17771904 -0.2006945
0.12624381 -0.15531848 -0.059370264 0.035260472 -0.16233875 -0.19801056 0.16393311 0.2983181
0.023570899 -0.06025246 -0.09288044 -0.21137306 -0.32611012 0.052403174 0.22293659 0.30062205
-0.12910075 0.019545177 -0.21953177 -0.050784834 -0.20190994 -0.070070624 -0.09745356 -0.1766197
-0.22311036 0.25177592 0.15959935 -0.22114 0.11970103 0.2239709 0.008694327 -0.1951802
-0.23323666 -0.031184964 0.16663618 0.18779702 -0.22367147 -0.057665017 0.24554135 0.16340995
-0.07690438 -0.21260203 0.034895346 -0.012276043 -0.11961683 0.07557992 0.19345073 -0.23105861
-0.2208256 -0.19526942 0.17143607 -0.050836433 -0.40365767 0.37015817 0.018054757 -0.06063301
-0.12997797 0.020107465 0.16507134 -0.022088075 -0.2717601 0.30131724 -0.12725486 0.11369733
0.053553402 -0.23457317 -0.25424713 -0.0014141226 0.089840226 -0.19729085 -0.12356838 -0.20986646
0.037371133 0.0750107 0.25738844 0.18374349 0.24700953 -0.25534672 -0.004075907 0.040743202
0.2043591 -0.06755916 0.18900059 0.16448388 0.19475849 -0.049265012 -0.2731692 -0.1855129
-0.034495164 -0.22857548 -0.11146244 0.27454808 -0.03295039 -0.1138541 -0.11938289 0.24150483
0.2054696 -0.21325788 -0.18223208 -0.14851551 -0.10754452 -0.020534681 -0.173124 -0.056788933
-0.19572435 -0.23257692 0.09123988 -0.114082865 -0.0291451 0.01852003 -0.08993102 0.23046286
0.08348072 -0.12336463 -0.09495206 0.18805756 0.0959143 0.12531686 0.18004756 -0.30708334
0.08511611 0.12749252 0.073698945 0.04909564 0.087769076 0.21096578 0.14703204 -0.3174313

conv1.0.bias f4 [32]
00000000: 7f3e c7bd 1edd 203e 1eb6 08bd a860 09be
00000010: 9e11 643e c10c 32be 66d7 36be 1c47 0abe
00000020: f666 19be 49f9 753d e518 713b b2f3 513e
00000030: 1161 7ebe 73bc 9d3d 9e9d 67be d8b7 a73d
00000040: 2e16 84bc 7676 343d cd72 5dbe 5610 73be
00000050: cb04 82be ead5 d6bc e33a 9ebd dadc 283d
00000060: d466 42be 6f7e cf3d b02e 0d3e 947f 06be
00000070: 569c 02bd ed99 5bbe 3742 643e e8fe 0e3e
-0.09728717 0.1570935 -0.033376805 -0.13415778 0.22272345 -0.17387678 -0.17855605 -0.13503689
-0.14980683 0.06005219 0.003678852 0.20503119 -0.24841715 0.077019595 -0.2261872 0.08189362
-0.016123857 0.044058286 -0.21625824 -0.237367 -0.25394282 -0.026225049 -0.077260755 0.041226245
-0.18984538 0.10131537 0.13787341 -0.13134605 -0.031887375 -0.21445437 0.22290884 0.13964427

conv1.1.weight f4 [32]
00000000: e82c 663f 24e9 6f3f f254 883f a2ee 7b3f
00000010: 5f09 843f 8495 803f f006 863f ec52 843f
00000020: 9e66 7d3f 199c 6f3f 5c28 833f 93e8 793f
00000030: 145b 813f 5f0b 773f d816 843f 55cd 803f
00000040: 21de 753f d52c 803f e1d5 793f 8186 893f
00000050: 74f1 783f 635b 813f 755d 703f 20de 793f
00000060: 1540 7a3f 3371 853f c958 813f 0d1f 833f
00000070: 83d1 7b3f dc43 873f 8cd1 753f 4a23 883f
0.8991227 0.9371512 1.0650923 0.98411 1.031536 1.0045629 1.0470867 1.0337806
0.98984706 0.9359756 1.0246692 0.97620505 1.010592 0.96501726 1.0319471 1.0062662
0.96042067 1.0013682 0.9759198 1.0744172 0.9724343 1.0106014 0.93892604 0.9760456
0.9775403 1.0425171 1.010522 1.0243851 0.98366565 1.0567584 0.9602287 1.0635769

conv1.1.bias f4 [32]
00000000: 82c1 e33b 04fc b1bc 5608 013c c9c5 27bd
00000010: 2530 123b 5bd9 9fbb fd34 cf3c 1515 f6bb
00000020: 250e 933c 9109 9cb9 710c 52bb 19d3 15bd
00000030: 2420 adbc e26f aab9 9bf4 8a3c ceee a73c
00000040: 0cde 20bd 7632 94bd c23c 113d a9e0 bb3c
00000050: 3b61 d3bc 54e8 9dba e11f 32bc c57c cbbc
00000060: 93b4 63bd 0dfd c43c dbe6 ba3c 69d7 eebb
00000070: 187e 1abb 55cd a8bb 2389 303c db20 e33c
0.006950558 -0.021726616 0.007875523 -0.040960107 0.0022306528 -0.0048782057 0.025293821 -0.0075098374
0.01795108 -0.00029761766 -0.0032050873 -0.03657827 -0.02113349 -0.00032508286 0.01696234 0.020499613
-0.03927426 -0.07236187 0.035458334 0.022934275 -0.025803199 -0.0012047389 -0.010871858 -0.024839768
-0.05559213 0.024046445 0.022815159 -0.0072888625 -0.0023573693 -0.0051514306 0.010774883 0.027725628

conv1.1.running_mean f4 [32]
00000000: adb5 7940 7c7f 2441 51da a1bf 6090 ff3f
00000010: 518d 94c0 d5a8 0a3f c8c4 3dc0 8c73 d03e
00000020: 4717 8cbf 3071 fd3f 17e3 43c0 4568 9a40
00000030: 850b b13d 9664 0e41 7076 09c0 67ac b9c1
00000040: e711 d740 1ed1 f640 807a b9bf aa19 15bf
00000050: 1474 c040 e263 82c1 683f 40bd 8eac dc40
00000060: 6356 2341 a841 cac0 1906 633e 53cf 10c1
00000070: 476c 233e 939b 84c0 5a8b 0f41 9c9b 63c0
3.9017136 10.281124 -1.264475 1.9965935 -4.6422505 0.5416387 -2.9651356 0.40713155
-1.0944604 1.9800167 -3.0607355 4.825228 0.08644775 8.899557 -2.1478539 -23.20918
6.7209353 7.713027 -1.4490509 -0.58242285 6.0141697 -16.29877 -0.04693547 6.896064
10.2085905 -6.3205147 0.22170295 -9.050616 0.15959273 -4.143991 8.971521 -3.5563726

conv1.1.running_var f4 [32]
00000000: 975a 5c44 1e55 8145 0b63 bf44 12c6 dc44
00000010: 1b64 ab44 0e51 6544 6b5a be44 88a4 1b44
00000020: 3fb7 0445 627f 6144 f838 4744 5dab 8344
00000030: 558a 0144 a6d8 da45 7974 cd44 2297 a446
00000040: d5df f244 56d0 6945 d1a7 b143 784e b344
00000050: 4434 f344 e5de 3246 fecf d143 33a6 2745
00000060: eb76 9a45 f2fa 1a45 61da 2d45 ae0d 8e45
00000070: 3513 b444 808e 7444 fff9 de45 2edd 7e44
881.41547 4138.6396 1531.0951 1766.1897 1371.1283 917.2665 1522.8256 622.5708
2123.453 901.99036 796.89014 1053.3551 518.16144 7003.081 1643.6398 21067.566
1942.9948 3741.021 355.31107 1434.4521 1945.6333 11447.724 419.62494 2682.3875
4942.8647 2479.684 2781.6487 4545.71 1440.6002 978.22656 7135.2495 1019.45593

conv2.0.weight f4 [64, 32, 5]
00000000: 0698 d33c c4d7 ea3c 0d74 e63d 2192 18bc
00000010: 86de 43bb 6df5 133c 2760 15bd 3f5f 083b
00000020: 1a84 0a3d 33de 763d 3c39 7abd f976 9ebc
00000030: 40e0 38bd e716 603d da98 7f3c 5847 adbd
00000040: 9810 963d 51d0 95bd 7fb2 9abd 125b 9e3d
00000050: 14f5 92bd 2bab 6ebd 2ee4 a2bd a261 97bd
00000060: 2e31 de3c ecc8 b8bd 69b1 8c3c 6af7 9c3d
00000070: d518 8839 5004 33bd a3b2 6dbc dc3a 49bc
00000080: 5e9e 6b3c 6f73 b2bd fe66 013c eee7 e0bd
00000090: 74bd d83d 5c7e 513c edd4 d13c bb37 5d3d
000000a0: 194c 883c c6be 82bd 00a6 aabc 1885 fcbb
000000b0: 0c68 5bbd 18c8 95bd e50e ca3d eb47 64bd
000000c0: 91c9 9d3d 60e5 5bbc fdbb 863d 2c54 743d
000000d0: 5a97 b1bd 5f22 c3bb dd67 8e3c 78e3 883c
000000e0: 167f 963d e4cf 083d b647 e23b 07e2 b0bd
000000f0: ee10 2abd 1714 40bc 0921 853d e6cc 0cbc
00000100: de78 983c 0b5e bdbc a01d 873d 8296 a6bd
00000110: a1b4 fd3c 5382 d33b a99c 633d 5343 53bc
00000120: 1ca7 a6bb 8410 b2bc 3f7a 063d caf7 e9bc
00000130: f9fd 2e3d 8396 153d e32c 6d3d 7a50 6a3d
00000140: 63c3 7bbd cc68 e83d da2d 323c 4268 f4bc
00000150: ebf3 183d 3bc5 8dbd adae c33d c4a3 f43b
00000160: 231f 00bc 96b7 8bbd 472f 053d 4afe c6bc
00000170: b8c8 623c 1200 20bd c503 f43c 5ccf 63bd
00000180: 3324 d13d ddf9 81bd 0491 ee3d 0696 5abd
00000190: 8a59 8bbd 4cbd c33d f50b 9abc fe1c 92bc
000001a0: 4c8a 5ebd a28f 6f3d df31 07bd 606d 713d
000001b0: e69a f338 7e24 15bd 8f92 20bd 74d6 ec3c
000001c0: e6ea 61bd 5824 aa3d 397a 94bc c6c6 04be
000001d0: 94a9 d03d 4279 08bd c244 d63c 0719 533c
000001e0: 5392 dd3c 043d 683d 890d 47bd d17e eabc
000001f0: ec17 7c3b 64ce 26bb 9c27 183d f5bc 7fbd
00000200: b51c b73d 79e1 603d ca1b 5abd 7d0f 853d
00000210: 70ec 64bd 5524 0ebd 1e8d 5fbd 660c 8dbd
00000220: 9b61 1b3d e04d 98bd 4825 693c c47a dabb
00000230: 3822 8039 fc5e db3d 3356 573d 573d 04bd
00000240: ebf5 21bd e8a5 9ebc 1555 303b 0785 66bd
00000250: 0710 223d 61b7 e33c ebe1 86bd 52ae c7bd
00000260: d338 9d3d abd3 983d b121 99bd b380 79bd
00000270: c4d2 263d 65b5 59bd e672 ecbc 843b 113d
00000280: 7e3f 993d 32e3 943c 6009 4cbc 132e adbd
00000290: 734d 8ebc fe23 233d 72eb ba3c 8ff3 07bd
000002a0: c131 70bc 6d68 e8bc bbaf 3c3d f41e 4ebc
000002b0: b941 41bd da7e 0e3d 681f 0fbd 1f17 043e
000002c0: 4e36 99bc 5d14 88bd c77b 353d 942e f7bc
000002d0: 4caa 5fbd 47de 033c c596 453b 2e7b 593d
000002e0: 0b93 64bb fe8d 403b f9b7 9f3d 6b60 2a3c
000002f0: d145 783c 7e00 753c 2032 cc3c f569 83bd
00000300: 16b6 973c d269 37bd 11a2 76bb 2175 97bd
00000310: 97a8 0ebe 7c63 f8bc 1641 72bd e831 ca3c
00000320: a765 243c c726 3a3c 0594 8bbc 5217 02bd
00000330: c618 8abd a311 c5bd 9979 35bd 8e12 37bd
00000340: a6b5 173d 8389 ed3c 137c 32bd cbff 4dbd
00000350: b1ff 12bd de27 473d ad53 153c 8bfd 563d
00000360: e007 f23b 9326 81bd 322e f63a 4a91 5b3d
00000370: bb47 18be deab ddbc 88d3 7dbb 008f 5bbc
00000380: 3941 01bd 72de 1ebd 98f5 82bd edad 393d
00000390: af8a 5f3d 7f47 213c 58c6 6abc e61b c6bc
000003a0: 4b6d 29bb 37cb 1cbc d049 84bc 8e1f e9bb
000003b0: e578 3c3d d440 7cbd 55dd 103d d5e2 2e3d
000003c0: 01dc 133c acbd c7bc c676 b73c 9232 48bd
000003d0: 5ed7 3cbd cb3a e73d 620f f63c 6f70 c2bd
000003e0: 6af9 a83b 16e4 403b e632 55bd 92e5 603d
000003f0: f9e5 8bbd d70d 82bc 97fd 3e3c 16f1 66bc
0.025829326 0.028667338 0.11252604 -0.009312184 -0.0029887273 0.009030682 -0.03646865 0.0020808724
0.033817388 0.0602705 -0.06108974 -0.01934384 -0.045135736 0.05470934 0.0156004075 -0.08460873
0.07327384 -0.07315124 -0.07553577 0.07732214 -0.07175651 -0.058268707 -0.07953678 -0.07391669
0.02712306 -0.09022698 0.01717444 0.07664378 0.00025958443 -0.043705285 -0.014507922 -0.0122821
0.014381019 -0.087134235 0.00789809 -0.10981737 0.1058301 0.012786474 0.025614226 0.054008227
0.016637849 -0.063840434 -0.020831108 -0.0077062957 -0.053566024 -0.073135555 0.09866122 -0.05573265
0.07704461 -0.0134213865 0.06578825 0.059650585 -0.08671446 -0.005955025 0.01738351 0.016710028
0.073484585 0.033401385 0.0069055213 -0.08636861 -0.04152005 -0.01172354 0.065004416 -0.0085937735
0.018612321 -0.023116132 0.065974474 -0.08134176 0.03096992 0.006454745 0.055569325 -0.012894469
-0.005085839 -0.02173639 0.032831427 -0.028560538 0.042722676 0.036520492 0.057904135 0.057205655
-0.061465632 0.113481134 0.01087519 -0.02983487 0.037341993 -0.06922384 0.09554801 0.0074658114
-0.007819924 -0.068221256 0.03251579 -0.024291176 0.0138418 -0.039062567 0.029786954 -0.055617675
0.102119826 -0.06346486 0.11648753 -0.05336573 -0.068041876 0.0955759 -0.01880453 -0.01783609
-0.05433111 0.05848659 -0.033006545 0.0589422 0.00011615995 -0.036411755 -0.03920227 0.028910853
-0.055155657 0.08307713 -0.018124687 -0.12966451 0.101885945 -0.033318765 0.026155833 0.012884385
0.027047312 0.056698814 -0.048596893 -0.028624924 0.0038466407 -0.0025452608 0.03714715 -0.062436063
0.08941022 0.054902527 -0.053249158 0.06497095 -0.055889547 -0.034702618 -0.05457794 -0.068871304
0.03793488 -0.074367285 0.01423008 -0.006667467 0.00024439557 0.10711476 0.05257244 -0.03228506
-0.039541166 -0.01936622 0.0026906182 -0.05627921 0.039566066 0.027797403 -0.06586059 -0.09750046
0.07676854 0.074622475 -0.07477129 -0.060913753 0.040728346 -0.053151507 -0.028863382 0.03545715
0.07482813 0.018174741 -0.012453407 -0.084560536 -0.017370915 0.039829247 0.022817347 -0.03319126
-0.0146603 -0.028370107 0.046066027 -0.012580622 -0.04718182 0.034788944 -0.03494206 0.12899445
-0.018702652 -0.06644509 0.044307496 -0.030173577 -0.054605767 0.0080486005 0.003014968 0.05309599
-0.0034877684 0.002938151 0.07798762 0.010398964 0.015153364 0.014953731 0.024926245 -0.06416694
0.018519443 -0.044778652 -0.003763322 -0.073953874 -0.139315 -0.030320875 -0.059144102 0.024682
0.010034001 0.011361784 -0.017038355 -0.03176052 -0.067430064 -0.096225046 -0.044305418 -0.04469543
0.037038468 0.028996235 -0.043575358 -0.05029277 -0.035888378 0.048622005 0.009114188 0.05248789
0.0073861927 -0.063061856 0.0018782078 0.053605355 -0.14871113 -0.027059492 -0.0038730819 -0.013400793
-0.03155634 -0.03878636 -0.063944995 0.045331884 0.05457562 0.009843706 -0.014329515 -0.024183225
-0.0025852497 -0.009569935 -0.016148478 -0.0071143573 0.04601373 -0.061585262 0.03536733 0.042696793
0.009024621 -0.024382435 0.022395503 -0.048876353 -0.046103828 0.11290511 0.030036632 -0.09494101
0.0051566856 0.0029432825 -0.052050494 0.054906435 -0.06830973 -0.01587574 0.01165714 -0.014095565

conv2.0.bias f4 [64]
00000000: dd2e 7f3d 46c1 eebc 0ef2 783d 94de 833d
00000010: 3b93 7cbd 4b92 2fbd ebec 523d ea3b 99bc
00000020: f5d9 9f3d 06df e23c 2936 9f3d b2f7 73bd
00000030: 0134 18bd 81df 53bd 571b 6cbc eeaf 9abd
00000040: 3ab7 963d fc82 2cbc b76a 1fbd b0a1 8ebd
00000050: e00d 19bd f431 82bd 48e9 8f39 4dab d23c
00000060: f0bb 19bd 4e55 263d b192 923d 2cad 8b3d
00000070: 026e 3ebd 9606 6c3d cbff 893d 66f8 3b3d
00000080: 16f8 45bd b1bd dd3c 8ed7 d2bc 1b30 873c
00000090: 0985 2bbd efc2 be3c 4aa0 b73b 8bab 943d
000000a0: 2980 95bd 6ac7 7dbc 89f9 3c3b f858 93bd
000000b0: 5598 87bd 968f 7bbd 57bf 96bd 11b6 56bd
000000c0: 689a 1cbc 154d b1bc d573 233d 3b3e c03c
000000d0: ad1e 1bbd 58cb 88bd 9ce4 2abd 364d 833c
000000e0: 506b 1e3d 326e 603d 2c2d 503d 8ec1 98bd
000000f0: f2ed 5abd 97a7 3e3d 65be d23c d345 873d
0.06230055 -0.029144894 0.060777716 0.06438938 -0.061663847 -0.042864125 0.051495474 -0.018705327
0.07805244 0.027694236 0.07774002 -0.059562393 -0.03715897 -0.05172682 -0.014410815 -0.07553087
0.073591664 -0.010529276 -0.03892013 -0.06964433 -0.037366748 -0.06357184 0.00027448894 0.025716448
-0.037532747 0.040608697 0.071568854 0.06820139 -0.04649163 0.05762347 0.06738242 0.045891188
-0.048332296 0.027067991 -0.02573755 0.01650243 -0.04187492 0.023286311 0.0056038247 0.07259282
-0.07299835 -0.015489439 0.0028835258 -0.07194704 -0.06620852 -0.06141623 -0.07360714 -0.052419726
-0.009558298 -0.0216432 0.039905388 0.023467174 -0.03787105 -0.0667941 -0.041721925 0.016028028
0.03867656 0.05479259 0.05082433 -0.074587926 -0.05344958 0.046546545 0.025725553 0.06605115

conv2.1.weight f4 [64]
00000000: 9244 7e3f 69f7 833f 41d4 753f 9740 7a3f
00000010: ce87 873f 4c20 803f e62e 803f 679e 773f
00000020: 1ce7 873f fefc 763f c41e 793f 1a89 763f
00000030: d986 7d3f 1b37 853f 24d8 823f 711e 803f
00000040: 0897 803f be82 733f 7ada 803f 0407 773f
00000050: 0567 823f 4170 833f c833 763f f7d7 823f
00000060: c22c 833f 843e 763f 50ad 803f 17d1 793f
00000070: 6c41 833f 199d 813f 5ea2 723f fd31 813f
00000080: f2e5 7e3f 321d 773f fcc7 803f fbc5 733f
00000090: 65db 7b3f f9f0 793f 7aa1 833f b74d 8a3f
000000a0: f955 7b3f 95d8 7f3f e984 833f d45b 783f
000000b0: f953 813f 7c42 803f 1c7e 7a3f 51c0 803f
000000c0: c5bb 733f 40c6 763f 5e1e 803f 6c01 8b3f
000000d0: 33ad 803f 3ea9 843f 3d8d 7d3f ea1e 743f
000000e0: de5a 803f ac26 753f 75c3 813f 1b32 863f
000000f0: fabd 873f 3702 803f 6fe7 7c3f 0272 823f
0.9932338 1.0309879 0.96027 0.97754806 1.0588319 1.0009856 1.0014312 0.9672608
1.0617404 0.96479785 0.9731257 0.9630295 0.99033886 1.0407442 1.0222211 1.000929
1.0046091 0.9512137 1.0066674 0.9649508 1.0187689 1.0268632 0.9617276 1.0222157
1.0248034 0.9618914 1.0052891 0.9758467 1.025434 1.0126067 0.94779 1.009338
0.9956962 0.96528924 1.006103 0.9522397 0.98381644 0.9763332 1.0283654 1.0804967
0.9817806 0.9993985 1.0274936 0.9701512 1.0103751 1.002029 0.9784868 1.005869
0.9520839 0.96396255 1.0009267 1.0859809 1.0052856 1.0364149 0.9904364 0.9535967
1.002773 0.95762134 1.0137774 1.0484041 1.0604851 1.0000676 0.9879064 1.0191042

conv2.1.bias f4 [64]
00000000: 1bd1 9bbc 3bbe 1e3b 9dd3 1abc e29f 37bb
00000010: 1ba7 5bbc 2a67 0e3c d850 ee3b 166a 63bc
00000020: ffe7 f53b af0e 0a3b ebe1 88bb c48f 69bc
00000030: 2de6 473c 7b56 013a 2f83 1dbc 6867 343c
00000040: 6011 e43b 6c81 40bc f57c fd3a ce3e 27bc
00000050: ef3b 02bb e56a 9f3b 7fc2 7ebb 4548 d83a
00000060: de0d fd3b b4a5 87bc 2a39 433b 5fe3 b7bb
00000070: ad3b 563c 3740 293c 3082 8abb 0b92 433c
00000080: fedb 363b a6c6 40bc d98a bebb 60a8 b3bc
00000090: fb17 28bc 2639 2c3c 27e7 9f3b 3848 9b3b
000000a0: 2404 8a3a e355 52bb 9287 4ebc c08a 203b
000000b0: 9888 093c 7906 30bb 64c4 9039 e4ff 91ba
000000c0: 21ad 283c 7475 a93b b899 cfbc af8a f3ba
000000d0: bb69 b6bc e9d9 f13b 2ddc 8abb 6e5a dcbb
000000e0: a54b 853b 7e4c d7bb 483b d73a 265c fbbb
000000f0: 8875 bc3c 1ecb 513b b87a 12bc 90ab db3a
-0.019020608 0.0024222273 -0.009449867 -0.0028018882 -0.01340654 0.008691588 0.007272821 -0.013880273
0.0075044627 0.002106588 -0.004177322 -0.014255468 0.012200874 0.0004933846 -0.009613796 0.011010982
0.006960079 -0.011749607 0.0019339608 -0.010207845 -0.001987215 0.0048650377 -0.0038873253 0.001650103
0.0077226004 -0.016558506 0.002978871 -0.0056118215 0.013075751 0.010330251 -0.0042269453 0.011936675
0.0027902122 -0.0117661115 -0.005814892 -0.021930873 -0.010259624 0.010511672 0.0048798504 0.0047388338
0.0010529798 -0.003209465 -0.012605565 0.0024496764 0.008394383 -0.0026859327 0.00027612143 -0.0011138883
0.010295183 0.005171472 -0.025341853 -0.001858076 -0.022267213 0.0073807132 -0.004237673 -0.0067246472
0.0040678554 -0.006570398 0.0016420865 -0.007670897 0.023005262 0.0032011936 -0.008940391 0.0016759504

conv2.1.running_mean f4 [64]
00000000: 7abc 583d cee5 9dbd 5ece 923d 3050 1a3d
00000010: eb6e cbbd 71c1 18be 2fdc 9fbc 9efd 35bd
00000020: 570e dbbc 47cd 483e d42c a43d 0e8e 613c
00000030: c611 45bb 74e9 10be 9924 8b3a 1ead 43be
00000040: b7d1 853d aaeb b93c e7b5 fbbd 5d5b 1dbd
00000050: 4bc5 94bd 0172 c0bd 85ac bb3d 5a8a b5bd
00000060: eb5a 83bd 7b61 99bd 1d8b 01bd 2fb0 14bd
00000070: 7136 1abe 8cfc 01bd 56df 2e3e f92f fabd
00000080: 0dbc b23d 41f2 c03d 2f6b e4bd 0355 cf3d
00000090: cd73 6e3b 188d 173e f5a2 7a3d bafd 393d
000000a0: 4260 5fbd 08e8 13be 4d8d 553d abc3 153e
000000b0: 9b7b dfbd ea37 153c 7d6e 31bd d115 04be
000000c0: 468c c03d c6cc 20bc 16af 5cbd 8cd9 fc3c
000000d0: 4310 7ebc df45 0ebe dc42 cc3c 599f 0a3e
000000e0: e508 513c 5a7a 223e 9da3 d03d df5e e2bd
000000f0: df30 cbbd 1a6e 08be 4397 153d 70b4 e33d
0.05291412 -0.077098474 0.07168268 0.03767413 -0.09933265 -0.14917542 -0.019514171 -0.04443132
-0.026740236 0.19609557 0.08016363 0.013766779 -0.0030070408 -0.14151555 0.0010615765 -0.19109008
0.065341406 0.022695381 -0.122905545 -0.03841721 -0.07264193 -0.093967445 0.09163765 -0.08864279
-0.064138256 -0.07489296 -0.03162681 -0.036300834 -0.1505983 -0.031734988 0.17077383 -0.12216181
0.08727274 0.09421206 -0.11153256 0.101236366 0.003638494 0.14799917 0.061190564 0.045407988
-0.054535158 -0.14443982 0.052136708 0.14625423 -0.10912248 0.009107569 -0.04331826 -0.12898947
0.09401755 -0.009814447 -0.053877912 0.030865453 -0.015506807 -0.13893841 0.024934225 0.13537349
0.012758468 0.15866986 0.10187457 -0.110532515 -0.09921431 -0.1332325 0.036521208 0.111184

conv2.1.running_var f4 [64]
00000000: 3bcf 383e 70ab 953e 1850 4d3e 0361 373e
00000010: 27d2 613e 409a a53e 1ac6 af3e f800 453e
00000020: 759e a53e 779f bc3e 5909 933e 2d59 4a3f
00000030: 65a8 aa3e ad96 8e3e e189 3e3e 3195 903e
00000040: 2fe9 693e 5aef 583e 0b8b 8d3e fa27 743e
00000050: 7ea2 9b3e 123b 7f3e ff78 5f3e 5233 9d3e
00000060: 00d2 973e fa8f 1e3e e46b 9b3e 78be 243e
00000070: d006 a93e de53 c23e 6bc3 863e 9972 ef3d
00000080: f029 cb3e ba57 2d3e a771 c83e ff40 3b3e
00000090: c12c 6b3e a3af b13e e148 883e 6684 843e
000000a0: bfa0 283e ca47 223f 0a94 363e 2719 c03e
000000b0: 4e90 873e 2b7f c33e ca17 763e cd88 9d3e
000000c0: d023 6f3e cfa9 973e 43a7 843e 7ea6 813e
000000d0: 0135 773e b2cd bb3e c254 603e b562 ef3e
000000e0: eaf0 f93e 7269 893e ea17 a63e c0b1 803e
000000f0: 9252 c43e ba28 353f 69a6 383e 289b 693e
0.18047802 0.2923236 0.20050085 0.17908101 0.22052823 0.32344246 0.34330827 0.19238651
0.32347456 0.36840412 0.2871807 0.7904232 0.333316 0.27849331 0.18607284 0.28238824
0.22842859 0.21185055 0.27645144 0.23843375 0.3039741 0.24924877 0.218235 0.30703217
0.29652405 0.1548461 0.30355752 0.16088283 0.3301301 0.3795461 0.26320967 0.1169178
0.39680433 0.16927996 0.3914921 0.18286513 0.22966291 0.34704313 0.26618102 0.25882262
0.1646757 0.6339079 0.1782991 0.3751919 0.26477283 0.3818296 0.24032512 0.30768433
0.23353505 0.2962174 0.2590886 0.25322336 0.24141313 0.3668037 0.21907333 0.46754995
0.48816615 0.2683826 0.3244012 0.25135612 0.38344246 0.7076527 0.1803223 0.22813094

conv3.0.weight f4 [128, 64, 5]
00000000: fd78 1bbc bebc e63b 19e9 b33c 3e5f 45bd
00000010: f1ba cfbb 898a fcbc 2cdd 4cbd 21af 423d
00000020: 6cce 58bd 691d 913c c62a 31bd 7c5e f93c
00000030: 6bcd 17bd 0169 5e3d 4f07 e8bb e066 373d
00000040: e6bb 9bbb c5f0 953c 15fc 62bd 46fe b33c
00000050: c78d 053d 6315 2a3c 474a 903c 354f 04bd
00000060: 10b7 4ebd 8948 d13c 6647 423c 6398 43bd
00000070: 10be a93c df9e 3639 75c2 613c 5605 cebc
00000080: e39c 40bd e5b6 b2ba 7c0b 953c e8bb 4cbd
00000090: 9a0b 1fbd 46cf 6ebc c129 5c3d 4536 413d
000000a0: c8b2 2b3d e252 3c3d aa31 fabb 8c88 6ebd
000000b0: 1544 b23c 3150 d83c 7bf6 3439 f6ca 253d
000000c0: f089 17bd ab0c 57bd 181d 06bd ef4d a4bc
000000d0: 24a8 343d 3f5f ef3c 3266 96bb 833b 873a
000000e0: bfbc da3c cd04 0cbd 16b2 57bd 9856 9cbc
000000f0: cb25 70bd b5c3 d73c ac6b a9bc 5b57 753c
00000100: b877 08bd b425 aabc 8ac0 59bd 2ea1 bbbc
00000110: 94ee 31bd 92c8 72ba 81bc a43c fa57 f63c
00000120: 03b5 603c 91d5 0f3d d36b 5cbd 7ea6 b03c
00000130: 8b7b 3cbd 58f3 bcbc 7ffc b9bc 9265 1abd
00000140: dea6 883c 7c1f 093d 88d8 943c 4506 533d
00000150: c578 0abd 4732 143d 4508 a7ba eaa4 d6bc
00000160: 8e38 50bd ac3b c23c 65f0 46bd 7e82 5bbd
00000170: 5686 f53c b08a b93c 3a7b 5ebd 1e2a 59bd
00000180: a1bb 34bd 66c5 41bd 89a8 37bd 52be c9bc
00000190: 90bb 8abc 2f08 113d 6c9d f73c 6897 983c
000001a0: 20f4 cfbc 834b 463d 41a9 a23c 56c9 ef3c
000001b0: a8d8 0c3d 4743 d4bc cc54 95bb 47c4 2d3d
000001c0: 656d 993c 5320 11bd 9773 203b f794 40bd
000001d0: 9a0b 283d 149f bcbb f267 0fbd 8dfa 8e3c
000001e0: a6c4 62bd 3c71 4cbd 73a3 4f3d ef33 ff3c
000001f0: b746 6bbd 7a8a d73a b8fd 0ebd 87d1 26bd
00000200: 9450 293d 5ca7 813c 3a50 563d f081 1fbd
00000210: bec8 adba b015 b43c 1dab 5c3d b826 16bd
00000220: d2da 05bd 5ca8 663d 3cb7 01bd 7f14 413d
00000230: 347a f33c 2a13 b33b 4552 fb3c 6fad 723c
00000240: c6b3 58bd 9f31 08bc 2c5d eabc ad6f 603d
00000250: f6d9 1cbd bbe8 0a3d af56 29bc 35d0 dabc
00000260: 1773 39bd b7ff 4b3d f627 113d 9a57 a73c
00000270: 44a7 b6bb 02c9 23bd 2afe 39bd 737c 073d
00000280: 0567 50bd c3f8 3bbd e21b 0a3c adf9 2cbd
00000290: 9950 773c d6f4 59bc d214 83bd 9586 173d
000002a0: e148 e23c aa84 bb3c 351c 32bb 2196 453c
000002b0: 4334 c7bc 1671 f4bc 756f 0bbd fe26 c33c
000002c0: b095 2b3b a441 283d 99c0 0ebd 8126 ac3c
000002d0: cc98 82bd 9cd8 d0bc 03c1 4dbd 70bc 2d3d
000002e0: f81e b63c c3eb 0cbd 4807 34bd 96ee 413d
000002f0: c8f6 f2ba b30f fdba 55f2 293c 0500 2abd
00000300: f038 433d 340b 1b3d d000 1a3d 3198 6dbd
00000310: bd4c debc c836 9c3c e7bf a9bc 64b5 04bd
00000320: 811f 5dbd ae59 c4bc d2f7 b6bc 88c1 b33b
00000330: 848b 0ebd bbfd 843b 10dc 643d 7aca 4bbd
00000340: d70e d73c 2b52 4dbd 8b0f 0f3d d968 1d3d
00000350: 5508 f63a 9c92 c03c d924 973c 14f0 463d
00000360: b953 70bd 5570 ce3c 67fe 53bd f9c2 dcbc
00000370: 719e 2ebc c33b 27bb a516 de3b f234 273d
00000380: 503f d53c 73a5 153d 4782 17bd 326e b73c
00000390: ff5f 31bc 8fc9 523d c250 003d f780 c8bb
000003a0: f650 42bd d4c9 bf3c 83f9 32bd 1fa5 a83c
000003b0: a651 34bd 76c1 d63c 397b 113d 4d0f d9bc
000003c0: 63a5 78bc 179a 573c d27c 3ebc 94b5 12bd
000003d0: cc5a 3ebc 18cf 303d 4984 ac3b 6ad8 e43b
000003e0: bdc5 1b3c 9995 133d 89d2 a8bc 22c0 4ebd
000003f0: 9ea3 0c3d 045c 49bd 0796 e7bc 7ff2 243b
-0.009489295 0.007041543 0.021961736 -0.048186533 -0.006339424 -0.030827777 -0.050015613 0.047530297
-0.052931234 0.01771422 -0.043253683 0.030440561 -0.037061136 0.05429936 -0.0070809494 0.044775844
-0.004752624 0.018303284 -0.055416185 0.021971833 0.032605913 0.010381076 0.017613543 -0.0323021
-0.05046755 0.025547283 0.011857843 -0.04775275 0.020720512 0.00017416057 0.013779272 -0.025149029
-0.04702462 -0.0013634829 0.018193953 -0.04998389 -0.038829423 -0.014575785 0.053750757 0.047170896
0.041918546 0.04597748 -0.007635315 -0.05823569 0.02176098 0.026405426 0.00017257959 0.04047676
-0.03699678 -0.052502315 -0.03274259 -0.020056693 0.044105664 0.029220222 -0.0045898193 0.0010317418
0.02670133 -0.034184266 -0.05266007 -0.01908426 -0.058629792 0.026338438 -0.020681225 0.01497444
-0.033317298 -0.020769931 -0.053162135 -0.022904005 -0.043440416 -0.00092614547 0.020109417 0.030071247
0.013715032 0.035115782 -0.053813767 0.021563765 -0.046016257 -0.023065254 -0.022703407 -0.03769452
0.016681131 0.03347729 0.018169656 0.05151965 -0.03380658 0.03618076 -0.0012743553 -0.026201684
-0.050835185 0.023710094 -0.0485691 -0.053591244 0.029971283 0.02264914 -0.054316737 -0.05301868
-0.04412425 -0.047307394 -0.044838462 -0.024626885 -0.01693514 0.035408195 0.030226432 0.018626884
-0.025384963 0.048411857 0.019856097 0.02927081 0.034386307 -0.025910987 -0.0045572277 0.042423513
0.018728921 -0.035431217 0.002448296 -0.047017064 0.04102669 -0.0057562683 -0.03501124 0.017453456
-0.05536332 -0.049912676 0.050692987 0.031152694 -0.057440486 0.0016444467 -0.034909934 -0.040727165
0.04133661 0.015826873 0.052322604 -0.038942277 -0.0013258678 0.021982998 0.053874124 -0.03665802
-0.032679386 0.056312904 -0.031668887 0.047138687 0.029721357 0.005464931 0.030678878 0.014811858
-0.05290582 -0.008312612 -0.028608881 0.054794002 -0.0382938 0.033913355 -0.010335608 -0.026710609
-0.045275774 0.049804416 0.0354385 0.020427514 -0.005574139 -0.039986618 -0.045408405 0.03307767
-0.050879497 -0.045891535 0.008429499 -0.042230297 0.0150949 -0.013303002 -0.064004555 0.03699358
0.027622642 0.022890408 -0.0027177457 0.012059719 -0.024316913 -0.02983908 -0.03404184 0.023822304
0.002618175 0.041078225 -0.034851644 0.021014454 -0.063768 -0.025493912 -0.0502329 0.042416036
0.022231564 -0.034404527 -0.043952256 0.047346674 -0.0018536681 -0.0019307047 0.010372718 -0.041503925
0.04766172 0.03785248 0.03759843 -0.05800647 -0.027136201 0.01906909 -0.020721389 -0.03239955
-0.053985123 -0.023968544 -0.022334967 0.005485717 -0.03480102 0.0040585673 0.05587393 -0.049753644
0.026252193 -0.05012719 0.034926932 0.03843007 0.0018770794 0.023507409 0.018450188 0.0485688
-0.058673594 0.025200048 -0.05175629 -0.026948439 -0.010657893 -0.0025517798 0.006777602 0.040821977
0.026031166 0.036534738 -0.036989477 0.022391412 -0.01082611 0.051461753 0.031327017 -0.0061188894
-0.04744049 0.023411669 -0.043694984 0.020586548 -0.04402318 0.026215296 0.035517905 -0.026496554
-0.01517615 0.0131592965 -0.011626439 -0.035817698 -0.011618327 0.04316625 0.005264793 0.0069838064
0.009507594 0.03603134 -0.020608203 -0.0504762 0.034335725 -0.04916002 -0.02826978 0.0025168953

conv3.0.bias f4 [128]
00000000: c220 2fbd 3853 623d 4df7 9bbc 7f82 1abd
00000010: b5e2 c5bc 8abf bbbc 88be 84bc 23d5 b63c
00000020: e2bc 04bd b7a2 493d d84f b1bc 8670 e9bc
00000030: d793 e2bc 4779 60bd 7c46 14bc d05e f73c
00000040: d5c9 c6bc 81b7 943c 4e46 2c3b 2cc1 04bd
00000050: 29a3 483d 2232 13bc 94e6 22bd 32b1 033c
00000060: fd16 a4ba fc14 733b e830 15bc b214 1bbd
00000070: f214 eb3c e3e4 14bd 0846 4ebd 38ca e23b
00000080: 2e35 b23c 4c9f f0bc 772d 223d 31a7 363d
00000090: 9585 b93b ca05 48bd ea22 2a3d f087 c5bc
000000a0: 6fb0 48bd 6877 563d 24fb 43bd 7498 c43c
000000b0: 267a ba3b 48a6 15bd 9a49 b3bc 9bdf e5bc
000000c0: bbb8 d0bc 034c 063d 9c01 eebc 8d69 8f3b
000000d0: d685 593d bb4b ae3b 88fb 3d3d ee86 4cbd
000000e0: c7b9 a2bc a488 7dbc b147 17bd d91d d3b9
000000f0: 4034 483d dab7 013d 8add eebc 3103 d2bc
00000100: a0ce 7c3c 4b0a 1c3d a73d bbbc cf82 dcbc
00000110: 860c 4ebd e6ab 28bd 7987 ef3a 6eb9 3a3b
00000120: e4e9 17bc 07fe 253d 1876 30bd bbda df3c
00000130: 1a47 c43c 6f4a d73c 32e8 0dbd 058b 513c
00000140: 7fa1 96bb 64dc 643d 8370 47bd 3898 ddbc
00000150: 9cfb 45bc cf70 74bb fab2 eabc 56ab fabc
00000160: 3c31 fbbc 94ec 8d3b bfbd 503d a0b1 203d
00000170: 1ad7 143c b333 39bd ccfb 8a3c 10cb 373c
00000180: af5a 75ba 6b78 64bd e8f5 953c 7993 1f3d
00000190: 2f22 de3c a8bd 31bd e8c2 393c 12fd 0bbd
000001a0: 341a 0cbd 232c 453d c2e1 883c 8d20 16bd
000001b0: deb3 a33c d39f 4fbd 66ac 523b 0a71 3f3d
000001c0: 8cf1 133d c79d 29bd 059e 473d ed7f 533c
000001d0: 967a 283d 51de 413d d8ca 453d 0d51 06bc
000001e0: 128a 53bd 053e 31bd df93 2b3d 45a0 55bd
000001f0: 6932 0dbd b2f2 81bc de98 993b 9d4a fdba
-0.04275585 0.055255145 -0.01903882 -0.037722107 -0.024155954 -0.022918481 -0.016204134 0.022318428
-0.032406695 0.049227443 -0.021644518 -0.028496038 -0.027658386 -0.05480316 -0.009050008 0.030196577
-0.024266163 0.018153908 0.0026287022 -0.032410786 0.048983727 -0.008984121 -0.039770678 0.008037852
-0.0012519058 0.0037091365 -0.009105898 -0.037861533 0.028696511 -0.036351096 -0.050359756 0.006921079
0.021753874 -0.029372834 0.03959414 0.04459304 0.005661676 -0.048833646 0.041537203 -0.024112672
-0.048996385 0.05235997 -0.04784693 0.023998477 0.0056908308 -0.03653553 -0.021885682 -0.028060725
-0.025478711 0.032787334 -0.029053502 0.0043765963 0.05310615 0.0053190864 0.046382457 -0.049933366
-0.019863976 -0.015474472 -0.036933605 -0.00040267294 0.048877954 0.031669475 -0.029158372 -0.025636287
0.015430123 0.038095754 -0.022856547 -0.026917843 -0.050304912 -0.04117956 0.0018274627 0.0028491872
-0.009272072 0.040525462 -0.043081373 0.027325979 0.023959685 0.02628061 -0.034645267 0.0127894925
-0.0045968886 0.055874243 -0.048691284 -0.027050123 -0.012083914 -0.0037298684 -0.028649796 -0.030599277
-0.030663125 0.004331181 0.050962206 0.039231896 0.009084487 -0.04521532 0.01696577 0.0112178475
-0.0009359521 -0.055778902 0.018305734 0.038959 0.02711591 -0.04339376 0.011337973 -0.034176894
-0.034204677 0.048137795 0.016709212 -0.036652137 0.019983228 -0.05068953 0.0032146215 0.04673866
0.03611903 -0.041410234 0.048734684 0.012908918 0.041132532 0.047331158 0.04828915 -0.008198035
-0.051645346 -0.043272037 0.041889068 -0.052154798 -0.034471903 -0.015862796 0.0046874126 -0.0019324605

conv3.1.weight f4 [128]
00000000: eeca 7f3f d4b5 803f c318 7f3f 5be3 7f3f
00000010: 61ca 803f 766a 7f3f cf56 7b3f dc14 803f
00000020: fb72 7d3f c799 803f 1b89 7d3f af22 823f
00000030: 0efe 7d3f 20eb 813f 5ad0 803f 7a55 813f
00000040: eb7c 803f 62e3 7f3f cdf1 7f3f b73a 7f3f
00000050: a8e8 7f3f 09e5 7f3f ff21 7e3f 5341 7f3f
00000060: ddf7 7d3f e86d 803f 94c6 7c3f f98a 7d3f
00000070: f8d3 813f 6e6d 803f 1ce8 7f3f 82e6 7a3f
00000080: 920d 803f 8bb4 7f3f 6b2e 803f b00b 803f
00000090: 549d 7d3f ee14 803f 24d4 7c3f 1790 7f3f
000000a0: d07c 7e3f 438d 813f cc80 823f 6a49 813f
000000b0: 6175 7e3f 5b94 7f3f abe6 803f 08a5 803f
000000c0: 4c15 813f 1103 803f 8cca 803f 7f1f 813f
000000d0: bd90 803f 269f 803f 888a 833f 74f9 7b3f
000000e0: 899b 7b3f 3be8 813f 4aef 803f 61f2 7c3f
000000f0: 2537 803f 3d77 7d3f 28a8 813f 7620 7d3f
00000100: 88d7 7f3f 201c 7e3f 891d 803f 5bd6 7d3f
00000110: aa48 7f3f efca 7f3f e3e5 7f3f cea7 803f
00000120: c10f 803f 5ddf 7f3f 25be 7f3f e958 803f
00000130: da45 7d3f 7d4d 803f 6056 7f3f 1e1c 7e3f
00000140: a7e3 7f3f ec9f 813f 83e2 7f3f 4d7c 7e3f
00000150: b85b 813f d3c2 793f 5628 803f 4a1c 803f
00000160: a6e1 7c3f f465 823f 1304 7b3f 2b18 7b3f
00000170: 58f1 7b3f b171 803f dd36 803f 0492 7e3f
00000180: ddbc 803f 1523 823f b598 7f3f e1ee 873f
00000190: 51e7 813f ac7c 7f3f b8ff 823f 5d32 7e3f
000001a0: e11e 803f 0070 7b3f b805 803f ed96 7d3f
000001b0: f07b 803f ccf1 7f3f fa3e 803f ee78 803f
000001c0: dfa8 7f3f 55f3 7f3f 48c3 7f3f 3af6 7f3f
000001d0: 95f1 7a3f 21b5 7f3f c739 803f 6179 7f3f
000001e0: 108e 7f3f d31c 803f 94db 7e3f adb3 7f3f
000001f0: 3ab3 813f 247e 803f 4593 7a3f e72d 803f
0.9991902 1.005549 0.9964716 0.9995629 1.0061761 0.9977182 0.98179334 1.0006366
0.9900357 1.0046929 0.9903733 1.0166835 0.9921578 1.014988 1.0063584 1.010421
1.0038122 0.99956334 0.99978334 0.99698967 0.9996438 0.99958855 0.99270624 0.9970905
0.99206334 1.0033541 0.98740506 0.9904018 1.0142813 1.0033395 0.99963546 0.98007977
1.0004141 0.9988486 1.0014166 1.0003567 0.9906819 1.0006387 0.987612 0.9982924
0.994092 1.0121235 1.0195556 1.0100529 0.99397856 0.9983575 1.0070394 1.0050364
1.0084624 1.0000936 1.0061812 1.0087737 1.0044171 1.0048568 1.0276651 0.9842751
0.982842 1.0148996 1.0073025 0.9880734 1.0016829 0.9901007 1.0129442 0.98877656
0.9993825 0.99261665 1.0009013 0.99155205 0.9972025 0.9991903 0.99960154 1.005121
1.0004808 0.999502 0.9989951 1.0027133 0.9893471 1.0023648 0.9974117 0.99261653
0.99956745 1.0126929 0.99955004 0.9940842 1.0106115 0.97562903 1.001231 1.0008633
0.9878181 1.0187364 0.9805309 0.9808375 0.98415136 1.0034696 1.0016743 0.9944155
1.0057636 1.0166956 0.9984239 1.0619775 1.0148717 0.9979961 1.0234289 0.992956
1.0009423 0.98217773 1.0001745 0.9905842 1.0037823 0.9997833 1.0019219 1.0036905
0.9986705 0.9998067 0.9990735 0.99985087 0.98024875 0.99885756 1.0017632 0.99794585
0.99826145 1.0008796 0.995538 0.9988354 1.0132821 1.0038495 0.97880965 1.0014008

conv3.1.bias f4 [128]
00000000: 9884 6f30 d919 d4b8 7130 a9b7 606b d2af
00000010: 624f 653a 6ba3 3f37 e463 f12f 1ea0 26b0
00000020: 4f0b 90bb a81d c1b6 399a a7ba daaf a2af
00000030: 1b05 7e36 0ded 8e2f 6ee6 c5b0 4252 f23a
00000040: 24fe e7b6 abce c6b6 c6af 43b0 b15d bd36
00000050: 0bf8 deb0 0fec d42e 5cea 45ba ec45 0aba
00000060: 5b00 c138 c340 5238 70c1 af3a 39db 6f39
00000070: b4b5 1db9 be6f dfaf 88a7 f2b9 d5dc a63a
00000080: 4a49 8930 94f4 f92e 3799 0137 6b5a 2aba
00000090: 850b 12b8 5898 592f 81b5 a4bb 1a4c 633a
000000a0: f76b 55bc 097d ab3a def0 b7bb e3b1 b8ba
000000b0: b438 ce38 da34 24ad d75c b030 8a2b 1230
000000c0: 5e4e bd3a 9e04 d9b0 297c 143b 04d2 3a3b
000000d0: a179 60b5 9eb8 da30 2c78 0939 dc86 3e3b
000000e0: f447 8439 e81f 84b0 037f 14b1 0892 e0b8
000000f0: 33c0 9930 3da0 ab38 52c9 39ba d231 963a
00000100: 286e 4b2f c37f 29ba 76e5 093a 3b68 123b
00000110: 1c8c 833a 5ad9 cc3a 1a38 1239 de04 28b8
00000120: 0c05 223c 1864 93af 967b 8437 3180 64b7
00000130: 0a9f acb7 e694 beaf 0f2b c32f 5e94 d737
00000140: d80f deae 8ef9 ec2f 6325 382d 6dbd 813b
00000150: 0702 653b b586 b1b8 a40c e936 9857 54b0
00000160: 290a 7cb8 d0e1 5ebb 789d 3630 251b 633a
00000170: 1e56 82bb 1700 42b8 bd52 07b1 3d3c 95bb
00000180: 2788 3630 8d85 cc38 2d3f 85af 0ace a7b5
00000190: 022c 1231 709b 853b eb94 c23a 66a1 1739
000001a0: 2d20 8237 8e9d efbb 07c6 05b1 b210 08b8
000001b0: b2de 6b30 09e9 f9af dc01 f6af fc85 51b7
000001c0: 1889 86b0 8568 9b3a d74f c030 4997 96af
000001d0: a0a5 41ba 3de1 d6b8 13a9 203b 659f 0430
000001e0: 442f 7a30 26b9 ce30 8447 af38 df85 752f
000001f0: 1094 8730 661b 9938 77b4 7abb c5b1 612e
8.713612e-10 -0.00010113762 -2.0168927e-05 -3.8275072e-10 0.00087474857 1.1422536e-05 4.390862e-10 -6.061799e-10
-0.0043958793 -5.7553007e-06 -0.0012787051 -2.9592578e-10 3.7851921e-06 2.5998084e-10 -1.4399129e-09 0.001848765
-6.9139223e-06 -5.924919e-06 -7.1190376e-10 5.643546e-06 -1.6223124e-09 9.682576e-11 -0.0007549876 -0.00052747014
9.2030234e-05 5.0128216e-05 0.0013409089 0.00022874483 -0.00015040376 -4.064286e-10 -0.00046282657 0.0012730608
9.988892e-10 1.1366655e-10 7.724672e-06 -0.00064984587 -3.481984e-05 1.9790158e-10 -0.0050265198 0.0008670703
-0.013026229 0.0013083528 -0.0056134304 -0.00140911 9.833407e-05 -9.334056e-12 1.2832072e-09 5.3176363e-10
0.0014442911 -1.579014e-09 0.0022657013 0.0028506527 -8.3623496e-07 1.5914059e-09 0.00013110106 0.0029072082
0.0002523061 -9.613332e-10 -2.1609032e-09 -0.00010708353 1.1186841e-09 8.183762e-05 -0.0007087189 0.0011458939
1.8501878e-10 -0.00064658764 0.00052603276 0.0022339958 0.0010036263 0.0015628741 0.00013944544 -4.0058854e-05
0.009888899 -2.6810265e-10 1.5793175e-05 -1.3619706e-05 -2.0578056e-05 -3.4666597e-10 3.5500888e-10 2.5699086e-05
-1.00982056e-10 4.310547e-10 1.0467491e-11 0.003959349 0.0034943835 -8.465109e-05 6.9454127e-06 -7.724963e-10
-6.0090944e-05 -0.0034009106 6.643499e-10 0.00086634076 -0.003977551 -4.6253288e-05 -1.9692117e-09 -0.0045543
6.64047e-10 9.752354e-05 -2.4237448e-10 -1.2502435e-06 2.1270812e-09 0.0040773675 0.0014845406 0.00014460608
1.551219e-05 -0.007312483 -1.9466613e-09 -3.2440475e-05 8.580897e-10 -4.5458418e-10 -4.474846e-10 -1.2488566e-05
-9.788748e-10 0.0011856711 1.399253e-09 -2.7392336e-10 -0.0007387046 -0.00010246269 0.0024514839 4.8247834e-10
9.101664e-10 1.5041095e-09 8.357971e-05 2.2330181e-10 9.864625e-10 7.300712e-05 -0.0038254538 5.1316968e-11

conv3.1.running_mean f4 [128]
00000000: c3c5 40be f38b 0a3e 7a65 55be 6eb2 51be
00000010: 3baa 813d accd b23d d722 cb3d 8683 8abc
00000020: 4a5d 5d3d 7ffd 473e caf5 833c 0ea6 3c3e
00000030: 5c11 e13c 7087 28be fb07 c4bd 8dd1 1cbd
00000040: 40e5 7dbd 739e adbd 0683 5abe 8574 9a3d
00000050: ec25 2abe f762 2bbe a66b 90ba 8130 da3d
00000060: 6f3a c93d d7c6 303d ddb4 c73d 3093 4cbd
00000070: 135a d03d 5eac 3bbe 67c1 1b3d 4e0d 153d
00000080: f847 04bd 80b4 47be c818 903e 133b c73d
00000090: ba9d 003e 626c 6ebe e99d 323d bdbe 95bc
000000a0: f606 2abe eb00 a23d 8488 2a3d f934 0a3e
000000b0: 740e c13c 800b c63c 85d9 933d 2af9 ddbd
000000c0: 3418 833d 8939 04be 2d10 40bc b51a 883d
000000d0: 4c8e d83d 09cd d6bd 2261 3b3e 8d7a aabd
000000e0: 89ab 4d3d 61cf 8fbd 4989 efbd edf8 263e
000000f0: dfc0 97bc 98ac 093d e609 2f3e 9c90 0dbd
00000100: 33dd 42be d3a4 b23d 4f15 883d 7ffc 743b
00000110: 441c ccbc 16ff 2a3d 8089 363e 72c8 c03d
00000120: 351d 583d cad2 92bd a3df 89bc 9047 e43d
00000130: 25d9 323e d691 95bd b5a4 15be 6adf 1a3e
00000140: 4fa8 21be eee0 c4bd 500a 28be c372 003c
00000150: f4c8 6a3d a012 49bd eb8b a63c d819 17be
00000160: 3f88 94bd ca7a 9c3d 030a 353e 6f27 2a3d
00000170: d482 48bd 478d 0bbd dd9d 42bc 1470 e63a
00000180: 51ab b2bd 5829 cd3c b542 f8b9 5821 ab3d
00000190: 90d0 dbbd 8975 f3bc 344a 8bbc 06d1 673d
000001a0: db3c 253e 5ad1 263e 2ba4 c3bd e99b b93d
000001b0: e88f 1bbe ead2 88be 322b b6bd 4836 28bd
000001c0: c64c e9bd 2f3a 63bd ceee c8bd b715 f2bd
000001d0: 8183 0f3d eb36 d23d b6e0 ae3c b557 43be
000001e0: 95a4 7fbe 5dee 283e fe9d 043e b0aa 33be
000001f0: 689f 13be c3e5 e8bc 8677 7fbd 5ebd f0bd
-0.1882544 0.13529949 -0.20839491 -0.20478222 0.06331297 0.08730635 0.099187545 -0.016908418
0.054044046 0.19530295 0.016108412 0.1842272 0.027474098 -0.16457915 -0.09571835 -0.03828578
-0.061986208 -0.084774874 -0.21339044 0.075417556 -0.16616029 -0.16736971 -0.001101841 0.10653783
0.098255984 0.04315838 0.09751294 -0.049945056 0.1017343 -0.18327472 0.03802624 0.03638964
-0.032295197 -0.19502449 0.28143907 0.097280644 0.12560168 -0.23283532 0.043607626 -0.018279428
-0.16604218 0.07910331 0.041634098 0.1349677 0.023566462 0.024175406 0.07219223 -0.1083854
0.06401101 -0.12912573 -0.011722607 0.06645719 0.10574016 -0.10488326 0.18298772 -0.08324156
0.050212417 -0.07021976 -0.11696107 0.16305895 -0.018524585 0.033611864 0.1709362 -0.03456174
-0.19029693 0.08722844 0.06644689 0.0037381945 -0.024915822 0.041747175 0.1782589 0.09413232
0.05276223 -0.07169111 -0.016830271 0.11146462 0.17465647 -0.073032066 -0.14613612 0.15124288
-0.15786861 -0.096132144 -0.16410184 0.007839861 0.05732055 -0.049090028 0.02033039 -0.14755952
-0.072525494 0.07640608 0.176796 0.041541513 -0.048952892 -0.03407028 -0.011878458 0.0017581009
-0.08724082 0.025044128 -0.00047351947 0.08355969 -0.107331395 -0.029719131 -0.017003156 0.056595825
0.16136496 0.16290799 -0.09552797 0.090629406 -0.15191615 -0.26723415 -0.088949576 -0.04106739
-0.113915965 -0.05547541 -0.098111734 -0.11820548 0.03503752 0.10264381 0.021347385 -0.19076426
-0.24965127 0.16497178 0.12950894 -0.17545581 -0.14416277 -0.028429871 -0.062369846 -0.11754869

conv3.1.running_var f4 [128]
00000000: 1ed0 063f cfa4 3e3e 107f 033f 2ba1 a03e
00000010: 9289 c83e 5f40 f73e d976 e63e 94e8 a03e
00000020: abb3 a63e 4f21 bc3e 1b30 ac3e aa3c 973f
00000030: 041c bb3e 197f cb3e 973b c93e 9bca 993e
00000040: 0962 053f 74d2 d53e ee2e 443f 4f0a 8d3e
00000050: 83c0 af3f 3f07 673f 010c 203e d742 933e
00000060: a572 8b3e 4738 e13e c340 273f 8c97 b03e
00000070: b30e e23e 90a9 f63e e38c 1b3f c408 603e
00000080: 33d2 8c3e a7cc 533f 61bd 503f 39ec 663e
00000090: 48f2 f63e b5a3 353f 936f 8f3e 3422 793e
000000a0: 661a 5f3e 0f23 853e 4640 e93e 7c61 b63e
000000b0: 1a05 bc3e 50de 593e a8ee 973e f262 d13e
000000c0: 4d88 193f 08c4 963f b056 de3e 135a 243f
000000d0: 8e76 ed3e 17e4 b93e e3a0 153f f028 8c3e
000000e0: 693d 623e 5218 c23e 71c4 a33e fd09 d23e
000000f0: 6cb7 d93e a42e a03e 5f91 523f e795 8c3e
00000100: e5e2 433f 0073 703e 29e1 333f 252f f93e
00000110: 2b7b a93e c114 bc3e c161 293f 3573 db3e
00000120: bc41 d23e 782c b33e dda4 983e a10a 763f
00000130: 1044 ae3e 17dc ea3e dc96 103f 0bd0 f03e
00000140: 5bef 1e3f ef16 253f 9cad 0a3f 9237 ba3e
00000150: 49b3 bc3e 942a 1b3e 1245 063f 1f27 e63e
00000160: f1d6 c53e 3814 a43e c62e 163f 5982 7a3e
00000170: c592 bd3e 7d3e d63e 3dfe cc3e 9e81 413e
00000180: 23d7 a73e aa8b 153f fea5 993e 2c28 203f
00000190: 8ee8 f63e d7b7 df3e ac2e d93e 7ffd 8c3e
000001a0: 6456 853f 97fc 593e 9812 b23e 2b8c a63e
000001b0: eb67 273f c5c7 873f ed27 a63e 8aaa d83e
000001c0: e6eb 1b3f d955 ad3e c53e e83e 12f8 0e3f
000001d0: e14a 8b3e dfca b63e c28b 913e dd22 ff3e
000001e0: 7ec4 8c3f 18a0 2a3f bf62 c93e cbcb 183f
000001f0: e1ee 053f c73f d63e 81bc 373e 2420 1b3f
0.5266131 0.18617557 0.51365757 0.3137296 0.39167458 0.482913 0.4501255 0.31427443
0.3255895 0.36744162 0.33630452 1.1815388 0.36544812 0.39745405 0.39303276 0.30037388
0.52102715 0.41762125 0.7663411 0.27546927 1.3730625 0.9024543 0.15629579 0.28761932
0.27235904 0.4398825 0.65333194 0.3449062 0.4415184 0.4817624 0.6076185 0.21878344
0.2750412 0.8273415 0.8153897 0.2255105 0.4823172 0.7095292 0.28014812 0.24329454
0.21787414 0.2600331 0.4555685 0.3562125 0.36722642 0.21276212 0.29674268 0.40895802
0.59973603 1.1778574 0.43425512 0.6419994 0.46379513 0.3630683 0.5844862 0.27374983
0.22093739 0.3790918 0.3198581 0.41023245 0.42522752 0.31285584 0.8225307 0.27458116
0.7651809 0.23481369 0.7026544 0.4866878 0.33101782 0.36734584 0.66164786 0.42861333
0.41065776 0.34994864 0.2981328 0.9610997 0.34036303 0.4587104 0.56480193 0.47033724
0.6208398 0.6448812 0.54171157 0.36370522 0.36855534 0.15152961 0.5244914 0.44951722
0.3864055 0.32046676 0.5866512 0.24463786 0.3702604 0.4184455 0.40037718 0.18897101
0.32781324 0.58416235 0.30009454 0.625613 0.482243 0.43694946 0.4241842 0.27537152
1.0416989 0.21287762 0.3477981 0.32528815 0.6539294 1.060784 0.32452336 0.4231761
0.6090683 0.3385456 0.4536039 0.55847275 0.27205566 0.35701653 0.2842694 0.49831286
1.0997465 0.66650534 0.3933315 0.59685963 0.52317625 0.41845533 0.17943002 0.6059592
