saved/archae_gcn_raw_geoms.pth (torch, 37408 bytes, 18 tensors)

conv.0.weight f4 [64, 4, 1, 1]
00000000: a493 d13e df0b 8d3e 175c f4be 90a2 d33d
00000010: 63b6 8dbe 6082 c83e 40d1 6e3d f63f b3be
00000020: 0e69 cb3d 0bfe 803e 9836 d53c 570b 123d
00000030: 0624 77be 81e2 cfbe 2ca2 ed3e 8c32 87be
00000040: 3ee7 fe3e 1f91 ce3e 96c7 1e3e 4560 cd3c
00000050: ce52 e03e e52d a3be 2dcd 953e ca79 6bbe
00000060: 3878 6dbd 3604 ca3e 85ad 1e3d a9fa ef3e
00000070: 55c1 a2bd f1ce 1bbe d4e0 893d 94c2 833e
00000080: d354 a5be 3ef1 d33e f7c6 26be b7dd 4e3d
00000090: f0bb ca3e 354c ee3e 2181 dabe 5613 89be
000000a0: 1d67 4f3e 97b6 a13e e276 e83e 8b7e cbbe
000000b0: 5d3c 4a3e 255f 913c 2fa2 6ebd 9ed9 06be
000000c0: dc6b 803e acdc 263e d801 453e 7da0 e23e
000000d0: 60bc 443e fe15 d43d 87c1 8b3e e560 f73d
000000e0: fc6e cb3e 2e9e 943d 2b60 acbe c124 5bbe
000000f0: 7c51 473e aa29 d63e dc66 d3be d6de b9be
00000100: 1445 81be 420e c0be 9d90 303e 8822 cf3e
00000110: 2624 933d 8635 ffbe 0c1c e13e 3f1a 1e3e
00000120: 4c51 4a3d 5195 3ebe be85 8a3e 5d34 8f3e
00000130: 59c4 c2bc 8780 66be a172 d43e 10ec d93e
00000140: f821 c3be a6d1 c63e 0b3b bd3e 5d70 49be
00000150: 15db 44bd 6445 b73e 408f bfbc 8ea7 c33e
00000160: 0bb7 d4be eea8 64be eec8 243d f128 8fbe
00000170: 58f4 cbbe fca8 a83e 617a d4be 6024 e8bc
00000180: 07c5 d0be 95ff a93e 8144 6cbe 53a4 f7bd
00000190: 1355 40be 0e1b 18be 64ad 53be 65bb 073e
000001a0: c498 9fbe 8e5a 6f3e 6700 983e a541 a4be
000001b0: dc8f a03c 5ae1 ab3e ba4c 853e fe27 bc3e
000001c0: 217b ae3d 212e 83be 1bc5 cabe 4aa0 cabe
000001d0: 301c 3cbe 4347 a1bd cd4e 52be 8f49 ca3e
000001e0: 0dc3 50be c8bd bb3e 9f03 9bbe 7166 c03e
000001f0: db06 7c3e 2e77 35be e4ae b33e 966d 62be
00000200: 022c dd3e 5afc 4e3d 8c53 1d3e 5aba 6e3c
00000210: 44c5 b2be 6dad a2bd d08f 87be ec25 a53e
00000220: a62c 8a3e 5784 53be 546f a03e bae4 d23e
00000230: 8624 7bbd f503 393e 1190 31be 6433 90be
00000240: 9a9e c0bd 294f af3d 5e3c b8be 0e28 213e
00000250: fc2a ddbd 1544 6fbe 2b4b e23d 7394 8fbd
00000260: 0938 183e a0bd 243e 9b48 bb3e 06f5 69be
00000270: f965 4d3e d9f6 04be c571 edbe 794a 323e
00000280: 4c6d 533e 332e e23e 4121 b4be 5202 ffbe
00000290: 00e4 adbd acc9 13be 6a67 5b3e 8bb7 cc3d
000002a0: d71a 8f3e 9176 7f3e 1241 a2bd 6cea eebe
000002b0: 3aa9 a03e 5f51 afbe f298 d33e a638 fd3e
000002c0: ff65 643e 69d4 b73d 5181 73be 3805 bbbe
000002d0: 7442 923e 515c ed3d 8eff d53d a7e2 53be
000002e0: a5e0 37be 437d 6e3e a1c6 d8be cea1 a7be
000002f0: 9fba 0f3e d520 8b3e 9442 14be a733 cf3b
00000300: d687 2b3e 8e9a d4bb ff20 be3e 0cf6 d53e
00000310: 0879 29be c518 8c3e ddc7 c9be aeab 0f3e
00000320: e538 f2bc 210d ad3e dd70 e4be 6ae4 623e
00000330: bba0 1ebc 1f3b a8be 8d20 f83e 6525 f7bd
00000340: 3da3 c9be 85d3 a0be 0561 393e 9aa4 4fbe
00000350: 41bf b5bd fb5c ce3e c61c 53be 1ba8 363e
00000360: c2b4 58be 7ae9 10be 3bd3 0bbd 0c30 9fbe
00000370: 5b3c f03b 2859 e53d 2a44 dfbe db1c c2bb
00000380: 1c09 80be c83f 97be f967 47bd 66e1 cb3e
00000390: 532b 47be ed34 7dbd 71a7 b93b 3e87 6b3e
000003a0: d8e6 8bbe 5fe7 98be 2f5c 07be 237e cb3e
000003b0: 6029 bd3e 5663 a0be 6ed3 743e a62a 9f3e
000003c0: 0817 b4be 868f 9bbe 3b81 a6be 6ae2 95bd
000003d0: 0e38 d4be 9937 673d 24ac 303e 44b2 cabe
000003e0: 5177 253e e4ed 233d df62 d73e fa92 8bbe
000003f0: 0a7f 9f3e 1d62 3d3d c8e5 24be 4593 c9bd
0.40932953 0.2754812 -0.4772651 0.10333741 -0.27678213 0.39161968 0.058305025 -0.35009736
0.09932147 0.2519382 0.026027009 0.035655346 -0.24134836 -0.40602496 0.4641279 -0.26405752
0.497858 0.40345094 0.15505823 0.025070319 0.43813175 -0.31870952 0.292581 -0.22995678
-0.057975978 0.39456338 0.0387397 0.46870926 -0.079470314 -0.1521566 0.06732336 0.2573439
-0.32291278 0.4139499 -0.16286837 0.050504413 0.3959651 0.46542516 -0.42676643 -0.26772565
0.20254178 0.31584617 0.454032 -0.39744982 0.1974959 0.017745564 -0.05826014 -0.13168952
0.2508229 0.16295117 0.19238985 0.44263068 0.19212484 0.10355757 0.27296087 0.12079028
0.39733112 0.07256733 -0.3366712 -0.21400739 0.19464678 0.41828662 -0.41289413 -0.36302823
-0.25248015 -0.37510878 0.17242666 0.40456033 0.07184629 -0.49845523 0.4396671 0.154397
0.049393937 -0.18611647 0.27055162 0.27969638 -0.023775266 -0.22509967 0.41493705 0.42562914
-0.38111854 0.38831824 0.3695911 -0.1967177 -0.048060495 0.35795128 -0.023383737 0.38213772
-0.415459 -0.22330067 0.040230684 -0.27960923 -0.39834857 0.32941425 -0.41499618 -0.028337657
-0.4077532 0.33202806 -0.23073007 -0.12091889 -0.18782453 -0.1485407 -0.20671612 0.13255079
-0.31171238 0.23374388 0.29687807 -0.32081333 0.019599847 0.33570367 0.260351 0.36749262
0.08519579 -0.2562113 -0.39603505 -0.39575416 -0.18370128 -0.0787492 -0.20537873 0.39509246
-0.20386906 0.3666823 -0.302762 0.37578157 0.2461199 -0.17721245 0.35094368 -0.22112116
0.43197638 0.05053363 0.15363902 0.014570797 -0.34916127 -0.079432346 -0.26476908 0.32255495
0.2698719 -0.20655952 0.31334937 0.4119013 -0.06131413 0.18067916 -0.17340113 -0.28164208
-0.09405251 0.085600205 -0.35983557 0.15737936 -0.10799214 -0.23365815 0.110494934 -0.07010736
0.14865126 0.16087961 0.3657883 -0.22847375 0.2005843 -0.1298479 -0.46375862 0.17411222
0.20647162 0.44175872 -0.3518162 -0.49806458 -0.08490753 -0.144324 0.21426168 0.099959455
0.27950165 0.24947573 -0.079225674 -0.46663225 0.3137911 -0.3424177 0.41327626 0.49457282
0.22304533 0.08976061 -0.23779799 -0.3652742 0.28566325 0.115898736 0.10449134 -0.2069193
-0.17956789 0.23289971 -0.42339042 -0.32740635 0.14036034 0.27173486 -0.14478523 0.006323296
0.16751036 -0.006488151 0.3713455 0.4178928 -0.16550076 0.27362648 -0.39410296 0.14030334
-0.029568145 0.3379908 -0.44617358 0.22157446 -0.009681876 -0.32857606 0.48462334 -0.12067679
-0.39382353 -0.31411377 0.18103416 -0.20277634 -0.088743694 0.40305313 -0.20616445 0.17837565
-0.21162704 -0.14151564 -0.034136992 -0.31091344 0.0073314137 0.11198646 -0.43606693 -0.00592385
-0.2500695 -0.2954085 -0.04868314 0.39820403 -0.1945012 -0.061818052 0.0056657125 0.2300081
-0.27324557 -0.29864022 -0.13218759 0.39744672 0.3694563 -0.31325787 0.23908779 0.31087226
-0.3517382 -0.30382937 -0.3252047 -0.07318576 -0.41449016 0.056449506 0.17253166 -0.3958913
0.16158797 0.040021792 0.4206762 -0.27260572 0.3115161 0.046236146 -0.1610328 -0.098425426

conv.1.weight f4 [64]
00000000: 0416 803f 8b03 803f 456b 803f 87ec 7f3f
00000010: 594e 7f3f 28fb 7f3f 0036 803f 9230 803f
00000020: eb43 803f f09d 7f3f d688 7f3f 5513 803f
00000030: 27ac 803f 1b49 803f df59 803f eefb 7f3f
00000040: 4a18 803f 04c6 7f3f a7a1 7f3f 745e 803f
00000050: 3bb3 803f 1b19 803f 9bfd 7f3f da62 803f
00000060: d266 7f3f f92b 803f f731 803f e302 803f
00000070: ad10 803f 6daf 7e3f 16f9 7f3f 8cff 7f3f
00000080: ccf0 7e3f 3b66 803f e7f8 7e3f ac73 7f3f
00000090: 5e7f 803f 10fb 7f3f 476d 803f cbf1 7e3f
000000a0: b8ec 7f3f 4dc4 7f3f eb4d 803f 481d 803f
000000b0: 8eb2 7d3f f558 803f 702e 7f3f 43b0 7f3f
000000c0: 3fe9 7f3f c7a2 7f3f f679 7f3f 2811 803f
000000d0: c8c5 7f3f 8dbe 7f3f ce22 803f fc42 803f
000000e0: 9d8d 7f3f 97c9 7f3f e97a 7f3f 4858 7f3f
000000f0: 21ee 7f3f f4b6 7f3f 3959 803f 5616 803f
1.0006719 1.0001081 1.0032736 0.9997029 0.99728924 0.9999261 1.001648 1.0014822
1.0020727 0.9985037 0.9981817 1.00059 1.0052537 1.002231 1.0027426 0.9999379
1.0007412 0.9991152 0.99856037 1.0028825 1.0054697 1.0007662 0.99996346 1.0030167
0.99766266 1.0013419 1.0015248 1.0000881 1.0005089 0.9948643 0.9998945 0.9999931
0.99586177 1.0031198 0.99598545 0.99785876 1.0038869 0.99992466 1.0033349 0.99587697
0.9997058 0.99908906 1.0023779 1.0008936 0.9910058 1.0027148 0.99680233 0.9987833
0.9996528 0.99857754 0.9979547 1.0005236 0.99911165 0.9990013 1.0010622 1.0020442
0.9982546 0.99916977 0.9979692 0.9974408 0.9997273 0.9988854 1.0027229 1.0006816

conv.1.bias f4 [64]
00000000: 2a39 b6b9 4261 41ba 7d06 f338 c29d eeb9
00000010: acf9 8739 966a 3a38 0ad8 9cb9 e0ca 0c3a
00000020: e0b2 fbba c087 5eba 5c00 3cb9 d83f 2e39
00000030: b1b9 c63a a164 17b8 f23a 9239 19a5 0ab9
00000040: 9dd2 77ba 54de 25ba 4725 6239 c19a 9fb9
00000050: cd0a 8bba 3503 4db9 0985 8fb8 a47e 69b9
00000060: cb42 b539 e63f 603a 41b5 cdb9 8c35 82ba
00000070: a990 2aba c0ad 32ba 6d03 4a3a c68b a3b8
00000080: e41a 1db9 436b 193a 622b f4b9 91d9 08b7
00000090: 13fb db3a 19c7 90ba 2c2f 1239 7281 8f39
000000a0: 90db 0439 de05 1c3a e9b2 07ba 0d21 9239
000000b0: 8f6e 5eb8 0bec 20b8 033f e8ba f308 d8b9
000000c0: b4c3 b1b9 516d c639 cf37 d239 cd4e d639
000000d0: 2193 78b8 58cd 4dba 0e74 8c38 5899 1239
000000e0: d9c2 beb9 3029 88b9 db68 1fba aab7 87ba
000000f0: be15 25ba 4ba0 2037 cd62 8a3a e097 9cb9
-0.00034756336 -0.0007376858 0.000115883515 -0.00045512436 0.00025935227 4.444512e-05 -0.000299156 0.0005370807
-0.0019203089 -0.0008488856 -0.00017929211 0.00016617717 0.0015161542 -3.6094923e-05 0.00027891208 -0.00013222209
-0.0009453686 -0.000632738 0.00021566926 -0.00030442144 -0.0010608077 -0.00019551518 -6.843551e-05 -0.00022267789
0.00034572775 0.00085544435 -0.00039235692 -0.0009934171 -0.00065065414 -0.0006816052 0.0007706199 -7.7984805e-05
-0.00014982704 0.000585247 -0.0004657163 -8.156888e-06 0.00167832 -0.0011045664 0.00013941218 0.0002737153
0.00012670294 0.0005951802 -0.0005176501 0.00027871915 -5.303189e-05 -3.8366805e-05 -0.0017718974 -0.00041205398
-0.0003390588 0.0003784695 0.00040095902 0.00040875972 -5.9264832e-05 -0.0007850728 6.697337e-05 0.0001398077
-0.00036384797 -0.00025970628 -0.00060809933 -0.0010354419 -0.00062974903 9.574064e-06 0.0010558009 -0.00029867794

conv.1.running_mean f4 [64]
00000000: 17e4 ec3f 0ad0 0740 aace c33f 4bdb 20c0
00000010: 3d9a 2940 b0ff ccbf 0240 1140 1f51 6fbf
00000020: e06c 0e40 beed 3c40 eb5b fb3f 3d22 5d3e
00000030: e4d0 8c3f 8f14 383f 31f9 273f a8ae 2340
00000040: dcb9 15c0 4b85 37c0 0347 87bf 9d0e aabf
00000050: 289e 0240 2bef 0340 c13b c6bf 51f9 d73f
00000060: 3444 d93f 22e6 7abf def1 963f 1666 fc3f
00000070: a204 b9bf dd76 11bf 6942 0140 84c2 63bf
00000080: dee2 0c3f dd12 2bbf fdec 85bf 7a48 823f
00000090: 89ca e13e eaca b6bf 1c87 833f 2fe7 23bf
000000a0: fde2 2c40 50f0 63bf 06b2 cf3f a41e e8bf
000000b0: 0ecc 283f bfcc 583f c86c a03f 42ac d53f
000000c0: 8ef9 7d3d 21f2 bf3f 694d fa3f e44b f6bf
000000d0: 734b 04c0 6f40 1340 44c1 73bf fdee 283f
000000e0: d4be efbf 4375 f3be cad9 f3bf c31c cebf
000000f0: acb7 fdbf 429a ab3d 3285 a93e ff7a ec3e
1.8507107 2.1220727 1.5297444 -2.5133846 2.650039 -1.601553 2.2695317 -0.93483156
2.2253952 2.9520106 1.9637426 0.21595092 1.1001248 0.7190637 0.6561461 2.5575352
-2.339469 -2.8675106 -1.0568546 -1.328571 2.040903 2.0614727 -1.5486985 1.687296
1.6973939 -0.98007405 1.1792562 1.9718654 -1.4454539 -0.56821996 2.0196784 -0.8896868
0.5503367 -0.6682566 -1.0462948 1.0178368 0.44099835 -1.4280674 1.0275607 -0.64024633
2.7013543 -0.8903856 1.6226203 -1.8134351 0.6593636 0.8468742 1.2533197 1.6693194
0.062005572 1.4995767 1.9554874 -1.924191 -2.067105 2.3008077 -0.95216775 0.6598967
-1.8730111 -0.475504 -1.9050839 -1.6102527 -1.9821677 0.08379032 0.33109432 0.4618759

conv.1.running_var f4 [64]
00000000: 0ec0 d541 68b1 2242 ef36 9241 0c67 4342
00000010: ac2f 5c42 0e6d 9f41 4ddb 2542 772e 1441
00000020: 0346 1b42 0533 9442 c51f 0e42 7963 603f
00000030: e287 4341 4518 8540 6235 a940 a62f 6b42
00000040: f703 4a42 6381 8742 a49d 3f41 6b4c a641
00000050: f551 0a42 00ef 0642 54e5 9741 cdfa b741
00000060: 7d79 c041 5bce 0341 ed10 6041 0b13 f941
00000070: aeb2 9141 1bf1 c840 b9af 0042 380f cc40
00000080: e8dc 1640 d4f0 c240 df9b 6741 70a4 3241
00000090: 0a6c d33f cbac 7d41 cb13 1d41 d4ff 7740
000000a0: ea93 8942 4d9b de40 1683 e241 e72a 0e42
000000b0: daf8 f140 266d e240 2cbb 8741 0940 b041
000000c0: eae4 8940 d040 8b41 9491 ec41 f280 e641
000000d0: 5d32 0442 aede 2342 3b88 0241 2dd3 6640
000000e0: 046c 0642 5982 5340 9f93 0942 5844 c641
000000f0: 61c7 f341 7e30 4d40 d2c3 1040 760d 0a40
26.718777 40.67325 18.276823 48.85063 55.046555 19.92825 41.46416 9.261344
38.81837 74.09965 35.531025 0.87651783 12.2206745 4.1592126 5.2877665 58.79653
50.503872 67.75271 11.9759865 20.787313 34.580036 33.7334 18.986977 22.997461
24.05932 8.23788 14.004132 31.134298 18.212246 6.279432 32.171604 6.3768578
2.357233 6.091898 14.475554 11.165146 1.6517346 15.854686 9.817332 3.8749895
68.788895 6.9564576 28.314007 35.541897 7.5616274 7.075824 16.966393 22.031267
4.3091936 17.406647 29.571083 28.812962 33.049183 40.96746 8.158259 3.6066391
33.605484 3.3048308 34.39416 24.783371 30.472353 3.2060847 2.261952 2.1570716

conv.3.weight f4 [64, 64, 1, 1]
00000000: 0e47 6dba 0969 8fbd 2974 f43d ea36 993c
00000010: 58d4 563b 8143 29bd b7fa e23d 15ee 893d
00000020: 5794 d63c 9cee e63d 6929 a33c 411e e7bd
00000030: c680 233d 2359 c83d 013e f13c ca76 943d
00000040: af1b 8b3d af75 793d 461c 93bd 5392 593d
00000050: 42b8 17bd 97fb b8bd 2163 b43c d373 dc3c
00000060: 67da 0bbd 4bbe ed3d 5a89 d3bd 77a6 1b3c
00000070: 95a8 42bc 6e36 c4bb fba5 9cbc 0bac d2bd
00000080: 56ba f4bc 6b43 d8bd 805a c33d 10bd 0bbc
00000090: 3883 8c3d 1f5c 063d b4ea 48bd 2629 5ebd
000000a0: ad61 9d3c 4420 9f3d d2d8 b43d 1e3c b3bd
000000b0: df92 e0bc c22b 5e3d 3138 8abd 238e 8cbd
000000c0: 3fc2 893c dd83 35bd c912 303c e27b f3bd
000000d0: fd75 803d 95be 3abd 5999 883d 406a 303d
000000e0: 58da d43d cf6b ac3d 922e b1bd bbac aa3c
000000f0: d682 e7bd d3d5 963c 9d64 f2bd 7cb9 ffbd
00000100: 3d28 bf3d 2fd5 02be 13c5 bbbd 0c35 7dba
00000110: 8366 883d f59e 67bd 2db2 8dbd 6fce 363d
00000120: 9368 83bc 5ed8 88bd b784 a13c de09 763d
00000130: eef0 f0bd 895f 67bd 61c3 a2bd 5803 813b
00000140: 8deb 983a 48f2 5e3d 0b41 ea3c 59ff f2bd
00000150: 85a8 e3bd 3c6c 7d3d 73ac 973d b4f8 dc3d
00000160: 4f05 523d be3c fbbb e5a4 483d 833d e93d
00000170: 13ae cfbd b3f3 973b b648 2dbd 82e4 9b3d
00000180: 7418 87bd 9650 7b3d dddd b9bd db3b 73bb
00000190: a243 44bd 5f9b 94bd 3082 90bd 2155 683c
000001a0: 91ee 173d 3728 f6bd 7740 99bc 5301 26bc
000001b0: 4d8c d2bd 0eea ec3d 0ef5 58bc 8886 b9bd
000001c0: fd30 c43d 88e6 e03c c019 bd3d f82a 41bd
000001d0: 20aa 8bbd 3f56 833d 2ec8 c3bd 3811 bbbd
000001e0: 6e82 b03d f8f8 e9bd e603 99bd 95fb a6bb
000001f0: ff11 a7bc 230c b53d f941 02be c8ec 02be
00000200: 47d6 45bd fda6 553d f20f 7b3c f602 c03d
00000210: b5e0 b33a ce26 79bd 50df 64bd 6662 603c
00000220: 2ce8 833d f7ba 803d 24a2 4cbd 35d3 b83d
00000230: 4ea0 f6bd 5d48 863d 2329 e2bd c984 7b3d
00000240: 380d 72bc effe 82bc 25c4 37bd 00f6 56bb
00000250: 705e c9bd 2d07 40bd a876 003e 8bcc 343d
00000260: 4cc2 633b 7e0b b53d 58e0 bd3d 35a8 f4bc
00000270: e216 d93d aec6 95bd 3513 a23c 984f 1dbd
00000280: 2681 a43d 6931 153b b494 5ebd c171 603d
00000290: 5420 cdbd b6ea dc3d 2498 05be 9d5e a5bd
000002a0: 7844 543d b875 91bc f48f a73d 8a1d 713c
000002b0: 5875 64bd 34c3 99bd d18b 1dbd a982 c53d
000002c0: c213 ef3d 6b42 a8bd 0dfd fabd 2740 aabb
000002d0: 9f5e ec3d effa a4bd ef7d fc3d 466e 02be
000002e0: e04f a33c 22f9 9fbd 80f7 733d 6864 68bd
000002f0: 0de2 b9bd 2fdc 613c 9713 71bd bdab db3d
00000300: 4afa b1bc b6f5 e83c 9978 1d3d d400 823d
00000310: ed28 b63d d915 913d deb6 90bd ce22 f0bd
00000320: 3a67 6cbd d443 c4bc 9ae6 54bd 6e2b f13d
00000330: adc1 b93d 13b8 0c3c 768f 373c 7e98 ddbd
00000340: 3438 013e 9ace c63d 5088 99bd 01aa afbd
00000350: 7546 c23c 4094 303d 71bc 4cbd 3a95 c9bd
00000360: 7335 a9bd 0867 aebc 4e32 24bd 356f 8bbd
00000370: 03d7 11bd 2625 223d e34b d63d 29b9 873c
00000380: 7666 743d 91bf beba 9acb ea3d 7eb1 3ebd
00000390: 5d74 773c c327 d6bd 3b4b cfbd 95d0 ac3b
000003a0: 53fb e7bd 2935 d5bd 4ee0 92bd 1ea8 c7bd
000003b0: 0f66 c53d e293 b43d 0b31 67bd 483f afbd
000003c0: 9e5f fb3d e861 a0bc 903f a2b8 fe62 123d
000003d0: 7b4b f0bc 1fc2 873d 99d1 523d 7f31 da3d
000003e0: 0559 81bd 1af4 623b 619c 603d 1790 bdbd
000003f0: fa0b 1ebd 5d55 c5bd 38ae c5bd 6bf8 50bb
-0.00090514205 -0.07002456 0.11936218 0.018702943 0.0032780375 -0.041324142 0.11082976 0.06734864
0.02619378 0.1127598 0.019917207 -0.11285067 0.03991773 0.097826265 0.029448511 0.0724922
0.067923896 0.060903247 -0.07183127 0.05311806 -0.037040956 -0.09032362 0.022019925 0.026910698
-0.03414383 0.11608561 -0.10328932 0.0095001375 -0.011881013 -0.005987934 -0.019122114 -0.10286721
-0.029874008 -0.10559734 0.09538746 -0.008528963 0.068609655 0.032802697 -0.049051955 -0.05423846
0.019211615 0.07769826 0.08830418 -0.08751701 -0.027413784 0.05424095 -0.06748999 -0.06863048
0.016816257 -0.044315208 0.010746666 -0.11888863 0.062725045 -0.04559191 0.06669874 0.043070078
0.10393208 0.08419 -0.08651461 0.020834317 -0.11304252 0.018412506 -0.11835597 -0.1248655
0.09333847 -0.12776636 -0.09168448 -0.00096590887 0.066601776 -0.056548078 -0.0691875 0.044630464
-0.016041076 -0.06681894 0.019716604 0.060068004 -0.11764704 -0.056487594 -0.07947422 0.003937166
0.0011666879 0.054430276 0.028595468 -0.1186511 -0.11116127 0.0618708 0.07405939 0.10789624
0.051274594 -0.007667153 0.04898538 0.113886856 -0.10140624 0.0046372055 -0.04230567 0.07611944
-0.06596461 0.06135615 -0.0907552 -0.0037114534 -0.047916062 -0.07256197 -0.07056081 0.014180453
0.03709275 -0.12019389 -0.018707497 -0.010132152 -0.102806665 0.1156808 -0.013242019 -0.09058863
0.09579656 0.027453676 0.09233427 -0.04716012 -0.06819558 0.064129345 -0.095596656 -0.091341436
0.086186275 -0.1142444 -0.07471447 -0.005095909 -0.020394323 0.088402055 -0.12720479 -0.12785637
-0.048300054 0.052161206 0.015323626 0.09375565 0.0013723584 -0.060828023 -0.05587703 0.013695335
0.06440768 0.06285661 -0.049959317 0.090246595 -0.120422944 0.06556771 -0.110430025 0.06140593
-0.014773659 -0.015990702 -0.044864792 -0.0032800436 -0.09832466 -0.046881843 0.12545264 0.04414038
0.003475326 0.088400826 0.09271306 -0.029865364 0.10600068 -0.07313286 0.01978455 -0.038405985
0.080324456 0.0022765046 -0.054341033 0.054795984 -0.10015932 0.10786955 -0.13046318 -0.08074687
0.05182311 -0.017756328 0.08181754 0.014716515 -0.05577597 -0.07507935 -0.038463417 0.09644062
0.116736904 -0.08215793 -0.12255297 -0.005195636 0.11541485 -0.08055674 0.123287074 -0.12737378
0.019935548 -0.0781119 0.059562206 -0.05673638 -0.09076319 0.013785406 -0.058856573 0.10726116
-0.021725792 0.028437477 0.03844509 0.06347814 0.08894525 0.07084245 -0.07066129 -0.117253885
-0.057715632 -0.023958124 -0.05197773 0.11775862 0.09070144 0.008588809 0.011203637 -0.10820101
0.12619096 0.09707375 -0.07496703 -0.085773475 0.023715237 0.043110132 -0.0499844 -0.09842916
-0.08262148 -0.021289364 -0.040087037 -0.068083204 -0.03560544 0.03958621 0.10463693 0.016567783
0.059668027 -0.0014552941 0.11464615 -0.04655599 0.015103427 -0.10456803 -0.10121771 0.0052738884
-0.11327233 -0.1041053 -0.07171689 -0.09748863 0.09638607 0.08817269 -0.056443255 -0.08556992
0.12274097 -0.019577935 -7.7366014e-05 0.035738938 -0.029332867 0.066288225 0.05146942 0.10653972
-0.06315807 0.003463036 0.054836635 -0.092559986 -0.03858564 -0.096354224 -0.0965237 -0.003188635

conv.4.weight f4 [64]
00000000: f2e9 7f3f bede 7f3f a96a 7f3f 590e 803f
00000010: 1a63 7f3f 0442 7e3f 9892 803f 39fc 7f3f
00000020: b4ce 7f3f 64a4 803f 4682 803f 1810 803f
00000030: c924 803f d914 803f da2b 803f 6d05 803f
00000040: a800 803f 3cf0 7f3f 4733 803f 23f6 7f3f
00000050: 31eb 7f3f 3ddb 7f3f d46c 7f3f a23d 803f
00000060: d31c 803f 8897 7f3f f300 803f 93b3 803f
00000070: 6709 803f e2b0 7f3f c91c 803f cb9f 803f
00000080: 2517 803f 2db4 7f3f b952 7f3f bf02 803f
00000090: ddec 7f3f d0a9 7f3f 420a 7f3f 9377 803f
000000a0: 2701 803f fa0c 803f 6924 803f 8fdf 7f3f
000000b0: 0ad3 7f3f c605 803f 15a4 7f3f 2f7b 7f3f
000000c0: f920 7f3f c222 803f d164 803f 521f 803f
000000d0: 46de 7f3f f181 7f3f b2ac 7f3f 8021 803f
000000e0: db6b 7f3f c8dc 7f3f cb16 803f fde6 7f3f
000000f0: 28c1 7f3f e805 803f 7ff7 7f3f 0285 803f
0.9996635 0.9994925 0.99772125 1.0004379 0.9976059 0.9931948 1.0044737 0.99994236
0.9992478 1.0050168 1.0039756 1.0004911 1.0011226 1.0006362 1.0013382 1.0001656
1.00002 0.99975944 1.0015649 0.9998495 0.9996825 0.99943906 0.99775434 1.0018809
1.0008796 0.99840593 1.000029 1.0054802 1.0002869 0.99879277 1.0008785 1.0048765
1.0007063 0.998843 0.997356 1.0000838 0.999708 0.9986849 0.9962503 1.0036491
1.0000352 1.000396 1.0011111 0.999505 0.99931395 1.0001762 0.99859744 0.9979734
0.9965969 1.0010607 1.0030767 1.0009558 0.9994854 0.9980765 0.9987289 1.0010223
0.9977395 0.9994626 1.0006956 0.99961835 0.9990411 1.0001802 0.99987024 1.0040591

conv.4.bias f4 [64]
00000000: 6924 02b9 c4ef 16ba 9e33 7038 be81 8cb9
00000010: 8c6e 37b4 73a4 ddb4 4cf5 db34 f68a 26b8
00000020: 338d 0937 0894 2235 1cff 6235 8f47 6739
00000030: d1a3 7339 f853 7f39 9c12 c934 c65b 11b9
00000040: 5b57 9733 8517 99b9 36b2 9b34 9ccf d8b8
00000050: 0f52 aa39 37c1 0939 06d7 a733 4f1a a635
00000060: 6202 d034 0b76 1f34 35ee 59b8 9730 c135
00000070: 4185 f134 ec6a c5b3 62c6 a734 c50e 1936
00000080: 9654 293a bf1f c6b9 88da f1b4 2552 e239
00000090: 9f0a bbb7 1852 b234 64ab 2ab5 42cb 13b8
000000a0: 0f0d 0a36 ce95 13b9 228e 7eb3 1332 e633
000000b0: f411 9739 ad77 a9b4 4e4a 67ba 29a0 d334
000000c0: a53b d939 2ebe ab39 9474 2e35 3e18 0935
000000d0: a8af 29ba aa7f 03b9 aeaf 08ba 7f78 8334
000000e0: 5053 ccb9 569c 0bb9 3c72 a1b9 4c2b 2bba
000000f0: 1c19 4f39 66a9 a238 da16 fcb8 e39b 1e35
-0.0001241133 -0.0005757774 5.726853e-05 -0.00026799546 -1.708342e-07 -4.128411e-07 4.0970406e-07 -3.97069e-05
8.198712e-06 6.0565117e-07 8.4562794e-07 0.00022056534 0.00023235312 0.00024349976 3.7452708e-07 -0.00013862466
7.047375e-08 -0.00029199957 2.9000665e-07 -0.00010338353 0.00032486065 0.00013137316 7.815656e-08 1.2375621e-06
3.8744753e-07 1.4850973e-07 -5.195868e-05 1.4393762e-06 4.4986703e-07 -9.192976e-08 3.1250516e-07 2.2807374e-06
0.00064594427 -0.00037789156 -4.504875e-07 0.00043167282 -2.2297083e-05 3.3214815e-07 -6.357934e-07 -3.523683e-05
2.0571204e-06 -0.00014074819 -5.9268253e-08 1.0719318e-07 0.0002881434 -3.156578e-07 -0.0008823023 3.9418344e-07
0.00041433904 0.00032757357 6.4989695e-07 5.1071754e-07 -0.0006473013 -0.00012540692 -0.00052141666 2.4488324e-07
-0.00038971985 -0.00013314313 -0.00030793424 -0.0006529584 0.00019750412 7.756315e-05 -0.00012020553 5.908643e-07

conv.4.running_mean f4 [64]
00000000: 388a e83c 9e9e 7dbe c15f 8bbc 007c f0bd
00000010: 5bb9 fe3d bb38 2d3e 4e29 7c3d 6e0a 43be
00000020: 1b64 06be 1df6 84bc 677b 253e c76c 91bc
00000030: 88af 35bd 0713 8fbe 9f22 473e fe95 b83d
00000040: 4493 303e 3115 52be a06e 4d3e d52b 92bc
00000050: 87a1 3ebe 0884 3d3d 1282 b03d cc5b 493e
00000060: a218 2fbd d174 a3bc 9a2a 01be c1b6 8b3a
00000070: 7478 7c3e 311d bdbc aa26 06bd 9fb6 963d
00000080: 074b abbd aa8a eebd 948c 393d ce91 a23d
00000090: 4d0d 91bd dd49 cf3d 79f6 d4bd 7de0 f83d
000000a0: 96be 163d 31b2 9ebd 7b09 b13d 6755 af3d
000000b0: 6090 50be 3d9a c23d ea33 80be 6bd2 e43d
000000c0: 4478 0c3e 2bbc babd f447 9dbd 5201 073e
000000d0: 4127 d6bd 5e87 44bd 3dd5 05be fed2 a93d
000000e0: f40c 5abe 5e18 bcbd 154b 0abe 6432 b9bd
000000f0: 5594 b5bd b724 23bd f348 11bd 78e4 973d
0.02838622 -0.24767539 -0.017013432 -0.11742401 0.124376975 0.16916172 0.06156283 -0.19046947
-0.13124125 -0.016230637 0.16160356 -0.017752064 -0.044356853 -0.27944204 0.194468 0.09012984
0.17243677 -0.20515896 0.20061731 -0.017843166 -0.18616305 0.046268493 0.08618559 0.19663924
-0.0427481 -0.019953163 -0.12613907 0.0010659323 0.24655324 -0.023085209 -0.032751717 0.07359051
-0.0836392 -0.11647542 0.04530008 0.07937966 -0.07082615 0.1012151 -0.103985734 0.12152193
0.03680285 -0.07748831 0.086443864 0.08561211 -0.20367575 0.09502075 -0.25039607 0.111729465
0.13717753 -0.091179214 -0.076797396 0.13184097 -0.10456706 -0.04798066 -0.13069625 0.08292197
-0.21294004 -0.09184335 -0.13505204 -0.090428144 -0.08866183 -0.039829936 -0.03546996 0.07416624

conv.4.running_var f4 [64]
00000000: 6763 833d 67ea b63d 2c41 3e3e 2a07 873d
00000010: 2e76 4a3f b4de 3c3e 8527 083e 47e5 523c
00000020: 4fa5 e03d 601b 813e 7976 093f 38d2 1d3d
00000030: 3f37 123e 1c15 843f 6e25 743e 348d 2a3d
00000040: d255 a43e b5bc 513d 586b 3c3e 9bc1 183e
00000050: 8616 8e3e 77e4 403e 464f 8f3e 1b8a 2a3e
00000060: d5eb fe3e 05aa 053f b823 493f a8d2 823d
00000070: 3786 263f 1eef e03c 9210 173e 163b f43d
00000080: 8300 823e d55c 513d 2ccf a03e 9119 9e3e
00000090: 7929 c23d 71c2 e63d 215b b53d 107f be3d
000000a0: 8b99 7e3c 22be 923e c1bf 003e a3a0 b73e
000000b0: cb82 1f3f a673 c03d 5e22 073e 7d40 ec3d
000000c0: 848c 933d 4886 473e e293 433e d6d5 473e
000000d0: 0557 073e 170d 633e 7765 ea3d 1486 153e
000000e0: 550e 4b3d fc50 d63e f7ae 043e 7239 663d
000000f0: c291 de3d 0e22 e23e a6e4 873d e6a3 223f
0.06415444 0.089314274 0.18579549 0.06593163 0.7908658 0.1844433 0.13296326 0.012872047
0.1096903 0.25216198 0.536964 0.03853056 0.14278887 1.0318942 0.23842403 0.041638568
0.32096726 0.051205356 0.18400323 0.14917605 0.2775156 0.18837152 0.27990168 0.16654246
0.497893 0.52212554 0.7857013 0.06387836 0.65048546 0.02745777 0.14752415 0.11925332
0.25391015 0.051113922 0.3140806 0.3087888 0.094805665 0.112675555 0.08855272 0.09301579
0.015539537 0.28660685 0.12573148 0.35864744 0.6230895 0.09397058 0.13196704 0.11535738
0.072045356 0.19484818 0.19099382 0.19515166 0.13216789 0.22172962 0.11445134 0.14601928
0.049574215 0.4185866 0.12957369 0.056207128 0.10867645 0.44166607 0.06635408 0.6353134

classifier.0.weight f4 [32, 64]
00000000: d587 cd3d ecfd d1bc 24fa 9c3d ea90 17bd
00000010: 71dd 18bd 14b4 dabd e470 113d 2788 33bd
00000020: f46f bcbd 8fa4 2d3d 9411 883d c18f ca3c
00000030: 89e1 e63d fd8c 7dbc 55e2 563d 8a93 fc3c
00000040: 853b 3a3d 6631 afbd ea71 ebbc 0ea0 febd
00000050: 5276 d23d e9cf f03d 6cae 23bc 1225 1e3d
00000060: 92fd c0bd d2e4 c5bd 6c24 06bd e16f 483d
00000070: d4cd 983c 5c33 143d 0c91 e43d 88ac b4bd
00000080: cd47 e5bb 9978 cb3c e1d0 b1bd 475a 1abd
00000090: 527b 84bd 1530 babc 98ab 953d c8b0 303d
000000a0: 0cb9 e9bc c555 febd fbcb 803d 7db8 543d
000000b0: dc36 043e ad99 a53d 022e 71bc fb81 1d3d
000000c0: a5de ea3d be21 8c38 8f06 61bd 3b0c c9bd
000000d0: 53cb 45bd a060 1cbc 8253 663d d56f a7bb
000000e0: b07b ac3d 7d60 403c 212d 763c 76a0 c0bd
000000f0: 1300 cabc bf67 83bd 3a00 0d3b 49f1 aabc
00000100: 0891 dd3b 8efb a23d c2b6 bbbd 199f 89bc
00000110: 26be f2bb f9d5 89bd 6210 f03c 478b 29bd
00000120: 0b42 da3d 5684 cf3d 6db2 d53d b9ec 77bd
00000130: bbbe 4e3d 6ac6 cc3c 4bd3 a53d c265 e8bd
00000140: 5f4d c5bd 8d6d c4bc 9f90 1fbd fd9c 05bd
00000150: 819f d83d d351 d83c cbc1 8fbd 6f06 ee3c
00000160: 578a 8e3d 0feb d23a 08bb de3d 8f0c febc
00000170: d7bf 01be d7c6 1c3d fd61 7cbd 1369 9bbd
00000180: 1be0 0b3d a669 e23d 703e 98bd 1cbf 6e3c
00000190: 6c2e 54bd c896 fbbd 2088 96bd c7ab 9d3d
000001a0: f323 56bd 29a5 1dbd b15d d8bd a169 19bd
000001b0: 18a6 9b3d c918 eebd 469f b03d 2f38 0bbb
000001c0: bdf5 343d c53d 183c 439f ff3d 88a7 3f3d
000001d0: 0125 d8bd 39bf 8bbd 054d eebd 9b25 2a3d
000001e0: 3fae dabd 4221 4b3d 857f 5ebd 5be1 22bd
000001f0: dd9a 6ebd 8c02 cebd e5cb 353d e940 d7bd
00000200: db11 a8bd 688a b63d 5669 5b3c e748 bebd
00000210: 90f2 73bd 66b6 9c3d 8a83 233d 1615 fa3c
00000220: b879 cc3d b3c9 03be 05e1 49bd f6dc 3d3d
00000230: 12e1 fc3c 6a89 0938 beb5 b63d d2af 6c3d
00000240: db8b 9cbd 5469 d93d 4b19 02be 58d5 c73c
00000250: 9c31 a3bd 4fbc c6bb 037e c2bc dab9 a23d
00000260: 27f9 e83d d001 b63c 2a2c 3e3d 1e72 06be
00000270: 5680 82bd 9e80 c4bd 80e7 c53d 4b7b 3abd
00000280: 93d1 a13d 2119 96bd f949 edbc 5bad 453d
00000290: 96ef 983c f7bb 743d 06f3 253d 67b4 9fbd
000002a0: 1be4 7bbd 7a06 91bd 8906 48bd ae29 26bd
000002b0: 9c25 51bd 10e3 e0bd 6019 f3bd 5e1c c83d
000002c0: 8780 4fbc 9761 e83d 77cb efbc 231d f23c
000002d0: c78c e63d 3889 6c3d 6f74 cf3d c93d 8b3d
000002e0: ffc6 46bd dce1 b23d 8a73 6bbd 9a27 ee3d
000002f0: aff1 57bd ba91 e73c aa89 fe3d 477c 85bd
00000300: b545 9bbd b9ae e93d 14ab 473d 007f fcbd
00000310: 1a0e e73c f5d9 803c 83ab 03bc 4387 58bd
00000320: 8490 e3bd db01 623c 3c28 bdbd db28 07bd
00000330: 8656 94bd 392a 2b3b 6b0e dcbc b0cc fd3d
00000340: 2981 02bc 0905 babd 4248 88bd b6cf adba
00000350: 3ae7 a8bc a715 883d 31b5 b03d 34fa fbbd
00000360: 9ba2 cebd 1576 c8bd 5456 8a3d 8b36 81bc
00000370: 2f1d 6c3d e1b2 d4bd 54b0 84bd 5f74 45bd
00000380: a052 fbbd 816e df3c 9dae 91bc 1b3f 943d
00000390: 8951 8e3d afea adbc 1831 95bd c588 21bd
000003a0: cd08 b5bc ccca d0bd b89c 8bbd c8d9 cdbd
000003b0: fe40 a5bc 4bb8 823d 9000 c93d 5e08 d63c
000003c0: 2707 89bd cd84 3f39 8d42 5cbc 094d aebd
000003d0: 0b23 5cbd 7128 f6bd e93b 823d c2dc e5bd
000003e0: 7ca4 8d3d f1d9 bbbd 1c24 a1bc 6240 6ebd
000003f0: efb1 ab3a 9145 9f3d e79f 683c d499 823c
0.100356735 -0.025633775 0.07664898 -0.037003435 -0.037320558 -0.106788784 0.03550805 -0.043831017
-0.09201041 0.042393263 0.06643978 0.02472675 0.11273486 -0.015475509 0.05246194 0.03083207
0.04546692 -0.08554344 -0.028740842 -0.12432872 0.10276474 0.11758406 -0.009990316 0.03860957
-0.09423365 -0.09662785 -0.03274958 0.04893482 0.018652834 0.036181793 0.11160478 -0.0882197
-0.0069970847 0.024837779 -0.086824186 -0.03768375 -0.06468834 -0.022728005 0.073081195 0.04313734
-0.02853062 -0.12418703 0.06288906 0.051933754 0.12911552 0.08085952 -0.014720442 0.038454037
0.11468247 6.682005e-05 -0.054937895 -0.09816786 -0.04828961 -0.009544522 0.056231983 -0.005109767
0.08422029 0.011741755 0.015025408 -0.094056055 -0.024658239 -0.06416272 0.0021515028 -0.020867007
0.006761674 0.079581365 -0.09165718 -0.016799496 -0.0074079214 -0.06730265 0.029304687 -0.04139259
0.10657128 0.10132663 0.10434423 -0.06052849 0.050474863 0.024996955 0.080969416 -0.11347534
-0.09633898 -0.02397802 -0.03895628 -0.03262042 0.10577298 0.026406204 -0.07019385 0.029055802
0.0695998 0.0016091781 0.10875517 -0.031011848 -0.12670837 0.038275566 -0.061616886 -0.07588401
0.03414927 0.11055307 -0.07433784 0.014571931 -0.051802084 -0.122846186 -0.073501825 0.076987796
-0.052280378 -0.038487587 -0.10564745 -0.03745425 0.07600039 -0.11625821 0.08624129 -0.0021243205
0.044179667 0.009292071 0.12481549 0.04679063 -0.10553933 -0.06823582 -0.11635784 0.04153977
-0.10677766 0.049592264 -0.05432083 -0.039765697 -0.058253158 -0.100590795 0.044383902 -0.105104275
-0.08206531 0.08913118 0.013391813 -0.09291249 -0.059557498 0.07651977 0.039920367 0.030527633
0.099841535 -0.12869911 -0.04928686 0.046353303 0.03086904 3.2791322e-05 0.08921383 0.057784863
-0.07643863 0.10615793 -0.12704961 0.024393722 -0.079684466 -0.0060649286 -0.023741728 0.079456046
0.11375647 0.022217661 0.046428837 -0.1312947 -0.063721344 -0.09594844 0.09663296 -0.045527738
0.07901301 -0.07329012 -0.028965937 0.048261028 0.018668931 0.05974957 0.04051497 -0.07798081
-0.061496835 -0.070813134 -0.048834357 -0.040567093 -0.051061258 -0.10980809 -0.11870074 0.097710356
-0.012664921 0.11346739 -0.029271824 0.02955491 0.1125732 0.05774805 0.1012963 0.06798894
-0.04852962 0.087344855 -0.057483234 0.11628647 -0.05272072 0.02826773 0.12428601 -0.06517845
-0.07581655 0.11410279 0.048747137 -0.12328911 0.028204966 0.01572893 -0.008036497 -0.05286337
-0.111115485 0.013794388 -0.0923619 -0.032997947 -0.072430655 0.0026117696 -0.026862344 0.12392557
-0.0079653645 -0.09082992 -0.06654407 -0.0013260755 -0.02061807 0.06644755 0.086283095 -0.12303582
-0.10089608 -0.09788147 0.06754747 -0.015773078 0.05764502 -0.10385681 -0.064789444 -0.048206683
-0.12271619 0.027274372 -0.017783457 0.07238599 0.06949145 -0.02123007 -0.072847545 -0.039437074
-0.022098923 -0.101949304 -0.06817001 -0.10051304 -0.020172592 0.06382807 0.098145604 0.026127037
-0.06690817 0.00018264652 -0.013443601 -0.08510787 -0.053744357 -0.12019432 0.06359083 -0.11223747
0.069161385 -0.091724284 -0.019670539 -0.05816687 0.0013099293 0.077769406 0.01419828 0.015942492

classifier.0.bias f4 [32]
00000000: 6e12 bfbc a80d b6bd 1cdd 96bd 5a85 2abd
00000010: fc72 e33d 5c0f 2a3d e1b8 a8bd a129 a03d
00000020: 63f0 d1bd fc16 e13d 155f 8bb9 92a0 803d
00000030: c01c 87bd 7bc5 b2bc 09ec 3dbc 30ae b2bd
00000040: 3d08 8a3d 13fc eebd 10b0 913d 3a2b 453c
00000050: 1e79 613d 8f36 efbc bdf0 be3c c32a 273c
00000060: e19c c13d 3af4 e3bd b380 e5bd 9268 213d
00000070: 9c95 acbd 0d57 b5bd baa6 37bd ead4 87bd
-0.023324218 -0.088893235 -0.07366392 -0.04163108 0.11105916 0.041518554 -0.08238388 0.0782044
-0.10250928 0.10990712 -0.00026582988 0.06280626 -0.065972805 -0.021822682 -0.01159192 -0.0872463
0.067398526 -0.11669173 0.071136594 0.012034232 0.055047147 -0.02920082 0.023308152 0.010203066
0.094537504 -0.11130567 -0.11206188 0.039406367 -0.08426973 -0.08854494 -0.044836737 -0.06632407

classifier.1.weight f4 [32]
00000000: 6db2 833f a79d 823f 5bf3 843f 4f5f 7d3f
00000010: 30e3 833f cc07 813f 1cd2 853f 3f06 833f
00000020: 5900 813f 33a3 803f 528d 853f 07c9 843f
00000030: a4f3 803f 5727 823f 1daf 7f3f ce06 813f
00000040: d27a 863f d569 813f 7936 843f b2bc 863f
00000050: c323 823f 2f8e 803f cc7a 813f a468 883f
00000060: 8756 873f 7c1f 823f 9795 853f 99e8 813f
00000070: 7675 813f d9b3 7d3f fa0b 823f ab7c 823f
1.0288826 1.0204362 1.0386766 0.98973554 1.0303707 1.0080504 1.0454745 1.0236281
1.0078231 1.0049804 1.0433753 1.0373849 1.0074353 1.0168256 0.99876577 1.0080202
1.0506232 1.0110422 1.0329124 1.0526335 1.0167164 1.0043391 1.01156 1.0656934
1.0573281 1.0165858 1.0436276 1.0149108 1.0113971 0.9910255 1.0159905 1.0194296

classifier.1.bias f4 [32]
00000000: ba0f 05bc 8f38 a93c 4c1c 043e a7f6 23bd
00000010: af42 0a3e 229b 0d3d 41ed 223e 48cb 543d
00000020: 7e90 0d3d b051 b03d 9b68 f03d b3a8 ff3d
00000030: 3063 9e3d 50a4 41bc eebe fe3b e627 7d3d
00000040: 760a 1f3e 1099 233d 622d d63d a10a 9f3d
00000050: 467a 2fbd e41d 873d 089a 123d d4ef 263e
00000060: ed50 753d c6e9 62bc ea68 0d3e b7fc cbbb
00000070: e3ff 943c e682 2abd 3ad1 c53d ea98 733d
-0.008121425 0.020656852 0.1290142 -0.040030148 0.13502 0.034571774 0.15910818 0.051951677
0.034561627 0.08609331 0.11738702 0.12483349 0.07733762 -0.01181896 0.0077742254 0.06180563
0.15531334 0.039940894 0.10457875 0.07765699 -0.04284122 0.06597498 0.035791427 0.16302425
0.05989163 -0.013849681 0.13809553 -0.0062251943 0.018188423 -0.04162874 0.096590474 0.059472002

classifier.1.running_mean f4 [32]
00000000: 7b80 9440 d613 d3bf 2fa2 79c0 e939 05c1
00000010: 392a aa40 d48e 9abf 90f4 6dc0 516b 76c0
00000020: 6001 803f ab91 bbbf 56cc c0c0 d1ec 14c0
00000030: ef02 30c0 4852 8940 e863 4c40 d36c 0cbe
00000040: 2b32 9940 2764 623e 5ca6 5fc0 ac34 0940
00000050: faf3 1ac0 15b9 cfbf 3b3c 1dc0 982a 1c40
00000060: 62e6 4f40 1017 d340 07f5 4540 9298 2640
00000070: 6f69 a9be fbfe 4b40 553b 10be 7639 603d
4.6406837 -1.6490428 -3.900524 -8.326638 5.317654 -1.2074838 -3.718052 -3.8503
1.000042 -1.4653829 -6.0249434 -2.3269541 -2.750179 4.291294 3.1935978 -0.13713388
4.787374 0.22108518 -3.4945288 2.1438398 -2.4211411 -1.6228358 -2.4568012 2.4400997
3.2484365 6.5965652 3.0930803 2.6030622 -0.33088252 3.1874378 -0.14085133 0.0547423

classifier.1.running_var f4 [32]
00000000: fe94 9f3b c3ff af39 070b e73a 7915 023c
00000010: 3ccb 593b 3917 b83b 7305 1d3b 8bab 083b
00000020: d908 fe39 1492 d53b f99b 943b 4e12 873a
00000030: 8915 b83a 8391 373b 2a1c 763b c4b6 e33b
00000040: 84df 273b cbf8 4d3b a77b e33a ea95 683a
00000050: 8f69 a03a f380 0e3c af0f 9d3b 0cc8 483a
00000060: 5332 883a f22f 1b3c 64e6 8f3a 72e6 b43a
00000070: 6445 f33b 87e6 c03a 6e1c 653b c263 f93a
0.004870056 0.00033569158 0.0017627188 0.00793969 0.003323271 0.0056180027 0.0023959547 0.00208542
0.00048453247 0.006517658 0.004535195 0.0010305138 0.0014044504 0.0028010316 0.0037553408 0.0069492776
0.0025615403 0.003142881 0.0017355577 0.00088724366 0.001223849 0.008697736 0.0047931294 0.0007659204
0.0010390974 0.00947188 0.0010978696 0.0013801588 0.0074240435 0.001471714 0.0034959572 0.0019026923

classifier.3.weight f4 [10, 32]
00000000: b7dc bdbd 309a 503d c3d4 823e bb37 ccbc
00000010: 96c0 743e 7a1a 2abb 0610 903e 7997 053e
00000020: 878e 103e 638d 3b3e 1424 953e 0a2c 6d3e
00000030: 3fb4 9b3d e9d7 cd3d 6fee 383e a22c 363d
00000040: ce26 553e 1ae5 0e3e 2e04 483e c059 bcbd
00000050: 6d5c 41be e20c c2bd 0e4e 58bd d387 2e3e
00000060: b182 053e 9816 4abe c7c7 623e 6622 943d
00000070: 4d56 03bd 36a2 343e 7a65 403e d5a8 5c3d
00000080: 9d08 1cbe 9818 b0bd 654d c1bd b958 ecbd
00000090: d277 48be dd28 6b3d 0df7 873c 8608 343e
000000a0: 25e7 d83c 4806 67bc 88fe 99bb a123 5ebe
000000b0: ce31 1bbd 1cb6 bcbd 748c 583d d1f5 29be
000000c0: d2c1 30be b1ab 203e e500 3dbe 0b94 9cbd
000000d0: 5755 f93d c73b 18be 9950 5ebe d31e e8bd
000000e0: 74bd 49be 7a45 21be 873a 1ebe 55f4 9abd
000000f0: a631 203e 34d9 d13d bc63 0f3d 9031 cc3d
00000100: d29f d8bd dea3 f4bd 97e5 dabd 09fb 1bbc
00000110: b742 6a3e 7ab4 ed3c 8276 14be db3d 983a
00000120: 41ac f13c cb65 4bbd 8013 2b3e 4f5f e53c
00000130: 830c 11be 809b 12be f2a7 58bd 91cf 943b
00000140: fd88 403e 6c3a 923c ab3d 093e 45a3 623e
00000150: 1a49 173e 16e8 073e 1ae5 463e 4274 4a3e
00000160: 1df3 f4bd 2f6c cebd a16f 253e 47d0 87bc
00000170: 3cb1 e53d 144d f8bd 4ece 513d ed8e 043e
00000180: adda 3abe 1121 083e bb93 bdbc 1059 cbbc
00000190: a30a b53d f5d5 fa3d 7169 a93d 9fbc d1bd
000001a0: c1cd 3b3e 98c6 f33d 3588 e03d 81de c63d
000001b0: 7c6e 97bd b777 823c 8c87 b13c 2a2a 74bd
000001c0: 2665 d73b dd8e b5bd 825a 633e 9f0b 3dbe
000001d0: b37f a7bc 1b37 553e 2b71 febc bdb4 da3d
000001e0: 5ff1 233e 843a 36bd 3c48 1e3d 1c6f 3d3e
000001f0: 710d 863d 4309 4a3c f52a bebd 80c4 bd3d
00000200: 940e 43bd 3169 c83c 6126 a5bd a965 a63d
00000210: 6be4 0abd 2a2e 95bd fcfe acbd 9453 f9bd
00000220: 8e1a 433d c202 37be 4792 7c3d d68b adbd
00000230: e71f 27be 1c16 1abd 888b 2dbd 0ed3 86bd
00000240: b161 aebd cdb8 38be 2612 16be 20e4 c2bd
00000250: 5d4a 463d a9f3 50be 4880 0cbd 5186 dbbd
00000260: 7500 09be 2b2d 0c3d 7db7 883d 04d9 863d
00000270: 99fa b83d 3264 1f3e 48e4 70be 1251 06be
00000280: 3735 023e c80f d43c 024a 9bbd 3e94 0c3c
00000290: 2840 05be 7cb1 41be 91fb 3cbe af89 513d
000002a0: f14d 3abe eafe c4bc 8173 9cbd 67c9 b2bd
000002b0: 6cbd 01bc 7308 33be b63e 5b3c 5884 3dbe
000002c0: 812c b53d 6d42 363d 97b3 43bd 5dc5 bb3d
000002d0: 8303 0b3c 48ce 02bd d345 32be caf8 67be
000002e0: 3470 7cbd 16fe 40be ee07 54be 5f99 123e
000002f0: 5bd1 29be e043 1cbd 689f 0e3e 8c2e 29bd
00000300: 5d33 493e ab07 bbbd 9aaa 60be ca82 03be
00000310: b7b5 d1bc 7ca9 a13d 8b3c 233b 47e9 81be
00000320: 2fac 663d e31c bb3b 5917 73be 280d e33d
00000330: 4fef 18bc a7f8 34bd 63c8 923d 0878 a83d
00000340: 9a6e 3cbe ed32 2ebe 2c0c ac3d a0f2 773e
00000350: 98bc 24be 8d68 973d 3c9c 78bc c31a 81be
00000360: 9f45 6dbe 8ee6 043e 30cf 79be d95c bbbd
00000370: 97ba 71be 8fa9 ca3c 578d ffbc 8cd8 14be
00000380: 595f f93d 86e6 b23c 4a92 1d3d cbc3 0b3e
00000390: 4f39 9fbd 1700 efbc 52d7 cb3d 493b e0bd
000003a0: b1df cabd 8fc2 d43d e0c2 e73c de40 363d
000003b0: 577b f7bd 432e 263e aeca 013e a68e 25bd
000003c0: 25d6 3c3e 3dc6 40bc 5841 133e 17a5 763d
000003d0: f8bb 163e a4ec c0bd fe19 97bd e9b0 6e3e
000003e0: 205f 113e d216 3abb 9ffd 0abd 54d8 133e
000003f0: 5af4 06be 3b67 16bd 20bc 553e 36f2 e9bd
-0.09270614 0.050928295 0.2555295 -0.024928918 0.2390159 -0.0025955723 0.28137225 0.13046063
0.1411687 0.18315654 0.29129088 0.23161331 0.076027386 0.10050947 0.18059705 0.04447616
0.20815584 0.13954583 0.19532844 -0.09196806 -0.18882914 -0.094751135 -0.052808814 0.17044
0.13038136 -0.19735181 0.22146522 0.072331235 -0.032064725 0.17640004 0.1878871 0.05387195
-0.1523766 -0.08598441 -0.0943859 -0.1154036 -0.19576958 0.057412017 0.016597295 0.17581376
0.026477406 -0.014100619 -0.004699532 -0.21693279 -0.037889294 -0.09214422 0.05286832 -0.16597678
-0.17261437 0.15690495 -0.18457372 -0.076454245 0.121744804 -0.14866553 -0.21710433 -0.11334004
-0.19701177 -0.1574916 -0.15452014 -0.07566134 0.1564394 0.10246506 0.035007223 0.09970391
-0.10577358 -0.11945318 -0.10688322 -0.009520301 0.22877012 0.029016722 -0.14498332 0.0011615114
0.029501082 -0.049657624 0.16706657 0.027999548 -0.14164929 -0.14317131 -0.05289454 0.0045413454
0.18802257 0.017850123 0.1340243 0.22132595 0.1477398 0.13272128 0.19423333 0.19770911
-0.11960433 -0.10079228 0.16155864 -0.016578807 0.112154454 -0.121240765 0.051222138 0.12945147
-0.1824748 0.13293864 -0.023141732 -0.024822742 0.088399194 0.1224784 0.082720645 -0.10241055
0.18340208 0.11903113 0.109634794 0.09710408 -0.0739412 0.015926225 0.02167108 -0.059610523
0.006573337 -0.0886514 0.22202495 -0.18461464 -0.020446634 0.20821802 -0.031059822 0.10679004
0.16010045 -0.0444894 0.038643107 0.18499416 0.065455325 0.01233131 -0.09285537 0.09265995
-0.047621325 0.024464222 -0.08063961 0.08124859 -0.033909243 -0.07284196 -0.08447072 -0.121741444
0.047632746 -0.17872146 0.06166294 -0.08473937 -0.16320764 -0.03761874 -0.042369395 -0.06583224
-0.08514727 -0.18039246 -0.1465536 -0.09516168 0.048410762 -0.20405449 -0.034302026 -0.10718978
-0.1337908 0.034222763 0.066756226 0.06584361 0.09032173 0.15565565 -0.23524582 -0.13116863
0.12715612 0.025886431 -0.07582475 0.008580266 -0.13012755 -0.18915361 -0.1845534 0.051156696
-0.18193795 -0.024047334 -0.07639218 -0.08729821 -0.007918697 -0.17483692 0.013381651 -0.18507516
0.08846379 0.044496942 -0.047778692 0.091685034 0.008484724 -0.031935006 -0.17409448 -0.22653499
-0.061630443 -0.18846926 -0.2070615 0.14316319 -0.16583769 -0.03815067 0.13927996 -0.041304156
0.196485 -0.09132322 -0.2194008 -0.12842861 -0.025599344 0.07893655 0.0024907913 -0.2537329
0.05631655 0.0057102307 -0.23739375 0.11086494 -0.009334399 -0.044182446 0.07167127 0.08226019
-0.18401566 -0.17011614 0.08400759 0.24213648 -0.16087568 0.07392988 -0.015173968 -0.2521573
-0.2317109 0.12978575 -0.24395442 -0.09148569 -0.23606335 0.024739055 -0.031195326 -0.14535731
0.12176389 0.021838438 0.03846959 0.13648908 -0.077746026 -0.029174848 0.099531785 -0.10948808
-0.09905947 0.103886716 0.028291166 0.044495456 -0.12084072 0.16228585 0.12674972 -0.040419243
0.18441065 -0.011766014 0.14380395 0.060216036 0.14720142 -0.094201356 -0.073780045 0.23309673
0.14196444 -0.002839495 -0.03393328 0.14437991 -0.1317915 -0.036719542 0.20872545 -0.11423151

classifier.3.bias f4 [10]
00000000: 53b4 3a3f b392 9fbe 9d1c 3b3e 0069 073e
00000010: 737b b6be 03db 7ebd 94a6 60be 1c9a 53bd
00000020: d3ce acbd 9b20 94be
0.729314 -0.3116661 0.18272634 0.13223648 -0.3564106 -0.062220585 -0.21938545 -0.051660642
-0.08437886 -0.28931126
