saved/archae_cnn_raw_geoms.pth (torch, 64666 bytes, 20 tensors)

cnn_block.0.weight f4 [32, 5, 5]
0	0x3e40256c	0.18764275
1	0x3d514487	0.051090743
2	0xbcd9ea68	-0.026601031
3	0xbd8549fb	-0.06508251
4	0x3ce554d4	0.02799455
5	0xbe28bfc0	-0.16479397
6	0xbcf90af5	-0.030400733
7	0xbd90931c	-0.07059309
8	0xbe005815	-0.125336
9	0x3e296234	0.16541368
10	0xbe3d6eef	-0.18499349
11	0xbc534865	-0.012895678
12	0x3b60291e	0.0034204195
13	0xbdd4d442	-0.103920475
14	0x3cfb0ac8	0.03064479
15	0x3e0c9303	0.13727956
16	0xbc345600	-0.011006832
17	0xbe1fa4fd	-0.15590282
18	0xbdfe681d	-0.12422202
19	0x3dfbe003	0.12298586
20	0x3d36bccb	0.04461364
21	0xbe1734b8	-0.14766204
22	0x3e06f963	0.13181071
23	0xbde3bc02	-0.11119844
24	0xbcc4667d	-0.023974651
25	0x3cc0e454	0.023546375
26	0x3ad96587	0.0016586044
27	0xbdf18adf	-0.11794066
28	0x3d4f7caa	0.050656
29	0x3d00cae5	0.031443495
30	0xbce95c87	-0.028486503
31	0x3d9fa789	0.07795627
32	0xbe477a23	-0.19480185
33	0x3c86f29e	0.01647311
34	0xbe2744dd	-0.16334863
35	0x3e115418	0.14192235
36	0xbd147471	-0.03624386
37	0x3d812a18	0.06306857
38	0xbd6ca5e7	-0.057775404
39	0xbdcd6c9b	-0.100304805
40	0xbdaf5073	-0.08560266
41	0xbd0f1f00	-0.034941673
42	0x3e22ad37	0.15886389
43	0x3e3a79d3	0.18210535
44	0xbdcd1853	-0.10014405
45	0x3d4cc9a8	0.049997002
46	0x3d9153a8	0.07096034
47	0xbde9bc0e	-0.11412822
48	0xbe335950	-0.17514539
49	0xbd67e2bc	-0.056612715
50	0x3dc36c2c	0.095421165
51	0x3e86a351	0.26296476
52	0x3d863be3	0.06554391
53	0x3e0ace0f	0.13555168
54	0x3d228a65	0.039682765
55	0x3d979aee	0.07402597
56	0xbc99898c	-0.018742345
57	0xbdd76326	-0.10516958
58	0xbe4b5e7d	-0.19860263
59	0xbc0b305a	-0.008495415
60	0xbdadaeb4	-0.084805876
61	0x3bf4b2d3	0.0074676066
62	0xbd9dbbbf	-0.07701825
63	0x3c81c0bb	0.015838971
64	0xbe0942d4	-0.13404399
65	0x3da529f0	0.080646396
66	0x3caaa59a	0.020830918
67	0x3e3cd943	0.18442254
68	0xbc779ce7	-0.015113092
69	0x3e1da945	0.15396602
70	0x3d96c090	0.07360947
71	0x3e17b40a	0.14814773
72	0x3dd92e52	0.10604538
73	0x3e201aed	0.15635271
74	0x3e19defd	0.1502647
75	0x3dc26b0a	0.09493072
76	0xbd8c9ce1	-0.0686586
77	0x3d848ea9	0.06472523
78	0x3d1b2d92	0.037885256
79	0x3de404b2	0.11133708
80	0xbd122fa8	-0.03568998
81	0xbd7bdc90	-0.06148964
82	0xbddb64fc	-0.107126206
83	0xbde30449	-0.11084802
84	0xbe1d8dca	-0.1538612
85	0x3e42e46e	0.19032452
86	0xbc07392c	-0.008253377
87	0xbcddfdb3	-0.027098512
88	0xbd35677b	-0.04428814
89	0xbd9283d7	-0.07154053
90	0x3d700680	0.05859995
91	0xbca8fcf3	-0.020628428
92	0x3cebc3a7	0.028779818
93	0xbcd77f67	-0.026305867
94	0xbd52223a	-0.051302172
95	0xbe34d10e	-0.17657873
96	0x3df5740e	0.11985026
97	0x3e1429ed	0.14469118
98	0xbe3ef4e4	-0.18648106
99	0x3d8e4ae4	0.06947878
100	0x3cf587e2	0.02997202
101	0x3e49c8bf	0.19705485
102	0x3c9712ad	0.018441522
103	0x3e1bea66	0.15226135
104	0xbd8e7796	-0.06956403
105	0x3e0fd371	0.14045502
106	0xbd167390	-0.036731303
107	0xbd9fee69	-0.07809145
108	0x3e2dee61	0.16985466
109	0x3e2cf329	0.16889633
110	0x3ac5f3ba	0.0015102543
111	0x3ce12532	0.027483556
112	0x3d6a6756	0.057227455
113	0xbe0d21af	-0.1378238
114	0x3e4139aa	0.18869653
115	0xbdb287e3	-0.087173246
116	0x3d960e7a	0.0732698
117	0x39980000	0.000289917
118	0xbe312212	-0.17298153
119	0xbc49e400	-0.012322426
120	0xbca9b50a	-0.020716209
121	0x3e331a5a	0.17490521
122	0xbdc5d7d0	-0.096603036
123	0xbe336c66	-0.1752182
124	0x3c22de78	0.009940736
125	0x3eb6e8fc	0.35724628
126	0x3c04b9c1	0.008100928
127	0x3e2b07bd	0.1670217
128	0x3e0f4334	0.1399048
129	0x3dcd844c	0.10034999
130	0x3dc77ced	0.097406246
131	0xbd9a6e49	-0.075405665
132	0xbe8c2913	-0.27375087
133	0xbd589691	-0.052877966
134	0x3e40e784	0.18838316
135	0x3df4cc2a	0.11953004
136	0x3e291cbc	0.16514868
137	0xbde44db4	-0.11147633
138	0xbcda4b00	-0.02664709
139	0x3d978bb0	0.0739969
140	0xbd180d73	-0.0371222
141	0xbe0c88ed	-0.13724108
142	0x3e1560d3	0.14587717
143	0x3ceb1b4d	0.028699541
144	0x3de29b80	0.110648155
145	0xbc966b00	-0.018361568
146	0x3e3966bc	0.18105596
147	0x3d93e888	0.07222086
148	0xbda9f89f	-0.08299374
149	0x3e430c9b	0.19047777
150	0x3ecc3bf9	0.39889506
151	0x3e35d87d	0.17758365
152	0x3e45ef4b	0.19329564
153	0x3da92092	0.082581654
154	0xbdfb1240	-0.1225934
155	0x3ccf75bd	0.025324697
156	0x3e20b687	0.15694629
157	0xbd2416d8	-0.040060848
158	0xbd406b35	-0.04697724
159	0xbe3a29ca	-0.18180004
160	0x3dd63f35	0.104612745
161	0x3d872073	0.06597986
162	0xbdc54b2e	-0.0963348
163	0x3df6b145	0.1204553
164	0xbe12a713	-0.14321546
165	0xbdb8e2f0	-0.0902766
166	0x3d119493	0.035542082
167	0xbd6488a0	-0.05579436
168	0xbe254227	-0.16138516
169	0x3cd6878d	0.026187683
170	0x3d7a60ea	0.06112758
171	0x3da8a4a5	0.082345285
172	0xbdc62f65	-0.096770085
173	0x3e298c41	0.16557409
174	0xbe26c1ac	-0.16284817
175	0xbd76c58f	-0.060247
176	0xbe895129	-0.26819733
177	0xbe067564	-0.13130718
178	0xbdfa9cff	-0.12236976
179	0xbbb34e99	-0.005472016
180	0x3dcec643	0.10096409
181	0x3e4e69c3	0.20157532
182	0x3e168bf6	0.14701828
183	0xbe15dc75	-0.14634879
184	0xbe14339a	-0.1447281
185	0xbda87713	-0.082258366
186	0xbcfa6b20	-0.03056866
187	0x3d07aa1a	0.033121206
188	0x3e121756	0.14266714
189	0x3e16084d	0.14651604
190	0xbe3c688d	-0.18399258
191	0xbe471415	-0.19441254
192	0x3dae16bd	0.08500431
193	0xbc602967	-0.013681746
194	0x3dfe5260	0.124180555
195	0x3d07ed4f	0.0331853
196	0xbe07515e	-0.13214633
197	0x3db59b87	0.08867555
198	0x3c26418f	0.010147466
199	0xbbda05b4	-0.006653512
200	0xbda53a68	-0.08067781
201	0xbe437769	-0.1908852
202	0xbd489b32	-0.04897613
203	0xbdf8c949	-0.12147767
204	0x3e28474f	0.16433452
205	0x3b8396a0	0.0040157586
206	0x3e366b39	0.1781434
207	0xbe42ddbf	-0.19029902
208	0xbdf5d7f7	-0.12004083
209	0x3bd3f39a	0.0064682486
210	0x3dc3ed37	0.095667295
211	0x3debfddd	0.1152303
212	0x3db6a093	0.08917346
213	0x3e07c3cf	0.13258289
214	0xbd2db3ba	-0.04240773
215	0xbdf29ee7	-0.118467145
216	0xbe447387	-0.19184695
217	0x3d6aef87	0.057357337
218	0xbdd01557	-0.1016032
219	0x3e40e6a5	0.18837984
220	0x3e1627d1	0.14663626
221	0xbd599957	-0.053124752
222	0xbe159771	-0.14608552
223	0x3d0fa885	0.035072822
224	0x3d8f5c80	0.07000065
225	0x3e03a2b5	0.12855037
226	0x3e079f66	0.132444
227	0xbe4470d5	-0.19183667
228	0x3b8d1e72	0.004306608
229	0xbd3a33dc	-0.045459613
230	0xbe33ac63	-0.17546229
231	0xbdf47d83	-0.11938002
232	0x3c1dd0e7	0.009632326
233	0xbda84c9e	-0.082177386
234	0xbe1d57a6	-0.15365466
235	0xbd186a9b	-0.037211042
236	0xbdc18fad	-0.09451232
237	0x3cace8d5	0.021107117
238	0xbe2b902b	-0.16754214
239	0x3e1637d8	0.1466974
240	0x3e270d42	0.16313651
241	0xbd54aa00	-0.051919937
242	0x3caf100d	0.021369958
243	0x3d551187	0.05201867
244	0x3d829ccd	0.063775636
245	0xbe3bae9e	-0.1832833
246	0x3dbf6807	0.093460135
247	0x3e48293c	0.1954698
248	0xbe073b77	-0.13206278
249	0x3ce6a815	0.02815632
250	0xbdf99d27	-0.121881776
251	0x3d971f82	0.073790565
252	0xbe1a891b	-0.15091364
253	0x3e1126a3	0.14174895
254	0x3df5894e	0.119890794
255	0xbdd03783	-0.10166838

cnn_block.0.bias f4 [32]
0	0xbe088063	-0.13330226
1	0x3b6d3201	0.0036193135
2	0xbc4482af	-0.011994048
3	0x3e0da16f	0.13831113
4	0x3dfdb387	0.12387758
5	0xbc169fd1	-0.009193377
6	0x3e08a49d	0.13344045
7	0xbe0606cb	-0.13088529
8	0xbe214d8f	-0.15752243
9	0xbda5505d	-0.08071969
10	0x3c438fe2	0.01193616
11	0x3d6f9433	0.058490943
12	0x3e21f88d	0.15817471
13	0x3d602153	0.05471928
14	0x3c296341	0.010338605
15	0xbbb36c1e	-0.005475535
16	0x3ddcac0a	0.10775001
17	0xbd188ec0	-0.037245512
18	0xbd952282	-0.072819725
19	0x3e33092a	0.17483965
20	0x3cfd7a7c	0.030942194
21	0xbdb31b4a	-0.08745439
22	0x3e4a307a	0.19745055
23	0xbda5631a	-0.08075543
24	0x3db99d50	0.09063208
25	0xbd48ea00	-0.049051285
26	0x3e33ff0a	0.17577758
27	0xbe2ca725	-0.16860636
28	0xbdc05b30	-0.09392393
29	0x3defc733	0.11707916
30	0x3e0598f2	0.13046625
31	0xbe1ff048	-0.15619004

cnn_block.1.weight f4 [32]
0	0x3f7f87d5	0.9981664
1	0x3f7e61fb	0.99368256
2	0x3f8052fc	1.0025325
3	0x3f7f700f	0.9978036
4	0x3f6c46cb	0.9229552
5	0x3f7b9ead	0.98288995
6	0x3f7e698e	0.99379814
7	0x3f7e7bbc	0.99407554
8	0x3f8194e1	1.0123559
9	0x3f7f7d5d	0.99800664
10	0x3f803c1b	1.0018343
11	0x3f750bb7	0.95721
12	0x3f8044da	1.0021012
13	0x3f8032ea	1.0015538
14	0x3f7dad97	0.99093
15	0x3f801e23	1.0009197
16	0x3f7e6258	0.9936881
17	0x3f80579f	1.002674
18	0x3fa0e63b	1.2570261
19	0x3f808910	1.0041828
20	0x3f81c9b2	1.0139678
21	0x3f801ba6	1.0008438
22	0x3f7f7465	0.9978698
23	0x3f7f0c46	0.996281
24	0x3f6c347e	0.92267597
25	0x3f805748	1.0026636
26	0x3f7ef779	0.99596363
27	0x3f73ecd0	0.9528322
28	0x3f7fed5b	0.9997155
29	0x3f85a7ba	1.0441811
30	0x3f6ac6fe	0.9170989
31	0x3f800e88	1.0004435

cnn_block.1.bias f4 [32]
0	0xbb469589	-0.0030301532
1	0xbc2994e7	-0.0103504425
2	0xbb32b772	-0.0027269986
3	0xbb495fa9	-0.0030727184
4	0xbd00066a	-0.031256117
5	0xbc8ee16f	-0.01744148
6	0xbd3e4bdc	-0.046459064
7	0xbd200a82	-0.03907252
8	0x3c7e9938	0.01553946
9	0xbb8a2347	-0.004215631
10	0x3bce0e62	0.0062883357
11	0xbc9d3ce8	-0.019194081
12	0x3bf9da35	0.0076248893
13	0x3c2bc69a	0.010484362
14	0xbcedde54	-0.029036678
15	0xbd258fcf	-0.04042035
16	0xbc9aa521	-0.018877568
17	0x3c5b02e1	0.013367386
18	0xbd9d4420	-0.076790094
19	0x3c3c40a0	0.011490017
20	0x3c266b69	0.0101574445
21	0x3bb96a09	0.0056583923
22	0xbafc2cef	-0.0019239465
23	0xbc1479e8	-0.009062268
24	0xbd156161	-0.03646982
25	0x3c7ded4f	0.015498473
26	0xbcfa2f71	-0.0305402
27	0xbd030fb0	-0.031997383
28	0x3aa32a48	0.0012448514
29	0xbd202ddc	-0.039106235
30	0xbcdb0e09	-0.02674009
31	0xbbaa62c1	-0.0051997607

cnn_block.1.running_mean f4 [32]
0	0xbfbfec57	-1.4994
1	0xbfdd91c4	-1.7310109
2	0xbeeba843	-0.4602681
3	0xc0100b1f	-2.2506788
4	0x400a486d	2.1606705
5	0x3dab9a5e	0.083790526
6	0x3e89627a	0.26832944
7	0x3f16804c	0.58789515
8	0xbf571951	-0.84023005
9	0xc03b5743	-2.927201
10	0xbf66b938	-0.9012637
11	0xbf033430	-0.51251507
12	0xc02a1384	-2.6574411
13	0xbe92c659	-0.28666952
14	0xbf5dad4c	-0.86592555
15	0xbef6c1c2	-0.481947
16	0xbf63ddab	-0.89010113
17	0xbfd0cdb8	-1.631278
18	0x3d70eb86	0.058818363
19	0xbf90b625	-1.1305586
20	0xbffa6c1b	-1.9564241
21	0xc0128c42	-2.2898107
22	0xbef2782e	-0.47357315
23	0xbf019c02	-0.50628674
24	0x3feca7e5	1.8488737
25	0xbf99fb09	-1.2029735
26	0x3edf489b	0.4361008
27	0xbd31e245	-0.043428678
28	0xbeb8bbea	-0.36080867
29	0xbe9cf7bd	-0.3065776
30	0x3ecc75a4	0.39933503
31	0xbf739a0b	-0.95156926

cnn_block.1.running_var f4 [32]
0	0x414d0a87	12.81507
1	0x41a01328	20.009354
2	0x4134bddb	11.296351
3	0x423cf907	47.24319
4	0x421b2725	38.788227
5	0x3fcfbe55	1.622996
6	0x3fcc6910	1.5969563
7	0x40af37f4	5.47558
8	0x40ad3bba	5.413541
9	0x42844a4d	66.14512
10	0x410ce1c2	8.805117
11	0x402cd552	2.70052
12	0x42869f42	67.31105
13	0x400ee8e7	2.2329652
14	0x40410309	3.0158103
15	0x40165df8	2.3494854
16	0x414c910f	12.785415
17	0x41b9ce56	23.22575
18	0x3f9b6c88	1.2142496
19	0x41722dde	15.136198
20	0x420d7f2f	35.374203
21	0x420fa83f	35.914303
22	0x410877e0	8.529266
23	0x40170167	2.3594606
24	0x418372ac	16.430992
25	0x411ae95e	9.681974
26	0x3ff4cbb0	1.912466
27	0x3fc28116	1.5195644
28	0x3fc39029	1.5278369
29	0x3f02e821	0.5113545
30	0x3f8d734e	1.1050813
31	0x4086ecec	4.216421

cnn_block.4.weight f4 [64, 32, 5]
0	0xbd2965d0	-0.04135686
1	0xbd72459d	-0.05914842
2	0x3d6e71d0	0.05821401
3	0xbd3f0ab4	-0.046641067
4	0xbce61801	-0.028087618
5	0x3d65fac6	0.05614736
6	0xbd1bcbc1	-0.03803611
7	0x3d668174	0.0562758
8	0xbd7aa532	-0.0611927
9	0xbd72e70a	-0.059302367
10	0xbd6f1072	-0.058365293
11	0x3d22da44	0.039758936
12	0xbd13c27d	-0.03607415
13	0x3d85adad	0.06527267
14	0x3d59ad3f	0.053143736
15	0xbd713315	-0.058886606
16	0x3d81321b	0.06308385
17	0x3d5e03df	0.05420291
18	0x3d9bfdd1	0.07616771
19	0x3c013bfc	0.007887837
20	0x3d34c5ed	0.04413407
21	0xbd88f0de	-0.06686567
22	0x3cf4a255	0.029862562
23	0xbd7cbd5a	-0.061704017
24	0xbc77fea2	-0.015136393
25	0xbd5fc868	-0.05463448
26	0x3c01855a	0.007905329
27	0xbd1657dc	-0.036704883
28	0x3d4f2ece	0.050581746
29	0xbd4576e5	-0.04820909
30	0x3d182188	0.037141353
31	0x3d2f7a23	0.042841088
32	0xbbdfbb34	-0.0068277363
33	0x3c6864c8	0.014184184
34	0x3cf5a61b	0.029986432
35	0xbdc937fe	-0.09825133
36	0xbd182243	-0.03714205
37	0xbdd089b1	-0.101825126
38	0xbda3ea63	-0.0800369
39	0x3d36bb2d	0.0446121
40	0xbd66e48c	-0.056370303
41	0xbd25f77d	-0.040519226
42	0x3d87710d	0.066133596
43	0x3c3b73e0	0.011441201
44	0xbceee888	-0.029163614
45	0xbd080265	-0.03320541
46	0xbd333ed1	-0.04376108
47	0x3d9f20cf	0.077699296
48	0x3ae0edc7	0.0017160707
49	0x3d5914dd	0.052998412
50	0xbd019f28	-0.031645924
51	0xbd5789e9	-0.052621756
52	0x3d2db99d	0.042413343
53	0x3cc24a92	0.023717199
54	0x3d092494	0.03348215
55	0xbd934d75	-0.07192508
56	0xbcc9de30	-0.02464208
57	0x3d164a36	0.036691867
58	0xbc6f4e2b	-0.014606039
59	0x3d05f5fd	0.032705296
60	0x3d8bc30e	0.06824313
61	0x3ce555a0	0.02799493
62	0xbc7e1782	-0.015508534
63	0xbd9bcfe5	-0.07608012
64	0x3b78171a	0.0037855566
65	0x3d92ddf8	0.071712434
66	0x3ccf5e64	0.025313564
67	0xbd2deebe	-0.04246401
68	0xbbae33c2	-0.0053162286
69	0xbd657166	-0.05601635
70	0xbda80a22	-0.08205058
71	0x3cd16312	0.025559936
72	0xbdf3ee53	-0.11910691
73	0xbdf359bd	-0.118823506
74	0xbb8d86b1	-0.004319035
75	0xbc6171ef	-0.013760074
76	0xbe1b098e	-0.15140364
77	0xbd437aac	-0.04772441
78	0xbcdd6b3b	-0.02702867
79	0xbdbf30c4	-0.09335473
80	0x3d2e0c63	0.04249228
81	0x3d6d3468	0.057911307
82	0x3d2909ea	0.04126922
83	0xbc3b28b9	-0.011423283
84	0xbd749bc2	-0.059718855
85	0x3d580168	0.052735716
86	0xbd345128	-0.04402271
87	0xbc95c70d	-0.018283391
88	0x3c04162f	0.00806193
89	0xbcd5ddcb	-0.026106736
90	0x3e5d2bea	0.21598783
91	0x3d8f964e	0.0701109
92	0x3e0417cc	0.12899703
93	0x3dd84dbc	0.10561702
94	0x3dd793fd	0.105262734
95	0x3b70fefb	0.0036773074
96	0xbd713529	-0.058888588
97	0x3c8aaa04	0.016926773
98	0xbca4f3c4	-0.020135768
99	0x3cbb51c8	0.022866145
100	0xbce8eff1	-0.028434725
101	0x3d18337b	0.03715847
102	0xbd7ed41f	-0.062214013
103	0xbd9e348d	-0.07724867
104	0xbd80c779	-0.062880464
105	0xbc857d90	-0.016295224
106	0x3d5add09	0.05343345
107	0x3d418a63	0.047251116
108	0xbc838129	-0.0160528
109	0xbd932e4d	-0.071865655
110	0x3d70111e	0.058610074
111	0x3cbe374e	0.02321973
112	0x3d67ba48	0.056574136
113	0xbb91298d	-0.004430002
114	0xbce18619	-0.027529763
115	0x3ce23a91	0.027615817
116	0x3cddc92d	0.027073467
117	0xbda41a36	-0.08012812
118	0x3d29044a	0.041263856
119	0xbda33b0f	-0.07970249
120	0x3bde58a5	0.0067854696
121	0xbc8b6941	-0.017017962
122	0x3cb638b5	0.022243837
123	0xbd6bc8b6	-0.05756446
124	0x3d3356b1	0.043783847
125	0xbc8a87ce	-0.01691046
126	0x3bf45366	0.007456231
127	0x3d84362a	0.064556435
128	0xbd7cc775	-0.061713655
129	0xbd809b6b	-0.062796436
130	0x3bb13c46	0.0054087965
131	0xbd617953	-0.055047344
132	0xbc82765d	-0.01592558
133	0xbd676c32	-0.056499667
134	0x3d980649	0.07423074
135	0x3d04cc70	0.03242153
136	0xbc9a13f3	-0.01880834
137	0xbd1f9b7d	-0.038966645
138	0xbd9fd92d	-0.07805095
139	0x3cef4371	0.029206963
140	0xbd5d212d	-0.053986717
141	0xbd688c19	-0.056774233
142	0x3d280e49	0.04102925
143	0x3d282584	0.041051403
144	0x3c39e429	0.0113459015
145	0xbdf8c9fd	-0.12147901
146	0xbd28a58f	-0.041173514
147	0x3aa9be09	0.0012950312
148	0xbd7df011	-0.061996523
149	0xbda6b29c	-0.08139536
150	0xbd97f8df	-0.07420515
151	0x3d42291a	0.04740248
152	0x3d8f23a1	0.069892175
153	0x3d8024ce	0.0625702
154	0xbd4b299e	-0.049600236
155	0xbc65e3fb	-0.014031406
156	0xbd20833b	-0.03918765
157	0xbc158959	-0.0091269845
158	0xbd8acd4c	-0.067774385
159	0xbda4580f	-0.08024608
160	0xbd6eaa50	-0.05826789
161	0x3d71a426	0.058994435
162	0xbd20b3b4	-0.03923388
163	0x3c47849e	0.0121776145
164	0x3d05fbc3	0.0327108
165	0xbd023315	-0.031786997
166	0xbd7afac9	-0.061274324
167	0xbd8544d5	-0.06507269
168	0xbd986190	-0.074404836
169	0x3c09de08	0.008414753
170	0x3d72af5e	0.059249274
171	0x3d2bc27c	0.04193352
172	0x3d8a5661	0.06754757
173	0xbb2fdc5b	-0.0026834223
174	0x3cd157e7	0.02555461
175	0xbc9ca22b	-0.019120296
176	0xbcf37368	-0.029718116
177	0xbd2e1b9e	-0.042506807
178	0x3c74bd23	0.014937672
179	0xbc947dea	-0.018126447
180	0x3ab46727	0.0013763652
181	0x3d04659d	0.03232347
182	0xbc9e5dd4	-0.01933185
183	0x3d9de9d7	0.07710617
184	0x3cfb9084	0.030708559
185	0xbc08fdfa	-0.008361334
186	0x3d379d12	0.04482753
187	0x3d6ad731	0.05733413
188	0x3d1123bd	0.035434473
189	0x3d829055	0.063751854
190	0xbce88f7c	-0.028388731
191	0xbd8b4936	-0.06801073
192	0x3cd66be4	0.026174493
193	0x3d961a03	0.0732918
194	0x3b8480fb	0.004043696
195	0x3db12b7e	0.086508736
196	0xbdb17e03	-0.08666613
197	0xbdb0d075	-0.0863351
198	0x3cb5cec5	0.022193322
199	0xbd4d9e5a	-0.050199844
200	0x3d5ef342	0.054431207
201	0xbcdddb74	-0.027082182
202	0xbdb9e1f2	-0.09076299
203	0x3ce1bd25	0.027556011
204	0xbbc9e9b5	-0.0061618933
205	0xbcdf8cd9	-0.027288841
206	0xbd66d5a7	-0.0563561
207	0xbd0196fc	-0.03163813
208	0x3d9dfdff	0.077144615
209	0x3d5a5519	0.05330381
210	0xbcbf07c9	-0.023319142
211	0xbb95b083	-0.004568161
212	0xbc98341d	-0.018579537
213	0x3c73fe70	0.014892206
214	0x3d758c59	0.0599483
215	0x3cf505c6	0.02990998
216	0xba92293d	-0.0011151206
217	0xbcdb25f1	-0.02675149
218	0x3d148400	0.036258698
219	0xbc1f5b86	-0.009726411
220	0x3d96c9d9	0.07362718
221	0xbd5fadd3	-0.05460913
222	0xbd651e77	-0.055937257
223	0xbd25bcb8	-0.04046318
224	0x3d98c153	0.07458749
225	0xbc4f7f9a	-0.0126647
226	0x3cfcd2f9	0.030862318
227	0x3c842075	0.016128758
228	0xbca7395d	-0.020413095
229	0xbd762247	-0.060091283
230	0xbc350880	-0.01104939
231	0x3d8aa13e	0.06769036
232	0x3d4666e9	0.048437987
233	0xbd18270a	-0.037146606
234	0xbd7b4b5c	-0.061351165
235	0xbdbed173	-0.09317293
236	0x3d464899	0.04840908
237	0xbd23c7cb	-0.03998546
238	0x3da0c7bd	0.07850597
239	0x3d7d8754	0.061896637
240	0xbd6c0a9b	-0.0576273
241	0xbc8c683f	-0.017139552
242	0x3c430388	0.011902697
243	0xbd91f464	-0.07126692
244	0xbcd8b8e3	-0.026455348
245	0xbcfa8fa4	-0.030586071
246	0x3cc86141	0.024460437
247	0x3d0d163b	0.03444503
248	0x3d804fc1	0.06265212
249	0x3d3c8f0e	0.046034865
250	0xbd474b08	-0.04865554
251	0x3d1350a8	0.03596559
252	0x3c3afc4b	0.01141269
253	0x3d1ec969	0.0387663
254	0x3d394884	0.045235172
255	0xbd718643	-0.058965933

cnn_block.4.bias f4 [64]
0	0xbd7edcdb	-0.062222343
1	0x3d071dc1	0.03298736
2	0xbd3c0daa	-0.04591147
3	0x3cab7914	0.020931758
4	0xbca4f929	-0.02013834
5	0xbd84a99a	-0.064776614
6	0xbd82bc48	-0.06383568
7	0x3d24dcde	0.040249698
8	0xbd8094c7	-0.06278377
9	0x3d2c4ea0	0.04206717
10	0xbd219bf8	-0.039455384
11	0x3d54b22e	0.051927738
12	0xbd13e0d5	-0.03610309
13	0xbd74e247	-0.059786107
14	0xbd7f8a91	-0.062388007
15	0x3c2d60e9	0.010582187
16	0x3d743a47	0.05962589
17	0x3c08f0e4	0.008358214
18	0xbd71f20c	-0.059068725
19	0xbd268448	-0.040653497
20	0x3cec51c2	0.028847579
21	0xbd8b8ca4	-0.068139344
22	0xbd48fd97	-0.049069967
23	0x3d84db10	0.06487095
24	0xbc61abe8	-0.013773896
25	0x3da0988d	0.07841597
26	0xbbb5c7aa	-0.0055474835
27	0xbcefbed4	-0.029265799
28	0x3cc2d441	0.023782851
29	0xbd925675	-0.071453966
30	0x3c4b7a41	0.012419284
31	0xbc040930	-0.008058831
32	0x381ff527	3.813687e-05
33	0xbcc4caf0	-0.02402255
34	0xbac7e7c7	-0.001525157
35	0xbcf3bd6f	-0.029753415
36	0xbcd728f5	-0.026264647
37	0x3d9b5f43	0.07586529
38	0x3c8c3866	0.017116737
39	0x3cb0ec4f	0.021597056
40	0x3d7ffd8c	0.06249766
41	0x3da114b0	0.07865274
42	0xbb6cdc96	-0.0036142222
43	0xbd5f323f	-0.054491278
44	0x3bbac200	0.005699396
45	0x3d9c3ce1	0.07628799
46	0x3c45680b	0.012048732
47	0xbc22f9bd	-0.009947238
48	0xbd8970c4	-0.067109615
49	0x3d2e6b01	0.042582516
50	0xbce34787	-0.027744068
51	0x3d8f46bc	0.069959134
52	0xbd33531f	-0.043780442
53	0xbd9da1db	-0.07696887
54	0x3cd33ad3	0.025784886
55	0x3d7b3149	0.0613263
56	0xb8cd3441	-9.784895e-05
57	0x3cdeccb3	0.027197218
58	0xbd00716a	-0.03135816
59	0xbd896363	-0.0670841
60	0x3d023d97	0.031797018
61	0xbbb9d8c9	-0.0056715948
62	0xbd54b560	-0.051930785
63	0xbd92b0f7	-0.071626596

cnn_block.5.weight f4 [64]
0	0x3f7e0bfe	0.9923705
1	0x3f7392c9	0.9514585
2	0x3f7d1431	0.98858935
3	0x3f7804da	0.968824
4	0x3f7fd5db	0.9993569
5	0x3f7c88c4	0.9864619
6	0x3f7afe32	0.9804412
7	0x3f82917f	1.0200652
8	0x3f815478	1.0103903
9	0x3f81868c	1.0119185
10	0x3f799667	0.9749512
11	0x3f7fbd41	0.99898154
12	0x3f76f5b0	0.9646864
13	0x3f806a45	1.0032431
14	0x3f82ef86	1.0229347
15	0x3f7f6f65	0.9977935
16	0x3f869214	1.051333
17	0x3f7da6a9	0.9908243
18	0x3f7f2221	0.9966145
19	0x3f807056	1.0034282
20	0x3f8020c5	1.001
21	0x3f80360b	1.0016493
22	0x3f808348	1.0040064
23	0x3f7fd3a7	0.9993233
24	0x3f8f7913	1.1208824
25	0x3f7b94b9	0.9827381
26	0x3f804ce0	1.002346
27	0x3f7c8e82	0.9865495
28	0x3f7557a0	0.9583683
29	0x3f7ead2c	0.9948299
30	0x3f7fe76c	0.99962497
31	0x3f832ac7	1.024743
32	0x3f82498f	1.0178698
33	0x3f7c6869	0.9859682
34	0x3f7fab9f	0.9987125
35	0x3f7e8192	0.9941646
36	0x3f80cf34	1.0063233
37	0x3f80b4ba	1.0055153
38	0x3f7e1eea	0.9926592
39	0x3f80b757	1.0055951
40	0x3f7cd6d4	0.987653
41	0x3f834100	1.0254211
42	0x3f8010b9	1.0005103
43	0x3f813f8d	1.0097519
44	0x3f78df03	0.9721529
45	0x3f8000b7	1.0000218
46	0x3f76c346	0.96391714
47	0x3f800b0a	1.0003369
48	0x3f8737fa	1.0563958
49	0x3f800217	1.0000638
50	0x3f800a8e	1.0003221
51	0x3f82ca83	1.0218052
52	0x3f798af8	0.97477674
53	0x3f822b3b	1.0169443
54	0x3f8048a4	1.0022168
55	0x3f7fc1f3	0.9990532
56	0x3f806ad5	1.0032603
57	0x3f82e885	1.0227209
58	0x3f810ae4	1.0081449
59	0x3f7c6406	0.98590124
60	0x3f805a60	1.002758
61	0x3f7a03dd	0.97662145
62	0x3f84cc53	1.0374855
63	0x3f74522e	0.95437896

cnn_block.5.bias f4 [64]
0	0xbc5f0e7b	-0.013614292
1	0xbc7e645b	-0.015526856
2	0xbc9294d2	-0.017893229
3	0xbbff7f25	-0.007797139
4	0xba2ad0f2	-0.00065161206
5	0x3ba0e7b8	0.0049104355
6	0xbc122e22	-0.008922132
7	0xbc53b2d1	-0.012921051
8	0xbb94f150	-0.0045453683
9	0xbb56d72a	-0.0032782056
10	0xbbe7dc57	-0.007075827
11	0x390bef52	0.00013345227
12	0xbca57099	-0.020195292
13	0xbc37ff26	-0.011230266
14	0xbc81f55b	-0.015864065
15	0xbc23a605	-0.009988313
16	0xbcd7da67	-0.02634926
17	0x3797b0f1	1.8082997e-05
18	0xbb3252ff	-0.0027210114
19	0x3ac5c0b5	0.0015087338
20	0xbae01b8b	-0.0017098052
21	0xb9da9863	-0.00041693737
22	0x39074f45	0.00012904133
23	0x3b4465e2	0.0029967953
24	0xbdbf536c	-0.09342083
25	0xbca44a40	-0.020054936
26	0xbaf77e00	-0.0018882155
27	0xbc8ad00a	-0.016944904
28	0xbc886059	-0.016647505
29	0xbb21d1cc	-0.00246917
30	0xbb862e93	-0.0040949075
31	0x3bab5a28	0.0052292533
32	0xbc8e57be	-0.017375823
33	0xbc0d6751	-0.00863059
34	0xb9876dc3	-0.00025830985
35	0xbc63af3c	-0.01389676
36	0xbbd76846	-0.0065737097
37	0xbbfa676f	-0.007641725
38	0xbb8653bc	-0.0040993374
39	0xba8b770c	-0.0010640337
40	0x39fa1a0b	0.0004770312
41	0xbbf4631f	-0.007458105
42	0x3bdd6999	0.006756973
43	0xbb4992d8	-0.0030757692
44	0xbbf05193	-0.007333943
45	0xbbc428dc	-0.005986316
46	0xbc4a5cdd	-0.012351242
47	0xbb8bbcc1	-0.0042644446
48	0xbd12e295	-0.035860617
49	0xbbf48e71	-0.0074632694
50	0xbbae08e6	-0.0053111194
51	0xbc2cd4c4	-0.010548774
52	0xbc8da445	-0.017290244
53	0xbbef4a91	-0.00730259
54	0xbb439756	-0.0029844842
55	0xbbb0670b	-0.0053833774
56	0xbbdbf7d7	-0.0067128944
57	0xbc35becf	-0.011092856
58	0xbbacbea3	-0.005271749
59	0xbab203c5	-0.0013581446
60	0x3a9dc16a	0.0012035791
61	0xbc5fd52d	-0.013661665
62	0xbc29ca70	-0.010363206
63	0xbc6a96e4	-0.014318202

cnn_block.5.running_mean f4 [64]
0	0xbebaed05	-0.36508957
1	0x3ddb84d6	0.10718696
2	0x3f0862d9	0.5327583
3	0xbdeb4a9d	-0.11488841
4	0xbdea0758	-0.11427182
5	0x3e076c19	0.1322483
6	0x3e9e7ecd	0.30956116
7	0xbebcd94c	-0.36884534
8	0x3cbdbcbe	0.023161288
9	0x3dd0c29b	0.10193368
10	0xbd86ede1	-0.065883406
11	0x3e5e8e77	0.21734034
12	0x3dbe0969	0.092791386
13	0xbd76c4e4	-0.060246363
14	0xbda37220	-0.07980752
15	0x3e0b3247	0.13593398
16	0xbe59c84a	-0.2126781
17	0x3d92e7e6	0.07173137
18	0xbd90a05f	-0.07061838
19	0x3eab1397	0.33413383
20	0x3e4dd6cd	0.20101471
21	0xbeb2d688	-0.349293
22	0xbe6254bf	-0.2210264
23	0x3db68ad9	0.08913202
24	0xbd8960db	-0.06707927
25	0x3e814df4	0.25254786
26	0x3d480980	0.048837185
27	0x3e8e7f46	0.27831477
28	0x3e7a8f5e	0.24468753
29	0xbe46b8e4	-0.19406468
30	0xbdc37856	-0.09544437
31	0x3e8f2e8f	0.2796521
32	0x3d889398	0.06668776
33	0x3ef1c778	0.47222495
34	0xbed0343a	-0.40664846
35	0x3cc1f474	0.023676135
36	0xbbf2de8f	-0.007411785
37	0x3ed73e67	0.42039797
38	0xbc4d4dbb	-0.012530739
39	0x3d2b5819	0.041832063
40	0xbe5613ac	-0.20905942
41	0x3cbf2019	0.023330735
42	0x3c958350	0.018251091
43	0xbe075260	-0.13215017
44	0x3dac4399	0.08411331
45	0xbc890b7d	-0.01672911
46	0xbd3b66bb	-0.04575227
47	0x3e14e391	0.14539935
48	0x3ed5bbbe	0.41744798
49	0xbe669a1a	-0.22519723
50	0xbc9d7f3a	-0.019225705
51	0x3e6b13b4	0.22956735
52	0xbcee55ed	-0.029093707
53	0x3ec9a67d	0.39384833
54	0x3e49eed7	0.19720016
55	0xbb1aa23d	-0.0023595237
56	0xbd0a02f5	-0.033694226
57	0x3ceea1d5	0.029129902
58	0xbdb62ad3	-0.08894887
59	0xbf30860d	-0.68954545
60	0x3dabab70	0.083823085
61	0x3e012a47	0.12613784
62	0x3ca77c48	0.020445004
63	0xbe1e30bb	-0.15448277

cnn_block.5.running_var f4 [64]
0	0x3ed04163	0.40674886
1	0x3ea74591	0.32670262
2	0x3eb99659	0.3624752
3	0x3e70e3b0	0.23524356
4	0x3e3afb99	0.1826004
5	0x3e94970e	0.29021496
6	0x3ec9b64a	0.39396888
7	0x3e37c332	0.17945555
8	0x3e0ff774	0.1405924
9	0x3dd6ba67	0.10484772
10	0x3e819d17	0.25315163
11	0x3e177c19	0.14793433
12	0x3ea8d292	0.32973152
13	0x3db9c303	0.09070399
14	0x3e0b8acc	0.13627166
15	0x3e1e8353	0.15479784
16	0x3e01ed46	0.12688169
17	0x3e0dde5d	0.13854356
18	0x3ee69e6a	0.45042735
19	0x3df41429	0.11917908
20	0x3db4fbfd	0.088371255
21	0x3e27d0f0	0.16388297
22	0x3d86ef4e	0.065886125
23	0x3dc561e1	0.096378095
24	0x3ebaec42	0.36508375
25	0x3e91aa7e	0.28450388
26	0x3ee00d00	0.43759918
27	0x3ea2757b	0.31730255
28	0x3db72a20	0.089435816
29	0x3e11a362	0.14222482
30	0x3e5ba45c	0.21449417
31	0x3e3d77a6	0.18502674
32	0x3d946f6d	0.07247815
33	0x3e52212d	0.20520468
34	0x3e117873	0.14206104
35	0x3d6a2099	0.057159994
36	0x3dc72274	0.09723368
37	0x3e0f0985	0.13968475
38	0x3e9db13c	0.30799282
39	0x3dab7e8a	0.08373745
40	0x3ea1709a	0.3153122
41	0x3db5381d	0.088485934
42	0x3e803457	0.25039932
43	0x3e7033e9	0.23457302
44	0x3e851c9f	0.259984
45	0x3db4b89e	0.088242754
46	0x3e8a7007	0.27038595
47	0x3dc0b717	0.094099216
48	0x3e0c20fd	0.13684459
49	0x3dd64a8e	0.10463439
50	0x3e2e4ffb	0.17022698
51	0x3ded0e85	0.11575035
52	0x3ebd30db	0.36951336
53	0x3dc85174	0.09781161
54	0x3db0a84b	0.08625849
55	0x3d14c487	0.036320236
56	0x3dcb842a	0.09937318
57	0x3e3d99a1	0.18515636
58	0x3e0033f2	0.12519816
59	0x3e5313ff	0.20613097
60	0x3de27496	0.11057393
61	0x3ea1577f	0.31512067
62	0x3d67f41e	0.056629293
63	0x3ec101d5	0.3769671

fc.0.weight f4 [32, 64]
0	0x3db52cd7	0.08846443
1	0xbd287587	-0.041127708
2	0xbdd6a087	-0.10479837
3	0x3db150a4	0.08657959
4	0xbc9d82b1	-0.019227358
5	0xbd9a3d1b	-0.07531186
6	0xbda1f186	-0.07907395
7	0x3b709db2	0.0036715087
8	0xbd774116	-0.060364805
9	0x3df4ef64	0.11959723
10	0x3d9ed67b	0.07755753
11	0x3dac545b	0.08414527
12	0x3c89ffe3	0.01684565
13	0x3c13cf8f	0.009021654
14	0x3d6c72c5	0.05772664
15	0xbd67bf0d	-0.056578685
16	0x3c9818ea	0.018566567
17	0xbd15a810	-0.03653723
18	0x3d99ccfe	0.07509802
19	0x3dacb429	0.084328
20	0xbd8ddce1	-0.06926895
21	0xbb7103b6	-0.0036775894
22	0x3d90beb9	0.070676275
23	0x3dec50ee	0.115388736
24	0xbe864b0a	-0.26229125
25	0x3d1eff59	0.038817737
26	0xbc9e7169	-0.019341188
27	0x3defec93	0.11715045
28	0x3bc00fe3	0.005861269
29	0x3de384ed	0.11109338
30	0xbdfc0be5	-0.12306956
31	0xbb0b3493	-0.0021241053
32	0xbd94279d	-0.07234118
33	0xbcc4d9c6	-0.024029624
34	0xbd048609	-0.03235439
35	0x3cb74f2d	0.022376621
36	0xbd86ea65	-0.06587676
37	0xbd459297	-0.048235502
38	0x3d0c17df	0.034202453
39	0x3cd640cc	0.026153944
40	0x3db88308	0.09009367
41	0xbd4d3c3e	-0.05010628
42	0x3dc04fc5	0.09390215
43	0xbd904466	-0.07044296
44	0xbc0e7400	-0.008694649
45	0xbe0bcc3f	-0.13652132
46	0xbdb1c9ee	-0.08681093
47	0x3d681207	0.056657817
48	0x3dbad197	0.09122007
49	0xbc07b0b3	-0.0082818745
50	0xbdd161a8	-0.102237046
51	0xbd8b0fd1	-0.06790126
52	0x3dc2d026	0.095123574
53	0x3d35ada6	0.044355057
54	0x3d5a436c	0.053286955
55	0x3d80cf73	0.06289568
56	0xbdd25df0	-0.102718234
57	0xbe1adb53	-0.15122728
58	0x3c549d33	0.012976932
59	0xbe3a67d1	-0.18203665
60	0x3dcd7468	0.10031968
61	0x3ddad54a	0.10685213
62	0xbdc04a30	-0.0938915
63	0x3d8616cb	0.06547316
64	0x3b2e222b	0.0026570659
65	0xbdd5d025	-0.10440091
66	0xbe08cea1	-0.13360073
67	0x3d3205a3	0.043462407
68	0xbb821f85	-0.0039710426
69	0x3d126c3e	0.03574776
70	0xbc763001	-0.015026093
71	0x3d816fa0	0.06320119
72	0xbd62b0d1	-0.055344407
73	0xbe0287ca	-0.12747112
74	0x3d914839	0.070938535
75	0xbd1f0fcb	-0.03883342
76	0xbde40a1f	-0.11134743
77	0xbdc744eb	-0.09729942
78	0x3d2f5d4b	0.04281358
79	0x3d7784b3	0.060429286
80	0x3dc3738c	0.09543523
81	0x3e0bd975	0.13657172
82	0xbd83323c	-0.06406066
83	0x3e008d00	0.12553787
84	0x3cf83781	0.030299904
85	0x3defa55a	0.1170146
86	0x3d0bd522	0.034138806
87	0xbdc725c0	-0.09723997
88	0xbd9a777b	-0.0754232
89	0xbda8cca6	-0.082421586
90	0xbdf3325b	-0.11874839
91	0x3ce0b830	0.027431577
92	0xbd7cc5d4	-0.0617121
93	0x39f530ee	0.00046766497
94	0x3d87cada	0.06630488
95	0x3e03cba9	0.12870659
96	0x3dc75dde	0.097347006
97	0x3d6192cf	0.05507165
98	0x3b83db4c	0.004023945
99	0xbd9b548e	-0.07584487
100	0x3dd85e15	0.1056482
101	0xbdeedf45	-0.11663679
102	0x3dadf61e	0.08494209
103	0x3c07cade	0.008288113
104	0xbe00c82d	-0.12576361
105	0xbcbc6926	-0.022999357
106	0xbcf3005c	-0.029663257
107	0x3c9c3d54	0.019072212
108	0xbd89957f	-0.06717967
109	0xbd3a6ba7	-0.04551282
110	0x3cb5e39e	0.022203263
111	0x3d9f0b5c	0.077658385
112	0xbc9248cc	-0.017856978
113	0x3cb35dc2	0.021895293
114	0xbd8d31cd	-0.06894264
115	0x3de8f519	0.11374874
116	0xbd1fbdad	-0.03899925
117	0xbdd8e2ee	-0.105901584
118	0xba915161	-0.0011086875
119	0xbde2dd90	-0.11077416
120	0x3d58df0c	0.05294709
121	0xbc7e37ec	-0.0155162625
122	0x3d323496	0.04350718
123	0x3d7518b1	0.059838
124	0x3d7f335c	0.06230484
125	0xbd171d3f	-0.036893126
126	0x3dc91920	0.09819245
127	0xbd475dc0	-0.04867339
128	0xbdaabd02	-0.08336832
129	0x3d207fe2	0.03918446
130	0xbdd55f49	-0.10418565
131	0xbe0949af	-0.13407014
132	0xbc0bbd24	-0.008528981
133	0x3cf1ffbd	0.02954089
134	0xbd3ca83a	-0.04605887
135	0xbb144334	-0.0022623064
136	0x3de6bba7	0.112662606
137	0x3dd5050c	0.10401353
138	0xbb82cf20	-0.0039919764
139	0xbdf1be1d	-0.11803839
140	0x3d45350b	0.04814629
141	0xbdafdd9b	-0.0858719
142	0xbd6fcf5c	-0.058547363
143	0xbc02ef38	-0.0079916045
144	0x3cf156be	0.029460307
145	0x3d09fa71	0.033686105
146	0x3db5785e	0.08860849
147	0xbd8b02c5	-0.067876376
148	0xbd65dc94	-0.056118563
149	0xbdf5d0c1	-0.12002707
150	0xbcec1e42	-0.028823022
151	0x3e021c9c	0.12706226
152	0x3d345de6	0.04403486
153	0xbd3fce1e	-0.046827428
154	0xbdfeba8e	-0.12437926
155	0x3d3b7027	0.045761254
156	0x3ab53302	0.0013824406
157	0x3b9699da	0.0045959773
158	0x3d2ab4d2	0.04167635
159	0x3d8585ce	0.06519662
160	0xbdecc3b4	-0.11560765
161	0x3d80fa8c	0.06297788
162	0xbca78b1d	-0.020452077
163	0xbd81f778	-0.06346029
164	0x3dacd582	0.08439161
165	0xbc9c9b40	-0.019116998
166	0x3d241a21	0.04006398
167	0x3cc3bc6d	0.02389356
168	0x3cd12f95	0.025535384
169	0xbe1310e6	-0.14361915
170	0x3d766701	0.060156826
171	0xbd395f92	-0.04525716
172	0xb98eae4b	-0.0002721421
173	0x3d4fae98	0.050703615
174	0x3ca5274d	0.020160342
175	0x3defb62f	0.11704671
176	0xbe0781e8	-0.13233149
177	0x3dacee03	0.08443835
178	0x3d28d48f	0.041218337
179	0xbd7a14bd	-0.061054934
180	0x3d71d3fe	0.059040062
181	0x3d8b5a50	0.06804335
182	0xbd6e8f4e	-0.058242135
183	0x3dac6ad7	0.084188156
184	0x3d2d32ab	0.04228465
185	0x3c2a754b	0.010403941
186	0x3d9a59ce	0.0753666
187	0x3cb2a58f	0.02180746
188	0xbde63b77	-0.11241811
189	0x3d83c4ef	0.064340465
190	0xbdb8fd4a	-0.09032686
191	0xbd9b1824	-0.07572964
192	0xbdc4ac06	-0.09603123
193	0xbdb5edc4	-0.08883241
194	0xbcb29039	-0.021797286
195	0xbddff0d8	-0.10934609
196	0x3d9202dc	0.07129452
197	0xbe0ab185	-0.13544281
198	0x3d47952c	0.048726246
199	0xbd1ffb28	-0.03905788
200	0x3d038fc3	0.032119524
201	0xbcd7d17f	-0.026345013
202	0xbdce4ec8	-0.1007362
203	0x3b9685c0	0.004593581
204	0xbd8c6e6c	-0.06856999
205	0xbcf71795	-0.030162612
206	0x3cba4e20	0.022742331
207	0xbcd2ff16	-0.0257564
208	0x3df2e390	0.1185981
209	0xbdc1766b	-0.094464146
210	0x3d32cb15	0.043650705
211	0xbe0c14f8	-0.13679874
212	0xbd81f787	-0.0634604
213	0x3d9c3cfa	0.07628818
214	0x3dedc9fc	0.11610791
215	0xbcd44962	-0.025913898
216	0x3d9f6c40	0.07784319
217	0xbd8d6942	-0.06904842
218	0xbde49863	-0.11161878
219	0xbd2cafa4	-0.04215969
220	0x3d5d9de4	0.054105654
221	0xbdfd3397	-0.123633556
222	0xbddbb1dd	-0.10727284
223	0xbc85358f	-0.01626089
224	0x3d098c7a	0.033581235
225	0xbdb94a2b	-0.090473495
226	0xbbfce617	-0.0077178585
227	0xbd2cbef7	-0.042174306
228	0xbdd09209	-0.10184104
229	0xbcea2fb4	-0.0285872
230	0xbdc6a1bd	-0.09698818
231	0x3dd9798f	0.106188886
232	0x3d0bdc1b	0.034145456
233	0x3dceddb1	0.10100878
234	0x3c2334cb	0.009961317
235	0xbdaf8a38	-0.08571285
236	0xbdbc571c	-0.09196302
237	0x3dfed67b	0.12443253
238	0x3df7ef37	0.121061735
239	0x3d42d3f5	0.04756542
240	0x3bc8ccfa	0.0061279507
241	0x3dc9f7fd	0.09861753
242	0x3c9ee7dc	0.019397669
243	0xbcf8ce91	-0.030371936
244	0x3dd064bc	0.101754636
245	0xbdf4f2ed	-0.11960397
246	0x3d9d2e38	0.07674831
247	0x3d8a92ad	0.067662574
248	0x3dbb77cf	0.09153711
249	0xbce4c633	-0.02792654
250	0x3c89eefd	0.016837591
251	0xbe148f6a	-0.14507833
252	0xbd6fee02	-0.05857659
253	0x3bf1b9a9	0.0073768687
254	0xbd852cec	-0.06502709
255	0x3db5e281	0.08881093

fc.0.bias f4 [32]
0	0xbdaf5573	-0.0856122
1	0x3cdd895f	0.027043043
2	0xbdf5ca5b	-0.12001487
3	0x3d7f21e4	0.06228818
4	0x3df2eeba	0.1186194
5	0x3d532ec7	0.051558282
6	0xbd241e12	-0.04006774
7	0xbd2ddc43	-0.042446386
8	0x3cad07a6	0.021121811
9	0x3db38cb8	0.08767074
10	0x3d7d2408	0.06180194
11	0xbdc8d675	-0.098065294
12	0xbba7a805	-0.005116465
13	0xbdfe5ceb	-0.124200664
14	0x3dc10d28	0.094263375
15	0x3dc32a1e	0.095295176
16	0x3da58be0	0.0808332
17	0x3d192c49	0.03739575
18	0x3d509084	0.05091907
19	0x3df2ecbc	0.1186156
20	0x3de2aaed	0.11067758
21	0xbdd26c50	-0.10274565
22	0x3d2a7b20	0.041621327
23	0xbda34a7a	-0.0797319
24	0xbd956229	-0.07294113
25	0x3de43516	0.11142938
26	0xbca4192a	-0.02003153
27	0xbd4d187c	-0.05007218
28	0xbd82fef8	-0.06396288
29	0xbdab33a2	-0.083594576
30	0xbc772ab7	-0.015085868
31	0xbdbe5466	-0.092934415

fc.1.weight f4 [32]
0	0x3fa1e27e	1.2647245
1	0x3f915443	1.135384
2	0x3f99463e	1.1974561
3	0x3f821643	1.0163044
4	0x3f9d2f2f	1.2280024
5	0x3f83bbfe	1.0291746
6	0x3fa2f14b	1.2729887
7	0x3f8884ac	1.0665488
8	0x3f98d24e	1.193918
9	0x3f90d51f	1.1315039
10	0x3f85bf0e	1.044893
11	0x3f8d8b59	1.105815
12	0x3f95c9fa	1.1702263
13	0x3f89b076	1.0756977
14	0x3fa251c1	1.2681199
15	0x3f8bcea5	1.0922438
16	0x3f87d724	1.0612531
17	0x3f99e89e	1.2024114
18	0x3f84b8c1	1.0368882
19	0x3f8e0baf	1.1097316
20	0x3fa53acf	1.2908572
21	0x3f950777	1.1642903
22	0x3f838f6f	1.0278147
23	0x3f9b22d9	1.212001
24	0x3f8c05b5	1.0939242
25	0x3f92e255	1.1475321
26	0x3f91e023	1.1396526
27	0x3f8c9540	1.0983047
28	0x3f9255a3	1.1432384
29	0x3f8e2e60	1.1107903
30	0x3f862c1a	1.0482209
31	0x3f8f6280	1.1201935

fc.1.bias f4 [32]
0	0x3d225017	0.03962716
1	0x3e8575d1	0.2606645
2	0x3e8359c7	0.25654432
3	0xbd305cb9	-0.043057177
4	0x3eac2902	0.33625036
5	0xbe5c5437	-0.215165
6	0xbdb94f8c	-0.090483755
7	0x3e02e9b0	0.12784457
8	0x3ce232fb	0.0276122
9	0x3e1c8414	0.15284759
10	0x3d5552e5	0.052081008
11	0x3db4fa35	0.08836786
12	0x3e89b700	0.2689743
13	0x3e0418dd	0.1290011
14	0x3db52a45	0.08845953
15	0x3e76a90f	0.24087928
16	0x3dad309e	0.084565386
17	0x3d384b5f	0.044993754
18	0x3e25e849	0.16201891
19	0x3e07ed3a	0.13274089
20	0x3de85c69	0.11345751
21	0x3e977f54	0.2958933
22	0x3c335db4	0.010947634
23	0xbd989aa5	-0.07451371
24	0x3da4e56a	0.0805157
25	0x3e5eb679	0.21749295
26	0x3e9854d1	0.2975221
27	0x3e318880	0.17337227
28	0x3e67ee7a	0.22649565
29	0x3e0a7451	0.13520934
30	0x3e0e55a5	0.13899858
31	0x3e8cba29	0.2748578

fc.1.running_mean f4 [32]
0	0xbdf1541f	-0.11783623
1	0xbbb62289	-0.005558316
2	0xbe1d1fd9	-0.1534418
3	0xbd2c264d	-0.042028714
4	0x3e27718a	0.16351905
5	0x3e28f960	0.16501379
6	0xbe212f79	-0.15740766
7	0x3bcc6320	0.0062374026
8	0x3e0943c5	0.13404758
9	0x3e9d2115	0.30689302
10	0x3e4a32b4	0.19745904
11	0xbcab0300	-0.020875454
12	0xbde5d2b9	-0.11221833
13	0xbe820120	-0.25391483
14	0x3e1eec46	0.15519819
15	0xbe736381	-0.23768426
16	0xbd342538	-0.043980807
17	0xbcd1f6cd	-0.02563038
18	0xbdfe8264	-0.12427214
19	0x3e372fbe	0.17889306
20	0x3da7a80d	0.0818635
21	0xbd4358d8	-0.04769215
22	0xbd047fe3	-0.032348525
23	0xbd59a2b9	-0.0531337
24	0xbe0cda94	-0.13755256
25	0x3c9fba1b	0.019497922
26	0xbe1f90d1	-0.15582587
27	0x3d9e6e11	0.07735837
28	0xbde823cb	-0.11334952
29	0xbe3ed89b	-0.18637316
30	0x3e18de85	0.14928634
31	0x3d5ceaf7	0.053935017

fc.1.running_var f4 [32]
0	0x399bfcd3	0.00029752273
1	0x3aa7d222	0.0012803713
2	0x3a99be27	0.0011729643
3	0x3c23af2b	0.009990494
4	0x3b3931eb	0.0028258513
5	0x3a389e2a	0.0007042611
6	0x3b30dc03	0.0026986606
7	0x39b1ddff	0.0003392547
8	0x3a3cb4e6	0.0007198587
9	0x3ac533f5	0.0015045392
10	0x3c0e898e	0.008699788
11	0x3ac1b109	0.0014777492
12	0x3a002654	0.0004888524
13	0x3b10960a	0.0022062087
14	0x3a87b5e5	0.0010353891
15	0x3b720ae4	0.003693276
16	0x3a54aece	0.0008113206
17	0x386a9be8	5.5935147e-05
18	0x3ce8a657	0.02839963
19	0x39ddb043	0.0004228373
20	0x3a030983	0.0004998671
21	0x3b1754d6	0.0023091338
22	0x3b693fe9	0.0035591072
23	0x390e0552	0.00013544157
24	0x3abef013	0.0014567397
25	0x3aa7e590	0.0012809504
26	0x394f66e0	0.00019779382
27	0x3bbb6ebb	0.005719987
28	0x3b11659a	0.0022185803
29	0x399de958	0.00030119228
30	0x3add46be	0.0016882045
31	0x3a938fa1	0.0011258015

fc.3.weight f4 [10, 32]
0	0x3e30fe20	0.17284441
1	0x3eb72458	0.35769916
2	0xbdabaf7e	-0.08383082
3	0xbd04654c	-0.032323167
4	0x3d1f9e2e	0.03896921
5	0x3ea9adda	0.3314045
6	0xbeb0e0b0	-0.34546423
7	0x3e0ee21b	0.1395344
8	0x3d0d1f20	0.03445351
9	0xbea12d71	-0.31479982
10	0xbd1f5cfe	-0.038907044
11	0x3e46a8c4	0.19400316
12	0xbd1f442e	-0.03888338
13	0x3eca386b	0.39496168
14	0x3eae7ed5	0.3408114
15	0x3e54b749	0.20773043
16	0x3df2171b	0.11820813
17	0xbd328f03	-0.043593418
18	0x3e5df06c	0.21673745
19	0xbc3fa7a6	-0.011697685
20	0x3ea7d997	0.32783195
21	0x3e3de77a	0.18545333
22	0xbb07bca7	-0.002071181
23	0x3cc4248b	0.023943206
24	0x3eef1a31	0.4669967
25	0x3e9e3276	0.30897874
26	0x3f095a5b	0.53653497
27	0x3cd3848d	0.025820041
28	0x3eadf750	0.33977747
29	0x3ea3f3a3	0.32021818
30	0x3e0f9679	0.14022245
31	0xbe246c13	-0.16056852
32	0xbe2b6641	-0.16738226
33	0xbd252577	-0.040318932
34	0xbd1976b0	-0.037466705
35	0x3dc42a7f	0.09578418
36	0xbee81097	-0.45325157
37	0x3d41b4a3	0.04729141
38	0x3f27002f	0.65234655
39	0x3b9e4cb6	0.004830922
40	0xbcb25234	-0.021767713
41	0xbe40e94a	-0.18838993
42	0x3d1cc587	0.038274314
43	0xbe608f31	-0.21929623
44	0x3e1505ff	0.14553069
45	0x395847ad	0.00020626067
46	0x3dbe9813	0.093063496
47	0xbdf0bc61	-0.117546804
48	0xbd26d221	-0.04072774
49	0xbcaca33c	-0.02107393
50	0x3dcc7b49	0.09984452
51	0xbe97f1e9	-0.2967675
52	0xbdbb2fb6	-0.091399595
53	0xbecb2779	-0.39678553
54	0x3e34d339	0.176587
55	0x3d9627f7	0.073318414
56	0xbddf9bec	-0.109184116
57	0x3d8e0ce5	0.06936053
58	0xbe6e7078	-0.23285091
59	0xbe21a4de	-0.15785548
60	0xbe625f6f	-0.22106718
61	0x3e22feef	0.15917562
62	0xbd372e27	-0.04472175
63	0xbd9126b3	-0.070874594
64	0xbe28bb09	-0.16477598
65	0x3d386bde	0.045024745
66	0x3e806bdb	0.25082287
67	0xbe37da13	-0.17954282
68	0x3ebdc972	0.37067753
69	0xbde7c1e2	-0.11316277
70	0xbc74ae8b	-0.014934192
71	0xbe86f5c6	-0.26359385
72	0xbe8e6fd8	-0.27819705
73	0x3e8fe14a	0.2810157
74	0xbd2df699	-0.042471502
75	0x3e79ed72	0.24406984
76	0x3e9781f2	0.29591328
77	0x3d3990d5	0.04530414
78	0xbe51f36d	-0.20503016
79	0x3d1a6dc9	0.037702356
80	0xbe4eab3d	-0.2018251
81	0xbed5275c	-0.4163159
82	0x3dbb8522	0.091562524
83	0x3e21d6ed	0.15804644
84	0xbf14525c	-0.5793817
85	0x3ecd92ab	0.4015096
86	0xbd40632b	-0.046969574
87	0xbe684785	-0.22683533
88	0xbe0d39a3	-0.13791518
89	0x3ec2d95e	0.38056463
90	0xbd51d140	-0.051224947
91	0xbb9b2b55	-0.00473539
92	0x3e844c90	0.25839663
93	0xbe55de86	-0.20885667
94	0xbe569522	-0.20955327
95	0x3e6cbc5c	0.23118728
96	0x3abb2c8f	0.0014280247
97	0x3e994cb8	0.29941344
98	0x3d6b0971	0.05738205
99	0x3cc1e5ca	0.023669142
100	0xbd9640ef	-0.07336604
101	0x3dd1f7a0	0.10252309
102	0xbe39cee4	-0.18145329
103	0x3e6c5a5d	0.23081346
104	0x3ca2035a	0.019776989
105	0xbe8fc0a9	-0.28076676
106	0xbbbcc066	-0.0057602404
107	0xbcba597d	-0.02274775
108	0x3db302e6	0.08740787
109	0x3c0cc065	0.008590792
110	0x3e9d103e	0.30676454
111	0x3e774283	0.24146466
112	0x3e705790	0.23470902
113	0xbd237b04	-0.03991224
114	0x3cd79c25	0.026319573
115	0xbe2bbaef	-0.16770528
116	0x3e3ef28e	0.18647215
117	0x3d13b186	0.03605797
118	0x3e373ccb	0.17894284
119	0x3dcfa919	0.10139675
120	0x3da4ff0f	0.08056461
121	0x3e06812c	0.13135213
122	0x3e9bdff1	0.3044429
123	0x3a8489cf	0.0010111871
124	0xbd380d98	-0.04493484
125	0x3eb120e8	0.34595418
126	0x3e0357e0	0.1282649
127	0xbde89c14	-0.113578945
128	0xbe90c944	-0.28278553
129	0xbe3f959d	-0.18709417
130	0xbcb576e2	-0.022151414
131	0xbd2f7788	-0.042838603
132	0xbdae2736	-0.08503573
133	0x3c14be53	0.00907858
134	0x3d4fee63	0.050764453
135	0xbe6e6789	-0.23281683
136	0xbe65078e	-0.22366163
137	0x3e5e30ff	0.21698378
138	0x3b02e61f	0.0019973589
139	0xbdc12020	-0.094299555
140	0x3d66de99	0.05636463
141	0xbc80b23a	-0.015709985
142	0xbdb49e8e	-0.088193044
143	0xbe4fad46	-0.20280942
144	0x3d10bd32	0.03533668
145	0xbe45afbb	-0.19305317
146	0xbe04a8c4	-0.12955004
147	0xbba212d9	-0.0049460945
148	0xbd28e3ba	-0.041232802
149	0xbdd837ab	-0.10557493
150	0x3c19dfc4	0.009391729
151	0xbe21e309	-0.15809263
152	0xbb3ac301	-0.002849758
153	0xbdcbc617	-0.09949892
154	0x3c5f74e9	0.013638713
155	0x3e2fe03e	0.17175385
156	0xbceb355e	-0.02871197
157	0xbd3ada0f	-0.045618113
158	0x3d505f63	0.050872218
159	0xbc1b9752	-0.009496527
160	0xbd8a1236	-0.06741755
161	0xbe2d528e	-0.16926023
162	0xbe449675	-0.1919802
163	0x3d730908	0.059334785
164	0x3e58cf18	0.2117275
165	0x3da4e405	0.08051304
166	0x3e780c5a	0.24223462
167	0x3d2a342d	0.041553665
168	0x3e84e2af	0.25954196
169	0xbd7e54bb	-0.062092524
170	0x3e58c35f	0.21168278
171	0xbe847d52	-0.25876862
172	0x3de02fd4	0.109466225
173	0xbd9f8872	-0.07789697
174	0xbe13d644	-0.14437205
175	0xbe2b191e	-0.167088
176	0xbe291721	-0.16512729
177	0xbc791307	-0.01520229
178	0x3d850a68	0.064961255
179	0xbe03d37a	-0.1287364
180	0xbe294489	-0.1653005
181	0xbeb215c5	-0.34782234
182	0x3b8c477e	0.0042809835
183	0xbd36eb27	-0.044657853
184	0xbd2f74e5	-0.04283609
185	0xbda0f769	-0.0785969
186	0xbc84dda4	-0.016218968
187	0x3e00de98	0.12584913
188	0xbe8bc712	-0.27300316
189	0xbe1ad0b5	-0.15118678
190	0xbe17500c	-0.14776629
191	0x3d93681e	0.07197593
192	0x3f21d3e3	0.6321394
193	0xbe89ea35	-0.26936498
194	0xbf3c87f2	-0.73644936
195	0x3e0abc65	0.1354843
196	0xbec5ef19	-0.3865898
197	0xbe0efda4	-0.13963944
198	0xbe53b39c	-0.20673984
199	0x3e1b37a9	0.15157951
200	0x3f09f2ef	0.5388631
201	0xbe05e405	-0.13075264
202	0xbdfa75e8	-0.1222952
203	0xbe4e855b	-0.20168059
204	0xbf0d4755	-0.5518697
205	0xbdd45581	-0.10367871
206	0xbed44764	-0.41460717
207	0x3e3c68b8	0.18399322
208	0x3d2e735b	0.04259048
209	0x3ed24647	0.41069242
210	0x3d8c447d	0.068490006
211	0x3d78c227	0.060732033
212	0x3eec1e48	0.46116853
213	0xbe00106b	-0.12506263
214	0xbe014bcb	-0.12626569
215	0x3f19ba60	0.6005001
216	0xbd967664	-0.073468
217	0xbec0e403	-0.3767396
218	0xbe2716d8	-0.16317308
219	0xbe58ba41	-0.211648
220	0xbcee4ff2	-0.029090855
221	0xbdd72fb9	-0.10507149
222	0x3e12a726	0.14321575
223	0xbf0aaa5e	-0.5416621
224	0xbe0b8fa9	-0.13629021
225	0xbe084507	-0.13307582
226	0x3cd9d14c	0.026589058
227	0xbbe37667	-0.006941605
228	0x3ec4e23d	0.38453856
229	0xbe146f0d	-0.14495488
230	0x3c557fcd	0.013030958
231	0xbe774d1e	-0.24150512
232	0x3e4228f5	0.18960936
233	0x3e85f379	0.26162317
234	0x3c3a7dac	0.011382502
235	0x3dae948b	0.08524426
236	0x3e620b5a	0.22074643
237	0xbe6e9485	-0.23298843
238	0xbe59feae	-0.21288559
239	0xbda808c1	-0.08204795
240	0xbe51aaf6	-0.20475373
241	0xbcab9cf4	-0.020948865
242	0xbddc00bf	-0.1074233
243	0x3e6ab199	0.2291931
244	0xbbc26a51	-0.005933084
245	0x3e166f9f	0.14691018
246	0x3e0b259c	0.13588566
247	0xbe813b9a	-0.25240785
248	0xbdcd2e8b	-0.10018643
249	0x3d8b75ca	0.06809576
250	0xbe2495e8	-0.1607281
251	0x3eb3d4eb	0.3512338
252	0x3deadfe6	0.114684865
253	0xbdb3985d	-0.08769295
254	0xbe706030	-0.23474193
255	0x3bd758b8	0.0065718554

fc.3.bias f4 [10]
0	0x3e6d802b	0.23193423
1	0xbef34a8c	-0.47517812
2	0x3f1e30e0	0.6179333
3	0xbdc2bdb2	-0.09508838
4	0xbe716e36	-0.23577198
5	0xbe93be5c	-0.2885617
6	0xbf1f8de7	-0.623259
7	0x3e792269	0.24329533
8	0x3e540ef0	0.20708823
9	0xbe16d51b	-0.14729731
