saved/baseline.pth (torch, 64666 bytes, 20 tensors)

cnn_block.0.weight f4 [32, 5, 5]
0	0x3db4e54c	0.088327974
1	0xbe456337	-0.19276129
2	0xbe0dc9d6	-0.13846526
3	0x3c41d288	0.01182998
4	0xbc109592	-0.008824723
5	0xbd0c33ab	-0.034228962
6	0x3c07350a	0.008252392
7	0x3e09ae4f	0.134454
8	0x3dcd3860	0.10020518
9	0x3e32f614	0.17476684
10	0xbe25b049	-0.16180529
11	0x3d557356	0.052111946
12	0x3c033cae	0.008010073
13	0x3e1c5090	0.15265107
14	0x3ce01178	0.02735208
15	0x3c2656e7	0.010152555
16	0xbc540be7	-0.012942291
17	0xbddaec57	-0.106896095
18	0xbdbaf8dd	-0.09129498
19	0xbe19337d	-0.14961047
20	0xbdf50095	-0.11963002
21	0xbd145f85	-0.036223907
22	0x3cdf3848	0.027248517
23	0xbd6266c1	-0.055273775
24	0xbd6cf067	-0.057846453
25	0xbc4a0eba	-0.012332613
26	0xbe3734af	-0.17891191
27	0x3da0765f	0.078350775
28	0xbe1f0547	-0.15529357
29	0xbe28e3ea	-0.16493192
30	0xbb7f2e19	-0.0038937388
31	0x3d9a96c5	0.07548288
32	0x3e0dc9cb	0.13846509
33	0x3dc20830	0.09474218
34	0xbe5e5611	-0.21712519
35	0x3e317d28	0.173329
36	0xbd3d4772	-0.046210714
37	0x3d2af0f7	0.04173371
38	0xbdc6a2b7	-0.09699004
39	0xbe064118	-0.13110769
40	0xbcf1decd	-0.029525185
41	0xbd13b553	-0.036061596
42	0x3c6d65e7	0.014489627
43	0xbdd11700	-0.10209465
44	0x3dd7c92a	0.10536416
45	0xbd2f120f	-0.04274183
46	0xbe35e4f5	-0.17763121
47	0x3e00b99f	0.12570809
48	0xbc570031	-0.013122604
49	0x3d5a6566	0.053319357
50	0xbe37e986	-0.17960176
51	0x3befefd6	0.007322292
52	0xbdbc62b0	-0.09198511
53	0x3d8ccad0	0.06874621
54	0xbe1f11c4	-0.15534121
55	0xbdc33bd5	-0.095328964
56	0xbd89c084	-0.067261726
57	0x3e2ec29c	0.17066425
58	0xbe1346b3	-0.14382438
59	0x3b5ee0f3	0.0034008592
60	0xbe35e0d1	-0.17761542
61	0xbe281f88	-0.16418278
62	0xbe2f65bd	-0.17128654
63	0xbde37287	-0.11105829
64	0xbd9296d4	-0.071576744
65	0x3cde0c73	0.027105546
66	0x3e037287	0.12836657
67	0xbda9623d	-0.082706906
68	0xbd2c1753	-0.04201443
69	0xbc5c2ab3	-0.013437915
70	0xbe0ff1c3	-0.14057069
71	0xbc9c2988	-0.019062772
72	0x3e29acc4	0.16569811
73	0xbe06427e	-0.13111302
74	0xbe4b5889	-0.19857992
75	0x3e26988e	0.16269132
76	0xbdfbca55	-0.12294451
77	0x3d1e3098	0.03862056
78	0xbd44e6e2	-0.04807175
79	0xbcb918af	-0.022594778
80	0xbe18df3f	-0.14928912
81	0x3d16a02f	0.036773857
82	0xbd2c2094	-0.042023256
83	0xbdc0b33f	-0.094091885
84	0x3e0adc3b	0.13560574
85	0xbe2317ea	-0.15927091
86	0x3c57da77	0.013174645
87	0x3cdc3259	0.026879476
88	0xbe39c740	-0.18142414
89	0x3d950851	0.07276977
90	0xbe3f6f1d	-0.1869473
91	0xbd000040	-0.03125024
92	0xbd1b8593	-0.037969183
93	0x3e336315	0.17518266
94	0xbde2709d	-0.110566355
95	0x3e368db9	0.178275
96	0x3d8cc3c1	0.068732746
97	0xbe0d95b5	-0.1382664
98	0x3deeb010	0.11654675
99	0x3cfb624d	0.030686522
100	0xbdc39b75	-0.095511355
101	0xbc339c9a	-0.01096263
102	0x3d994409	0.0748368
103	0xbc305796	-0.01076307
104	0xbca89353	-0.020578062
105	0xbd41d399	-0.047320936
106	0x3e48286e	0.19546673
107	0x3d96c408	0.07361609
108	0x3d92bc90	0.07164872
109	0x3bcb576f	0.0062054913
110	0xbdea57b7	-0.114425115
111	0xbe25c0f2	-0.16186884
112	0x3c725659	0.014791095
113	0xbe0e182c	-0.13876408
114	0xbdbfbc0a	-0.093620375
115	0x3e250a02	0.16117099
116	0x3e203f93	0.15649252
117	0x3cfe3867	0.031032754
118	0xbe2a281f	-0.16616867
119	0x3d892aa7	0.066975884
120	0x3dae1802	0.08500673
121	0x3e080dba	0.13286486
122	0x3e391c9c	0.1807732
123	0x3df2de4d	0.11858807
124	0x3c24aa8a	0.010050425
125	0xbd901394	-0.07034984
126	0x3d42fee2	0.047606356
127	0xbe037810	-0.12838769
128	0xbd1d9358	-0.038470596
129	0xbe4c0421	-0.1992345
130	0x3d85e5ae	0.065379485
131	0xbdea641e	-0.11444877
132	0xbe481e50	-0.19542813
133	0xbdad8d72	-0.08474244
134	0x3d9d98c7	0.076951556
135	0x3db28bc0	0.087180614
136	0xbdbdac50	-0.092613816
137	0xbe0c197b	-0.13681595
138	0xbd4b9d94	-0.049710825
139	0x3e0c6da6	0.13713703
140	0x3d66b1da	0.056321956
141	0xbdf7eaea	-0.12105353
142	0xbd8b84a7	-0.06812411
143	0xbda3fb87	-0.080069594
144	0x3da733ba	0.08164163
145	0x3e22fddb	0.1591715
146	0xbdbfe677	-0.093701296
147	0xbd9f2221	-0.077701814
148	0x3cbe8281	0.023255588
149	0xbd8ec1f8	-0.0697059
150	0xbe3ccefb	-0.18438332
151	0x3e2ddcc2	0.16978744
152	0xbd1bd434	-0.03804417
153	0xbd29f9e1	-0.04149807
154	0xbe310399	-0.17286529
155	0x3de5c5b5	0.1121935
156	0xbe3ce087	-0.18445025
157	0x3e3bd1a1	0.18341686
158	0x3b118579	0.00222048
159	0x39fd6de9	0.0004833781
160	0x3d27af89	0.040938888
161	0x3e1bc613	0.15212278
162	0x3e10ec8a	0.14152732
163	0x3d8f5522	0.0699866
164	0xbccc2613	-0.024920499
165	0xbd642eba	-0.055708624
166	0x3d0bd007	0.034133937
167	0xbe264a45	-0.16239269
168	0x3db3df57	0.08782833
169	0x3dfa836d	0.12232099
170	0x3c535d14	0.0129006095
171	0xbd3e8d26	-0.04652133
172	0xbe316dfb	-0.1732711
173	0x3dc159b3	0.09440937
174	0xbd384f36	-0.044997416
175	0x3d82e10e	0.06390582
176	0x3e2e0b6e	0.16996548
177	0xbda13dab	-0.0787309
178	0xbdfe7419	-0.124244876
179	0xbd8fa58b	-0.07013997
180	0x3e5251a8	0.20538962
181	0xbdef588a	-0.11686809
182	0xbe3bb98f	-0.18332504
183	0x3dcdca68	0.100483716
184	0xbd584c4d	-0.05280714
185	0x3d00cb09	0.03144363
186	0x3d9a28d2	0.07527317
187	0xbe1ab884	-0.1510945
188	0xb8b9aca6	-8.853646e-05
189	0x3e0b641a	0.13612404
190	0x3d4fa62d	0.050695587
191	0xbe272187	-0.16321383
192	0xbe0fa01f	-0.14025925
193	0xbdd9b23a	-0.10629697
194	0xbdb1dad0	-0.08684313
195	0x3e37b79f	0.1794114
196	0xbe363267	-0.17792664
197	0x3d90884a	0.07057245
198	0x3d74862e	0.059698276
199	0x3e451fe4	0.19250447
200	0x3d9709e0	0.073749304
201	0xbe2e0900	-0.1699562
202	0x3e0c34aa	0.13691965
203	0xbd8d20d7	-0.06891029
204	0x3e1969dc	0.14981788
205	0xbdace5d9	-0.084422775
206	0xbe30f2e0	-0.1728015
207	0xbde5e499	-0.11225242
208	0xbe2a6c1a	-0.166428
209	0x3d9bc35c	0.07605621
210	0x3db9a14c	0.09063968
211	0x3d86a8d4	0.0657517
212	0xbd18ffef	-0.037353452
213	0x3c955194	0.018227376
214	0xbe05395a	-0.13010159
215	0x3cafc58d	0.021456504
216	0x3e46c952	0.19412735
217	0xbdc6a9a0	-0.09700322
218	0xbe0d0dc0	-0.13774776
219	0xbe17c9b8	-0.14823043
220	0xbdfdb6b6	-0.12388365
221	0x3d0c8712	0.0343085
222	0x3da3c29b	0.079961024
223	0x3e346e53	0.1762021
224	0x3c889dfe	0.016676899
225	0xbdee9d32	-0.116510764
226	0x3e3abee1	0.18236877
227	0x3d25cc71	0.040478174
228	0xbe3a87f6	-0.18215927
229	0xbd4158b9	-0.047203753
230	0xbe2fde88	-0.17174733
231	0xbe2bb1df	-0.16767071
232	0x3e21b954	0.15793353
233	0x3dd6bb14	0.10484901
234	0x3d8eab4b	0.06966265
235	0xbdf8cbb9	-0.12148232
236	0xbe286cff	-0.16447829
237	0xbd5c6783	-0.053809654
238	0xbe19eed6	-0.15032515
239	0xbdc0bb1d	-0.09410689
240	0xbdbfdda0	-0.093684435
241	0xbe3fbe40	-0.18724918
242	0x3c50d04d	0.012744975
243	0x3d0a4160	0.033753753
244	0xbd55885a	-0.052131988
245	0xbd5fc976	-0.054635487
246	0x3da014e4	0.078164846
247	0xbdca42a1	-0.0987599
248	0x3dc836a3	0.09776046
249	0xbe1edd54	-0.15514117
250	0x3e128ba5	0.14311083
251	0xbe17166c	-0.14754647
252	0xbe2defd5	-0.1698602
253	0xbe404bbe	-0.18778893
254	0x3c1dabb7	0.00962346
255	0xbc6ac547	-0.014329261

cnn_block.0.bias f4 [32]
0	0xbe013beb	-0.12620513
1	0xbd43c887	-0.04779866
2	0x3d7fd1b3	0.062455844
3	0x3e06087d	0.13089176
4	0x3d709c53	0.058742832
5	0xbdcf8600	-0.1013298
6	0xbe0492cf	-0.12946628
7	0x3c9bf29a	0.01903658
8	0xbd8f889a	-0.070084766
9	0xbe14b3f8	-0.14521778
10	0x3e08580f	0.13314842
11	0xbdeba293	-0.11505618
12	0xbdfd237a	-0.12360282
13	0xbd82811d	-0.06372283
14	0xbd16a927	-0.03678241
15	0x3de08a03	0.10963824
16	0x3e085c1b	0.13316385
17	0x3dc3a880	0.09553623
18	0xb823e651	-3.9076727e-05
19	0xbe0f6f75	-0.14007361
20	0xbcfe3bf6	-0.031034451
21	0xbe1d06b2	-0.15334585
22	0x3d28081a	0.04102335
23	0xbba2d000	-0.004968643
24	0xbd3ff800	-0.04686737
25	0x3dcff410	0.10153973
26	0x3d761973	0.060082864
27	0x3d90c8ad	0.07069526
28	0x3c20c8cd	0.0098135
29	0x3e056f88	0.13030827
30	0x3dac692d	0.08418498
31	0xbe477673	-0.19478779

cnn_block.1.weight f4 [32]
0	0x3f7f33fa	0.99688685
1	0x3f80c51c	1.0060153
2	0x3f7fe044	0.9995158
3	0x3f800020	1.0000038
4	0x3f7d2fe2	0.9890119
5	0x3f7ff940	0.999897
6	0x3f7f6d94	0.9977658
7	0x3f802d2f	1.0013789
8	0x3f80004e	1.0000093
9	0x3f7fed3b	0.9997136
10	0x3f8237b7	1.0173253
11	0x3f7f7114	0.9978192
12	0x3f83a75c	1.0285449
13	0x3f80186d	1.0007454
14	0x3f7fc2d4	0.9990666
15	0x3f808e08	1.0043344
16	0x3f7e5136	0.9934267
17	0x3f7f49c7	0.9972195
18	0x3f803f7c	1.0019374
19	0x3f7e3382	0.99297345
20	0x3f7fe37d	0.99956495
21	0x3f80b57b	1.0055383
22	0x3f800f3d	1.000465
23	0x3f7f94a3	0.99836177
24	0x3f801f80	1.0009613
25	0x3f7de922	0.9918386
26	0x3f7e1703	0.99253863
27	0x3f800ed2	1.0004523
28	0x3f7f98b7	0.998424
29	0x3f80a5d8	1.0050611
30	0x3f7dab5e	0.9908961
31	0x3f7dd9c1	0.9916039

cnn_block.1.bias f4 [32]
0	0xbb57bfc0	-0.0032920688
1	0xba0e525b	-0.0005429142
2	0xbaed3a53	-0.0018099047
3	0xb8297d5d	-4.0409494e-05
4	0xbb421c15	-0.002961879
5	0xb7366dff	-1.0873656e-05
6	0xbb1922e6	-0.0023366748
7	0x398230b6	0.00024831825
8	0x39930763	0.00028043528
9	0xba85846e	-0.0010186562
10	0x3bb463d9	0.005505067
11	0xbb15a78c	-0.0022835461
12	0xbc91e7ee	-0.017810788
13	0x3b1a7716	0.0023569516
14	0xba6aa3ae	-0.0008950782
15	0x3af6f7ef	0.00188422
16	0xbac91692	-0.001534181
17	0xba0d8652	-0.00053987384
18	0x3988fe1c	0.00026129268
19	0xbb877f9b	-0.004135085
20	0x39787da0	0.00023697922
21	0xba60571a	-0.0008557901
22	0x39d09abc	0.00039788138
23	0xba477f7a	-0.0007610243
24	0x3acfb548	0.0015846873
25	0xbb72fb69	-0.0037076122
26	0xbb16408e	-0.0022926661
27	0x3a4ea665	0.0007883071
28	0xbb8e6285	-0.0043452405
29	0xbad568f5	-0.001628189
30	0xba6d9133	-0.0009062469
31	0xba8ab7af	-0.0010583306

cnn_block.1.running_mean f4 [32]
0	0x3fb7b799	1.4352905
1	0x3e700189	0.23438086
2	0xbf9a6c77	-1.2064351
3	0xbeaafda0	-0.33396626
4	0x40019b22	2.0250936
5	0xbfd8dafb	-1.6941828
6	0x3e75edaa	0.24016443
7	0x3dbafa3a	0.09129758
8	0xc01448c5	-2.3169415
9	0xbf11aaa8	-0.56901026
10	0x3e726e7e	0.23674962
11	0x3eabbf15	0.33544222
12	0x3c9376c6	0.018000972
13	0xbfef085a	-1.8674424
14	0xbf1052b7	-0.5637621
15	0x3e881f1e	0.2658624
16	0x3fc739b7	1.5564488
17	0x3f115045	0.56763107
18	0xbe506651	-0.2035153
19	0x3ec4dafd	0.38448325
20	0xbf16e156	-0.58937585
21	0xbdb81761	-0.08988834
22	0xbf9c33e1	-1.2203332
23	0xbf573194	-0.84060025
24	0xbf5d9890	-0.86560917
25	0x3fa6b2b8	1.3023291
26	0x4001bd71	2.0271876
27	0xc00cc250	-2.19936
28	0x3fd6b861	1.6775018
29	0x3e84eb12	0.25960594
30	0x3f57c664	0.84287095
31	0x4055a36b	3.3380992

cnn_block.1.running_var f4 [32]
0	0x41f403d7	30.501875
1	0x3fe8a4d8	1.8175306
2	0x40f2b041	7.5840154
3	0x408daea2	4.4275675
4	0x4191fbe8	18.248001
5	0x41a8bc48	21.091934
6	0x4025588a	2.583529
7	0x3fc927fb	1.5715326
8	0x4248bfdb	50.18736
9	0x4003e074	2.0605745
10	0x3fb7d429	1.4361621
11	0x4009d6be	2.1537318
12	0x3f00bacd	0.50285035
13	0x41f8a2fd	31.079584
14	0x402044bf	2.504196
15	0x3fc62aac	1.5481772
16	0x41c1b178	24.211655
17	0x3fc457c4	1.5339284
18	0x4028ea8e	2.639316
19	0x40ee1959	7.440594
20	0x3fa79e45	1.3095175
21	0x3f0ef06c	0.55835605
22	0x412a4ce3	10.643771
23	0x40a38c9d	5.1109147
24	0x40aeedf1	5.4665456
25	0x418059fd	16.04394
26	0x41c4eb53	24.614904
27	0x42053a82	33.307137
28	0x4122cdb9	10.175225
29	0x3ff01b24	1.8758283
30	0x411434ef	9.262923
31	0x42b3be04	89.871124

cnn_block.4.weight f4 [64, 32, 5]
0	0xbd4e8fb6	-0.050430022
1	0xbd9360c6	-0.071961924
2	0x3d86b50c	0.06577501
3	0xbda2a6fb	-0.07942005
4	0x3cceba07	0.02523519
5	0xbccacef0	-0.024756879
6	0x3da871b1	0.0822481
7	0x3c81878e	0.015811708
8	0xbd999093	-0.074982785
9	0x3d83f387	0.064429335
10	0x3b88c2af	0.0041735987
11	0x3c1bf887	0.009519703
12	0xbcd4109c	-0.025886826
13	0xbd6f94b6	-0.05849143
14	0x3c484218	0.012222789
15	0x3d88ffc0	0.066894054
16	0xbcb0fb09	-0.021604078
17	0xbd6d01cc	-0.05786304
18	0x3c95ea39	0.018300163
19	0xbd9a3ce7	-0.075311475
20	0x3cd7a1e5	0.026322315
21	0xbd9c9d9c	-0.07647249
22	0x3c45a3dc	0.012062993
23	0xbbc49c13	-0.006000051
24	0xbd2461d2	-0.04013235
25	0xbd81907a	-0.06326385
26	0x3d56998b	0.052392524
27	0xbd968954	-0.07350412
28	0x3c354f16	0.011066219
29	0xbd98b947	-0.07457214
30	0xbc13060b	-0.008973609
31	0x3ba70b17	0.0050977576
32	0xb8d13aef	-9.976874e-05
33	0xbce3c74f	-0.027804999
34	0xbca0be03	-0.019621855
35	0xbb539746	-0.003228621
36	0xbd6e1278	-0.058123082
37	0x3d4942fd	0.04913615
38	0xbc3e2725	-0.0116060125
39	0xbd948abc	-0.07253024
40	0x3d560863	0.052254092
41	0x3d8404f6	0.06446259
42	0x3d034b3c	0.03205417
43	0x3d57e342	0.052706964
44	0x3cb12bb5	0.021627286
45	0x3d9d5308	0.076818526
46	0x3d924d36	0.07143633
47	0xbd809d51	-0.06280006
48	0xbd95e2f6	-0.0731868
49	0xbd24b77d	-0.04021405
50	0xbc8a9d7a	-0.016920794
51	0xbcc766e3	-0.024341052
52	0xbdad2766	-0.0845478
53	0xbceb7b16	-0.028745215
54	0xbd8d8b1c	-0.06911299
55	0xbd0dc7a7	-0.03461423
56	0xbd76be31	-0.060239974
57	0x3c6665fa	0.014062399
58	0x3c8c5322	0.017129485
59	0x3c41d14d	0.011829686
60	0xbd0dc1a9	-0.034608517
61	0xbd6157c2	-0.055015333
62	0x3d8aa7b7	0.0677027
63	0xbb8a9441	-0.004229099
64	0x3d9c9393	0.07645335
65	0x3d4238fd	0.04741763
66	0xbcf63ca1	-0.030058207
67	0x3bac0451	0.005249538
68	0x3d426788	0.047462016
69	0x3cec29a6	0.028828453
70	0xbd2762cc	-0.040865704
71	0xbc892543	-0.0167414
72	0x3d7fd234	0.062456325
73	0xbc046b52	-0.008082228
74	0xbd1d8847	-0.038460042
75	0xbd9b627b	-0.07587143
76	0x3d9b2a36	0.075764105
77	0x3c31db61	0.010855527
78	0x3cdbbd28	0.026823595
79	0x3d707993	0.058709692
80	0x3d8dd198	0.069247425
81	0x3d89a112	0.06720175
82	0x3d36c61b	0.04462252
83	0xbd550998	-0.052011102
84	0x3d08bfcc	0.033386037
85	0x3cc9064d	0.024539137
86	0xbd25a4d2	-0.040440388
87	0xbd9211f6	-0.07132332
88	0xbd710bd8	-0.058849186
89	0xbd764864	-0.06012763
90	0x3d8d285a	0.06892462
91	0x3cd30784	0.02576042
92	0xbad6e315	-0.001639458
93	0x3c35c557	0.011094413
94	0xbd113646	-0.03545215
95	0xbc989576	-0.018625956
96	0x3c07e73a	0.008294875
97	0xbcce84c7	-0.025209798
98	0x3d04207d	0.032257546
99	0x3d6e88ce	0.058235936
100	0x3d9ce550	0.076609254
101	0xbd134c36	-0.035961352
102	0xbd358f16	-0.04432591
103	0x3d677f64	0.056517974
104	0x386b4595	5.609317e-05
105	0x3d56ad4c	0.052411363
106	0xbcc7cbb8	-0.024389133
107	0x3d52018a	0.051271
108	0x3c505b16	0.012717029
109	0xbc08ad41	-0.008342088
110	0xbd298033	-0.041382026
111	0xbd828ae0	-0.063741446
112	0xbd8a4d1e	-0.0675299
113	0xbb8b5ec6	-0.0042532412
114	0x3d0e080d	0.034675647
115	0x3be545a6	0.006996828
116	0xbd26bb91	-0.04070622
117	0xbd03669c	-0.032080278
118	0x3d4761b8	0.048677176
119	0xbc5fa0bc	-0.013649162
120	0xbcad2eef	-0.021140544
121	0x3c6d9273	0.014500248
122	0xbd64a0c6	-0.055817388
123	0x3d95d417	0.073158436
124	0xbd30ba36	-0.043146335
125	0x3d1cf8f6	0.038323365
126	0xbd5f3648	-0.054495126
127	0x3d9906d7	0.07472008
128	0x3d45cb72	0.048289724
129	0xbca30539	-0.019899951
130	0xbda15589	-0.07877643
131	0xbd8fabc6	-0.07015185
132	0xbd7e0bc4	-0.06202294
133	0xbcac3ccd	-0.021025086
134	0xbd2e63f8	-0.042575806
135	0x3ae0fc2a	0.0017164994
136	0x3cc176ee	0.02361628
137	0x3d90ce0d	0.07070551
138	0x3c2518e5	0.010076736
139	0x3d9d7c56	0.07689731
140	0x3d221675	0.039572198
141	0x3d8772c5	0.066136874
142	0xbd42820f	-0.047487315
143	0x3b3c7aaf	0.0028759649
144	0xbd4e3bb7	-0.050349917
145	0x3c915a46	0.017743241
146	0xbd00eee7	-0.031477835
147	0x3b69214b	0.0035572823
148	0xbc9b5d7a	-0.018965472
149	0x3b72f724	0.0037073577
150	0x3d3529b6	0.04422923
151	0xbceaafdd	-0.028648311
152	0xbcc1acf9	-0.02364205
153	0x3cf12a58	0.029439136
154	0x3cb5d29f	0.022195159
155	0x3d369b05	0.044581432
156	0x3ca38373	0.01996014
157	0x3d3f37f0	0.046684206
158	0x3d43b49c	0.047779664
159	0xbcc143d9	-0.023591923
160	0xbcb2f0b4	-0.021843292
161	0x3cd037c2	0.025417212
162	0xbc5a64d7	-0.013329706
163	0xbc366566	-0.011132574
164	0xbd36b358	-0.04460463
165	0xbc8ee1b4	-0.017441608
166	0x3d884b0b	0.06654938
167	0xbd5f27f6	-0.05448147
168	0x3c885c98	0.016645715
169	0x3d1be379	0.03805873
170	0xbd2b4af8	-0.041819543
171	0x3d86b601	0.06577683
172	0xbd1063fd	-0.035251606
173	0x3ca63080	0.020286798
174	0xbd861545	-0.065470256
175	0x3ce3a4f5	0.027788619
176	0x3d880015	0.06640641
177	0x3ba491e5	0.005022275
178	0x3c4c5eaa	0.012473742
179	0x3d2d5f19	0.04232702
180	0xbd80c891	-0.06288255
181	0xbcb30ab9	-0.021855699
182	0x3ca4735d	0.02007454
183	0xbcc11bf2	-0.023572896
184	0x3da43e27	0.08019667
185	0xbd1d1e3b	-0.03835891
186	0x3cefaed3	0.029258167
187	0xbcc24f4d	-0.023719454
188	0x3d22b01a	0.039718725
189	0xbc3e57e6	-0.011617636
190	0xbbbe6af3	-0.005811089
191	0x3d999666	0.07499389
192	0xbd4c1e68	-0.049833685
193	0xbd65516b	-0.05598585
194	0x3cfedcdd	0.031111175
195	0x3cd636dd	0.026149208
196	0x3d9a7af7	0.07542985
197	0x3c7c08fe	0.015383003
198	0xbd09a70e	-0.03360658
199	0x3d40c775	0.047065217
200	0x3c1c98a0	0.009557873
201	0xbbf493d9	-0.007463914
202	0xbcb4ca41	-0.022069098
203	0xbc9e9869	-0.019359784
204	0xbd19cea3	-0.03755058
205	0x3b1025bb	0.0021995145
206	0x3d0d015a	0.034425117
207	0x3c7d307c	0.015453454
208	0x3cf2a918	0.029621646
209	0xbc1fe9b0	-0.009760305
210	0x3cc74307	0.024323953
211	0x3b2299ed	0.0024810985
212	0x3cbbb18e	0.022911813
213	0xbd822ee2	-0.063565984
214	0xbd8cbc9f	-0.06871914
215	0xbb1adb90	-0.0023629405
216	0x3ca62c8c	0.020284913
217	0x3c2b1406	0.010441786
218	0x3d9fb0c7	0.077973895
219	0x3d991bcf	0.07476007
220	0xbc72556b	-0.014790873
221	0xbd5f93e8	-0.054584414
222	0x3d3f18ff	0.046654698
223	0x3d63ce55	0.055616695
224	0xbc79d7da	-0.015249217
225	0x3d203ab7	0.039118495
226	0x3d64a88d	0.055824805
227	0xbd061b4d	-0.03274088
228	0x3cefae4c	0.029257916
229	0x3c4ea1dc	0.0126118325
230	0xbd91124b	-0.07083567
231	0x3cf2b57c	0.029627554
232	0x3d220be1	0.03956211
233	0xbd83eefb	-0.06442066
234	0xbd901ea3	-0.070370935
235	0xbd7cf0df	-0.06175315
236	0x3ae50eeb	0.0017475759
237	0xbce25280	-0.02762723
238	0x3d2dd36f	0.042437967
239	0xbc49ec14	-0.012324352
240	0xbd7d255c	-0.061803207
241	0xbc452015	-0.012031575
242	0x3d513c82	0.051083095
243	0x3d5da030	0.054107845
244	0xbcc096b3	-0.023509359
245	0x3d9bb44b	0.076027475
246	0x3d7afbb2	0.06127519
247	0x3d90ee92	0.07076754
248	0xba3069ae	-0.00067296147
249	0x3ca84bcb	0.020543953
250	0x3d0d8e9b	0.034559827
251	0x3d3a7bd4	0.045528248
252	0xbd736362	-0.05942095
253	0xbcdf3e04	-0.027251251
254	0x3c753b5a	0.014967764
255	0x3d60113e	0.054703943

cnn_block.4.bias f4 [64]
0	0xbcc4384a	-0.023952622
1	0xbd8f4bb6	-0.069968626
2	0xbd5127fe	-0.05106353
3	0xbca9baf6	-0.020719033
4	0x3c5fb48c	0.013653886
5	0x3c952b72	0.018209193
6	0xbce1e25a	-0.027573753
7	0xb9e1d749	-0.00043075744
8	0x3d0754ab	0.03303973
9	0xbceee7ef	-0.029163329
10	0xbbc43ea6	-0.0059889136
11	0x3d67457a	0.056462742
12	0x3c0dc655	0.008653243
13	0x3d6cc6f1	0.057806913
14	0x3d985d1b	0.074396335
15	0x3cbdb27c	0.023156397
16	0x3ca3620e	0.019944217
17	0xbd88a5d0	-0.06672251
18	0xbd87d9a1	-0.06633306
19	0x3d983613	0.07432189
20	0x3d9ecba7	0.07753687
21	0xbd1d96f7	-0.03847405
22	0x3d9e0746	0.07716231
23	0x3ce23037	0.027610881
24	0xbcce8e00	-0.025214195
25	0xbc9ded02	-0.019278053
26	0xbb5ca765	-0.003366911
27	0x3ca18d35	0.019720653
28	0x3d531085	0.051529426
29	0x3bc90553	0.006134668
30	0xbcfe0639	-0.031008827
31	0xbd6f519f	-0.05842745
32	0x3d08cbf4	0.03339763
33	0x3d45bace	0.048273854
34	0x3d6641e2	0.056215174
35	0xbd472298	-0.048616976
36	0xbcf2a976	-0.02962182
37	0x3d8f5834	0.06999245
38	0x3cf665d5	0.030077854
39	0x3c850390	0.01623705
40	0xbd9e0613	-0.07716002
41	0x3d4f4334	0.0506012
42	0x3d9f7617	0.07786196
43	0x3d3393a7	0.043841984
44	0xbd86d91c	-0.06584379
45	0x3c951bad	0.018201673
46	0x3d96f8a2	0.07371642
47	0xbc40ce48	-0.011767931
48	0xbd761a0a	-0.060083427
49	0x3aecce4b	0.0018066851
50	0xbd0a2ebf	-0.033735987
51	0xbbd29653	-0.0064266114
52	0xbd8c4e28	-0.068508446
53	0x3d7c4f1d	0.061598886
54	0x3d374886	0.044746898
55	0x3d3e28d0	0.04642564
56	0xbd69a7f9	-0.057044957
57	0x3d77220f	0.060335215
58	0xbcd229e8	-0.025654748
59	0xbcbe37aa	-0.023219902
60	0x3ca98021	0.02069098
61	0x3d9f3bde	0.07775091
62	0x3d3a48ea	0.045479693
63	0xbd8e8ede	-0.069608435

cnn_block.5.weight f4 [64]
0	0x3f8037c1	1.0017015
1	0x3f80042a	1.0001271
2	0x3f820c5a	1.0160019
3	0x3f7ff4b5	0.9998277
4	0x3f7fa8e3	0.99867076
5	0x3f7fbdcb	0.99898976
6	0x3f80ce69	1.0062991
7	0x3f808389	1.0040141
8	0x3f80d47a	1.0064843
9	0x3f7ed425	0.99542457
10	0x3f80675b	1.0031542
11	0x3f7cde2e	0.9877652
12	0x3f801d7e	1.0009
13	0x3f7f62e7	0.9976029
14	0x3f800f88	1.000474
15	0x3f8014f4	1.0006394
16	0x3f7feda5	0.9997199
17	0x3f803ed9	1.001918
18	0x3f7dabb4	0.99090123
19	0x3f7f908b	0.9982993
20	0x3f80eb80	1.0071869
21	0x3f7fc156	0.9990438
22	0x3f7fc2d2	0.9990665
23	0x3f8064c9	1.0030757
24	0x3f7fadbe	0.99874485
25	0x3f7ff2e0	0.9997997
26	0x3f7fe79a	0.9996277
27	0x3f810b36	1.0081546
28	0x3f7fca0a	0.9991766
29	0x3f7ee8d6	0.9957403
30	0x3f819815	1.0124537
31	0x3f81a9ef	1.0129985
32	0x3f8037cf	1.0017031
33	0x3f7f3b87	0.99700207
34	0x3f7f7351	0.99785334
35	0x3f7fb2c1	0.9988213
36	0x3f7d6620	0.98983955
37	0x3f81b86b	1.0134405
38	0x3f7e5ee4	0.9936354
39	0x3f801b39	1.0008308
40	0x3f7c33aa	0.98516333
41	0x3f7f1bcd	0.99651796
42	0x3f7f19e8	0.99648905
43	0x3f7ff0e9	0.99976975
44	0x3f8393b9	1.0279456
45	0x3f802dad	1.0013939
46	0x3f7cb00c	0.98706126
47	0x3f80c26d	1.0059334
48	0x3f7efb6e	0.996024
49	0x3f80096e	1.0002878
50	0x3f801c6e	1.0008676
51	0x3f7ffc35	0.9999421
52	0x3f80125f	1.0005606
53	0x3f7fc9c9	0.99917275
54	0x3f7fc9ba	0.99917185
55	0x3f8021c6	1.0010307
56	0x3f7e07de	0.99230754
57	0x3f7e408b	0.99317235
58	0x3f7dff8e	0.9921807
59	0x3f80b5a5	1.0055434
60	0x3f8082fd	1.0039974
61	0x3f7e694e	0.9937943
62	0x3f806e2a	1.0033619
63	0x3f7cdb25	0.9877189

cnn_block.5.bias f4 [64]
0	0xb97188b2	-0.00023034474
1	0x3a6703fb	0.0008812544
2	0xbb33e507	-0.0027449743
3	0x3a6e69f5	0.00090947683
4	0xbb5b7fed	-0.0033492998
5	0xbae4ac1a	-0.001744631
6	0xba9445d0	-0.001131231
7	0xbb139be2	-0.0022523333
8	0xb85f3eb4	-5.322574e-05
9	0xbad29758	-0.0016066832
10	0x3b1dbe71	0.002406981
11	0xbb490e65	-0.0030678746
12	0xb9c1e205	-0.00036980226
13	0xbaf00347	-0.0018311524
14	0x3a11519e	0.0005543473
15	0x3aac3216	0.0013137485
16	0xbb0eb4d3	-0.002177526
17	0x3b08ee8f	0.0020894145
18	0xbb0b633b	-0.0021268863
19	0xbb8da9d1	-0.004323222
20	0xbae45947	-0.0017421626
21	0x39c73102	0.00037992751
22	0xbb53eb25	-0.0032336202
23	0x3b4aa2c4	0.003091977
24	0xbaed03fc	-0.0018082852
25	0x3ac290ad	0.0014844142
26	0x3a6f3b35	0.0009125949
27	0xbaf894cf	-0.0018965247
28	0xbb0f924c	-0.0021907268
29	0xbb5fbcb5	-0.0034139578
30	0xba92e127	-0.0011206017
31	0xbb599562	-0.0033200611
32	0x3b4639f4	0.0030246945
33	0xbaadae28	-0.0013250755
34	0xbaf054c2	-0.0018335807
35	0xbb6777b6	-0.0035319156
36	0xbb8ac436	-0.004234816
37	0xb7ae25b3	-2.0759971e-05
38	0xbacbcc4e	-0.0015548558
39	0xb9b6f044	-0.00034892757
40	0xbbce0e3c	-0.006288318
41	0xbb5b5b7c	-0.0033471277
42	0xb92d4238	-0.00016523234
43	0x3a20097d	0.00061049295
44	0xbbad0dcd	-0.005281186
45	0xbb1554ff	-0.0022786257
46	0xbafa35ec	-0.0019089556
47	0xba8b293f	-0.0010617151
48	0xba59d2c3	-0.0008309299
49	0xba1f9d39	-0.00060887967
50	0xbaaf9cd2	-0.0013398177
51	0xba2d7d81	-0.0006618128
52	0xbaaa52a3	-0.0012994598
53	0xb9e9fa43	-0.00044627683
54	0xbab14326	-0.001352404
55	0xb97bfbe6	-0.00024031065
56	0xbac88eb0	-0.0015301313
57	0xba3aa6b7	-0.00071201794
58	0xbb32f0f2	-0.002730426
59	0xba8e3567	-0.0010849655
60	0x3b927813	0.0044698804
61	0xba9eb7f0	-0.0012109261
62	0xba306990	-0.0006729597
63	0xbbfd3d55	-0.0077282586

cnn_block.5.running_mean f4 [64]
0	0xbd98fbb9	-0.07469887
1	0xbc917dad	-0.017760122
2	0x3e620f86	0.22076234
3	0x3c1bd7a8	0.009511866
4	0xbd40732b	-0.046984833
5	0xbdef6fe5	-0.11691264
6	0x3d101e95	0.035185415
7	0xbe331729	-0.17489304
8	0x3e392be2	0.18083146
9	0xbe0dad0b	-0.13835542
10	0xbb6cc213	-0.003612642
11	0x3ec32363	0.38112935
12	0xbc728a5d	-0.014803496
13	0x3e94b3f7	0.29043552
14	0x3d9106de	0.07081388
15	0xbe668abf	-0.22513865
16	0x3d4e1f13	0.050322603
17	0xbea1c6ab	-0.31596884
18	0x3ed512ee	0.41616005
19	0x3e845525	0.2584621
20	0x3eaa0381	0.33205798
21	0x3c1dde20	0.009635478
22	0xbdddedd5	-0.108363785
23	0xbd5b943c	-0.053608164
24	0xbda9071b	-0.082533084
25	0xbe58b24c	-0.21161765
26	0xbd5f12a4	-0.054461136
27	0x3da41b3a	0.080130056
28	0xbe83fc9c	-0.25778663
29	0x3e3f8cdc	0.18706077
30	0x3e9d36ba	0.30705816
31	0xbdb503ba	-0.088386014
32	0xbe43048c	-0.19044703
33	0x3e6eb32d	0.23310538
34	0x3d8ef3c6	0.0698009
35	0xbd9d3a46	-0.076771304
36	0xbe2d0d1a	-0.16899529
37	0x3e82acf2	0.25522572
38	0xbc982e97	-0.018576903
39	0xbe25bbb4	-0.16184884
40	0x3d30142c	0.042987987
41	0x3ea490d1	0.32141736
42	0x3e8def4d	0.27721635
43	0xbdf1d1f3	-0.11807623
44	0x3c54d5e0	0.012990445
45	0x3ea10773	0.31450996
46	0x3b2173d5	0.0024635692
47	0xba8052e8	-0.0009790333
48	0x3ded834d	0.11597309
49	0x3d842d85	0.06453995
50	0xbd62bec6	-0.055357717
51	0xbdc39ca9	-0.09551365
52	0xbe7a3a82	-0.24436381
53	0x3daa6a66	0.08321075
54	0x3e1ccd95	0.15312798
55	0xbe05e763	-0.13076548
56	0x3d2737e4	0.040824786
57	0x3ef0a749	0.47002628
58	0x3bbf3286	0.0058348803
59	0xb9121b71	-0.00013933868
60	0xbc334112	-0.010940807
61	0x3e74a661	0.23891594
62	0x3e1884b1	0.14894368
63	0xb97ad541	-0.00023921301

cnn_block.5.running_var f4 [64]
0	0x3dda153c	0.106485814
1	0x3e80549b	0.2506455
2	0x3d901a7d	0.07036302
3	0x3de110bd	0.10989521
4	0x3e6e5ecc	0.2327835
5	0x3eb2b5d2	0.34904343
6	0x3dd005ba	0.10157342
7	0x3e3ede09	0.18639387
8	0x3ddac13d	0.106813885
9	0x3e7d1422	0.24714711
10	0x3db229d0	0.08699381
11	0x3f274bf6	0.6535028
12	0x3e447657	0.19185768
13	0x3e897589	0.26847485
14	0x3d489006	0.048965476
15	0x3e62a4b8	0.22133148
16	0x3d8e010a	0.06933792
17	0x3e8ea663	0.27861318
18	0x3ec70cbb	0.388769
19	0x3e97113a	0.2950533
20	0x3e9da40c	0.3078922
21	0x3e9e92b4	0.309713
22	0x3dfe5148	0.12417847
23	0x3e98321a	0.29725724
24	0x3dccdaff	0.10002708
25	0x3f12e360	0.57378197
26	0x3e71f304	0.2362786
27	0x3d45ea3e	0.048319094
28	0x3e687522	0.22700933
29	0x3eab5dc0	0.33469963
30	0x3f04f6d0	0.51939106
31	0x3ddcd9a5	0.107837
32	0x3e2e33fb	0.17012016
33	0x3dc96daa	0.0983537
34	0x3e7cfca9	0.24705757
35	0x3e06ab99	0.13151397
36	0x3e87e734	0.2654358
37	0x3e1dee0a	0.15422836
38	0x3f0a5545	0.5403636
39	0x3e7172b1	0.23578908
40	0x3e9363de	0.2878713
41	0x3e1e1f25	0.15441568
42	0x3e5e88a6	0.21731815
43	0x3e014542	0.12624076
44	0x3d406d49	0.046979222
45	0x3e1be73f	0.15224932
46	0x3e2c6702	0.1683617
47	0x3e97a0c8	0.29614854
48	0x3f6ecf06	0.9328464
49	0x3d41d459	0.04732165
50	0x3e5dd2d9	0.21662463
51	0x3e92a932	0.2864471
52	0x3e70a37e	0.23499867
53	0x3e9f69c5	0.31135383
54	0x3e0b6d80	0.1361599
55	0x3cf6a81f	0.030109463
56	0x3ea5f266	0.32411498
57	0x3f0bafc2	0.5456506
58	0x3f031cda	0.512159
59	0x3df7b6af	0.12095391
60	0x3e50c4df	0.203876
61	0x3e54db19	0.20786704
62	0x3df3dc04	0.11907199
63	0x3e8269dd	0.25471392

fc.0.weight f4 [32, 64]
0	0x3dd559b3	0.104174994
1	0xbda42aee	-0.08016001
2	0x3da0a5c1	0.07844115
3	0x3cc61f9e	0.024184998
4	0xbdcc76cc	-0.09983596
5	0xbd373bee	-0.044734888
6	0xbdba51d8	-0.09097642
7	0xbdc2b0ac	-0.09506354
8	0xbc79f15f	-0.015255301
9	0xbdd603ff	-0.10449981
10	0x3dc390ed	0.09549127
11	0x3cc242e7	0.023713542
12	0xbd99bd12	-0.075067654
13	0xbd2d0ff1	-0.04225153
14	0x3d61f334	0.055163577
15	0xbdb6e91a	-0.08931179
16	0x3d88c8c6	0.066789195
17	0xbd1416bd	-0.036154497
18	0x3d9bbe11	0.07604612
19	0x3d1ede7c	0.038786396
20	0x3dde2f83	0.10848906
21	0x3dd7b66a	0.105328396
22	0xbdc6b463	-0.09702375
23	0xbcf8db93	-0.030378139
24	0x3dc01b86	0.0938025
25	0xbd2aa9c8	-0.041665822
26	0x3d4e6aab	0.050394695
27	0xbcd6a3a9	-0.026201086
28	0xbdeb5856	-0.11491458
29	0xbd9ebf42	-0.07751323
30	0x3d6803f7	0.056644406
31	0xbd73652e	-0.059422664
32	0xbd18ab27	-0.0372726
33	0x3d837fab	0.06420835
34	0xbcc25d69	-0.023726182
35	0x3de1b8ed	0.110216
36	0x3d807be0	0.06273627
37	0x3ce3f4a1	0.02782661
38	0x3da90bdb	0.082542144
39	0xbda879a9	-0.0822633
40	0x3c4171fe	0.011806963
41	0x3d52d96a	0.051476873
42	0xbcfd5c79	-0.030927883
43	0xbcd22fa2	-0.025657479
44	0x3da169c1	0.07881499
45	0x3cb7b40e	0.022424724
46	0xbb0fb8d4	-0.0021930235
47	0x3dffb46d	0.12485585
48	0x3d86f1f7	0.0658912
49	0xbd80c30a	-0.06287201
50	0x3d9ece77	0.07754224
51	0xbd1991d4	-0.03749259
52	0xbdc34ead	-0.095364906
53	0x3ceae129	0.028671818
54	0xbdb01099	-0.08596916
55	0xbd4bf5ef	-0.049795087
56	0x3dcde98a	0.1005431
57	0x3dfa144f	0.12210905
58	0xbd3681cd	-0.04455738
59	0x3d6458c2	0.05574871
60	0x3db3aaac	0.087727875
61	0xbd753207	-0.059862163
62	0xbdf47062	-0.11935498
63	0x3de3b0fa	0.1111774
64	0x3c65b37b	0.014019842
65	0xbb3fe154	-0.0029278593
66	0x3daa5edb	0.083188735
67	0x3d3a570f	0.04549318
68	0x3dcc488d	0.099747755
69	0xbd4cb6d4	-0.049979046
70	0x3d664b00	0.05622387
71	0x3dbb1ff3	0.09136953
72	0x3de65640	0.1124692
73	0xbd6afcc8	-0.057369977
74	0x3da1a1b6	0.07892172
75	0xbd4f17cf	-0.050559815
76	0x3d848b55	0.06471888
77	0x3cfae99f	0.030628977
78	0x3dd91738	0.10600132
79	0x3d90a223	0.07062175
80	0xbca89d09	-0.020582693
81	0xbdcd3708	-0.10020262
82	0x3a91534e	0.0011087449
83	0x3da28ea1	0.079373606
84	0x3dd9282c	0.10603365
85	0x3b9213a7	0.004457909
86	0x3a5105f2	0.0007973603
87	0xbdbceafb	-0.092245065
88	0x3cbb7df7	0.022887213
89	0x3ca39c6d	0.01997205
90	0x3be8b9f8	0.0071022473
91	0xbdf89e4b	-0.12139567
92	0x3b4b987a	0.0031066225
93	0x3d5c72e9	0.053820524
94	0xbdaab990	-0.083361745
95	0xbe07a4c5	-0.13246448
96	0x3d57507b	0.052566987
97	0xbd8b6ff8	-0.06808466
98	0xbd50a02d	-0.050934006
99	0x3ca46664	0.020068355
100	0xbc580514	-0.0131848045
101	0x3e033d2f	0.12816308
102	0xba2db1fa	-0.0006625947
103	0xbdce60f0	-0.10077083
104	0x3db4aaea	0.08821662
105	0x3ceed89f	0.029156027
106	0x3d0c4667	0.03424683
107	0xbdbfc04b	-0.09362849
108	0x3e322a36	0.17398915
109	0xbc331284	-0.010929707
110	0xbbfbcf9a	-0.00768466
111	0x3d82d274	0.06387797
112	0x3ba489f1	0.0050213267
113	0x3dd0ba50	0.10191786
114	0x3d8d955d	0.069132544
115	0x3d3f410c	0.046692893
116	0xbd4921cc	-0.049104497
117	0xbd339a1e	-0.04384815
118	0xbd60d0f2	-0.054886766
119	0x3dc4c4b5	0.096078314
120	0x3d8d92a4	0.06912735
121	0xbd96e2be	-0.073674664
122	0xbd2b0f89	-0.041762862
123	0xbd033992	-0.032037325
124	0xb9bc601f	-0.0003592977
125	0x3c42a48c	0.011880051
126	0x3d36b642	0.04460741
127	0xbdb7a840	-0.08967638
128	0x3d38bdf0	0.045103014
129	0xbd040233	-0.03222866
130	0xbdc1b0e2	-0.09457566
131	0xbc5251f1	-0.012836919
132	0xbd4be6d2	-0.049780674
133	0xbd4263f6	-0.04745861
134	0xbd865a4e	-0.06560193
135	0x3dff58eb	0.12468132
136	0x3d830206	0.0639687
137	0xbdc55f02	-0.09637262
138	0x3def6cc4	0.11690667
139	0x3de7bbd8	0.11315125
140	0xbdc4d07b	-0.09610077
141	0x3d75a9d7	0.059976425
142	0x3d0791ff	0.033098217
143	0xba679065	-0.0008833467
144	0x3db7423a	0.089481786
145	0x3d9e989b	0.07743951
146	0x3dde4f52	0.10854973
147	0xbdd3e2e2	-0.10346009
148	0xbdc91e21	-0.098202
149	0xbdf81a6c	-0.121144146
150	0x3dd8d9fd	0.10588453
151	0x3cf08db7	0.02936445
152	0x3d87dd60	0.06634021
153	0xbd876bce	-0.06612359
154	0xbbdf20b2	-0.0068093175
155	0x3d70a684	0.05875255
156	0xbdc2e16f	-0.09515654
157	0x3bb6a915	0.0055743554
158	0xbd0dc56e	-0.03461211
159	0x3e0025ce	0.12514421
160	0x3dd99caf	0.10625588
161	0xbd83481c	-0.06410238
162	0x3c839225	0.016060898
163	0xbc058a49	-0.0081506455
164	0x3d8d34c3	0.06894829
165	0x3d5fd910	0.054650366
166	0x3d0ee880	0.034889698
167	0xbb6f7666	-0.0036539077
168	0xbd94e710	-0.07270634
169	0x3d3d3007	0.04618838
170	0x3a763652	0.00093922496
171	0x3d84e322	0.06488635
172	0x3e03306f	0.12811445
173	0x3d5e4cb8	0.054272383
174	0x3df02b50	0.11727011
175	0x3e064ad9	0.1311449
176	0xbdf8aa66	-0.12141876
177	0xbdad7e59	-0.084713645
178	0xbcdbe8da	-0.02684443
179	0x3c086f83	0.008327368
180	0xbda19135	-0.07889024
181	0xbdcc9bc5	-0.09990648
182	0xbdb55697	-0.08854406
183	0xbd6452e8	-0.055743128
184	0x3d8261b2	0.0636629
185	0xbdda005a	-0.10644598
186	0xbdda95f7	-0.10673135
187	0xbdbcd59c	-0.0922043
188	0x3c0e4bbe	0.0086850505
189	0x3db9dca3	0.09075286
190	0x3dabe975	0.08394138
191	0x3d717e05	0.058958072
192	0xbdba81c6	-0.091067836
193	0xbcb42664	-0.021990962
194	0x3d903eb9	0.070432134
195	0xbd0f5bb6	-0.03499957
196	0xbad2236c	-0.0016032285
197	0x3d8cf331	0.068823226
198	0x3dcac55f	0.09900927
199	0x3c06365d	0.008191672
200	0x3c468d3a	0.012118632
201	0xbd61be63	-0.055113208
202	0x3daf50d1	0.085603364
203	0xbdb8915f	-0.09012102
204	0xbdadca3d	-0.084858395
205	0x3d03f8fd	0.032219876
206	0x3b042d58	0.0020168629
207	0xbd249376	-0.040179692
208	0xbdf50def	-0.11965548
209	0x3df4ae1e	0.11947273
210	0xbdf6bdf2	-0.12047948
211	0xbc8dd932	-0.01731548
212	0xbdb3f31c	-0.08786604
213	0xbdb2e40d	-0.087349035
214	0x3c8fad15	0.017538587
215	0xbbe32f7f	-0.006933152
216	0x3da60574	0.08106509
217	0xbcf4aa73	-0.029866433
218	0xbdaf4e63	-0.08559873
219	0xbd674950	-0.0564664
220	0xbcecaa29	-0.028889732
221	0x3da61fc2	0.08111526
222	0xbddbd449	-0.107338496
223	0x3dddebec	0.10836014
224	0xbddd764f	-0.10813581
225	0x3b36ed90	0.0027912594
226	0x3d8e4a35	0.069477476
227	0x3da6a90f	0.08137714
228	0x3c80418f	0.01565626
229	0x3dd12679	0.10212416
230	0xbc789d25	-0.015174185
231	0xbdd8ca4d	-0.10585461
232	0x3bd5f1a0	0.006529048
233	0xbcea3dd5	-0.028593937
234	0x3d809254	0.0627791
235	0xbdcd40aa	-0.10022099
236	0x3d839380	0.06424618
237	0xbc28e4c8	-0.010308452
238	0xbd635ef2	-0.05551047
239	0x3d1848d5	0.037178833
240	0x3d22fe0a	0.03979305
241	0xbc6828ee	-0.014169915
242	0x3b5e23b6	0.0033895797
243	0xbd1184be	-0.035526983
244	0xbdb5b170	-0.08871734
245	0xbd58c022	-0.052917607
246	0xbdb5c270	-0.08874977
247	0x3d30d300	0.043169975
248	0x3db423fc	0.08795926
249	0x3d3e15be	0.046407454
250	0x3d1b668d	0.037939597
251	0x3d2aa1bd	0.041658152
252	0x3de01ce6	0.10943012
253	0x3dcefefd	0.10107229
254	0xba5e8d4f	-0.00084896846
255	0x3cac7731	0.021052929

fc.0.bias f4 [32]
0	0x3d86634c	0.06561908
1	0xbdf461b8	-0.11932701
2	0x3db18868	0.086685956
3	0x3cbcc6c0	0.02304399
4	0xbd5c67fe	-0.053810112
5	0xbcbaeec0	-0.022818923
6	0xbd7f5273	-0.06233449
7	0xbd2c9c20	-0.04214108
8	0xbd93a82c	-0.072098106
9	0x3d8ea24c	0.069645494
10	0xbdff677a	-0.124709085
11	0x3dd37faa	0.10327084
12	0x3deb4ef4	0.114896685
13	0xbccd3ca2	-0.025053326
14	0x3d03563c	0.03206466
15	0x3bf46e61	0.0074594473
16	0xbcd700d8	-0.02624552
17	0x3cdd3317	0.0270019
18	0x3d9513aa	0.07279141
19	0xbde406da	-0.11134119
20	0x3b159546	0.002282457
21	0xbdc00abe	-0.09377049
22	0x3df86b57	0.121298485
23	0xbdf6a244	-0.120426685
24	0x3d25d560	0.040486693
25	0x3d258c86	0.040417217
26	0x3dd47876	0.103745386
27	0xbd658d55	-0.056042988
28	0x3c0042ac	0.007828396
29	0x3ddd922d	0.108188964
30	0xbde78aac	-0.113057464
31	0x3c0a1951	0.008428887

fc.1.weight f4 [32]
0	0x3f808dbb	1.0043253
1	0x3f86fd1c	1.0545993
2	0x3f871329	1.0552722
3	0x3f7e01c8	0.9922147
4	0x3f88b386	1.0679786
5	0x3f85cb1b	1.0452608
6	0x3f89391b	1.0720552
7	0x3f8253d4	1.0181832
8	0x3f803878	1.0017233
9	0x3f7a1a1a	0.9769608
10	0x3f850afc	1.0393977
11	0x3f85f5d9	1.0465652
12	0x3f892e49	1.071725
13	0x3f86cb12	1.0530722
14	0x3f85ebb0	1.0462551
15	0x3f8062d0	1.0030155
16	0x3f802b30	1.001318
17	0x3f8b8acd	1.0901734
18	0x3f83776c	1.027082
19	0x3f83d0f3	1.0298141
20	0x3f821e77	1.0165547
21	0x3f8f24bf	1.1183089
22	0x3f8f0155	1.1172282
23	0x3f82161f	1.0163001
24	0x3f7c6169	0.98586136
25	0x3f84ca73	1.0374283
26	0x3f87adbb	1.0599893
27	0x3f8c4955	1.0959879
28	0x3f8640d6	1.0488536
29	0x3f8ce879	1.1008445
30	0x3f817c33	1.0116028
31	0x3f88dd8f	1.0692614

fc.1.bias f4 [32]
0	0x3d72cef0	0.059279382
1	0x3d5d5b87	0.054042365
2	0x3d912da0	0.070887804
3	0xbcc1a9c8	-0.023640528
4	0x3e23ccc9	0.15996088
5	0x3d8c771b	0.06858655
6	0x3e2d7478	0.1693896
7	0xbc45e2c7	-0.012077994
8	0x3d94a432	0.0725788
9	0xbcd47586	-0.025934946
10	0x3da90542	0.08252956
11	0x3e0b4aa5	0.13602693
12	0x3e24c0a8	0.16089118
13	0x3dd4eea0	0.103970766
14	0x3dd739bd	0.105090596
15	0x3d7841ce	0.06060963
16	0xbce28fbb	-0.027656427
17	0x3e213a0c	0.157448
18	0x3cda7ca4	0.026670761
19	0x3d88eb5e	0.06685518
20	0x3d3f7222	0.046739705
21	0x3e38f8d0	0.18063664
22	0x3e2e7b99	0.17039336
23	0xbd429fee	-0.047515802
24	0xbd08a1e0	-0.0333575
25	0x3d53d4fd	0.051716793
26	0x3de6d668	0.112713635
27	0x3e30c85a	0.17263928
28	0x3dbca6c6	0.09211497
29	0x3dc452d9	0.095861144
30	0x3dbe6b6b	0.09297832
31	0x3df10b22	0.117697015

fc.1.running_mean f4 [32]
0	0x3ddc706e	0.10763632
1	0x3cd3fd53	0.02587763
2	0x3e0f3636	0.13985524
3	0xbd147032	-0.03623981
4	0x3dc2464c	0.09486064
5	0xbe0c0ee4	-0.13677555
6	0xbdc7060a	-0.09717949
7	0x3c373315	0.0111816125
8	0x3dda51d6	0.1066014
9	0x3d51a105	0.05117895
10	0xbe8654a6	-0.26236457
11	0x3b890ec9	0.0041826707
12	0x3e471f49	0.19445528
13	0x3e501e8b	0.20324151
14	0x3e03e3b4	0.1287983
15	0x3e16978c	0.14706248
16	0x3e13f8ce	0.1445038
17	0xbcc67a52	-0.024228249
18	0x3e5b4043	0.21411233
19	0xbda9bd9c	-0.08288118
20	0xbd65ab72	-0.056071706
21	0xbcc26429	-0.0237294
22	0x3e874a84	0.26424038
23	0xbdb5bc7e	-0.08873843
24	0xbe6d58bd	-0.23178382
25	0x3ea1ae60	0.3157835
26	0x3e13e4a9	0.14442696
27	0xbdb97293	-0.090550564
28	0x3c9b4dbb	0.018957963
29	0x3e2dc1fe	0.16968533
30	0xbe2d7541	-0.1693926
31	0x3b39f31f	0.0028373671

fc.1.running_var f4 [32]
0	0x3b6f50c6	0.003651665
1	0x3a8ed8ea	0.0010898386
2	0x3b8eb4cb	0.0043550483
3	0x3bb65f25	0.0055655413
4	0x3b3ff661	0.002929114
5	0x3bd8aa23	0.0066120788
6	0x3a9ff2b3	0.0012203067
7	0x3a0e5e43	0.0005430916
8	0x3d04d569	0.032430086
9	0x3a8a6b05	0.0010560459
10	0x3c503381	0.012707592
11	0x3c6b1177	0.014347426
12	0x3b0fe552	0.0021956754
13	0x3b470a81	0.003037125
14	0x3ac726b9	0.0015194035
15	0x3c5b5f08	0.013389356
16	0x3c9f9953	0.01948229
17	0x3b496ec7	0.0030736194
18	0x3c067e36	0.008208802
19	0x3abb95b8	0.0014311587
20	0x3cd6d04f	0.026222376
21	0x3bb91ed7	0.0056494283
22	0x3b4aff80	0.0030975044
23	0x3c9963e0	0.018724382
24	0x3cf14a39	0.029454337
25	0x3a5a2aa4	0.0008322394
26	0x3a9fa6b5	0.001218042
27	0x3b172fbc	0.0023069223
28	0x3a74af4d	0.0009333983
29	0x3b255355	0.0025226672
30	0x3b9f5be2	0.004863248
31	0x3ac4e283	0.0015021119

fc.3.weight f4 [10, 32]
0	0xbd19175d	-0.037375797
1	0xbd3d9cb2	-0.046292014
2	0x3eb10dc1	0.34580806
3	0x3ca4ccde	0.02011722
4	0xbdaa3e42	-0.08312656
5	0xbb0d39bb	-0.0021549303
6	0x3eaa35e0	0.33244228
7	0x3e4acde2	0.198051
8	0xbdf90899	-0.12159843
9	0x3df3a014	0.11895767
10	0x3db978e1	0.09056259
11	0x3e763d8a	0.24046913
12	0x3e5c1471	0.21492173
13	0xbdf823d9	-0.121162124
14	0x3e141fcf	0.14465259
15	0xbd9d3cd4	-0.07677618
16	0xbcdd8208	-0.027039543
17	0x3ea36770	0.31914854
18	0xbca0bfd0	-0.019622713
19	0x3cbd873d	0.023135776
20	0x3dd18ff6	0.102325365
21	0x3e68e882	0.22744945
22	0x3ea8ab05	0.32942978
23	0x3df42712	0.119215146
24	0xbd20005c	-0.039062843
25	0x3e0158fb	0.126316
26	0x3e463ec2	0.19359878
27	0x3ed1bb84	0.40963376
28	0x3dafa1cc	0.08575782
29	0x3e0f7d30	0.14012599
30	0x3e3c4f48	0.18389618
31	0x3e1948aa	0.14969125
32	0xbcfeba83	-0.031094795
33	0x3e15896c	0.14603204
34	0x3db7ee94	0.08981052
35	0x3cc452b4	0.023965217
36	0xbe6065d3	-0.21913843
37	0xbd0b1284	-0.033953205
38	0xbe06cf47	-0.13165008
39	0xbbd18d70	-0.0063950345
40	0xbdc26366	-0.09491615
41	0xbd8faac2	-0.07014991
42	0x3dde7b82	0.10863401
43	0xbe2cee14	-0.16887695
44	0xbdb33d4a	-0.08751924
45	0x3e9b54e6	0.3033821
46	0x3c064113	0.008194226
47	0x3ce090eb	0.027412852
48	0x3d8d0b24	0.068868905
49	0xbd34c779	-0.044135544
50	0xbdb0827b	-0.08618637
51	0x3d4d2a78	0.05008933
52	0xbcd14696	-0.025546353
53	0xbeb4ad73	-0.3528858
54	0xbe1082bd	-0.14112373
55	0x3e220ac2	0.15824416
56	0x3c1fcce0	0.009753436
57	0xbe1353d6	-0.1438745
58	0xbd950b43	-0.072775386
59	0xbe71ec64	-0.23625332
60	0x3dc779d7	0.09740036
61	0xbe6ac0ba	-0.22925082
62	0xbd8e8419	-0.069587894
63	0xbe814cdb	-0.2525395
64	0x3dfd8f3b	0.12380835
65	0xbdba3d5a	-0.09093733
66	0x3d4eb46a	0.050465025
67	0x3c24b523	0.010052952
68	0x3e07f16b	0.13275687
69	0xbe434aff	-0.19071577
70	0xbdd7e2c3	-0.10541298
71	0xbdef7255	-0.11691729
72	0x3a81fc40	0.0009917095
73	0xbda6d1f8	-0.08145517
74	0xbdc057b1	-0.09391726
75	0xbe1d0d51	-0.15337111
76	0xbda6fa12	-0.08153166
77	0x3e33a903	0.17544942
78	0x3ea106a7	0.31450388
79	0x3d9402f8	0.07227129
80	0xbdbd0f8e	-0.092314824
81	0x3e2848d5	0.16434033
82	0xbe11d923	-0.14242987
83	0x3dab76ae	0.08372246
84	0x3d084ccd	0.033276368
85	0x3ea9e110	0.33179522
86	0x3e8de135	0.27710882
87	0xbe2bc14c	-0.16772956
88	0xbdd5209e	-0.10406612
89	0xbe21caa0	-0.15799952
90	0xbe6e97ae	-0.23300049
91	0x3e4483f9	0.19190969
92	0x3cb2343b	0.021753421
93	0x3ebbeb2c	0.3670286
94	0xbc26a1f8	-0.010170452
95	0x3d293977	0.04131457
96	0x3de9c713	0.114149235
97	0x3e9d1467	0.30679628
98	0x3e47a528	0.19496596
99	0x3e6a5848	0.22885239
100	0xbe1c2e4d	-0.15252037
101	0x3e62e748	0.2215854
102	0x3dc3da65	0.0956314
103	0xbceaa60f	-0.028643636
104	0x3df5df2f	0.120054595
105	0x3c198da4	0.009372149
106	0x3e140072	0.14453295
107	0x3da53264	0.08066252
108	0x3e0eb9f9	0.1393813
109	0xbd801b79	-0.0625524
110	0xbd2323aa	-0.039828934
111	0x3d977354	0.07395044
112	0xbde6f396	-0.11276929
113	0x3dfc4227	0.12317305
114	0xbe259d08	-0.16173184
115	0xbcb21823	-0.021740025
116	0x3d75aa08	0.059976608
117	0xbda256b0	-0.079266906
118	0x3d8fc2a3	0.07019546
119	0xbdec623a	-0.11542173
120	0x3e484b72	0.1956003
121	0xbca27988	-0.019833341
122	0x3df988c2	0.121842876
123	0x3da631b6	0.0811495
124	0xbdc60a61	-0.09669948
125	0x3ba018af	0.004885755
126	0x3e0eacec	0.13933152
127	0x3e27e60d	0.16396351
128	0xbdaa7a8d	-0.08324156
129	0x3d20976b	0.039206903
130	0xba335d8d	-0.0006842248
131	0xbd5d71d6	-0.05406364
132	0xbdaa79e3	-0.08324029
133	0xbe8585b7	-0.2607858
134	0xbe6cdb07	-0.23130427
135	0x3cd5e27a	0.026108969
136	0x3d8d5e92	0.069028035
137	0x3da95d52	0.082697526
138	0xbe3c74c5	-0.18403919
139	0xbde06140	-0.10956049
140	0xbe00efa9	-0.12591423
141	0x3dc3d7d8	0.09562653
142	0xbdb763f7	-0.08954614
143	0xbe3218bd	-0.1739225
144	0x3d1659da	0.036706783
145	0xbe5d1cfa	-0.21593085
146	0x3db2a44e	0.08722745
147	0xbde3ba65	-0.11119536
148	0x3c7686a0	0.015046746
149	0xbe6e7e0c	-0.2329027
150	0xbe5cc40d	-0.21559162
151	0x3d24aacb	0.040201943
152	0xbd33aa9a	-0.04386387
153	0xbe1ebdcc	-0.1550209
154	0xbe0a2c49	-0.13493456
155	0xbce787fb	-0.028263083
156	0xbe20f337	-0.15717779
157	0xbdf4cced	-0.11953149
158	0xbdd5f245	-0.104466
159	0x3d5448b5	0.05182715
160	0x3d877f2c	0.06616053
161	0xbe0f4781	-0.1399212
162	0xbdd712f1	-0.1050166
163	0x3db6e3ec	0.089301914
164	0x3cc9f6a8	0.024653748
165	0xbd105920	-0.035241246
166	0xbd036ee2	-0.032088168
167	0x3de63aa7	0.11241656
168	0xbcaf3525	-0.021387646
169	0xbc8958a0	-0.016765893
170	0xbe5ec1d0	-0.21753621
171	0x3d79b8c2	0.060967214
172	0xbe854683	-0.2603036
173	0x3d4adbf9	0.04952619
174	0xbe1b6876	-0.15176567
175	0x3ded127a	0.1157579
176	0x3ce15ed1	0.027511032
177	0xbe980770	-0.29693174
178	0x3e4f29a3	0.20230727
179	0x3dc45a92	0.095875874
180	0x3d266d71	0.040631715
181	0xbdff54ee	-0.12467371
182	0xbe861117	-0.26184914
183	0x3bfe63c9	0.00776336
184	0x3cc85b2f	0.024457542
185	0xbd64d7e9	-0.05586997
186	0xbd8d9d01	-0.06914712
187	0xbe7a3f05	-0.24438103
188	0xbdbe09c9	-0.0927921
189	0xbca98556	-0.020693462
190	0x3d7273e6	0.05919256
191	0xbe81c20b	-0.25343356
192	0xbdff102c	-0.124542564
193	0xbeab2c70	-0.3343234
194	0x3d96e32f	0.073675506
195	0x3e1ab745	0.15108974
196	0x3dde6f71	0.108610995
197	0xbd7172d4	-0.0589474
198	0xbe161994	-0.14658195
199	0x3e0f66c7	0.1400405
200	0xbe81b992	-0.2533689
201	0xbd866915	-0.065630116
202	0x3e4794f9	0.19490422
203	0x3d544e9d	0.051832784
204	0x3e83e51d	0.25760737
205	0xbe45dd4f	-0.19322704
206	0xbe9744e3	-0.29544744
207	0xbe354bc9	-0.17704691
208	0xbde9a90f	-0.114091985
209	0x3d3ee7f0	0.04660791
210	0xbe2062a6	-0.15662631
211	0xbd11c0e1	-0.035584334
212	0x3d78431c	0.060610875
213	0xbe065dee	-0.13121769
214	0x3de9b6a5	0.1141179
215	0xbd36def3	-0.044646215
216	0x3e06220b	0.13098924
217	0x3e71e5eb	0.23622863
218	0x3e06d90b	0.13168733
219	0x3e02b08c	0.1276266
220	0x3d27c646	0.040960573
221	0xbe29e60b	-0.1659166
222	0x3d68faed	0.056879926
223	0x3de93bde	0.11388372
224	0xbccbb468	-0.024866298
225	0xbd2c6b11	-0.042094294
226	0xbde9b858	-0.11412114
227	0xbc4db678	-0.012555711
228	0x3e9ed73a	0.3102358
229	0x3d94b2e4	0.07260683
230	0xbe2d4555	-0.1692098
231	0xbb4c4db4	-0.0031174244
232	0xbcc06b73	-0.023488736
233	0x3d993b57	0.07482021
234	0xbe2c3fd9	-0.16821231
235	0xbe212cb2	-0.15739706
236	0xbe32f295	-0.1747535
237	0x3dd51999	0.10405273
238	0x3e060661	0.13088371
239	0xbd93b295	-0.07211796
240	0xbd7ac7d8	-0.061225742
241	0x3e1f5b8e	0.15562269
242	0x3e3589f4	0.17728406
243	0x3e83a089	0.25708416
244	0xbe06871a	-0.13137475
245	0x3d8f30e5	0.06991748
246	0xbcb88b85	-0.022527466
247	0x3dcae3a7	0.099067025
248	0xbd123421	-0.035694245
249	0xbdf1ebae	-0.118125305
250	0x3ca260b5	0.019821504
251	0xbe223257	-0.15839516
252	0xbdef371f	-0.116804354
253	0x3dfbd45a	0.12296362
254	0xbe70f8f5	-0.2353247
255	0x3e0d01c3	0.13770203

fc.3.bias f4 [10]
0	0x3ed255d8	0.4108112
1	0xbe7adbc7	-0.24497901
2	0x3e8348f7	0.25641605
3	0xbd19ce28	-0.03755012
4	0xbe51c444	-0.20485026
5	0xbeb5a28d	-0.3547558
6	0xbe546da6	-0.20744953
7	0x3dc59a5a	0.09648581
8	0x3da7f66a	0.08201297
9	0xbe75cb83	-0.24003415
