saved/baseline.pth (torch, 64666 bytes, 20 tensors)

cnn_block.0.weight f4 [32, 5, 5]
0	0x3db54405	0.08850864
1	0xbe4532d6	-0.19257674
2	0xbe0d9858	-0.13827646
3	0x3c425483	0.0118609695
4	0xbc15964c	-0.009130072
5	0xbd0203c7	-0.031741884
6	0x3c309559	0.010777795
7	0x3e0c4f42	0.1370211
8	0x3dcfbce9	0.10143454
9	0x3e309e03	0.17247777
10	0xbe25ab5a	-0.16178647
11	0x3d55fd5c	0.052243575
12	0x3c046f02	0.008083107
13	0x3e1c58f2	0.15268305
14	0x3ce09349	0.027413981
15	0x3c2656e7	0.010152555
16	0xbc540be7	-0.012942291
17	0xbddaec57	-0.106896095
18	0xbdbaf8dd	-0.09129498
19	0xbe19337d	-0.14961047
20	0xbdf50a7f	-0.119648926
21	0xbd14e988	-0.036355525
22	0x3cde9f28	0.027175501
23	0xbd628864	-0.055305853
24	0xbd6d31b3	-0.057908725
25	0xbb2dd3d2	-0.002652396
26	0xbe2d4814	-0.16922027
27	0x3db1ccca	0.086816385
28	0xbe162fdc	-0.14666694
29	0xbe23e570	-0.16005492
30	0xbb9d4a57	-0.0048001218
31	0x3d98f786	0.07469086
32	0x3e069db5	0.13146098
33	0x3dc8a08e	0.097962484
34	0xbe624993	-0.22098379
35	0x3e31d81f	0.173676
36	0xbd3c773c	-0.04601215
37	0x3d2b990e	0.04189401
38	0xbdc68526	-0.09693365
39	0xbe063a32	-0.13108137
40	0xbcf1decd	-0.029525185
41	0xbd13b553	-0.036061596
42	0x3c6d65e7	0.014489627
43	0xbdd11700	-0.10209465
44	0x3dd7c92a	0.10536416
45	0xbd307df3	-0.043088865
46	0xbe3618ed	-0.17782946
47	0x3e008e8f	0.12554382
48	0xbc580fbe	-0.013187347
49	0x3d5a36f6	0.05327507
50	0xbe3758a6	-0.1790491
51	0x3c010fb5	0.00787728
52	0xbdbb3e69	-0.09142763
53	0x3d8c9bf0	0.0686568
54	0xbe1f288f	-0.15542816
55	0xbdc3f33a	-0.09567876
56	0xbd8a6ab9	-0.06758637
57	0x3e2e73f4	0.1703642
58	0xbe142b7a	-0.1446971
59	0x3b2750b8	0.002553029
60	0xbe35e369	-0.17762531
61	0xbe282216	-0.16419253
62	0xbe2f6a2a	-0.17130342
63	0xbde37b00	-0.11107445
64	0xbd929f06	-0.071592376
65	0x3cde0c73	0.027105546
66	0x3e037287	0.12836657
67	0xbda9623d	-0.082706906
68	0xbd2c1753	-0.04201443
69	0xbc5c2ab3	-0.013437915
70	0xbe0febc2	-0.14054778
71	0xbc9bfa19	-0.019040154
72	0x3e29b48a	0.16572776
73	0xbe063b05	-0.13108452
74	0xbe4b5137	-0.198552
75	0x3e269a02	0.16269687
76	0xbdfbc743	-0.122938655
77	0x3d1e35e8	0.038625628
78	0xbd44e05d	-0.048065532
79	0xbcb8fed0	-0.022582442
80	0xbe18d208	-0.1492387
81	0x3d16d6de	0.036826007
82	0xbd2bf186	-0.04197838
83	0xbdc09569	-0.09403498
84	0x3e0afa9e	0.13572165
85	0xbe2317a0	-0.15926981
86	0x3c57de22	0.013175519
87	0x3cdc34b4	0.0268806
88	0xbe39c6ad	-0.18142195
89	0x3d95096a	0.07277186
90	0xbe3f6f1d	-0.1869473
91	0xbd000040	-0.03125024
92	0xbd1b8593	-0.037969183
93	0x3e336315	0.17518266
94	0xbde2709d	-0.110566355
95	0x3e368b85	0.1782666
96	0x3d8cbf6b	0.068724476
97	0xbe0d97ee	-0.13827488
98	0x3deeaaf5	0.11653701
99	0x3cfb4e25	0.03067691
100	0xbdc4d0e4	-0.09610155
101	0xbc3d65d8	-0.011559926
102	0x3d9827f9	0.07429499
103	0xbc32a8e3	-0.010904524
104	0xbcab9178	-0.020943388
105	0xbd48ec50	-0.04905349
106	0x3e464fcd	0.19366379
107	0x3d960c09	0.07326514
108	0x3d9904b6	0.07471602
109	0x3bcd668c	0.006268328
110	0xbdea6082	-0.11444189
111	0xbe25d09c	-0.1619286
112	0x3c730956	0.014833769
113	0xbe0e2dde	-0.13884684
114	0xbdbf9cbc	-0.093560666
115	0x3e250a02	0.16117099
116	0x3e203f93	0.15649252
117	0x3cfe3867	0.031032754
118	0xbe2a281f	-0.16616867
119	0x3d892aa7	0.066975884
120	0x3dae20cb	0.085023485
121	0x3e081d64	0.13292462
122	0x3e39118e	0.18073103
123	0x3df30a1d	0.11867163
124	0x3c23b21c	0.009991195
125	0xbd906394	-0.07050243
126	0x3d430bf8	0.047618836
127	0xbe037554	-0.12837726
128	0xbd1d88bf	-0.03846049
129	0xbe4c015a	-0.1992239
130	0x3d86b8d0	0.06578219
131	0xbdea1b9f	-0.114310496
132	0xbe47ff6f	-0.19531034
133	0xbdad51d2	-0.084628716
134	0x3d9dd61a	0.07706852
135	0x3db28d2f	0.08718335
136	0xbdbdab14	-0.09261146
137	0xbe0c18eb	-0.1368138
138	0xbd4b9b34	-0.04970856
139	0x3e0c6e34	0.13713914
140	0x3d66b1da	0.056321956
141	0xbdf7eaea	-0.12105353
142	0xbd8b84a7	-0.06812411
143	0xbda3fb87	-0.080069594
144	0x3da733ba	0.08164163
145	0x3e22fc64	0.15916592
146	0xbdbfe968	-0.093706906
147	0xbd9f2505	-0.07770733
148	0x3cbe76d9	0.02325003
149	0xbd8ec4d4	-0.06971136
150	0xbe37d265	-0.17951353
151	0x3e317a25	0.1733175
152	0xbd0d8444	-0.034549966
153	0xbd1e77ba	-0.0386884
154	0xbe2f2d41	-0.17107107
155	0x3def7102	0.116914764
156	0xbe3ae294	-0.18250495
157	0x3e3d74bd	0.18501563
158	0xb9c05671	-0.00036685498
159	0x3ac28626	0.0014841005
160	0x3d2959b5	0.041345317
161	0x3e1be81e	0.15225264
162	0x3e10f825	0.1415716
163	0x3d919c4d	0.0710989
164	0xbccb6d76	-0.024832468
165	0xbd642eba	-0.055708624
166	0x3d0bd007	0.034133937
167	0xbe264a45	-0.16239269
168	0x3db3df57	0.08782833
169	0x3dfa836d	0.12232099
170	0x3c4cb452	0.012494164
171	0xbd3f111c	-0.046647176
172	0xbe31789d	-0.17331167
173	0x3dbf1549	0.09330232
174	0xbd38a105	-0.045075435
175	0x3d7d4fee	0.061843805
176	0x3e2cd9e1	0.16879989
177	0xbda1fc08	-0.07909399
178	0xbdff31d0	-0.12460673
179	0xbd902a93	-0.070393704
180	0x3e4ad5ce	0.19808123
181	0xbdfa3c5e	-0.122185454
182	0xbe3c8006	-0.18408212
183	0x3dcc4dfb	0.09975811
184	0xbd663271	-0.05620045
185	0x3d008659	0.031378124
186	0x3d9a2ee0	0.07528472
187	0xbe1ab547	-0.15108214
188	0xb9206fbf	-0.00015300418
189	0x3e0b5499	0.1360649
190	0x3d4fa62d	0.050695587
191	0xbe272187	-0.16321383
192	0xbe0fa01f	-0.14025925
193	0xbdd9b23a	-0.10629697
194	0xbdb1dad0	-0.08684313
195	0x3e37cd8a	0.179495
196	0xbe362f9b	-0.17791598
197	0x3d908bdf	0.07057928
198	0x3d74ddbd	0.05978178
199	0x3e453533	0.19258575
200	0x3d970a57	0.07375019
201	0xbe2e08e0	-0.16995573
202	0x3e0c34a9	0.13691963
203	0xbd8d20e8	-0.06891042
204	0x3e1969e4	0.149818
205	0xbdace1e5	-0.084415235
206	0xbe30f237	-0.17279898
207	0xbde5e483	-0.11225226
208	0xbe2a6c58	-0.16642892
209	0x3d9bc360	0.07605624
210	0x3db9a14b	0.09063967
211	0x3d86a8c5	0.06575159
212	0xbd18fff1	-0.03735346
213	0x3c955196	0.01822738
214	0xbe05395b	-0.1301016
215	0x3cafc58d	0.021456504
216	0x3e46c952	0.19412735
217	0xbdc6a9a0	-0.09700322
218	0xbe0d0dc0	-0.13774776
219	0xbe17c9b8	-0.14823043
220	0xbdfdb42a	-0.12387879
221	0x3d0c8c0d	0.03431325
222	0x3da3c51b	0.07996579
223	0x3e346f9b	0.17620699
224	0x3c88a821	0.016681733
225	0xbdee48f2	-0.11635007
226	0x3e3ae8bb	0.18252842
227	0x3d267448	0.04063824
228	0xbe3a5e5d	-0.18200059
229	0xbd40b543	-0.047047865
230	0xbe2e306f	-0.17010663
231	0xbe2a063c	-0.1660394
232	0x3e2366fa	0.15957251
233	0x3dda0ef4	0.10647383
234	0x3d91f0a4	0.07125977
235	0xbdf8bb91	-0.121451505
236	0xbe2864db	-0.16444723
237	0xbd5c4766	-0.05377903
238	0xbe19e6e3	-0.15029483
239	0xbdc0abb3	-0.09407749
240	0xbdbfdda0	-0.093684435
241	0xbe3fbe40	-0.18724918
242	0x3c50d04d	0.012744975
243	0x3d0a4160	0.033753753
244	0xbd55885a	-0.052131988
245	0xbd603500	-0.054738045
246	0x3d9fdf04	0.07806209
247	0xbdca785a	-0.098862365
248	0x3dc8012f	0.09765851
249	0xbe1ef7da	-0.15524235
250	0x3e108967	0.14114915
251	0xbe189fb6	-0.14904675
252	0xbe2edf8a	-0.17077461
253	0xbe40e023	-0.18835501
254	0x3c251e8d	0.010078085
255	0xbc120879	-0.008913153

cnn_block.0.bias f4 [32]
0	0xbe013beb	-0.12620513
1	0xbd43c887	-0.04779866
2	0x3d7fd1b3	0.062455844
3	0x3e06087d	0.13089176
4	0x3d709c53	0.058742832
5	0xbdcf8600	-0.1013298
6	0xbe0492cf	-0.12946628
7	0x3c9bf29a	0.01903658
8	0xbd8f889a	-0.070084766
9	0xbe14b3f8	-0.14521778
10	0x3e08580f	0.13314842
11	0xbdeba293	-0.11505618
12	0xbdfd237a	-0.12360282
13	0xbd82811d	-0.06372283
14	0xbd16a927	-0.03678241
15	0x3de08a03	0.10963824
16	0x3e085c1b	0.13316385
17	0x3dc3a880	0.09553623
18	0xb823e67d	-3.9076887e-05
19	0xbe0f6f75	-0.14007361
20	0xbcfe3bf6	-0.031034451
21	0xbe1d06b2	-0.15334585
22	0x3d28081a	0.04102335
23	0xbba2cffd	-0.004968642
24	0xbd3ff800	-0.04686737
25	0x3dcff410	0.10153973
26	0x3d761973	0.060082864
27	0x3d90c8ad	0.07069526
28	0x3c20c8cd	0.0098135
29	0x3e056f88	0.13030827
30	0x3dac692d	0.08418498
31	0xbe477673	-0.19478779

cnn_block.1.weight f4 [32]
0	0x3f7ef685	0.9959491
1	0x3f806788	1.0031595
2	0x3f7fe4f6	0.9995874
3	0x3f7ff191	0.99977976
4	0x3f7dc80d	0.9913338
5	0x3f7ff508	0.99983263
6	0x3f7fd562	0.9993497
7	0x3f801601	1.0006715
8	0x3f7ffa85	0.9999164
9	0x3f7fec9c	0.9997041
10	0x3f8241f2	1.0176375
11	0x3f7f9a49	0.99844795
12	0x3f819ae3	1.0125393
13	0x3f8019d0	1.0007877
14	0x3f7fb2ad	0.9988201
15	0x3f805551	1.0026037
16	0x3f7f197d	0.9964827
17	0x3f7f9b5f	0.9984645
18	0x3f808544	1.004067
19	0x3f7ee7f9	0.9957271
20	0x3f7fe570	0.9995947
21	0x3f805d79	1.0028526
22	0x3f800d18	1.0003996
23	0x3f7fc11b	0.9990403
24	0x3f801300	1.0005798
25	0x3f7e9975	0.99452907
26	0x3f7e962d	0.994479
27	0x3f8009da	1.0003006
28	0x3f8003c3	1.0001148
29	0x3f8074ff	1.0035704
30	0x3f7e8dc5	0.99435073
31	0x3f7ec0d0	0.9951296

cnn_block.1.bias f4 [32]
0	0xbb36330f	-0.002780143
1	0x3822485e	3.8691207e-05
2	0xbaaea458	-0.0013324125
3	0xba275b68	-0.0006384165
4	0xbb170d52	-0.002304871
5	0xb9e82ec5	-0.00044285334
6	0xbabd8cae	-0.0014461481
7	0x3898d405	7.2874165e-05
8	0x38883060	6.493996e-05
9	0xba9c0641	-0.0011903719
10	0x3b97c4ed	0.0046316297
11	0xbac8dc6d	-0.0015324481
12	0xbc1e2cd6	-0.009654244
13	0x3b21af7f	0.0024671254
14	0xba97d68a	-0.0011584323
15	0x3af2e4c6	0.0018531315
16	0xba09f87a	-0.0005263161
17	0xb9643bdb	-0.00021766072
18	0x3a6b895d	0.00089850073
19	0xbb33f504	-0.0027459273
20	0x392f260d	0.00016703476
21	0x37d09b7f	2.486794e-05
22	0x39947fe7	0.00028324054
23	0xb9d044ac	-0.00039724016
24	0x3ac72dfb	0.0015196198
25	0xbb1ca540	-0.0023902208
26	0xbada4599	-0.0016652822
27	0x3a0ddb8e	0.00054114393
28	0xbb47058b	-0.0030368294
29	0xba67d668	-0.00088438997
30	0xb99a6f6d	-0.00029456188
31	0xba022264	-0.0004964231

cnn_block.1.running_mean f4 [32]
0	0x3fc46c3c	1.534553
1	0x3e883cee	0.26608986
2	0xbf9fbc0e	-1.2479265
3	0xbeb4153f	-0.3517246
4	0x4003ec11	2.0612833
5	0xbfde4d83	-1.7367405
6	0x3e8920b7	0.26782772
7	0x3d4bf0ff	0.04979038
8	0xc018e31f	-2.3888624
9	0xbf0a007d	-0.53906995
10	0x3e7c90ac	0.24664563
11	0x3e81cf29	0.25353363
12	0xbead57fb	-0.33856186
13	0xbff60025	-1.9218794
14	0xbf143717	-0.5789656
15	0x3e884265	0.26613155
16	0x3fcdfd8c	1.6093001
17	0x3f1999f1	0.6000052
18	0xbe4e788d	-0.20163174
19	0x3ed73b73	0.42037544
20	0xbf159288	-0.58426714
21	0xbdc0e5ee	-0.094188556
22	0xbf9c9d6c	-1.2235541
23	0xbf57048e	-0.83991325
24	0xbf794c0f	-0.9738168
25	0x3fb66e83	1.4252476
26	0x400791b4	2.118268
27	0xc0108e94	-2.2587023
28	0x3fda830d	1.7071244
29	0x3e59056d	0.21193476
30	0x3f5d2f8b	0.8640067
31	0x405bfff5	3.4374974

cnn_block.1.running_var f4 [32]
0	0x4202e7e5	32.72646
1	0x3ffb54bc	1.9635234
2	0x410047e3	8.01755
3	0x40904df7	4.509517
4	0x4194e3e7	18.61128
5	0x41aca9e3	21.582952
6	0x4030cf8c	2.7626677
7	0x3fdf932e	1.7466791
8	0x424e6e1b	51.607525
9	0x3ffae5db	1.9601396
10	0x3fb50a7d	1.4143826
11	0x3fca29d0	1.579401
12	0x3f12882f	0.5723905
13	0x41ff1ec4	31.890022
14	0x4024510c	2.5674467
15	0x3fc6280a	1.5480969
16	0x41c80720	25.003479
17	0x3fde62d0	1.7373905
18	0x4026311e	2.5967479
19	0x40f86a97	7.7630115
20	0x3fa286c5	1.2697378
21	0x3f1685f1	0.5879813
22	0x4126bac6	10.420599
23	0x409fb576	4.990901
24	0x40d81a5a	6.7532167
25	0x4193cfb8	18.476425
26	0x41d3d20c	26.477562
27	0x42091974	34.274857
28	0x4126d280	10.426392
29	0x3fcd06a6	1.6017654
30	0x4115b0d4	9.355671
31	0x42b93538	92.60394

cnn_block.4.weight f4 [64, 32, 5]
0	0xbd4b30f5	-0.049607236
1	0xbd94cc76	-0.0726556
2	0x3d873546	0.06601958
3	0xbda285dd	-0.07935689
4	0x3cd1e981	0.025624039
5	0xbc98f1e7	-0.018670036
6	0x3dab3dca	0.08361395
7	0x3c9b97a7	0.018993212
8	0xbd9c3e0a	-0.076290205
9	0x3d86a4c8	0.06574398
10	0x3b813e39	0.003944185
11	0x3c198868	0.009370901
12	0xbcd6822d	-0.02618512
13	0xbd6f811c	-0.058472738
14	0x3c47d7f0	0.01219748
15	0x3d888f92	0.06668009
16	0xbcb1cc18	-0.021703765
17	0xbd6e27a5	-0.058143277
18	0x3c95ceda	0.018287111
19	0xbd9a5afa	-0.07536884
20	0x3cdce3f8	0.026964173
21	0xbd9c2071	-0.07623375
22	0x3c48f819	0.012266182
23	0xbbc7ad81	-0.0060936813
24	0xbd236009	-0.039886508
25	0xbd821eeb	-0.063535534
26	0x3d583916	0.052788816
27	0xbd96d3ec	-0.0736464
28	0x3c35057c	0.011048671
29	0xbd99027e	-0.074711785
30	0xbc0c0423	-0.008545908
31	0x3bbeb15e	0.0058194837
32	0xb9f166eb	-0.00046043782
33	0xbce52105	-0.027969847
34	0xbca06f42	-0.019584302
35	0xbbc82cf0	-0.0061088726
36	0xbd5e0d26	-0.054211758
37	0x3d40b8aa	0.04705111
38	0xbc443c1d	-0.011977223
39	0xbd9709c4	-0.073749095
40	0x3d55339d	0.052051175
41	0x3d83d6cc	0.06437454
42	0x3d0231e8	0.031785876
43	0x3d57e35b	0.052707057
44	0x3cb0cebf	0.02158296
45	0x3d9d2194	0.0767242
46	0x3d923de0	0.07140708
47	0xbd80e1a8	-0.062930405
48	0xbd95d8c3	-0.07316735
49	0xbd24bd4d	-0.040219594
50	0xbc5fd64b	-0.013661931
51	0xbcd16d7e	-0.025564905
52	0xbda7e40b	-0.081977926
53	0xbcfaa851	-0.030597838
54	0xbd8d7fc5	-0.06909136
55	0xbd0a3b54	-0.033747986
56	0xbd79cb64	-0.060984984
57	0x3c69fd48	0.014281578
58	0x3c8cb95d	0.017178232
59	0x3c46e022	0.012138398
60	0xbd0fe5d7	-0.0351313
61	0xbd6b72cc	-0.057482526
62	0x3d89648a	0.067086294
63	0xbb9b4462	-0.0047383765
64	0x3d9c0132	0.076174155
65	0x3d416501	0.047215465
66	0xbcf6f369	-0.030145364
67	0x3ba33f89	0.004981939
68	0x3d4268e3	0.04746331
69	0x3cebcef3	0.028785205
70	0xbd2cd210	-0.04219252
71	0xbc729654	-0.014806349
72	0x3d7bfb96	0.061519228
73	0xbc0653ce	-0.0081986915
74	0xbd1fb438	-0.03899023
75	0xbd97039e	-0.07373737
76	0x3d9a9480	0.075478554
77	0x3c2b8eb5	0.010471036
78	0x3ccd41e6	0.025055837
79	0x3d7137c2	0.058891065
80	0x3d8ed307	0.06973844
81	0x3d8a49e6	0.06752376
82	0x3d37952f	0.044820007
83	0xbd55d4e7	-0.052204993
84	0x3d093d09	0.033505473
85	0x3ccbad43	0.024862891
86	0xbd2a7373	-0.041614007
87	0xbd92b1a2	-0.07162787
88	0xbd714d1d	-0.05891143
89	0xbd756a35	-0.05991574
90	0x3d911b11	0.07085241
91	0x3cdc322f	0.026879398
92	0xbacba29a	-0.001553613
93	0x3c27640d	0.010216725
94	0xbd0ff3bd	-0.035144556
95	0xbc96d70f	-0.018413095
96	0x3c0b1ed0	0.008491233
97	0xbcd4270d	-0.025897527
98	0x3d041509	0.032246623
99	0x3d6f9cb1	0.058499042
100	0x3d9ca175	0.07647983
101	0xbd137610	-0.036001265
102	0xbd364912	-0.04450328
103	0x3d67a0ba	0.056549765
104	0x386042b4	5.3467884e-05
105	0x3d4629b5	0.04837962
106	0xbcca6653	-0.024706995
107	0x3d4580ce	0.04821854
108	0x3c41cdc7	0.011828846
109	0xbc249e29	-0.010047474
110	0xbd29d316	-0.041461073
111	0xbd82629a	-0.06366463
112	0xbd8a37a1	-0.067488916
113	0xbb8b26f0	-0.004246585
114	0x3d0dd748	0.034629136
115	0x3bc0ef1c	0.005887879
116	0xbd24f10e	-0.04026895
117	0xbd068279	-0.032839272
118	0x3d4675d9	0.048452232
119	0xbc676aef	-0.014124616
120	0xbcaf50a7	-0.021400763
121	0x3c6e8b14	0.014559526
122	0xbd658bbe	-0.05604147
123	0x3d9592b3	0.07303371
124	0xbd31464c	-0.04327993
125	0x3d206538	0.03915903
126	0xbd621d1e	-0.05520355
127	0x3d9963a5	0.07489709
128	0x3d462213	0.04837234
129	0xbc9fc1a2	-0.019501511
130	0xbda0e14b	-0.07855471
131	0xbd8ea209	-0.069644995
132	0xbd7e49d2	-0.06208212
133	0xbcad302f	-0.02114114
134	0xbd2e21c8	-0.042512685
135	0x3ac77177	0.001521631
136	0x3cc0d0fd	0.023537153
137	0x3d9045bb	0.0704455
138	0x3c25445a	0.010087097
139	0x3d9d6a4f	0.076862924
140	0x3d2545fd	0.04034995
141	0x3d86c0dc	0.06579754
142	0xbd403f69	-0.046935473
143	0x3b18ebc0	0.0023333877
144	0xbd4e4867	-0.050362017
145	0x3c87d8fe	0.016582962
146	0xbd091294	-0.033464983
147	0x3b1c3370	0.002383437
148	0xbca1e474	-0.019762255
149	0x3b4dfb9e	0.0031430493
150	0x3d3b8c3d	0.04578804
151	0xbceb72ae	-0.028741207
152	0xbcb7840c	-0.022401832
153	0x3ceff3c4	0.029291041
154	0x3cb930be	0.02260625
155	0x3d38ebc5	0.045146722
156	0x3ca4381d	0.020046288
157	0x3d3fe0ad	0.046845127
158	0x3d436d39	0.047711585
159	0xbcbf7414	-0.02337078
160	0xbcae7b70	-0.021299094
161	0x3cd60db4	0.026129581
162	0xbc4fcd31	-0.012683199
163	0xbc2cf5b4	-0.010556627
164	0xbd3346a3	-0.043768536
165	0xbc8458b0	-0.01615557
166	0x3d8bf0d6	0.06833045
167	0xbd5cdd04	-0.053921714
168	0x3c9f3815	0.019435922
169	0x3d1b9cd1	0.03799135
170	0xbd2b7fd2	-0.041869946
171	0x3d86e12c	0.06585917
172	0xbd0fc3bf	-0.035098787
173	0x3ca6158e	0.02027395
174	0xbd85c811	-0.065323
175	0x3ce35f24	0.027755328
176	0x3d8820a0	0.06646848
177	0x3ba8b1e3	0.005148159
178	0x3c4c5eb4	0.012473751
179	0x3d2dd459	0.04243884
180	0xbd803905	-0.062608756
181	0xbcb4189a	-0.021984387
182	0x3ca2f8ea	0.019894082
183	0xbcbfb585	-0.023401985
184	0x3da3b886	0.079941794
185	0xbd1d302b	-0.038376015
186	0x3cee7927	0.029110504
187	0xbcc1e4ad	-0.023668611
188	0x3d22a52b	0.039708298
189	0xbc3fd4fa	-0.011708492
190	0xbb87e0db	-0.004146678
191	0x3d9cc9ee	0.076557025
192	0xbd43f965	-0.047845263
193	0xbd5bee41	-0.053694014
194	0x3d077f9c	0.033080682
195	0x3cdc1375	0.026864747
196	0x3d9afa43	0.07567265
197	0x3c88bcc3	0.016691571
198	0xbd079dd0	-0.033109486
199	0x3d4059e8	0.04696074
200	0x3c1c0f90	0.009525195
201	0xbbf2887b	-0.0074015236
202	0xbcb3c0e2	-0.02194256
203	0xbc9e9763	-0.019359296
204	0xbd1958e7	-0.0374383
205	0x3b0e0a00	0.002167344
206	0x3d0d18ba	0.03444741
207	0x3c7e1437	0.015507749
208	0x3cf28a34	0.029606916
209	0xbc1f17cf	-0.009710266
210	0x3ccc9ef6	0.024978142
211	0x3b1b0b28	0.0023657773
212	0x3ca92939	0.02064954
213	0xbd80004c	-0.062500566
214	0xbd95c5c8	-0.073131144
215	0xbb0c47c5	-0.0021405083
216	0x3ca8ccfa	0.020605553
217	0x3c2ce70c	0.010553133
218	0x3d9f8b1f	0.07790207
219	0x3d9982a3	0.0749562
220	0xbcd392e3	-0.025826877
221	0xbd88e679	-0.06684584
222	0x3d0098f4	0.031395867
223	0x3d22cd9a	0.03974686
224	0xbd049d22	-0.032376416
225	0x3d201869	0.03908578
226	0x3d64ea12	0.05588729
227	0xbd05966d	-0.03261416
228	0x3cefaf58	0.029258415
229	0x3c50792b	0.012724201
230	0xbd901802	-0.07035829
231	0x3cf4b1c9	0.02986993
232	0x3d253473	0.040333223
233	0xbd83349f	-0.06406521
234	0xbd9006e5	-0.07032565
235	0xbd7adc5b	-0.061245304
236	0x3b02ae9d	0.0019940503
237	0xbcebdaf2	-0.028790925
238	0x3d30c6ca	0.04315833
239	0xbc8277f3	-0.015926337
240	0xbd78430e	-0.060610823
241	0xbc38962e	-0.011266274
242	0x3d53f787	0.051749732
243	0x3d636188	0.055512935
244	0xbcbc4485	-0.022981891
245	0x3d9753a0	0.07388997
246	0x3d7046a3	0.058661114
247	0x3d8a5068	0.067536175
248	0xbb8cab64	-0.0042928923
249	0x3c8c1406	0.017099392
250	0x3d0802f0	0.033205926
251	0x3d2f4e76	0.042799436
252	0xbd7fdaa4	-0.06246437
253	0xbcf5cdba	-0.030005325
254	0x3c1d8b46	0.009615725
255	0x3d635251	0.055498425

cnn_block.4.bias f4 [64]
0	0xbcc4384a	-0.023952622
1	0xbd8f4bb6	-0.069968626
2	0xbd5127fe	-0.05106353
3	0xbca9baf6	-0.020719033
4	0x3c5fb486	0.01365388
5	0x3c952b71	0.018209191
6	0xbce1e25d	-0.027573759
7	0xb9e1d777	-0.00043075878
8	0x3d0754ab	0.03303973
9	0xbceee7ef	-0.029163329
10	0xbbc43e9c	-0.005988909
11	0x3d67457a	0.056462742
12	0x3c0dc655	0.008653243
13	0x3d6cc6f1	0.057806913
14	0x3d985d1b	0.074396335
15	0x3cbdb27c	0.023156397
16	0x3ca36208	0.019944206
17	0xbd88a5d0	-0.06672251
18	0xbd87d9a1	-0.06633306
19	0x3d983613	0.07432189
20	0x3d9ecba7	0.07753687
21	0xbd1d96f7	-0.03847405
22	0x3d9e0746	0.07716231
23	0x3ce23035	0.027610878
24	0xbcce8e00	-0.025214195
25	0xbc9ded02	-0.019278053
26	0xbb5ca757	-0.0033669078
27	0x3ca18d34	0.019720651
28	0x3d531085	0.051529426
29	0x3bc90553	0.006134668
30	0xbcfe0639	-0.031008827
31	0xbd6f519f	-0.05842745
32	0x3d08cbf4	0.03339763
33	0x3d45bace	0.048273854
34	0x3d6641e2	0.056215174
35	0xbd472298	-0.048616976
36	0xbcf2a976	-0.02962182
37	0x3d8f5834	0.06999245
38	0x3cf665d5	0.030077854
39	0x3c850390	0.01623705
40	0xbd9e0613	-0.07716002
41	0x3d4f4334	0.0506012
42	0x3d9f7617	0.07786196
43	0x3d3393a7	0.043841984
44	0xbd86d91c	-0.06584379
45	0x3c951bad	0.018201673
46	0x3d96f8a2	0.07371642
47	0xbc40ce5e	-0.011767952
48	0xbd761a0a	-0.060083427
49	0x3aeccd19	0.0018066495
50	0xbd0a2ebf	-0.033735987
51	0xbbd29657	-0.0064266133
52	0xbd8c4e28	-0.068508446
53	0x3d7c4f1d	0.061598886
54	0x3d374886	0.044746898
55	0x3d3e28d0	0.04642564
56	0xbd69a7f9	-0.057044957
57	0x3d77220f	0.060335215
58	0xbcd229e8	-0.025654748
59	0xbcbe37ab	-0.023219904
60	0x3ca98021	0.02069098
61	0x3d9f3bde	0.07775091
62	0x3d3a48ea	0.045479693
63	0xbd8e8ede	-0.069608435

cnn_block.5.weight f4 [64]
0	0x3f8022d8	1.0010633
1	0x3f8013e4	1.000607
2	0x3f817b2f	1.0115718
3	0x3f80229f	1.0010566
4	0x3f7fb104	0.9987948
5	0x3f7fcb80	0.9991989
6	0x3f809bfc	1.0047603
7	0x3f80663e	1.0031202
8	0x3f80cc6b	1.0062383
9	0x3f7ef016	0.9958509
10	0x3f8051b0	1.0024929
11	0x3f7ded04	0.9918978
12	0x3f800852	1.0002539
13	0x3f7ff2fa	0.9998013
14	0x3f800c94	1.0003839
15	0x3f800ac0	1.0003281
16	0x3f800135	1.0000368
17	0x3f802a9d	1.0013005
18	0x3f7e3f41	0.9931527
19	0x3f80092c	1.0002799
20	0x3f80b875	1.0056292
21	0x3f8064ee	1.0030801
22	0x3f7ff5ec	0.9998462
23	0x3f805a6a	1.0027592
24	0x3f7fbe86	0.9990009
25	0x3f7ff504	0.9998324
26	0x3f7fe39a	0.9995667
27	0x3f80707b	1.0034326
28	0x3f7fe410	0.9995737
29	0x3f7f4541	0.9971505
30	0x3f817317	1.0113248
31	0x3f81218d	1.0088364
32	0x3f801b2d	1.0008293
33	0x3f7f1255	0.9963735
34	0x3f7fdac8	0.9994321
35	0x3f7fc73e	0.99913394
36	0x3f7ddc7f	0.99164575
37	0x3f817253	1.0113014
38	0x3f7f4a5f	0.99722856
39	0x3f801bd7	1.0008496
40	0x3f7d1e1e	0.9887408
41	0x3f7f3dc4	0.9970362
42	0x3f7f970e	0.99839866
43	0x3f8000c2	1.0000231
44	0x3f81a395	1.0128046
45	0x3f800373	1.0001053
46	0x3f7d7a68	0.990149
47	0x3f809f7c	1.0048671
48	0x3f7f0c5f	0.9962825
49	0x3f80112d	1.0005242
50	0x3f80194b	1.0007719
51	0x3f80007b	1.0000147
52	0x3f801002	1.0004885
53	0x3f800501	1.0001527
54	0x3f800d7e	1.0004117
55	0x3f801458	1.0006208
56	0x3f7e66fc	0.9937589
57	0x3f7e68cc	0.9937866
58	0x3f7e7a09	0.9940496
59	0x3f80661d	1.0031163
60	0x3f8069ef	1.0032328
61	0x3f7ebfa2	0.9951116
62	0x3f80607a	1.0029442
63	0x3f7d57cb	0.98962086

cnn_block.5.bias f4 [64]
0	0xb906bd8d	-0.00012849849
1	0x3a87ef17	0.0010370937
2	0xbb2a9f94	-0.0026035057
3	0x3a57afc6	0.00082277914
4	0xbb4a1a81	-0.0030838551
5	0xbab18c4c	-0.001354584
6	0xba5af75e	-0.00083529006
7	0xbb1151d8	-0.0022174027
8	0x3980f165	0.00024593915
9	0xbaab389e	-0.0013063138
10	0x3af6257b	0.0018779481
11	0xbb1b5986	-0.0023704483
12	0xb97f8b2f	-0.00024370545
13	0xba44e0eb	-0.0007510322
14	0x3a89658d	0.0010482535
15	0x3a6d9078	0.000906236
16	0xbab8bd9a	-0.0014094592
17	0x3aacc5ad	0.001318147
18	0xbae8f488	-0.0017773071
19	0xbb48fa86	-0.0030666902
20	0xba703d2d	-0.00091643893
21	0x3a6fa09a	0.0009141058
22	0xbb08cfdf	-0.0020875854
23	0x3b2a67bb	0.002600177
24	0xba9cfe08	-0.0011977563
25	0x3a937c5e	0.0011252274
26	0x3a3f379f	0.000729436
27	0xba5974c7	-0.0008295294
28	0xbab07902	-0.0013463798
29	0xbb351512	-0.0027630967
30	0xb9ddfabb	-0.00042339214
31	0xbaa2db6b	-0.0012425011
32	0x3b23947e	0.0024960334
33	0xba635b61	-0.00086729793
34	0xbabc529f	-0.0014367885
35	0xbb4bbb26	-0.003108689
36	0xbb690cdb	-0.003556064
37	0x39734059	0.00023198257
38	0xba92c766	-0.0011198341
39	0xb8b08bee	-8.418398e-05
40	0xbb524e5b	-0.003209016
41	0xbb1eda2b	-0.0024238925
42	0x3a16d6ac	0.00057540345
43	0x39d21fe4	0.00040078082
44	0xbb57d4de	-0.0032933275
45	0xbad3b2e4	-0.0016151336
46	0xbac00577	-0.0014650066
47	0xba54391e	-0.00080956693
48	0xb9e5b69d	-0.0004381434
49	0xba486b0f	-0.00076453475
50	0xbad043e7	-0.0015889377
51	0xb9c42e42	-0.00037418498
52	0xbaba4ea1	-0.0014214107
53	0x3952b471	0.0002009438
54	0xba0179a9	-0.0004939088
55	0x3a1656ed	0.0005734999
56	0xbaa45a36	-0.0012539092
57	0xba761f50	-0.0009388821
58	0xbb0593da	-0.0020382316
59	0xba8d5510	-0.0010782797
60	0x3b6d2105	0.0036183011
61	0xba81d82e	-0.0009906346
62	0x38f5dd44	0.00011723724
63	0xbbdd92af	-0.006761871

cnn_block.5.running_mean f4 [64]
0	0xbd9033d4	-0.070411354
1	0xbc91d303	-0.017800814
2	0x3e5f6cce	0.2181885
3	0x3ce426a1	0.027850451
4	0xbd425b47	-0.04745033
5	0xbde4702a	-0.11154206
6	0x3cbc5802	0.022991184
7	0xbe2710f0	-0.16315055
8	0x3e3969d6	0.1810678
9	0xbe008132	-0.12549284
10	0x3c85793b	0.016293159
11	0x3ec4d2ce	0.3844208
12	0xbcbcc440	-0.023042798
13	0x3e975cc4	0.29562962
14	0x3d6cf8ec	0.057854578
15	0xbe685702	-0.22689441
16	0x3d4a0eb4	0.04933043
17	0xbea53eeb	-0.32274565
18	0x3ecc53ea	0.3990777
19	0x3e4c1416	0.19929537
20	0x3ea99015	0.33117738
21	0x3c375944	0.011190716
22	0xbd86d258	-0.06583089
23	0xbd25e93e	-0.04050564
24	0xbdc0eaeb	-0.09419807
25	0xbe4e199b	-0.20126955
26	0xbd706c04	-0.05869676
27	0x3d02cd2d	0.031933952
28	0xbe7b8db5	-0.24565776
29	0x3e2c0365	0.1679817
30	0x3e90cae8	0.28279805
31	0xbd944169	-0.072390385
32	0xbe684587	-0.22682773
33	0x3e754027	0.23950253
34	0x3bfac6dd	0.007653101
35	0xbd9d527d	-0.07681749
36	0xbe407dc7	-0.1879798
37	0x3e86503a	0.26233083
38	0xbcc9f871	-0.024654599
39	0xbe24a4de	-0.16078517
40	0x3d535387	0.05159333
41	0x3e986497	0.29764244
42	0x3e9187eb	0.2842401
43	0xbdf875a6	-0.12131815
44	0x3d17cb33	0.03705902
45	0x3eb9fa34	0.36323702
46	0x3a5d674b	0.0008445873
47	0xbac6fa93	-0.0015180878
48	0x3df43c22	0.11925532
49	0x3da28805	0.079361
50	0xbd90012e	-0.07031475
51	0xbdd27e3c	-0.102779835
52	0xbe837002	-0.25671393
53	0x3da7a9c1	0.08186675
54	0x3e297aa0	0.16550684
55	0xbe04d98d	-0.12973614
56	0x3d1983ba	0.03747914
57	0x3ee9b835	0.4564835
58	0x3ca54c0e	0.020177867
59	0xbcc0915c	-0.023506813
60	0x3c10155f	0.008794158
61	0x3e80e914	0.25177824
62	0x3e23867d	0.15969272
63	0x3c273eeb	0.010207872

cnn_block.5.running_var f4 [64]
0	0x3ddbc65f	0.10731196
1	0x3e81b56e	0.25333732
2	0x3dc2ac67	0.095055394
3	0x3dece4fa	0.11567111
4	0x3e3dee23	0.18547873
5	0x3eb51027	0.35363886
6	0x3dc4fbf1	0.096183665
7	0x3e426f35	0.18987735
8	0x3d802f01	0.06258965
9	0x3e85fd44	0.2616979
10	0x3d9db442	0.07700397
11	0x3f0a72a2	0.54081166
12	0x3e32e1a3	0.17468886
13	0x3e716101	0.2357216
14	0x3d62eb07	0.05539992
15	0x3e7cd5aa	0.24690881
16	0x3dbcce68	0.09219056
17	0x3e915717	0.28386757
18	0x3e7982d1	0.24366309
19	0x3e43c361	0.191175
20	0x3ea0b747	0.3138983
21	0x3e8f1460	0.27945232
22	0x3dc68d97	0.09694975
23	0x3e99e6c4	0.30058873
24	0x3d95af02	0.07308771
25	0x3f110f71	0.56664187
26	0x3e7764e8	0.24159586
27	0x3d70205d	0.058624614
28	0x3ddfc0e5	0.109254636
29	0x3eabe090	0.33569765
30	0x3eee89df	0.46589562
31	0x3e0b49ed	0.13602419
32	0x3e0e9228	0.13922942
33	0x3dfd1b88	0.12358767
34	0x3e35340a	0.17695633
35	0x3dddaba3	0.10823753
36	0x3e672dc2	0.22576049
37	0x3e1a6e76	0.150812
38	0x3ed2a47e	0.41141123
39	0x3e25f4dc	0.16206688
40	0x3e8214b7	0.2540643
41	0x3de2b8f2	0.11070432
42	0x3e52d36f	0.20588468
43	0x3dc16b8f	0.09444343
44	0x3d67fd58	0.05663809
45	0x3e1c2641	0.15248968
46	0x3e18c9b2	0.1492069
47	0x3e931c73	0.28732643
48	0x3f5f614d	0.87257844
49	0x3d391b06	0.045191787
50	0x3e3b00e5	0.1826206
51	0x3e918673	0.2842289
52	0x3e8e8e35	0.2784287
53	0x3e956476	0.29178208
54	0x3e24d897	0.16098247
55	0x3d0fa508	0.035069495
56	0x3e8689ac	0.2627691
57	0x3f054e3d	0.5207251
58	0x3ee581c0	0.44825554
59	0x3e0566e8	0.13027537
60	0x3e342d1d	0.17595334
61	0x3e59467b	0.21218292
62	0x3e1e97c0	0.15487576
63	0x3e955807	0.29168722

fc.0.weight f4 [32, 64]
0	0x3dd5c0e3	0.10437181
1	0xbda52bc4	-0.08064988
2	0x3d9f318a	0.07773121
3	0x3d1befbc	0.038070425
4	0xbdcca961	-0.09993244
5	0xbd35fd77	-0.044431176
6	0xbdb8451c	-0.089975566
7	0xbdc3fc31	-0.09569586
8	0xbb73af0e	-0.0037183198
9	0xbdd54315	-0.104131855
10	0x3dc223ae	0.094794616
11	0x3cc42b64	0.023946472
12	0xbd99eb1a	-0.07515545
13	0xbd29d7c6	-0.041465543
14	0x3d601da0	0.054715753
15	0xbdb694d6	-0.08915107
16	0x3d87b8ff	0.06627082
17	0xbd1bab5f	-0.03800523
18	0x3da53fce	0.080688104
19	0x3cf94c08	0.030431762
20	0x3dd34251	0.10315383
21	0x3ddf390b	0.10899552
22	0xbdc820ee	-0.09771906
23	0xbcfa3a41	-0.030545356
24	0x3dc04a81	0.093892105
25	0xbd296ab9	-0.041361544
26	0x3d4df3a7	0.050281193
27	0xbcf533e2	-0.029931966
28	0xbdeb3261	-0.114842184
29	0xbdadfdff	-0.084957115
30	0x3d4ab7cf	0.0494917
31	0xbd78b848	-0.06072262
32	0xbd1e0779	-0.038581345
33	0x3d89a913	0.067217015
34	0xbd14d11d	-0.03633224
35	0x3de10485	0.1098719
36	0x3d750c55	0.059826214
37	0x3ce4b38d	0.027917648
38	0x3da8ab03	0.08235743
39	0xbda9358c	-0.082621664
40	0x3c237c63	0.009978387
41	0x3d25940f	0.040424403
42	0xbd065997	-0.032800283
43	0xbcd56a1f	-0.026051579
44	0x3da4a0d4	0.08038488
45	0x3cb3bc7a	0.021940459
46	0xbb8b4756	-0.0042504473
47	0x3dfe9fdd	0.12432835
48	0x3d85e71b	0.065382205
49	0xbd803e4f	-0.062618844
50	0x3d998d5b	0.074976645
51	0xbd1a89a2	-0.037728913
52	0xbdc1a30a	-0.09454925
53	0x3ccd533d	0.025064105
54	0xbdc1e610	-0.09467709
55	0xbd4dd156	-0.050248466
56	0x3dcf12fb	0.10111042
57	0x3df09c8a	0.117486075
58	0xbd2597b5	-0.040427882
59	0x3d530dce	0.051526837
60	0x3db2d122	0.08731295
61	0xbd6a683a	-0.057228304
62	0xbdfdd089	-0.123932905
63	0x3dda5a05	0.10661701
64	0x3c8fddd1	0.017561825
65	0xbbb2e73f	-0.0054596956
66	0x3da70ff9	0.081573434
67	0x3d5ca06b	0.053863924
68	0x3dcd7f82	0.10034086
69	0xbd489224	-0.048967496
70	0x3d6d9b9e	0.058009736
71	0x3dc33103	0.095308326
72	0x3e04e9b4	0.12979776
73	0xbd5c6895	-0.053810675
74	0x3d9ff9cc	0.07811317
75	0xbd5969bd	-0.053079356
76	0x3d7f75c9	0.062368188
77	0x3cf91b05	0.030408392
78	0x3ddca75a	0.10774107
79	0x3d9175fe	0.07102583
80	0xbca5f05d	-0.020256216
81	0xbdc7f9d5	-0.097644486
82	0x3b7002bd	0.0036622726
83	0x3d8333a7	0.06406336
84	0x3dd5f663	0.10447385
85	0x3c1768a8	0.009241261
86	0xbabd806d	-0.001445783
87	0xbdbc10d7	-0.091828994
88	0x3cc10819	0.023563432
89	0x3c9dd986	0.019268762
90	0x3bf9bdeb	0.007621517
91	0xbde88b59	-0.113547035
92	0x3bb4fdc1	0.005523414
93	0x3d371a59	0.04470286
94	0xbdb669db	-0.08906909
95	0xbdf80401	-0.12110139
96	0x3d6973e5	0.05699529
97	0xbd74ffc3	-0.059814226
98	0xbd851652	-0.06498398
99	0x3c9f66f5	0.019458273
100	0xbc91feb5	-0.01782165
101	0x3df840b9	0.1212172
102	0x3b20a7d6	0.00245141
103	0xbdcaae00	-0.09896469
104	0x3db5f108	0.08883864
105	0x3cb48347	0.022035254
106	0x3cfa45c8	0.030550852
107	0xbdc2769f	-0.094952814
108	0x3e1993ae	0.14997742
109	0xbc4ad676	-0.012380233
110	0xbc7f9a48	-0.015600748
111	0x3d87fd2e	0.06640087
112	0x3b6652a6	0.0035144477
113	0x3dd3698a	0.10322864
114	0x3d968680	0.073498726
115	0x3d42ebb7	0.047588076
116	0xbd3f7d67	-0.046750452
117	0xbd34b464	-0.044117346
118	0xbd90662d	-0.070507385
119	0x3dbb76ad	0.09153495
120	0x3d919dd9	0.07110185
121	0xbda0f163	-0.07858541
122	0xbd14bd6a	-0.03631345
123	0xbce8ddb1	-0.028426023
124	0xba7b04d7	-0.00095756113
125	0x3c9b5e8e	0.018965986
126	0x3ce13996	0.02749328
127	0xbdc4e1fe	-0.09613417
128	0x3d34635e	0.044040076
129	0xbcf9e8ec	-0.030506574
130	0xbdc2ccf3	-0.09511747
131	0xbc52106c	-0.012821298
132	0xbd4b3e59	-0.049620006
133	0xbd43a7fc	-0.047767624
134	0xbd8a9f8b	-0.06768712
135	0x3dff5329	0.124670334
136	0x3d82993b	0.06376883
137	0xbdbdb228	-0.09262496
138	0x3df4381a	0.11924763
139	0x3dedc840	0.1161046
140	0xbdc4b97a	-0.09605689
141	0x3d81bd53	0.06334939
142	0x3d02693b	0.031838637
143	0xba9affe6	-0.0011825531
144	0x3db88383	0.09009459
145	0x3da2820a	0.07934959
146	0x3de285ae	0.110606536
147	0xbdd07206	-0.10177998
148	0xbdc39433	-0.09549751
149	0xbdf5f1cc	-0.1200901
150	0x3dd71f0b	0.10503968
151	0x3cfb4a1e	0.03067499
152	0x3d87a878	0.0662393
153	0xbd8865c4	-0.06660035
154	0xbbd20273	-0.0064089834
155	0x3d809fa8	0.06280452
156	0xbdc2822a	-0.09497483
157	0x3b95f91f	0.0045768167
158	0xbd0b8ccf	-0.034069832
159	0x3e03e3e0	0.12879896
160	0x3ddf0860	0.10890269
161	0xbd787a99	-0.060663793
162	0x3c85978e	0.016307618
163	0xbc0540b5	-0.008133103
164	0x3d915115	0.07095543
165	0x3d4e85c2	0.05042053
166	0x3d1aa537	0.037755217
167	0xbb64f9b8	-0.0034938883
168	0xbd97a9ea	-0.074054554
169	0x3d48ab7c	0.048991665
170	0xbabde1f1	-0.0014486891
171	0x3d845c6a	0.06462939
172	0x3df71f23	0.12066486
173	0x3d5801c3	0.052736055
174	0x3dee793f	0.116442196
175	0x3e059045	0.13043316
176	0xbdf59957	-0.11992138
177	0xbdad4556	-0.084604904
178	0xbcdcba43	-0.026944285
179	0x3c0904dd	0.008362976
180	0xbda2f1c1	-0.07956267
181	0xbdc6f2d3	-0.09714284
182	0xbdb8b025	-0.09017972
183	0xbd743b22	-0.059626706
184	0x3d8103fd	0.06299589
185	0xbdd8a643	-0.10578587
186	0xbdd8141d	-0.10550711
187	0xbdb24230	-0.087040305
188	0x3c047873	0.008085358
189	0x3dbf1bdb	0.09331485
190	0x3daacda9	0.08340008
191	0x3d782ce1	0.060589675
192	0xbdbdd7ea	-0.09269698
193	0xbcb92b44	-0.022603638
194	0x3d954645	0.072887935
195	0xbd086428	-0.03329864
196	0xbac5aad8	-0.0015080823
197	0x3d8c9e33	0.068661116
198	0x3dc7bd55	0.09752909
199	0x3c291167	0.01031909
200	0x3c2bba46	0.010481423
201	0xbd5ace1d	-0.05341922
202	0x3db1f17e	0.08688639
203	0xbdb4ed0f	-0.08834278
204	0xbdac4b4c	-0.08412799
205	0x3d088821	0.033332948
206	0x3adcc93d	0.0016844642
207	0xbd25c52f	-0.040471252
208	0xbdf45d1e	-0.11931823
209	0x3df84b2a	0.121237114
210	0xbdf709e7	-0.120624356
211	0xbc76f8c4	-0.015073959
212	0xbdafbea9	-0.085812874
213	0xbdb5ca89	-0.08876521
214	0x3ca04a49	0.019566672
215	0xbbce80ab	-0.0063019595
216	0x3da58fa4	0.08084038
217	0xbcf2d32b	-0.029641708
218	0xbdaff99c	-0.08592531
219	0xbd600ef3	-0.054701757
220	0xbcef3574	-0.029200293
221	0x3da54ea6	0.080716416
222	0xbdd7ab37	-0.105307035
223	0x3dd594e7	0.104287915
224	0xbddda3ce	-0.10822259
225	0x3ab18f40	0.001354672
226	0x3d8fdda5	0.07024697
227	0x3da70a5f	0.08156275
228	0x3c82470e	0.015903022
229	0x3dd296eb	0.102826916
230	0xbc58efb5	-0.013240744
231	0xbdd9585b	-0.106125556
232	0x3b917648	0.004439149
233	0xbce07a17	-0.027401967
234	0x3d777ee1	0.060423736
235	0xbdccc191	-0.09997857
236	0x3d8e828e	0.06958495
237	0xbc213df0	-0.009841427
238	0xbd67d147	-0.056596067
239	0x3d15424a	0.03644017
240	0x3d27b85c	0.040947303
241	0xbc6cef4b	-0.014461349
242	0x3b30420b	0.0026894833
243	0xbd10dff7	-0.03536984
244	0xbdb72d75	-0.08944217
245	0xbd55e2a9	-0.052218113
246	0xbdb8d74b	-0.09025439
247	0x3d3dd2e5	0.046343703
248	0x3db05175	0.08609287
249	0x3d3fcaa4	0.046824113
250	0x3d1b4bc8	0.037914068
251	0x3d2f0fed	0.042739797
252	0x3dde757e	0.108622536
253	0x3dd1a3c8	0.10236317
254	0x3a65e1eb	0.0008769321
255	0x3ca74212	0.020417247

fc.0.bias f4 [32]
0	0x3d86634c	0.06561908
1	0xbdf461b8	-0.11932701
2	0x3db18868	0.086685956
3	0x3cbcc6c0	0.02304399
4	0xbd5c67fe	-0.053810112
5	0xbcbaeec0	-0.022818923
6	0xbd7f5280	-0.062334538
7	0xbd2c9c21	-0.042141084
8	0xbd93a82c	-0.072098106
9	0x3d8ea24c	0.069645494
10	0xbdff677a	-0.124709085
11	0x3dd37faa	0.10327084
12	0x3deb4ef4	0.114896685
13	0xbccd3c9d	-0.025053317
14	0x3d03563f	0.032064673
15	0x3bf46e60	0.007459447
16	0xbcd700d8	-0.02624552
17	0x3cdd3316	0.027001899
18	0x3d9513aa	0.07279141
19	0xbde406da	-0.11134119
20	0x3b159545	0.0022824567
21	0xbdc00abe	-0.09377049
22	0x3df86b57	0.121298485
23	0xbdf6a244	-0.120426685
24	0x3d25d560	0.040486693
25	0x3d258c72	0.040417142
26	0x3dd47876	0.103745386
27	0xbd658d55	-0.056042988
28	0x3c0042ab	0.007828395
29	0x3ddd922d	0.108188964
30	0xbde78aac	-0.113057464
31	0x3c0a194f	0.008428886

fc.1.weight f4 [32]
0	0x3f805c65	1.0028197
1	0x3f8361b9	1.0264198
2	0x3f86247a	1.0479882
3	0x3f7d3d19	0.9892135
4	0x3f85e01d	1.0459019
5	0x3f850c22	1.0394328
6	0x3f8819f1	1.0632917
7	0x3f817f5a	1.011699
8	0x3f7fa102	0.99855053
9	0x3f79caa6	0.9757484
10	0x3f83f585	1.0309302
11	0x3f852f17	1.0404996
12	0x3f877cdd	1.058498
13	0x3f835a24	1.0261884
14	0x3f83f473	1.0308975
15	0x3f808401	1.0040284
16	0x3f800798	1.0002317
17	0x3f8a4972	1.0803664
18	0x3f82c519	1.02164
19	0x3f8329f0	1.0247173
20	0x3f81c3cb	1.0137876
21	0x3f8daead	1.1068932
22	0x3f8dfb96	1.1092403
23	0x3f820285	1.0157019
24	0x3f7ba630	0.98300457
25	0x3f85434c	1.0411162
26	0x3f8644bb	1.0489725
27	0x3f8ac4a9	1.0841266
28	0x3f84fdb7	1.0389928
29	0x3f8b810f	1.089876
30	0x3f8128a9	1.0090533
31	0x3f87c882	1.0608065

fc.1.bias f4 [32]
0	0x3d4e1150	0.05030948
1	0x3cba1ccb	0.022718808
2	0x3d603e5b	0.054746967
3	0xbcdf0e84	-0.027228601
4	0x3df3736b	0.118872486
5	0x3d839402	0.064247146
6	0x3e127773	0.14303379
7	0xbcd9f920	-0.02660805
8	0x3d6a167e	0.057150356
9	0xbd07fcf5	-0.033200223
10	0x3d82a3df	0.06378912
11	0x3de77d80	0.11303234
12	0x3e0ffa93	0.1406043
13	0x3da56d18	0.080774486
14	0x3daf688f	0.08564865
15	0x3d4efb4b	0.05053262
16	0xbcce4a92	-0.025182042
17	0x3e170bc3	0.1475058
18	0x3c8293c1	0.015939595
19	0x3d5668a0	0.052345872
20	0x3d1e2e59	0.03861842
21	0x3e24fa6d	0.16111155
22	0x3e22671d	0.15859647
23	0xbd21182b	-0.03932969
24	0xbd1bb30f	-0.03801256
25	0x3d7fbe91	0.062437598
26	0x3dc33a50	0.095326066
27	0x3e1728cc	0.14761657
28	0x3daea182	0.08526899
29	0x3dac39cc	0.084094614
30	0x3d95fa59	0.07323141
31	0x3ddd17d8	0.107955635

fc.1.running_mean f4 [32]
0	0x3db2886d	0.087174274
1	0x3c87fefd	0.01660108
2	0x3e173dfe	0.14769742
3	0xbd12ed6b	-0.03587095
4	0x3dbfa466	0.093575284
5	0xbe1c49ce	-0.15262529
6	0xbdd0430a	-0.10169037
7	0xbbb66d24	-0.00556721
8	0x3deec2cb	0.116582476
9	0x3d389d89	0.045072112
10	0xbe8b2097	-0.27173302
11	0xbc38933a	-0.01126557
12	0x3e47984f	0.19491695
13	0x3e61d943	0.22055535
14	0x3dfd8888	0.12379557
15	0x3e1f0027	0.15527402
16	0x3e17c222	0.1482015
17	0xbce95166	-0.028481197
18	0x3e76c20b	0.24097459
19	0xbdd8f751	-0.10594047
20	0xbd5149ec	-0.051095888
21	0xbd27a5c4	-0.04092957
22	0x3e92a060	0.2863798
23	0xbd90dc3b	-0.07073256
24	0xbe74b17a	-0.23895827
25	0x3e9f1000	0.31066895
26	0x3e1256c4	0.14290911
27	0xbd959895	-0.07304493
28	0x3cf62932	0.03004894
29	0x3e2e5c2b	0.17027347
30	0xbe5f6702	-0.21816638
31	0xbc2aec54	-0.010432322

fc.1.running_var f4 [32]
0	0x3b15c542	0.002285317
1	0x3a6612e3	0.0008776618
2	0x3bdc80cb	0.0067292205
3	0x3bc1c5fc	0.005913494
4	0x3b36ca7d	0.0027891689
5	0x3c730493	0.014832634
6	0x3aff34b1	0.0019470659
7	0x3a68a250	0.0008874284
8	0x3d0070da	0.031357624
9	0x3b4204d3	0.0029604926
10	0x3c912971	0.017719956
11	0x3caf3565	0.021387765
12	0x3ad69455	0.0016371111
13	0x3aa94bdd	0.0012916286
14	0x3ab2953a	0.0013624795
15	0x3c949b40	0.018140435
16	0x3ca45ea3	0.020064658
17	0x3b15de37	0.0022868046
18	0x3c876fe4	0.016532846
19	0x3b03c23a	0.0020104782
20	0x3ced44b4	0.028963424
21	0x3b916924	0.0044375826
22	0x3b3106a8	0.0027012024
23	0x3c8adb78	0.016950354
24	0x3ce4c5d4	0.027926363
25	0x3a5a38fe	0.00083245325
26	0x3b4ddde9	0.0031412786
27	0x3ac64643	0.0015127141
28	0x3ad14b04	0.0015967791
29	0x3b009e19	0.0019625484
30	0x3c710713	0.014711159
31	0x3b32c585	0.0027278375

fc.3.weight f4 [10, 32]
0	0xbc9d0f3a	-0.0191723
1	0xbd845e1d	-0.06463263
2	0x3ea7b952	0.32758576
3	0x3c006d71	0.007838593
4	0xbd367ce6	-0.044552706
5	0xbb3bfaaa	-0.0028683343
6	0x3ea1dc67	0.31613466
7	0x3e546f35	0.20745547
8	0xbddb634d	-0.107122995
9	0x3ddf83aa	0.10913785
10	0x3da3d46b	0.079995
11	0x3e6bf968	0.2304436
12	0x3e4c87e0	0.19973707
13	0xbd9c7b90	-0.07640755
14	0x3e19bf02	0.1501427
15	0xbd833079	-0.0640573
16	0xbca9b896	-0.0207179
17	0x3e9bacb0	0.30405188
18	0xbbce32a8	-0.00629266
19	0x3d24f9d0	0.040277302
20	0x3dcae98b	0.09907826
21	0x3e6e86de	0.23293635
22	0x3ea0b183	0.3138543
23	0x3e00c5fd	0.12575527
24	0xbd1fbf9e	-0.0390011
25	0x3e1e910f	0.15485023
26	0x3e480174	0.19531804
27	0x3ec49e31	0.3840194
28	0x3dd29e70	0.10284126
29	0x3e20d259	0.15705241
30	0x3e31c9f2	0.17362192
31	0x3e109058	0.14117563
32	0xbd1df1ae	-0.03856056
33	0x3dae02f8	0.0849666
34	0x3db7bca9	0.08971531
35	0x3cb4f42d	0.022089088
36	0xbe37764c	-0.1791622
37	0xbd524667	-0.051336672
38	0xbe12fa5d	-0.14353319
39	0x3b8b4815	0.004250536
40	0xbdd04eda	-0.1017129
41	0xbd8ee3af	-0.06977021
42	0x3dd78f29	0.105253525
43	0xbe2d8ccd	-0.16948242
44	0xbd96c7e2	-0.07362343
45	0x3e7709e9	0.24124874
46	0xbbaabbbc	-0.005210368
47	0x3c8dabdc	0.017293863
48	0x3d8b299c	0.06795046
49	0xbd16f911	-0.036858622
50	0xbd9dcefb	-0.07705494
51	0x3da99496	0.08280294
52	0xbce2d4a6	-0.02768929
53	0xbea754b5	-0.32681814
54	0xbe0007e6	-0.12503013
55	0x3e1c40ce	0.15259096
56	0x3a8c0bb1	0.0010684637
57	0xbe0bfb96	-0.13670191
58	0xbd821387	-0.06351381
59	0xbe660bbc	-0.22465414
60	0x3d921b5d	0.071341254
61	0xbe5d23a5	-0.21595629
62	0xbd9768d7	-0.073930435
63	0xbe701f81	-0.23449518
64	0x3de97cf5	0.11400787
65	0xbda656f2	-0.08122052
66	0x3d603c6e	0.05474513
67	0x3c9ae525	0.018908093
68	0x3def8a2b	0.11696275
69	0xbe33a095	-0.17541726
70	0xbddfc018	-0.10925311
71	0xbdcd20f9	-0.10016055
72	0xbbc26912	-0.0059329355
73	0xbd923be7	-0.07140332
74	0xbd9e6302	-0.07733728
75	0xbe08529b	-0.13312761
76	0xbd84b392	-0.06479563
77	0x3e2c43b3	0.168227
78	0x3e985e8b	0.2975963
79	0x3d8ad2e9	0.06778509
80	0xbdc0d2b6	-0.0941519
81	0x3e220a96	0.1582435
82	0xbe1d7f4a	-0.15380588
83	0x3d91b476	0.07114498
84	0x3d5187fc	0.051155075
85	0x3e9bc11f	0.30420777
86	0x3e8de43a	0.27713186
87	0xbe29af15	-0.16570695
88	0xbdbadcc6	-0.091241404
89	0xbe25f856	-0.16208014
90	0xbe56d64c	-0.20980185
91	0x3e4c1158	0.19928491
92	0x3d374edf	0.04475295
93	0x3eaf4997	0.34235832
94	0x3bb059c7	0.005381796
95	0x3d209db9	0.039212916
96	0x3df73bad	0.12071929
97	0x3e8c6ac7	0.27425215
98	0x3e40753c	0.18794721
99	0x3e604918	0.21902883
100	0xbe0db9b0	-0.13840365
101	0x3e650187	0.22363864
102	0x3d827711	0.06370366
103	0xbcf7fa18	-0.030270621
104	0x3e011085	0.12603958
105	0x3b396872	0.0028291014
106	0x3e155d7e	0.14586446
107	0x3db1399e	0.08653568
108	0x3e15a077	0.14611994
109	0xbd469c10	-0.048488677
110	0xbd680cdb	-0.056652885
111	0x3da3f8c3	0.08006432
112	0xbde44c9c	-0.111474246
113	0x3de98a59	0.11403341
114	0xbe25dc2d	-0.16197272
115	0xbc8b821b	-0.017029813
116	0x3d80ebd7	0.06294983
117	0xbda8b45e	-0.08237527
118	0x3d98c624	0.07459667
119	0xbde75733	-0.11295929
120	0x3e491a88	0.19639027
121	0xbc9cc33b	-0.019136062
122	0x3e030b88	0.12797368
123	0x3dab5c73	0.08367243
124	0xbdb92623	-0.09040477
125	0x3bda04cd	0.0066534043
126	0x3e0c980a	0.13729873
127	0x3e366ce9	0.17814983
128	0xbdc5b17e	-0.096529946
129	0x3d4e8ecc	0.05042915
130	0x3ba72a3f	0.0051014717
131	0xbd4f5c27	-0.050624993
132	0xbdb0d8f7	-0.08635133
133	0xbe8270a0	-0.2547655
134	0xbe677373	-0.22602634
135	0x3d055b60	0.032557845
136	0x3d5ba465	0.053623576
137	0x3db2f9fa	0.087390855
138	0xbe36f0a8	-0.1786524
139	0xbdd457ff	-0.103683464
140	0xbdf7ba07	-0.12096029
141	0x3db5c1ff	0.088748924
142	0xbdb73887	-0.089463286
143	0xbe41ff30	-0.18945003
144	0x3cb2b1de	0.02181333
145	0xbe59facd	-0.21287079
146	0x3d9465b8	0.07245964
147	0xbdf7e015	-0.12103287
148	0x3ca49b87	0.020093692
149	0xbe7211ec	-0.23639649
150	0xbe55ec1d	-0.20890851
151	0x3ccaaa76	0.024739485
152	0xbd22d987	-0.03975823
153	0xbe27aa58	-0.16373575
154	0xbe01d04d	-0.12677117
155	0xbcb2c9af	-0.021824686
156	0xbe17bc2d	-0.14817877
157	0xbdf92a2f	-0.12166249
158	0xbdcb5a16	-0.09929292
159	0x3d6c565b	0.057699542
160	0x3d7e39a2	0.06206668
161	0xbe227c68	-0.1586777
162	0xbdc8b43b	-0.09800001
163	0x3dc26471	0.09491814
164	0xbbdfa6e4	-0.006825315
165	0xbced9d23	-0.029005593
166	0xbc9f0360	-0.019410789
167	0x3de56e21	0.11202646
168	0xbcbbab72	-0.0229089
169	0xbc43fc04	-0.011961941
170	0xbe584856	-0.21121344
171	0x3d8a7b94	0.06761852
172	0xbe81de01	-0.25364688
173	0x3cf1c183	0.029511219
174	0xbe1a22db	-0.15052359
175	0x3deb7bf1	0.11498249
176	0x3cc57b5c	0.024106674
177	0xbe90b0fa	-0.28260022
178	0x3e4adf5d	0.19811769
179	0x3daf9942	0.085741535
180	0x3d3c674e	0.045996957
181	0xbe04ad2d	-0.12956686
182	0xbe811586	-0.25211734
183	0x3b39f6d5	0.0028375883
184	0x3cee581c	0.029094748
185	0xbd809579	-0.0627851
186	0xbd8ab050	-0.0677191
187	0xbe6dfcd1	-0.23240973
188	0xbdb6efe7	-0.089324765
189	0xbc817252	-0.015801582
190	0x3d88ad75	0.06673709
191	0xbe7f7591	-0.24947192
192	0xbdd0d2b4	-0.101964384
193	0xbe848dc6	-0.25889415
194	0x3d99ab4e	0.07503377
195	0x3e17bb62	0.14817575
196	0x3dabd100	0.08389473
197	0xbd8bdaf2	-0.0682887
198	0xbde6e090	-0.11273301
199	0x3dc66d32	0.09688796
200	0xbe761656	-0.24031958
201	0xbd9577b0	-0.07298219
202	0x3e375576	0.17903695
203	0x3cbb888c	0.022892259
204	0x3e5f6584	0.21816069
205	0xbe14bdff	-0.14525603
206	0xbe780cd3	-0.24223642
207	0xbe27f16f	-0.16400693
208	0xbdd5ba46	-0.104359195
209	0x3d55aafc	0.052165017
210	0xbe168e3a	-0.14702693
211	0xbd2f26c5	-0.042761583
212	0x3d0f67ca	0.03501109
213	0xbdeb8c2b	-0.11501344
214	0x3dce08db	0.10060283
215	0xbd175108	-0.03694251
216	0x3df195f9	0.11796183
217	0x3e5a45c6	0.21315679
218	0x3d9d3010	0.07675183
219	0x3deeeaae	0.11665855
220	0x3caf3766	0.02138872
221	0xbe13616b	-0.14392631
222	0x3d2d4d05	0.04230978
223	0x3db08f72	0.0862111
224	0xbd1e81c6	-0.03869798
225	0x3c2b2d17	0.010447762
226	0xbdd29fd5	-0.10284392
227	0xbbb638ff	-0.0055609937
228	0x3e921a62	0.28535753
229	0x3da804fc	0.08204076
230	0xbe1d5226	-0.15363368
231	0xbc4e4493	-0.012589592
232	0xbd1a829b	-0.03772221
233	0x3daeb7ab	0.08531126
234	0xbe206214	-0.15662414
235	0xbe1b437f	-0.15162466
236	0xbe31bf32	-0.17358091
237	0x3dfb9cbd	0.12285755
238	0x3e152197	0.14563595
239	0xbdaa9ecc	-0.08331069
240	0xbd986189	-0.07440478
241	0x3e1af3e5	0.15132101
242	0x3e22f4cc	0.15913695
243	0x3e6b4205	0.22974403
244	0xbe027646	-0.1274043
245	0x3d8ef57f	0.069804184
246	0xbcb61057	-0.022224588
247	0x3db930fa	0.09042545
248	0xbcfe9231	-0.031075569
249	0xbe11d07e	-0.1423969
250	0x3c2970a4	0.010341797
251	0xbe1aa1e9	-0.15100826
252	0xbdf80dcb	-0.12112006
253	0x3dcbf34c	0.099585146
254	0xbe6770fa	-0.22601691
255	0x3e01b6cb	0.12667386

fc.3.bias f4 [10]
0	0x3ed5fa47	0.4179251
1	0xbe71eea5	-0.23626192
2	0x3e5de68f	0.21669982
3	0xbcc37d03	-0.023863321
4	0xbe4c7fbc	-0.19970602
5	0xbeaab9a1	-0.3334475
6	0xbe34917c	-0.17633623
7	0x3d8ee2a4	0.06976822
8	0x3d8e934b	0.06961688
9	0xbe7e3f3f	-0.24828814
