saved/building_cnn_raw_geoms.pth (torch, 64410 bytes, 20 tensors)

cnn_block.0.weight f4 [32, 5, 5]
00000000: a863 443c c47b 34be 6574 043e f4fc ffbc
00000010: bab2 15be 9f2a 043e f0f0 803d 818c 13bd
00000020: 8c2e a73d 2e00 d0bd 995b bd3c a5e7 b8bd
00000030: adb8 27bd c0db 2cbc 2440 c03d 6d25 1bbd
00000040: 73ed eebd 5a58 16bd 08f7 453e 3312 dd3c
00000050: e157 86bd 3a28 47be f828 923d 83b5 b63c
00000060: 55c5 b33d 61c4 c4bd 7475 793d a6a1 2abe
00000070: 2925 e9bd 877d 9abd 4e17 4b3e 2c4c 97bd
00000080: cd1d 203e 9383 cb3d e877 d0bc 30ef 35bd
00000090: 340a 58bd 9406 3fbe 04ca aebd 17d6 093e
000000a0: bddf ebbd 2717 483e e7ee 693d 3b71 153e
000000b0: 6b4d 49be a7d4 9ebd c0a8 363e 4ef1 90bd
000000c0: 52f5 273e 008b 173e 9e35 6bbd 8204 903c
000000d0: 02c1 2f3e f02b 953c a8f8 09be e960 0ebd
000000e0: 400c 73bd 486e a63d ca6a febd d806 a63d
000000f0: 7895 923d ce7d d43d 553a 3cbc fb6d dcbd
00000100: 855f db3d cd14 6ebd b057 8dbd 988c 393e
00000110: ba05 0dbe f389 a0bc e622 153e 8d4e 453d
00000120: d1f2 3c3e 2317 b73d 82ab 243e 0cb5 cc3b
00000130: 8993 4e3e 3969 5abd c989 043e 2448 0f3e
00000140: c854 26be 0f55 8fbc 51da f33d 5ff4 e93d
00000150: f41c 473e 0076 26be cba5 173e 75be 41be
00000160: 12a8 5fbd 4143 30be 955b 37be 0a12 dcbd
00000170: cd18 603c 7348 b83c 0054 4f3c 8c47 083e
00000180: 084c 883d 2a68 933b 491e 2aba 528a 47be
00000190: d027 a8bd c6eb 3e3e 0ad7 91bd 69bb abbc
000001a0: 3966 293e 08b2 b6bd a1c3 cfbc 710f 443e
000001b0: bd15 3dbe 2229 333d 5161 123e e50a 273c
000001c0: a25a 983c 8b0c aa3d 040f d2bd 7222 493e
000001d0: 08ee 473e 1788 f43d bf48 4a3e 8dd3 9fbd
000001e0: e4a9 d63d 24cb ccbd f8ea 2c3e cb2c 563d
000001f0: 5f00 373e eb36 02bd 1d12 92bc 2b02 44be
00000200: 2c62 dbbb 72a8 303d d70d e6bd 6512 06be
00000210: afef 17be fc05 eb3d 53f5 40be e4e8 c33c
00000220: 0918 123e 8679 0dbe eb6f 1cbe ab77 4dbb
00000230: b503 233e 67be ddbb da96 eebc fd8a 9e3d
00000240: 9ded 96bd eb42 8cbd 9cc3 9e3d b7b5 efbd
00000250: b74a 233e ae3f 853d 71d9 163e 53a5 0dbe
00000260: c4b8 363e 82a0 fd3d 526e dcbc 0dae 363e
00000270: 7746 143d 5092 163c 3811 e13c a761 34be
00000280: 2079 b33d fee6 65bc 7ea7 f8bd 8a0a a3bd
00000290: cf21 32be 4398 183e adfe 95bd f30e 0dbe
000002a0: 93a7 55bd f70a 1cbe dafd 23be 7285 4f3d
000002b0: 6f3c 2cbd 1ab4 393e 9bea f3bd 61e1 22be
000002c0: 18f5 c4bd 3ca5 963d 662c efbd 37ec e9bd
000002d0: b1d5 0bbe 2c52 a3bd caa8 93bd 149e a1bd
000002e0: 4ffe 353e e170 023d 3fb1 03bc 6865 083c
000002f0: 30e5 f93d ae43 b5bd 401d 4cbe d233 43be
00000300: a0a5 0dbd a0db b33d 8754 00bd f1ed df3c
00000310: 22d8 033e 5f16 aabd 30f4 32be 37ea 443e
00000320: c953 c43d bb6e 6fbd 5a2b 6abe c378 363c
00000330: bd15 29be 12a9 223d 53b4 bbbd 2351 4e3d
00000340: 2da1 87bd d41b 403e 7393 413e f9fc 48be
00000350: 85d7 f53d 1572 33bc 6872 33bd e374 fabd
00000360: 4d34 e73c 3211 40be bab1 333e e251 443e
00000370: 299e 06be 6756 423e 8911 1abd 980a 86bb
00000380: 9960 32be 6e5b 273e 5e63 af3d 099c 473a
00000390: 08a6 01bd 4f5a 153e 6ce7 43be 59b9 ad3d
000003a0: 8654 ffbd 7325 433e 95de 14be 5282 3b3e
000003b0: 0a92 363e 0199 0d3e 1c7a e5bc 6d51 05be
000003c0: 9250 46be fad5 7dbd e723 d1bd bf21 1abe
000003d0: 67a7 6fbc 50c3 763d 19b9 813d 180b 273e
000003e0: 2790 36be 0cfd 843d 3368 113e 438b 82bd
000003f0: 3bf8 c63c 06d7 a0bd 0ecb bcbd d017 193e
0.0119866505 -0.17625338 0.12935026 -0.031248547 -0.1461896 0.12906884 0.06295955 -0.036022667
0.08163175 -0.10156284 0.023114966 -0.09028558 -0.040947605 -0.010550439 0.09387234 -0.03787749
-0.116663836 -0.036705352 0.19332516 0.026986217 -0.0655973 -0.19448939 0.071367204 0.022303348
0.087778725 -0.09607769 0.060903028 -0.16663226 -0.11384041 -0.07543474 0.19833109 -0.073875755
0.15636368 0.09937205 -0.0254478 -0.04441756 -0.052744105 -0.18654853 -0.08534625 0.13460575
-0.11517284 0.19540082 0.0571126 0.14593975 -0.19658439 -0.07755404 0.1783781 -0.07077275
0.16402176 0.14799118 -0.05742418 0.017580274 0.1716347 0.018209428 -0.13473761 -0.03476039
-0.059337854 0.08126503 -0.12422712 0.08106774 0.07157415 0.10375558 -0.011488517 -0.107631646
0.10711578 -0.058125306 -0.06901491 0.18120039 -0.13771716 -0.01959703 0.14564094 0.048170615
0.18452002 0.0893996 0.1608105 0.0062471684 0.20173468 -0.053323004 0.12943186 0.13992363
-0.16243279 -0.017496614 0.11906875 0.11423563 0.19444638 -0.16255951 0.14809339 -0.1892031
-0.054603644 -0.17213155 -0.1790603 -0.10745628 0.013677788 0.022495484 0.0126543045 0.13308543
0.06655127 0.0044985013 -0.0006489498 -0.19486359 -0.08210719 0.18644628 -0.071210936 -0.020963388
0.16542901 -0.089206755 -0.025361838 0.19146515 -0.18465324 0.0437404 0.14294936 0.010195469
0.018597905 0.08303174 -0.1025677 0.19642046 0.19524395 0.119400196 0.19754313 -0.07804022
0.10481623 -0.099996835 0.16886508 0.05228881 0.17871235 -0.031790655 -0.017830903 -0.19141452
-0.0066950526 0.043129392 -0.112331085 -0.13092954 -0.14837526 0.11475751 -0.18843584 0.023914762
0.14266981 -0.13815889 -0.15277068 -0.0031351845 0.15919383 -0.0067670825 -0.029124666 0.07741354
-0.0736954 -0.06848701 0.07752153 -0.11704581 0.1594647 0.065062866 0.14731385 -0.13832597
0.1784392 0.1238413 -0.026908074 0.17839833 0.036200013 0.009190157 0.02747403 -0.17615376
0.08763337 -0.014032124 -0.121413216 -0.079609945 -0.1739571 0.14901833 -0.07323966 -0.13775234
-0.052161764 -0.15238558 -0.16014805 0.050664373 -0.04204982 0.1813511 -0.11909982 -0.15906288
-0.096170604 0.07355735 -0.1167839 -0.114220075 -0.13655736 -0.079746574 -0.07209928 -0.07891479
0.17772792 0.03184593 -0.008037864 0.008324958 0.12201917 -0.088507995 -0.19933033 -0.19062737
-0.03458178 0.087821245 -0.03133061 0.027335139 0.12875417 -0.08305048 -0.17475963 0.19229971
0.09586293 -0.05845521 -0.228681 0.01113719 -0.16512199 0.03971202 -0.091652535 0.050370347
-0.06622539 0.18760616 0.18903904 -0.19627751 0.12003998 -0.010952492 -0.04381028 -0.122293256
0.028223181 -0.1875656 0.17548266 0.19171861 -0.13146271 0.18978272 -0.03761438 -0.0040906183
-0.17419662 0.16343471 0.08563875 0.00076144986 -0.03165248 0.14585231 -0.19131249 0.08482618
-0.124672934 0.19057254 -0.14538033 0.18311432 0.17829147 0.13827898 -0.028012328 -0.13019343
-0.19366673 -0.061971642 -0.10211926 -0.15051936 -0.014627314 0.06024486 0.06334133 0.16312826
-0.17828427 0.06493577 0.14199905 -0.06374218 0.024288287 -0.078535125 -0.09218417 0.1495049

cnn_block.0.bias f4 [32]
00000000: c087 5bbd 808d 98bc a7e7 80bd d777 9cbd
00000010: c020 3c3e 530d 34bd 40c5 51bd c757 87bd
00000020: c28a 22be 00b4 c1bd 3a66 02be 0065 08be
00000030: 2d81 43be fd28 fd3d 60c3 303e 0824 14be
00000040: 1067 13be 93c2 0c3e 7a32 2c3d faaf 6fbd
00000050: cdaf e53d 477d 05be 67b4 5e3b 4d68 9a3c
00000060: 077c 60bd 10d8 c73d 1d86 ad3d 9a61 ca3d
00000070: 4059 a4bc 1d35 fabd 68a0 14be 98cf 3e3e
-0.05359626 -0.01862216 -0.06294184 -0.07640045 0.18371868 -0.04395802 -0.051213503 -0.06608539
-0.15873244 -0.094581604 -0.12734309 -0.13319778 -0.19092245 0.123613335 0.1726203 -0.1446687
-0.14394784 0.13746099 0.042040326 -0.058517434 0.11215172 -0.13036071 0.003398204 0.018848563
-0.05480578 0.097580075 0.08472846 0.09881897 -0.020062089 -0.12217162 -0.14514315 0.18633878

cnn_block.1.weight f4 [32]
00000000: 4764 7f3f 3f03 7e3f 66ee 803f 280f 7e3f
00000010: 47fe 7f3f 4a0d 803f f90f 803f 016a 7f3f
00000020: 4efe 7f3f 0fe0 7f3f 5286 7d3f f790 7f3f
00000030: 9ceb 7f3f 2b43 813f 06ae 7d3f 6c55 7e3f
00000040: ebe4 7e3f 9ceb 7f3f 6d15 813f bcfc 7f3f
00000050: 0225 803f 0a80 803f 338c 7e3f 21a1 803f
00000060: 2bc3 803f acc6 823f 3ae9 7f3f e6d8 7f3f
00000070: bc1e 7e3f d9be 7f3f b835 813f 4923 7e3f
0.99762386 0.99223703 1.0072753 0.99241877 0.9999737 1.0004056 1.0004874 0.99771124
0.99997413 0.9995126 0.9903308 0.99830574 0.99968886 1.0098623 0.99093664 0.99349093
0.9956805 0.99968886 1.0084664 0.9999502 1.0011294 1.0039074 0.9943268 1.0049173
1.005956 1.021688 0.9996525 0.99940336 0.99265647 0.99900585 1.0094519 0.9927259

cnn_block.1.bias f4 [32]
00000000: 0028 45bc 72da 0ebc 2445 163c 1b65 9db9
00000010: 9bb0 9d3b 01ea 093b 2862 8c3b 4060 8abb
00000020: 7789 47bc 35be 82ba e31b 6dbb efec 483b
00000030: 9e59 053a a758 123c 4be1 a8b7 2fac 57ba
00000040: 885c d6bb 73d5 33bb 2f34 d6bc 324d f4ba
00000050: ec45 1b3b 4563 4bbb 73b4 f9bb 6f50 15bb
00000060: c38c d73b 370a 623c eda6 ebba 352c 8fb9
00000070: 6c5d 5bbb 8e7b 46bb 8fd9 a8bc 53e7 febb
-0.0120334625 -0.008719074 0.009171758 -0.00030020703 0.004812313 0.0021044018 0.004284162 -0.0042228997
-0.01217877 -0.0009974899 -0.0036179952 0.0030658802 0.00050869014 0.008932269 -2.013207e-05 -0.00082272565
-0.0065417923 -0.0027440458 -0.02614793 -0.0018638729 0.00236928 -0.003103451 -0.007620388 -0.0022783538
0.0065780594 0.013796381 -0.0017978825 -0.00027308022 -0.0033472432 -0.0030286047 -0.020611553 -0.007779041

cnn_block.1.running_mean f4 [32]
00000000: da13 b63f 766c 6740 486b 43be 69c1 0040
00000010: 276c b2bc 1449 9dc0 54b3 c03f 2120 36c0
00000020: 9659 a83e 6441 c3bf c42e 553f a055 7b3f
00000030: 3fd9 dec0 c8e7 123e 3073 fc3f e8c7 563f
00000040: 555b 20bf 7fc9 863f 3880 9b3e 4ffc 0bc0
00000050: 89a6 a2c0 cf79 003e 10e0 0840 9762 423d
00000060: e790 4a3b 51da afbf cd3f 7ac0 d695 8cc0
00000070: c2b8 4640 40ac fbbf 8182 233f 8cbd b33f
1.4224808 3.615995 -0.19083893 2.0118048 -0.021780087 -4.9151707 1.5054727 -2.845711
0.3288085 -1.5254331 0.83274484 0.9817753 -6.9640193 0.1434623 1.9722652 0.8389878
-0.6263936 1.0530242 0.3037126 -2.1872747 -5.082829 0.12546466 2.1386757 0.047457304
0.0030909122 -1.37385 -3.910144 -4.3932905 3.1050267 -1.9661942 0.6387101 1.404222

cnn_block.1.running_var f4 [32]
00000000: 601c 1041 1934 1d42 e3dc 1840 dd62 0342
00000010: b85b 1c40 40ab bb42 852e 3e41 6884 f041
00000020: 2bd5 5e40 2461 1f41 8667 0a41 6564 7941
00000030: 2577 4643 ee27 9f3f 81b0 5f41 7a8a 0841
00000040: d0cf 2440 c91f a240 03bd 9f3e cc29 ad41
00000050: 0a25 0243 e1c1 4740 221c 6841 5c70 ae3f
00000060: 2fbd 0b40 ba2a 9e40 08a0 9042 92a7 ba42
00000070: e65a 1942 2b82 8941 9716 1340 2e18 ea40
9.0069275 39.300877 2.3884819 32.846546 2.443098 93.83447 11.886357 30.064651
3.4817607 9.961216 8.650274 15.58701 198.46541 1.243406 13.980592 8.533808
2.5751839 5.06638 0.31198892 21.645409 130.14468 3.1212084 14.506868 1.3628039
2.1834219 4.9427156 72.31256 93.327286 38.338768 17.188559 2.2982538 7.3154516

cnn_block.4.weight f4 [64, 32, 5]
00000000: 2bcc 043d 0c5e 10bd 5ba9 933d 123b 073c
00000010: b1fe 7dbd 442b 063c 7b86 383c 334d 623d
00000020: d085 15bd 7cb2 90bd 062f 80bd 0a35 26bd
00000030: 210c f0bc 532c a9bd 1257 47bd f6a5 233c
00000040: 6100 50bd 2569 5b3c 07ed b3bc d5bb 94bc
00000050: 0c55 93bd 7ffc 4a3d 3ed7 dbbc cb58 153d
00000060: 6a12 c33b 6bb3 96bd 7ede 25bb 63ec 8f3d
00000070: 6b9c aabc bc75 063d c382 75bd f512 263c
00000080: bca1 9ebd 72fd 58bd 3424 22bd 972b 56bd
00000090: 633c 203d 4f39 053d dbad 3b3d 4f10 7e3d
000000a0: b65a 423c 745b 513c e91d 773d 5209 d9bc
000000b0: 70e1 413d 3d5c 6dbc 0679 40bc ddfd 783d
000000c0: 47ae 993d 4d83 5dbd 8156 853d 8c88 b03c
000000d0: 68d4 02bc 1c17 b5bc 75f6 89bd a689 503d
000000e0: bdcd 2a3c b0d7 9abd 98d8 553d 3950 a33d
000000f0: 47a5 7a3d 0172 083d 90df 46bd 59ba 6bbc
00000100: 49f2 0d3c 096d cfbb 80d7 7cbb 2594 80bd
00000110: 89a4 0fbd f2a6 863d 3923 77bd a10c 8b3d
00000120: de6a 80bd 57e1 9dbc 9bcc 96ba 2bb8 a0bd
00000130: c515 773d 3857 94bd 5ac4 5fbd 4613 69bc
00000140: d752 973d 4f21 233d e92b 963c 1206 b23b
00000150: 2f9e 9f3d c1db 8b3d 3b21 5bbd 6783 30bd
00000160: cf5e 913d 00f8 3639 1fa2 8dbc 80b5 7fbd
00000170: 03f3 0ebc 7fc0 a43b c68a 4dbd 94b8 69bd
00000180: a41a 89bd b2d3 7c3d 5e17 83bd e740 2f3c
00000190: d572 903d b1b3 b63c 9484 09bd b9ae 11bd
000001a0: 711c 8dbc 858a 41bd e0a3 85bd 4211 21bd
000001b0: a3ca 843d d635 4e3d eae1 bd39 3a95 79bd
000001c0: 79b9 fcbb 01d6 b73c a251 a9bc 2445 f8bc
000001d0: 3bcd 22bd 2a16 8ebd e762 37bc dc30 6dbc
000001e0: a4b4 013d d2ec 69bd 4081 83bd 91f5 a23d
000001f0: ebdf 923d 8c54 75bd 28aa 99bd f646 b1bb
00000200: 3c82 2fbd c2db ed3c 6b0e 9dbd b516 cc3c
00000210: 266d d53c c0e0 993d 2437 2dbd 2085 e43c
00000220: 2981 35bd 60f0 363d fc09 903d 5ab8 783d
00000230: 439d dabc bdd0 43bd aa35 9f3d f941 c43c
00000240: 69fe a5bc 9455 7a3b 379b c03b 910a 4dbc
00000250: e448 bfbc 0080 d4ba 5dab 2c3d b2c8 56bd
00000260: fd77 253d 4bf7 82bd 6216 50bd 66a0 56bc
00000270: cc7f 9e3a f89c 03bb 71e3 95bd 02b0 98bd
00000280: 5db6 a7bd ff6b 703d 2406 94bd 1b21 733c
00000290: a8c2 fdbc f1d4 893d 3baa 30bd 7963 5c3d
000002a0: 10b3 cfbc 9d44 19bd 60ac 473d b29d 213d
000002b0: 38ab a33c 1adf 1d3d efe0 753d b1b6 9abd
000002c0: c083 95bd f30f 433a 1e50 803d df52 d6bc
000002d0: b593 90bb 8ce5 15bd 26ec 9bbc 933f 55bd
000002e0: bcfa 113d 806d 55bd 91db 9fbd a178 923d
000002f0: 2433 5e3d 463b 413d be28 96bd 0f6e 7bbc
00000300: e8fd 8abd 45e7 f7bc 5c34 563d 0ac3 193d
00000310: ca01 3d3c 0b50 9cbd 6604 623d 7cf8 943d
00000320: 26f3 803d fef3 1a3d 3981 3b3d 7d60 2bbd
00000330: 66ab 883d b9e4 433d 06d7 3b3d 0b96 183c
00000340: f785 1f3b 68ad f9bb 997c 803d a9bc d43c
00000350: 76f9 e5bc ce55 043c c9ce 02bc 2c3a 2cbd
00000360: 9cc9 8a3d 1ae5 a53b bf4a 9b3d 38ab 293d
00000370: 7d0f f0bc d1c5 16bd 68e3 9d3a c7f0 a9bc
00000380: c6ea fabc 534e 8a3c 7942 f33c c9e0 353d
00000390: 8df3 44bd c0b9 823c 8533 b3bd 86d7 073d
000003a0: fb9f d73c 8b5b 673d 6c55 db3b 14ff 633d
000003b0: 155c 95bd df9f 4abd dc36 2b3d 9650 aa3d
000003c0: c60e 52bc f7f3 1d3c b8f6 58bd 4392 333d
000003d0: 4180 153a 4d3b 043c 35df be3c 648a 91bd
000003e0: 00d1 17bd 8a90 6a3c 9152 04bd c72f 47bd
000003f0: 8ab4 0a3c 006c c43c 03e6 773d 30b2 923d
0.032421272 -0.03524594 0.07210036 0.00825383 -0.06201047 0.008189026 0.011262531 0.055249404
-0.036504567 -0.07065293 -0.06258969 -0.040577926 -0.029302659 -0.08260407 -0.04866702 0.009988299
-0.05078161 0.013391768 -0.02196361 -0.018155972 -0.07193956 0.049557205 -0.026836034 0.036461633
0.005953123 -0.0735844 -0.0025309618 0.07027509 -0.020826539 0.032827124 -0.059939157 0.010136356
-0.07745692 -0.05297608 -0.039585307 -0.052287664 0.03912009 0.032525357 0.0458201 0.06202727
0.0118624475 0.012778152 0.06033126 -0.026493702 0.047334135 -0.014487323 -0.011747604 0.060788978
0.07503944 -0.054080296 0.0651064 0.021549486 -0.007985212 -0.022105746 -0.06736461 0.05091252
0.010425028 -0.075606704 0.052208513 0.07974286 0.061192777 0.033311848 -0.04855305 -0.01438769
0.008663722 -0.0063301367 -0.0038580596 -0.06278256 -0.035069022 0.06574811 -0.060336325 0.06789518
-0.06270383 -0.01927249 -0.0011505069 -0.07847627 0.060323495 -0.07243198 -0.054630615 -0.014225787
0.07388847 0.039826687 0.018331485 0.0054328525 0.07793843 0.06829024 -0.053498488 -0.043094065
0.070981614 0.0001744926 -0.01728922 -0.06242895 -0.008724931 0.00502783 -0.050181173 -0.057060793
-0.066945344 0.061725326 -0.06400941 0.010696626 0.070531525 0.02230248 -0.033573702 -0.03556702
-0.017225476 -0.047251243 -0.06525397 -0.0393231 0.064839624 0.05034431 0.00036217208 -0.06093333
-0.0077125398 0.022440912 -0.020668808 -0.030306406 -0.039746504 -0.06937821 -0.011193014 -0.014476981
0.031666413 -0.057110615 -0.06421137 0.07956994 0.07171615 -0.059895083 -0.07503158 -0.0054100705
-0.04284881 0.029035453 -0.07668766 0.024913171 0.026053023 0.07513571 -0.042288914 0.02789551
-0.04431263 0.044662833 0.07033154 0.060722686 -0.026686316 -0.04780649 0.077739075 0.02395724
-0.020262914 0.0038197981 0.005877878 -0.012514726 -0.023350187 -0.0016212463 0.042155612 -0.05243749
0.040397633 -0.06394824 -0.050802596 -0.013099765 0.001209253 -0.0020082574 -0.07318772 -0.07455446
-0.0818908 0.058696743 -0.07227734 0.014839436 -0.030976608 0.067300685 -0.043131094 0.053805802
-0.025353938 -0.03741895 0.048748374 0.03945703 0.019979104 0.038542844 0.060028967 -0.07554377
-0.0730052 0.0007441036 0.06265281 -0.026162563 -0.0044121393 -0.036595866 -0.019033503 -0.052062582
0.03563951 -0.05210638 -0.07805551 0.071519144 0.05424799 0.04717567 -0.0733199 -0.015346064
-0.0678671 -0.030261645 0.052296028 0.03753952 0.011536071 -0.076324545 0.055179976 0.07273957
0.06296377 0.037830345 0.045777533 -0.041840065 0.06673317 0.04782555 0.04585936 0.009313117
0.0024341324 -0.0076195486 0.06273765 0.025968866 -0.028073054 0.008077098 -0.007983872 -0.042047665
0.06776735 0.0050627114 0.07582616 0.041423053 -0.02930426 -0.036809746 0.0012045922 -0.020744694
-0.030629527 0.016883051 0.029694783 0.044403825 -0.04808383 0.015957713 -0.08750061 0.033164524
0.026321402 0.056483787 0.0066935327 0.055663183 -0.07292954 -0.04946887 0.041800365 0.08316152
-0.012820905 0.009640685 -0.052969664 0.043840658 0.000570301 0.008070779 0.023299793 -0.07106474
-0.037064552 0.014316687 -0.032305304 -0.04862955 0.008465895 0.02397728 0.06052209 0.07162893

cnn_block.4.bias f4 [64]
00000000: f62d 9b3d 1a5b e63c 8377 fb3c 4005 83bc
00000010: 7ee7 9c3d da6c 893c 5bc1 7dbd 4189 fa3c
00000020: 47d3 8a3c 2490 94bd 7458 d93c 9a10 76bd
00000030: b358 3abc 2e3a e73c e878 f33c 3d01 16bd
00000040: 8dff fe3c d189 433d a7af 54bd 8a8c a0bc
00000050: 6c3d 383d c811 4a3d 30fc 52bd 642f 08bd
00000060: 98e4 06bd 47e4 d83b 2b88 8fbd 89c3 743d
00000070: dcf5 063d a7de 1cbd feaa 5dbc b38d b93c
00000080: 9ad7 ea3c 4b04 6cbc 1513 34bd bed9 cb3c
00000090: c278 69bd 6099 833d 279c 5c3d a6a5 df3c
000000a0: 8576 0ebd d82b dc3c 53cc 9ebd 41de cf3c
000000b0: 7d95 43bc 01fb 64bd 060e 533d 3051 4abb
000000c0: 12e6 90bc ed32 973d ddc3 e1bc bb13 47bd
000000d0: bc1d 73bd 9c12 f33c 6581 ee3c d5e5 623d
000000e0: 3afe 693d 104a 89bd 0a03 5eba 8062 20bc
000000f0: 4fdc 97bc 5497 193b 3297 113d 204d 28bd
0.07577126 0.028119612 0.030696636 -0.015993714 0.07661341 0.016775537 -0.061951976 0.030583026
0.016946448 -0.07254055 0.026531436 -0.060074426 -0.011373687 0.028225984 0.029720739 -0.036622275
0.031127715 0.047738854 -0.051925328 -0.019598264 0.04498045 0.049333364 -0.051510036 -0.03324832
-0.032932848 0.0066190097 -0.07008394 0.05975679 0.032949314 -0.038298275 -0.013529537 0.022650575
0.02866726 -0.01440532 -0.04396351 0.024884101 -0.05699993 0.06425738 0.053859856 0.027300667
-0.034780998 0.026876375 -0.077538155 0.025374534 -0.011937496 -0.05590344 0.051527046 -0.0030871145
-0.017687831 0.0738276 -0.027559215 -0.0486028 -0.05935453 0.02967196 0.029114434 0.055394966
0.057127215 -0.067035794 -0.0008469081 -0.009789109 -0.018537669 0.0023436146 0.03554458 -0.041089177

cnn_block.5.weight f4 [64]
00000000: bdb2 7f3f 8259 7e3f ae42 7d3f 2372 803f
00000010: ec1b 803f 303f 803f 8fca 7e3f 0979 803f
00000020: 4f66 7d3f f73a 7e3f 5356 7f3f 7d87 803f
00000030: d1cb 7f3f 280f 7d3f d806 7f3f 75e3 7f3f
00000040: 0d87 803f 3a54 7e3f 5a77 7f3f 1185 803f
00000050: 2091 7e3f c04a 7f3f 5153 803f cf24 803f
00000060: 7b08 803f 0587 7e3f dcc7 803f 4093 7f3f
00000070: dd1a 803f af87 803f 6005 7e3f 9ab4 803f
00000080: 10e5 7f3f 43db 7e3f c5ac 7e3f f41f 803f
00000090: 475b 803f a920 843f aec8 803f c9cc 813f
000000a0: a92d 803f 60a3 7f3f 0928 803f 8041 803f
000000b0: 931b 803f 7d7a 7f3f 69ac 7f3f 0952 803f
000000c0: 96ed 823f 07f5 7f3f e5bd 7d3f 0059 813f
000000d0: 5121 7e3f dcea 7f3f 0804 803f 8b71 7f3f
000000e0: 10fc 803f 3a59 7c3f 6202 7f3f 9c9c 7f3f
000000f0: 0e54 7f3f d35f 803f eac7 7f3f 4a65 7f3f
0.9988211 0.9935533 0.9892987 1.0034832 1.0008521 1.0019283 0.9952783 1.0036937
0.98984236 0.99308723 0.99741095 1.0041348 0.99920374 0.9885125 0.9961982 0.99956447
1.0041214 0.9934727 0.9979149 1.0040609 0.99440193 0.99723434 1.0025426 1.0011233
1.0002588 0.99424773 1.0060992 0.9983406 1.0008198 1.0041407 0.9922695 1.0055115
0.99958897 0.99553317 0.99482375 1.0009751 1.0027856 1.0322467 1.0061243 1.014062
1.0013934 0.99858665 1.0012218 1.0019989 1.0008415 0.9979628 0.9987245 1.0025035
1.0228755 0.9998326 0.9911788 1.0105286 0.99269587 0.9996774 1.000123 0.9978263
1.0076923 0.9857365 0.9961301 0.9984834 0.9973763 1.0029243 0.9991442 0.9976393

cnn_block.5.bias f4 [64]
00000000: c942 76bb ee5c e1b9 ba79 afbb 88d9 863a
00000010: 1924 0c3b 139a 44ba fdcf b6ba 8d07 403a
00000020: aaf5 2fba 47fa 83bb 5278 99ba d563 813b
00000030: 908d f0bb 19d9 68bb 9739 bcba 0e3e 34bb
00000040: 97c7 54bb c760 bbbb 7fa3 a4ba 8010 a63a
00000050: 3997 66ba 9a80 16bb e9a9 9e3a a525 bcb9
00000060: a4d3 04bb c0ec 15bb 9360 02ba 6b2f 5b3a
00000070: b3ee cbbb 1a04 0fba 1522 b6ba e0cc d13a
00000080: b1a3 37ba d869 38ba 1aba 423a 1d9b 573b
00000090: 185d a63a a148 e4bb 5ec9 203b 2502 68bc
000000a0: ef36 e83a ae50 e3ba fc81 2bbc 50f4 44ba
000000b0: 18e8 4bbb 0735 8f3a 052d d6b9 0229 383b
000000c0: 32bd d3bb f65f e1ba 03b0 bcba 9b5e c83b
000000d0: be22 14ba 4c85 f639 9252 793b 4446 0cbb
000000e0: 531a 8d3a b92b bcbb 0a3b 883a a502 f63b
000000f0: 09e5 1bbb beb7 73ba 16f0 01bb 1619 77bb
-0.0037576428 -0.00042984582 -0.005355087 0.0010288218 0.002138382 -0.00074997655 -0.0013947483 0.0007325344
-0.0006712327 -0.004027638 -0.0011708832 0.0039486685 -0.0073410943 -0.003552979 -0.0014360425 -0.0027502808
-0.0032467598 -0.005718324 -0.0012560933 0.0012669712 -0.00087963376 -0.0022964836 0.001210508 -0.00035886202
-0.002026775 -0.002287671 -0.0004973497 0.0008361253 -0.0062235235 -0.0005455628 -0.0013895655 0.0016006492
-0.0007005288 -0.0007034815 0.0007428244 0.0032898851 0.0012692539 -0.006966666 0.0024534087 -0.014160668
0.0017716567 -0.001734277 -0.010468002 -0.0007513212 -0.003111368 0.0010925838 -0.00040850803 0.0028100614
-0.006461763 -0.0017194736 -0.0014395717 0.0061147935 -0.0005650929 0.0004702009 0.00380436 -0.0021404186
0.0010765292 -0.005742517 0.0010393572 0.0075076395 -0.0023787639 -0.0009297094 -0.001982694 -0.0037704161

cnn_block.5.running_mean f4 [64]
00000000: 6cd6 49be f066 49bd fc09 703e e9c9 803e
00000010: 84b8 95be 0367 e53e 0d12 78be d7da 8a3d
00000020: 2444 7c3e 8cb7 ea3d 11bc f9be 49c0 0dbe
00000030: 4f64 fd3e fa3c 133e 47a9 f2bc dbdd 9abd
00000040: 7ad5 303d fb4e 3bbe 0823 c7be bbe2 5f3b
00000050: 2f44 083e c329 afbe 0509 fdbe a962 293e
00000060: 617e 42be 9baa 9cbe d6d9 3e3e 66c9 123c
00000070: b028 1e3f e0e1 6bbe c986 c93d edc6 a73d
00000080: 8e95 09bf dcb2 cabe cef8 6d3e c2c1 12be
00000090: ac8f 43be f45f a33e 083b 41be d983 973e
000000a0: f95e fabe da1d 9c3e edfc a93d e50f c4be
000000b0: 5bef abbe 8011 3dbe 3777 99bd 698e 293d
000000c0: e8f1 403d 2232 9b3e 8e2c 683c 69ea 00be
000000d0: 13b7 55be bba4 f6bc 2cd3 1dbe 1765 62bb
000000e0: 68f0 483e 0814 cbbd e24f 33be 9fd3 67be
000000f0: 44d2 00bf 466f e23d 08e9 7f3c e301 6fbe
-0.19710702 -0.049170434 0.23441309 0.25154045 -0.29242337 0.44805154 -0.24225636 0.06780022
0.24635369 0.1146079 -0.48776296 -0.13842882 0.49490592 0.1437873 -0.029621733 -0.07561847
0.043172337 -0.18291847 -0.38893914 0.0034162241 0.1330726 -0.3421155 -0.49420944 0.16541542
-0.18993522 -0.30598912 0.18637785 0.00895915 0.61780834 -0.23035383 0.09840161 0.08192239
-0.5374383 -0.39589584 0.23239443 -0.14331725 -0.19097775 0.31909144 -0.18870175 0.2959278
-0.48900583 0.30491525 0.08300195 -0.38293377 -0.3358105 -0.18463707 -0.074934416 0.04139558
0.0471057 0.30311686 0.014170779 -0.1258942 -0.20870619 -0.030107846 -0.15412587 -0.0034545118
0.19622958 -0.0991593 -0.17510942 -0.22639321 -0.5032084 0.1105638 0.015619524 -0.23340563

cnn_block.5.running_var f4 [64]
00000000: a844 423e 50ff 863e 2a85 8a3e ba8a 0c3e
00000010: 7991 063f 0d43 bb3e eda9 833e d32a 043e
00000020: 7e06 6e3e 4be3 523e e233 7e3f 7865 523e
00000030: 89a1 573e d95c 523e 6f22 663e 2a2a b63d
00000040: 119a fe3d c99d 843d 6459 9c3e 565e fe3c
00000050: 7be9 7d3e 07be fa3d 7e8b 9c3e 93e2 4b3e
00000060: f170 883d 8818 443e 4a78 db3e b06d b13e
00000070: 17ec 143f 5dae c43c 45c9 903e 350f 833e
00000080: 0ee7 af3e 3e92 873e 8233 c33d 7752 7a3e
00000090: 58b3 a93d 91f6 143d 242a ef3d 82fc 663d
000000a0: 0681 393e b1b9 8f3e 05ed 363d 8df0 233e
000000b0: 65a8 213e 2d93 433e 3062 763e 1162 b93d
000000c0: f700 c13e dbd1 873e 4a1a 513e 0eee d23d
000000d0: f23b 4e3e 8ab4 9c3e c073 243e 2b68 d63d
000000e0: f906 6b3d c759 2c3e 1032 f83e 53d8 f53d
000000f0: f00e 2d3e e9db b73d 755d 613e 3b94 e83e
0.18971503 0.26366663 0.2705472 0.13724795 0.52565724 0.36574593 0.2571558 0.12906961
0.23244664 0.20594518 0.99297917 0.2054652 0.21057715 0.20543231 0.22474073 0.08894761
0.124317296 0.06475408 0.3053695 0.031050842 0.24796097 0.12243276 0.30575174 0.1991065
0.06662167 0.19149983 0.4286521 0.34653997 0.58172745 0.024008924 0.28278556 0.2559754
0.34355968 0.2647876 0.09531309 0.2444552 0.0828616 0.036367957 0.116779596 0.056393154
0.18115625 0.2807136 0.044659633 0.16009732 0.15786894 0.19099112 0.24060893 0.09051908
0.3769605 0.26527295 0.20420185 0.102993116 0.20140055 0.3060649 0.1605978 0.10469087
0.057379697 0.16831122 0.48475695 0.12004151 0.1690023 0.089774914 0.22008307 0.4542559

fc.0.weight f4 [32, 64]
00000000: 6355 88bd b9a3 c03c 146e 8c3b 4794 debd
00000010: 7acc f4bc 7e87 183d b3a7 253d 0015 3c3d
00000020: 99fb 963b dc4e e03d 0e20 2b3d adfa ee3d
00000030: 3b83 b43d 14fa bc3d 1464 e13d e77a c7bd
00000040: 3a41 c4bc 5fcb 8fbd b08c a0bc 731b 48bc
00000050: bc56 e33d f2ab 063d 6e98 fb3d bd19 ed3b
00000060: 693c 8fbc 33c1 f5bb 9d34 263d 4d76 92bd
00000070: 2ccf 31bd 6fa1 e93d 5a68 eb3d fffc 96bc
00000080: c35e babd 8670 92bd 6ae6 c6bd d46e bbbd
00000090: a700 543d ba70 2a3e fa4c 95bd 7df1 8dbc
000000a0: 2443 69bd 788d 44bd 38c1 ccbc 5195 7c3d
000000b0: b303 e83d 262d fd3d 1f5e b6bd 1fd4 1bbd
000000c0: 3d76 5dbc 34e5 fbbd 9f3e 44bc 6893 f9bd
000000d0: 8a36 36bb 63f7 a2bd be02 193d dcc3 b5bd
000000e0: c4dc 1cbd dcfb 45bd cbf0 b83d 3fa9 c8bd
000000f0: 154e 9dbd 3473 10bd bafe d43b 718c 763c
00000100: fda1 2a3d 0904 cb3c 1ea6 a73d b8a7 bf3d
00000110: 96c3 e83b 47ae 003c b82c f9bc 6626 ca3d
00000120: 8012 da3d cb80 febd 52a2 b0bd 342b 5b3d
00000130: 12aa a83d 03d4 cd3d dd7f edbd c99f 5fbd
00000140: 047e c93b 2501 d1bb 9673 33bc a41d d93d
00000150: 80cb 5ebd 138a 1bbd 6425 d03d ea1f 273b
00000160: db8c bebd b7ac 56bd 1b83 973d a04c a1bd
00000170: 10fb 4d3d 8106 4f3d 6532 9abd 23be 443d
00000180: a487 0c3c 2acb efbd fb8b a23d 1922 e23c
00000190: 0f14 d93d 695a e73d f9af 13bb c231 9f3b
000001a0: 5bd9 593d c2f1 c43d 2cab 993c 1be5 bbbc
000001b0: 65ec aa3d 6da3 acbd 34cd d6bd e4e7 793d
000001c0: 4573 adbc 84a9 ac3d 8317 37bd 3f5a 9d3d
000001d0: 6554 2dbd 79b6 6cbd 36bc 87bd fb1c 023c
000001e0: 2478 e4bd 039c 5c3d 09d8 cbbd 1f71 29bd
000001f0: 25c3 18bc 4b0c 933d 46ed bd3c ba21 e73d
00000200: 88a0 e4bb 6887 70bc d49c 2fbd 9d07 bb3c
00000210: f54f 073d 925d ec3d 9714 3e3c d556 183d
00000220: 1025 5fbd eee5 5bbc bf93 e93d 9eb7 943d
00000230: aa0e b4bd cc01 b83c ee1a 9c3d 8cb9 82bd
00000240: 2801 703d 9d72 d33d 3f12 603c 3228 62bd
00000250: a28e e93d bfd0 dfbd 26ad 6dbd 91ed 87bd
00000260: 4d3f f0bc c34c bb3d 2345 bc3d b1b5 afbd
00000270: 68fe dc3d e31c 41bd 618b 70bd 64c2 c93d
00000280: 6e5a dc3d ff31 68bd b439 7bbd 6a59 703d
00000290: 2a3e c8bd 2355 043e 09f1 973d 5e01 223e
000002a0: 77e9 ef3d ba35 56bd 8c09 f73d 2c5d b23d
000002b0: e124 c3bd 24a7 483c ec23 223d e738 f93d
000002c0: d86d 113e e807 fe3d 1dac c2bd d686 e3bd
000002d0: ba04 7cbd c8a9 75bd 9998 153c 3961 20bd
000002e0: a153 16be 2fc8 f9bd e903 bfbc 9b42 d83d
000002f0: dc20 4fbd 15bc 413c bd1e 0b3c 67bc 243d
00000300: 95b4 8c3c 83e5 1dbc a44a d7bc ff39 a3bd
00000310: 7ff7 7dbd 1bde a93c 446e 05bd b7c8 bf3d
00000320: 4305 e23d 0f71 a93d 10d5 64bc 964f d1bd
00000330: c12d d6bd 3e98 b53d 41e2 eebd b101 05bd
00000340: fc65 023e 8869 48bd 517d a3bd ce8c 06bc
00000350: 78bf a53d 9610 b93d c732 493c 207d a43d
00000360: 81d7 a5bd 060c 18bd e275 81bd 5b59 da3d
00000370: ef9e a9bc 09ab d2bd 4f90 f9bb 4bed 47bd
00000380: e502 f4bd 6f5c c4bd 5271 38bd 4a4a 253d
00000390: 3370 943d f1d0 cc3d 48b4 acbd 153f 063e
000003a0: df36 cebc 609f d9bd f26b cebd 37c8 e33c
000003b0: 62c4 a03d cc3c 4abd a2de f13c d1dd af3d
000003c0: 8ab3 b73d 984d f83d 3e90 343d 4789 843d
000003d0: fc11 81bd d8a6 75bd 3eb8 38bd 9f3b 86bc
000003e0: e7c7 c8bd 71d4 9dbd 200e 86bd 5d2d ab3d
000003f0: e333 a2bc 1913 63bd 7549 bdbd 9bcb fa3d
-0.06656911 0.023515569 0.0042855833 -0.108681254 -0.029882658 0.03723859 0.040443134 0.045918465
0.0046076295 0.10952541 0.041778617 0.11668906 0.08814093 0.09227386 0.110054165 -0.09740239
-0.023956884 -0.07021212 -0.019598335 -0.012213576 0.11100528 0.032878824 0.12284933 0.0072357343
-0.01748486 -0.007499838 0.04057752 -0.0715147 -0.043410465 0.11407744 0.11494513 -0.018431185
-0.091001056 -0.071503684 -0.09711917 -0.09151998 0.051758435 0.16644564 -0.07290073 -0.017327065
-0.056948796 -0.047986478 -0.024994478 0.061665837 0.113288306 0.12362127 -0.08904671 -0.03804409
-0.01351696 -0.122995764 -0.011977821 -0.12186319 -0.0027803504 -0.079573415 0.03735613 -0.08875248
-0.038296476 -0.048335895 0.090303026 -0.09797906 -0.076809086 -0.035266116 0.0065000923 0.015048132
0.04165839 0.024782198 0.08185981 0.09358162 0.007103394 0.007854051 -0.030416831 0.09870605
0.1064806 -0.12426909 -0.0862471 0.053508 0.08235563 0.10050204 -0.115966536 -0.054595742
0.0061490554 -0.0063783103 -0.010952851 0.106013566 -0.05439329 -0.037973475 0.10163382 0.00255012
-0.0930421 -0.052410807 0.07398053 -0.07875943 0.05028826 0.050543312 -0.07529143 0.04803289
0.008577261 -0.11708672 0.079368554 0.02760415 0.10599529 0.11296541 -0.0022535308 0.0048582265
0.053185802 0.09616424 0.018758379 -0.022936394 0.0834587 -0.084296085 -0.10488358 0.061012164
-0.021173129 0.0843077 -0.044700157 0.07683229 -0.042316813 -0.057791207 -0.06627695 0.00794148
-0.111557275 0.053859722 -0.09953315 -0.041367646 -0.00932387 0.07180079 0.02318443 0.1128573
-0.0069771446 -0.014680721 -0.042874172 0.022830779 0.033035237 0.115412846 0.011601589 0.037192184
-0.054478705 -0.013421519 0.114051335 0.07261585 -0.087918594 0.022461794 0.07622324 -0.063830465
0.058594853 0.10324595 0.013676225 -0.055214114 0.11404158 -0.10928487 -0.058026455 -0.06637109
-0.02932706 0.091455005 0.09192874 -0.08579577 0.10790712 -0.04714669 -0.058726672 0.0985153
0.107594356 -0.056688305 -0.061334327 0.058679022 -0.09777482 0.12923102 0.07419021 0.15820834
0.11714452 -0.05229733 0.12062368 0.087091774 -0.095285185 0.012246881 0.03958504 0.121690564
0.14202058 0.12403852 -0.09505484 -0.11109702 -0.061527945 -0.05997637 0.00913062 -0.03915522
-0.1468034 -0.12196385 -0.023317294 0.10559579 -0.050568447 0.011824627 0.008491215 0.040218737
0.017175952 -0.009637239 -0.026280709 -0.07970046 -0.06200361 0.020735791 -0.03257586 0.09364455
0.1103616 0.08273517 -0.013966814 -0.10220258 -0.104579456 0.088669285 -0.11664248 -0.032472316
0.12734216 -0.048928767 -0.079828866 -0.008212281 0.080931604 0.09036367 0.012280173 0.08031678
-0.08097745 -0.03712084 -0.063213125 0.106615745 -0.020705668 -0.102865286 -0.00761608 -0.048810285
-0.119146146 -0.09587943 -0.045029946 0.04035405 0.07247963 0.1000079 -0.084328234 0.13110001
-0.025172649 -0.106261015 -0.10079183 0.02780543 0.07849957 -0.049374387 0.029525105 0.0858723
0.08969791 0.12124175 0.044082873 0.06471496 -0.06302258 -0.059973568 -0.045097582 -0.016385851
-0.09803753 -0.077065356 -0.06545663 0.08358262 -0.019800132 -0.055438135 -0.092425264 0.12245866

fc.0.bias f4 [32]
00000000: 0048 38bc 784e 61bd 7b21 99bd 9862 ea3c
00000010: a2d1 e2bd 5cee 6e3d f8fc 3c3d 9546 fe3b
00000020: 7ecc cdbd 42fa e6bd fe77 223c 1444 03bd
00000030: 6c08 0cbd 5062 83bd 5631 eb3d 74ff 31bd
00000040: 7c42 b0bd 0761 9d3d e491 0bba 100c 5d3d
00000050: 84ee f93d 920e d13d 2c22 f83d 10ef 9e3c
00000060: b871 b93c 9dfa f2bb e39e e53d 1a68 9d3d
00000070: 78ef a23d c88b e3bc 9650 b0bd b41c 503d
-0.011247635 -0.055006474 -0.07477089 0.028611466 -0.110751405 0.058332786 0.046139687 0.007759879
-0.100487694 -0.11278202 0.009916304 -0.032047346 -0.03418772 -0.06415236 0.114840195 -0.04345651
-0.08606431 0.07684522 -0.00053241686 0.05396658 0.12203696 0.10207857 0.12115893 0.019401103
0.022637233 -0.0074151293 0.11211946 0.076858714 0.07955831 -0.027776614 -0.086091205 0.050808623

fc.1.weight f4 [32]
00000000: 7c7b 813f d6e2 7d3f 9e59 863f 9ab9 823f
00000010: 7d13 803f 3c19 823f ddb4 833f 23b6 823f
00000020: d6be 813f fcf5 813f 8575 823f 801f 7b3f
00000030: ec50 893f d7cd 773f f265 853f 14a1 863f
00000040: 4d45 813f 1899 853f cb57 813f 2e98 873f
00000050: b282 803f cfd8 813f ab4a 833f efd9 7d3f
00000060: 9e08 813f cd1a 813f cb8a 7e3f 8214 7f3f
00000070: 1e00 823f 4fa7 823f 0e8b 853f 04a9 813f
1.011581 0.9917425 1.0496099 1.0212891 1.0005947 1.0163951 1.028957 1.0211834
1.0136364 1.0153193 1.0192114 0.9809494 1.072782 0.9679846 1.0421736 1.0517907
1.0099274 1.0437346 1.0104917 1.0593317 1.0039885 1.014429 1.0257162 0.99160665
1.0080755 1.0086304 0.9943053 0.9964067 1.0156286 1.0207309 1.0433061 1.0129704

fc.1.bias f4 [32]
00000000: c493 7d3c ea01 dbbc 9313 013d d80c d23c
00000010: f33f 563c 9ed2 213c 70f0 da3c 5505 433c
00000020: e04f 683c 4c52 b23c 9f0f eb3c 73aa 20bd
00000030: 5df4 913d ab3e 99bd a9fe 353d a2b5 9e3d
00000040: 27dd 6e3b a7ef e2bc 7582 dc3b 151d e63d
00000050: a04c 0eba 8241 2d3c e151 213d 1913 cbbb
00000060: 2d98 b53c b92d c23b 1926 373b 27b0 7d3b
00000070: 4e39 423b c942 103c 3e77 133d 86d2 973c
0.015477125 -0.026734311 0.031512808 0.02564089 0.01307677 0.009876875 0.026725978 0.011903127
0.0141792 0.021767758 0.028693972 -0.039225053 0.07126687 -0.07482656 0.044432316 0.077494875
0.0036447735 -0.027702166 0.006729419 0.11236016 -0.0005428288 0.0105747 0.039384726 -0.006197345
0.02216729 0.0059258607 0.0027946292 0.0038709731 0.0029636207 0.008804985 0.03600239 0.018533003

fc.1.running_mean f4 [32]
00000000: 7319 38bd 8940 173e 63eb 863e dd16 dfbd
00000010: ef5a 9bbe 15e4 d43c 4919 243e e472 68be
00000020: 956e 5fbd 2052 a9be 36a9 a6bd a219 3c3e
00000030: e52a 28be c385 24be a25c fbbc 226f 81bd
00000040: d349 58bd 43cb 9b3e d029 9a3e 440a ea3d
00000050: ca60 043f fa02 cabc 02e1 31be 16c9 08bd
00000060: 8d9e 413e 1722 d53e 8efa d03e b734 2a3e
00000070: 4bbd a23e c21c a13e e17e 4cbd 7394 8e3e
-0.044946145 0.14770712 0.2635146 -0.10893033 -0.30342814 0.025987664 0.1602527 -0.22700077
-0.05454882 -0.3307047 -0.08137743 0.18369153 -0.16422613 -0.16066651 -0.03068382 -0.06320025
-0.05280478 0.30428514 0.30110025 0.11427739 0.5171019 -0.024659622 -0.1737099 -0.033394895
0.18908139 0.4162757 0.40816158 0.16621672 0.31785044 0.31467253 -0.04992569 0.27847633

fc.1.running_var f4 [32]
00000000: 3faf 833b 7f21 ab3b 0257 2739 f24a f23b
00000010: cb2c 223d 3261 173b 6ca9 a33b 0a9a 963b
00000020: ee89 893c 537e ee3a fcf3 cc3a c663 013d
00000030: 7f8b d33a 9294 af3c 15f7 d93a 6bb6 3d3b
00000040: b918 fb3b 4d5f fa39 31dd 023c cc55 073c
00000050: aa95 fc3b 8023 da3c 4b8d 2b3b 8b9c cc3d
00000060: 4084 8f3c 884e 173b 74fb ef3c 9329 3a3d
00000070: 4111 e43a da74 593b 0fc9 103c 0569 b33b
0.0040186937 0.005222499 0.00015958774 0.007394188 0.0395935 0.0023098704 0.004994562 0.0045959996
0.016789403 0.0018195607 0.0015636678 0.031589292 0.0016139596 0.021433149 0.0016629422 0.002894784
0.0076628593 0.0004775472 0.007987306 0.008260202 0.007708271 0.026628256 0.0026176746 0.09990796
0.017519116 0.002308758 0.029294707 0.045449805 0.0017400162 0.0033181221 0.008836999 0.005475166

fc.3.weight f4 [9, 32]
00000000: e4ac eabd b98c 9cbd 8156 50bc de55 a53a
00000010: efc7 c9bd 5374 053e 3b5c d4bd a2ec c1bc
00000020: f7e8 10be cb34 8f3d 6fc6 193e cb3a a5bd
00000030: f7ca 8c3c 2c1c 323e c8da 923d 8b24 7c3c
00000040: cef4 403d 55c5 a03d fa87 81bd 463d debc
00000050: 5d08 113e 37f2 533e 38a4 08bb 19cd 1cbe
00000060: d689 163e 3bde ee3d 6827 1d3e cf05 e93c
00000070: b2e4 c1bc 5eec a93d 5648 a63d a502 ea3d
00000080: 71b0 ee3d b690 633d 7c75 c2bd 3f92 a4bd
00000090: 2b1b 223e 2c35 ba3d f769 183e 1a01 c53d
000000a0: 36ae 273d 739d a83a b49e 8abc 799c f23c
000000b0: 35f7 183e b18b dbbc 2e1f b33d a455 05bd
000000c0: d164 2bbe 5449 09bd 02c6 c03d dbc6 d13a
000000d0: cd7f de3d 5802 313e e5e2 35ba 1356 09be
000000e0: 75eb 06be 16c4 e73c 7c53 76bd 437c 25bb
000000f0: 2e52 ddbd 6f63 2d3d f378 e83d 14fd 203c
00000100: e294 4a3e 5db9 32bc eddb a03e d230 4a3e
00000110: d95b 103d 7f06 df3d 9888 303e 3169 56be
00000120: 84ed 43be 8ce6 87bd db10 373e f7f3 013d
00000130: 7692 f8bd 05ea c23d 116e 47be b904 153e
00000140: 2169 14be 1cb3 ba3e bc77 903d c476 f6bd
00000150: 3566 29be a138 04bc 6122 97bc affa a9bd
00000160: d22b c2bd 0e96 30be e992 3cbd 9791 993d
00000170: 925e 273e fc53 49be 9a4d 253d 41d7 91bd
00000180: a32f b83c ae74 19be 2a23 2abd 9e0f 943d
00000190: 0c33 7f3e 2a46 85be 2d65 bebd 5fcd 78bd
000001a0: 5c0f bdbd 2791 413e 1c3c 55bd 8c18 e33d
000001b0: f648 933e 31c2 60bd b990 b4bd 62e1 083e
000001c0: 40c3 c3bd a188 9cbd 1df6 d93d b0d2 663d
000001d0: e42b b4bd cb06 0dbe 3925 313e 71e7 cdbd
000001e0: 6739 603d db58 09be 893a 58bd be49 febc
000001f0: cbb1 c6bc a901 debd 1c06 87bc d867 90bd
00000200: b303 84bd 1e13 ec3c 7d49 353d 2561 a93c
00000210: 6210 c13c 5d81 a5bb 727d 1dbd 3717 ba3d
00000220: 33c5 883d ce42 5d3e 1aa9 923e 00b0 eebc
00000230: 12f5 8a3e 9f86 23bd 035e 263e 0d43 9cbd
00000240: c70e 6c3d 5b73 48bd 8d56 1dbd d0ae 913d
00000250: 775f 49bd 99e5 b13c 3236 d93d 63d9 09be
00000260: 49ac b73d 540e 0abd 05e7 9bbd 88a7 463d
00000270: 71eb 03be f061 563d 0601 8cbd b2bb 733c
00000280: 01b8 95bd 9beb 2bbd 6a93 e6bd 7b37 2c3e
00000290: 4cd0 02be 81d4 1c3c 2123 25be 066e 3dbd
000002a0: 7019 ee3d f4ea 083d 8c21 213e 74f0 fc3c
000002b0: 2a42 043e 39e8 e93d 81ec 903c 2ae7 4fbd
000002c0: 6d2e 3e3e cbf4 acbd 0cd7 5abd b867 bc3d
000002d0: 9b2b a83d 5bf2 3b3e 18a9 b83d 5a89 12bd
000002e0: 76bb 3f3d d0f5 e8bd e4de c03d a9ff b4bd
000002f0: e469 a7bd 033e 2a3e af6b ac3d 49cd 1abe
00000300: e026 8bbd 8214 933d a20f 10be 4b80 cdbd
00000310: efe1 6b3d 9426 b33c 510a 02be cbea 6bbd
00000320: e5ef a9bd c2d4 673d 3d82 813d 898e 99bd
00000330: cc38 1fbd a4a9 a83d 3faf de3c b638 60be
00000340: 1f78 cb3d 3587 a9bd 0733 67be 0176 49be
00000350: 3fee 62bd b82c 6d3d b19c 05be 0036 0c3e
00000360: c0f2 15be 4eab 8c3d 7089 0d3c 905d 8a3b
00000370: 97bd 513d aaaf b83d 9667 91be c610 58be
00000380: 34c4 38be e563 42be db24 b8bd ca25 b9bd
00000390: f482 ab3b a104 ca3d 65a2 3bbe 18b0 1dbe
000003a0: d8e3 f53d 8f34 1dbe c9b9 663c 9897 453d
000003b0: ed0f 90bd 1a97 493d ea9d 86be 86d4 aebe
000003c0: a5e3 0b3d e40f e7bc bddc 1f3d b816 b4be
000003d0: 9cb9 463d 5232 b43d f9a1 afbd 52e0 15bd
000003e0: 784b 003e 75cd 3e3e 7ab2 1bbe e481 0a3e
000003f0: ce19 74be b512 4f3e ff05 94be 8aeb 4abe
-0.114587575 -0.07644028 -0.012715937 0.0012614091 -0.098525874 0.13032655 -0.10369154 -0.023672406
-0.14151369 0.06992491 0.15017103 -0.080678545 0.017186625 0.17393559 0.071706355 0.015389572
0.047108464 0.07850138 -0.063247636 -0.027128827 0.14163347 0.20697866 -0.0020849835 -0.15312614
0.14701018 0.11663481 0.15347064 0.028445153 -0.02366862 0.082970366 0.08119266 0.11426286
0.11654747 0.05555793 -0.094950646 -0.08035707 0.15830676 0.09092173 0.14884172 0.09619351
0.040937625 0.0012864306 -0.016921379 0.029615628 0.14938052 -0.026800008 0.087461814 -0.032552376
-0.16737677 -0.033517197 0.09412767 0.0016004698 0.1086422 0.1728605 -0.0006938412 -0.13411741
-0.13175757 0.028291743 -0.06013821 -0.0025251068 -0.1080669 0.042331155 0.11351194 0.0098259635
0.19783357 -0.010908452 0.3141779 0.19745186 0.035243843 0.10889911 0.17239606 -0.20938565
-0.19133574 -0.0663577 0.17877524 0.031726804 -0.1213731 0.09517292 -0.19475581 0.14552583
-0.14493228 0.36464775 0.070540875 -0.120343715 -0.16542895 -0.008070142 -0.01844901 -0.08299767
-0.09481014 -0.17244741 -0.046038542 0.07498472 0.1634467 -0.19660944 0.04035721 -0.071211345
0.022483652 -0.14985916 -0.04153744 0.07229541 0.24921817 -0.26030093 -0.092966415 -0.060742732
-0.09231445 0.18903027 -0.052059278 0.11088666 0.28766602 -0.054872695 -0.08816666 0.13367227
-0.09558725 -0.076432474 0.106426455 0.05635327 -0.08797434 -0.13772123 0.17299356 -0.100539096
0.054742243 -0.13412802 -0.0527902 -0.031041022 -0.0242547 -0.108401604 -0.016482405 -0.070510566
-0.06446018 0.02881771 0.044259537 0.020676205 0.023567382 -0.0050508217 -0.038449712 0.09086459
0.06678238 0.21607515 0.2864464 -0.029136658 0.271401 -0.039923307 0.162468 -0.076299764
0.05763128 -0.048938137 -0.03841262 0.07113421 -0.049163308 0.021715926 0.1060604 -0.13461833
0.08968408 -0.03370507 -0.07612423 0.048499614 -0.12882783 0.052339494 -0.06836133 0.014876293
-0.073104866 -0.041972738 -0.11258586 0.16818039 -0.12774771 0.009572149 -0.16126682 -0.046247505
0.116259456 0.033427194 0.15735453 0.030876376 0.12915865 0.11421246 0.017690899 -0.050757565
0.18572398 -0.08445128 -0.05342774 0.0919947 0.08211442 0.1835417 0.09016627 -0.03577552
0.046809636 -0.1137501 0.09417513 -0.08837826 -0.08174494 0.16625218 0.084189765 -0.15117373
-0.06794524 0.07181646 -0.14068463 -0.100342356 0.057588514 0.021868981 -0.12699248 -0.057596963
-0.082977094 0.056599386 0.06323669 -0.074978895 -0.038872525 0.082354814 0.027183173 -0.21896634
0.09935021 -0.08277742 -0.22578059 -0.19673921 -0.05540299 0.057903975 -0.13048054 0.13692474
-0.14643383 0.06868611 0.008638725 0.0042225793 0.051206198 0.0901788 -0.28399342 -0.21100149
-0.18043596 -0.18983419 -0.089914046 -0.09040411 0.0052341167 0.09864164 -0.18323667 -0.15399206
0.12006348 -0.15352081 0.014082381 0.048240274 -0.070342876 0.049216367 -0.26292354 -0.34146518
0.034152646 -0.02820582 0.03902887 -0.35173583 0.048516855 0.0879866 -0.08575816 -0.03659088
0.12528789 0.18633063 -0.15204802 0.13526112 -0.23837969 0.2022198 -0.28910825 -0.19816414

fc.3.bias f4 [9]
00000000: 2a85 8d3d 73fc 0e3e 18e8 8d3d f2d9 9b3e
00000010: f9b0 9b3d cac0 203e 8567 91bd f044 92be
00000020: 3fd1 04be
0.06910165 0.13963489 0.06929034 0.30439717 0.07602114 0.15698543 -0.07099823 -0.2856822
-0.12970446
