saved/building_gcn_raw_geoms.pth (torch, 36192 bytes, 18 tensors)

conv1.0.weight f4 [32, 4, 1, 1]
-0.5435895 0.101108305 -0.11679215 0.16480835 0.3432164 0.36711493 0.2518519 0.41331577
-0.42669418 0.48420906 0.4382705 0.14814313 -0.37757814 -0.14127791 0.40525237 -0.40219542
-0.20179683 0.27644652 0.3512123 0.17845818 0.18258782 -0.06991771 0.06429272 0.3883406
-0.38794923 -0.056927685 0.17515966 0.4474463 0.19947138 0.11881923 0.2753978 0.4182243
0.44795367 -0.38595256 0.0033344503 -0.14985906 0.3137495 0.27991304 0.16718146 -0.11078648
-0.38394624 -0.2788731 0.28746462 0.21224535 0.31066778 0.22759767 0.099033386 -0.079894304
-0.07704439 -0.17161062 -0.4112691 -0.08476797 0.23112293 0.40525493 -0.35116524 -0.18487862
-0.31094694 -0.4805184 -0.2588309 -0.30859417 -0.11040067 -0.020459445 0.4742753 0.14246503
-0.040615283 -0.2943177 -0.008366134 -0.40410888 0.021030141 -0.36632213 -0.37042278 -0.3802456
0.39443696 0.4669118 0.16794235 -0.17928435 0.65714467 -0.07310109 -0.31409347 -0.06571045
-0.10925183 0.013808989 0.7675103 -0.14795473 0.1485837 -0.1489464 0.30553535 -0.1282209
-0.3818854 -0.17557976 0.10234494 0.059104897 0.23966841 -0.395804 0.32586023 -0.3524172
0.30407315 -0.15901004 -0.17121597 -0.4648182 0.3251615 0.04664088 -0.011036736 0.07751123
-0.37986603 0.3927417 -0.07558499 -0.4374857 0.05992811 -0.44066128 -0.42315865 0.3745406
-0.45566976 0.16432306 -0.28859457 0.4483821 0.25649112 -0.21691465 -0.4172738 0.22830229
-0.13473158 -0.1540334 -0.26996654 -0.48247036 -0.42735624 -0.44559836 -0.26649138 0.052191947
00000000: ae28 0bbf df11 cf3d b930 efbd 85c3 283e
00000010: 0fba af3e 7df6 bb3e bbf2 803e 209e d33e
00000020: a977 dabe 40ea f73e fe64 e03e d5b2 173e
00000030: ec51 c1be 28ab 10be 3d7d cf3e 8fec cdbe
00000040: d4a3 4ebe 668a 8d3e 19d2 b33e bebd 363e
00000050: 4df8 3a3e 0431 8fbd e7ab 833d 94d4 c63e
00000060: 48a1 c6be 012d 69bd 0e5d 333e ae17 e53e
00000070: 3a42 4c3e 7f57 f33d f100 8d3e 7f21 d63e
00000080: 2f5a e53e 939b c5be cb86 5a3b a774 19be
00000090: c6a3 a03e c350 8f3e 9e31 2b3e 06e4 e2bd
000000a0: 9a94 c4be 74c8 8ebe 902e 933e d856 593e
000000b0: d90f 9f3e 5d0f 693e 04d2 ca3d a09f a3bd
000000c0: 73c9 9dbd b2ba 2fbe dd91 d2be d49a adbd
000000d0: 7dab 6c3e 937d cf3e eecb b3be d250 3dbe
000000e0: 7034 9fbe 8206 f6be 7c85 84be 0e00 9ebe
000000f0: bf19 e2bd 919a a7bc 36d4 f23e 5ae2 113e
00000100: 365c 26bd cfb0 96be 1c12 09bc 5ce7 cebe
00000110: 6747 ac3c 938e bbbe 0ea8 bdbe 8daf c2be
00000120: a4f3 c93e 100f ef3e 14f9 2b3e 5196 37be
00000130: a23a 283f 06b6 95bd dcd0 a0be 3393 86bd
00000140: 6cbf dfbd 193f 623c 8e7b 443f 7281 17be
00000150: 5326 183e 6885 18be 216f 9c3e 574c 03be
00000160: 7c86 c3be 2ecb 33be 399a d13d fa17 723d
00000170: a36b 753e d2a6 cabe 27d7 a63e 0770 b4be
00000180: 7aaf 9b3e 87d3 22be 3d53 2fbe a7fc edbe
00000190: 917b a63e 820a 3f3d 6dd3 34bc 35be 9e3d
000001a0: cd7d c2be 7115 c93e 4ecc 9abd 20fe dfbe
000001b0: 2e77 753d 5b9e e1be 40a8 d8be c9c3 bf3e
000001c0: 8c4d e9be 4e44 283e abc2 93be 5792 e53e
000001d0: ce52 833e e01e 5ebe e9a4 d5be 13c8 693e
000001e0: 13f7 09be eeba 1dbe 0e39 8abe 5b06 f7be
000001f0: 70ce dabe 7825 e4be 8f71 88be 39c7 553d

conv1.1.weight f4 [32]
1.0124294 0.9878958 0.9895048 1.0050855 0.9822256 1.0063193 0.99534404 1.0049312
0.998004 1.0008291 0.99873805 0.9872063 1.0120065 0.9901075 0.99512535 1.0002617
1.0014927 0.9969457 0.98387754 1.0552913 1.0253773 0.99392 1.0018165 0.99706525
0.99322456 1.0014383 0.99492556 0.9876056 0.9996848 0.9921831 0.9895036 1.0087949
00000000: 4997 813f bde6 7c3f 3050 7d3f a4a6 803f
00000010: 2373 7b3f 12cf 803f dece 7e3f 96a1 803f
00000020: 317d 7f3f 2b1b 803f 4cad 7f3f 8db9 7c3f
00000030: 6e89 813f af77 7d3f 89c0 7e3f 9308 803f
00000040: ea30 803f d537 7f3f 66df 7b3f c913 873f
00000050: 903f 833f 8b71 7e3f 863b 803f ab3f 7f3f
00000060: f743 7e3f 212f 803f 71b3 7e3f b8d3 7c3f
00000070: 58eb 7f3f b6ff 7d3f 1c50 7d3f 3120 813f

conv1.1.bias f4 [32]
-0.01631776 -0.024712672 -0.029432993 -0.0031317829 -0.0030052376 -0.00265107 -0.0014130209 0.000104287305
0.0006572887 -0.025155077 0.010001366 -0.011362774 0.010456515 0.0006801374 -0.0037888302 0.00547723
0.0064965193 -0.0017010445 -0.00049395836 -0.12921134 -0.07054107 0.001180935 0.002524619 -0.0016651814
-0.003538968 -0.0011471941 -0.02392258 -0.011969027 -0.03011072 -0.012729783 0.005226807 0.021151777
00000000: d3ac 85bc 3b72 cabc 761d f1bc 993e 4dbb
00000010: 85f3 44bb 93bd 2dbb 1d35 b9ba d2b4 da38
00000020: e64d 2c3a 0512 cebc c5dc 233c ee2a 3abc
00000030: cd51 2b3c 404b 323a 064e 78bb 567a b33b
00000040: c1e0 d43b 95f5 deba fc7c 01ba fa4f 04be
00000050: d677 90bd 9ac9 9a3a 1474 253b 3742 daba
00000060: 08ee 67bb 725d 96ba 49f9 c3bc bd19 44bc
00000070: c2aa f6bc 9490 50bc a345 ab3b 7e46 ad3c

conv1.1.running_mean f4 [32]
0.49838352 4.4522715 4.871467 -1.9935365 2.8286002 -0.56594676 -1.0717386 1.5420167
-3.760003 3.4543905 -3.5227306 2.8719962 -1.9864277 4.746978 -5.670628 -0.3511075
-3.3028367 -4.0288067 5.615031 -0.054891106 0.029048035 -1.4785743 -2.3774314 -4.106238
-1.4130647 0.8876118 3.9126348 -4.807124 1.3002453 -2.1079674 -1.8575684 -5.416823
00000000: 202c ff3e 0279 8e40 0fe3 9b40 342c ffbf
00000010: c907 3540 e3e1 10bf bb2e 89bf ce60 c53f
00000020: e4a3 70c0 bc14 5d40 6b74 61c0 c9ce 3740
00000030: 4343 febf 3ee7 9740 c975 b5c0 5dc4 b3be
00000040: ad61 53c0 fceb 80c0 55ae b340 7fd5 60bd
00000050: 25f6 ed3c ec41 bdbf d627 18c0 4d66 83c0
00000060: 4edf b4bf 873a 633f 9c68 7a40 f6d3 99c0
00000070: 706e a63f f0e8 06c0 cdc4 edbf 9d56 adc0

conv1.1.running_var f4 [32]
2.367553 74.89162 83.89532 20.353498 28.905636 16.311024 26.723234 20.586336
49.982857 47.5095 57.637848 32.56058 14.058182 95.85687 114.12081 4.114193
44.137707 62.10976 126.212555 0.8499928 0.44885 7.801374 22.67232 61.079132
22.084091 2.9102898 87.291275 107.43164 17.110067 22.476217 27.777357 109.89769
00000000: fd85 1740 82c8 9542 67ca a742 f7d3 a241
00000010: be3e e741 fa7c 8241 2fc9 d541 d1b0 a441
00000020: 72ee 4742 ba09 3e42 288d 6642 093e 0242
00000030: 50ee 6041 b8b6 bf42 db3d e442 78a7 8340
00000040: 038d 3042 6570 7842 d46c fc42 2199 593f
00000050: abcf e53e dba4 f940 e960 b541 0851 7442
00000060: 38ac b041 3042 3a40 2295 ae42 00dd d642
00000070: 6be1 8841 4bcf b341 0738 de41 9ecb db42

conv2.0.weight f4 [64, 64, 1, 1]
-0.036678083 0.073742926 0.06217143 -0.09340873 0.11154935 0.09999717 -0.07500881 -0.1274274
0.008688798 -0.028866658 -0.08193338 0.058178417 -0.022339465 0.038661707 0.11076614 -0.108907275
0.07508794 -0.10880009 0.09334712 -0.103542164 -0.06427824 -0.068041824 -0.1256676 0.10188909
-0.106189646 -0.014199285 -0.055318408 0.08816819 -0.12880029 -0.068490185 -0.006039871 0.022624314
-0.088377 0.07365526 -0.12117112 0.0031339221 0.028998256 0.060034 -0.05251612 0.12124903
-0.03929711 0.035975374 0.10232698 -0.03626653 0.03452772 -0.0367656 -0.09105382 0.0046960874
0.08929051 0.068613894 0.06605121 -0.123283364 0.0791127 -0.046064354 0.04803711 0.04912625
0.044273727 0.10412901 -0.05322958 0.0070719826 -0.033205405 0.06080827 -0.089791104 0.0068058814
-0.026159499 -0.11221052 0.08636692 -0.0017166483 0.065416194 -0.104000315 0.09431676 0.008478079
-0.049893074 0.10773689 -0.08631272 -0.062147375 -0.11181896 -0.03696645 -0.105351865 0.041759845
-0.096275926 0.058739737 -0.009886008 -0.10145308 0.038785957 0.030274307 -0.12071515 -0.031319875
-0.026135163 0.07230254 -0.10333092 -0.11950947 -0.08156384 0.064659216 -0.112778485 0.114343785
0.045521386 0.06327509 -0.071664244 0.082020596 -0.026624484 0.030523606 -0.12843367 0.04839648
-0.010645431 0.03313972 0.0643243 -0.091164984 0.01833806 0.026024831 0.057719722 0.09019501
0.044458218 0.019237181 -0.112516746 -0.014728928 0.063090146 0.090231344 0.034437288 0.09849204
0.0840987 -0.04983877 0.07439009 -0.0015551307 -0.05142808 -0.1083589 -0.02576148 -0.05206288
0.08156291 -0.0225988 0.06729978 0.0074049206 0.018181946 0.08769874 0.09348601 -0.08701892
-0.046170697 -0.046695694 -0.041477732 -0.11339258 -0.005295821 -0.06615551 0.021284733 0.07342517
0.051407192 -0.07311981 -0.10373315 0.020522738 -0.030262513 0.052833136 0.030742109 -0.087739624
0.11678609 0.02737498 0.0796137 -0.084308036 -0.10768621 0.081627436 0.089133255 -0.0049854717
0.105464816 0.12256395 0.10092111 -0.12163027 0.09707882 -0.12523761 -0.044890918 0.03691004
-0.044038046 0.11589711 -0.06286384 0.084296234 0.007996836 0.025833787 0.076395966 -0.07622433
-0.024089172 0.04436094 -0.015517507 -0.09598474 0.08856773 0.070613824 0.03769387 -0.07347179
0.05743959 -0.11464557 0.00740084 0.002941021 -0.037076496 -0.04653389 -0.07165181 -0.01824598
0.009261965 -0.09797002 -0.024398195 0.11017953 -0.1205854 -0.030263534 -0.049546428 -0.023793109
-0.029594885 0.12288226 0.12512338 0.12793835 -0.037273776 0.09012708 0.076484814 0.003840292
0.011103219 0.0019396269 -0.04707201 -0.031067932 -0.09630017 -0.10204854 -0.099059984 -0.09073187
-0.0027164028 0.08169937 -0.06379063 -0.108243614 -0.1309628 0.006122939 -0.03343315 0.113842905
0.07805082 0.063247636 0.09892925 0.024809586 0.08920633 -0.057350926 0.016129652 0.0416485
-0.058894485 -0.057369553 0.09751463 0.096842796 0.05430701 -0.0038279002 -0.099411465 -0.092547536
0.059122596 -0.12261898 0.011672106 -0.107020624 -0.052388776 0.09756373 -0.09343265 0.10820992
-0.11923443 -0.04592834 -0.11266763 -0.086227976 0.019070717 0.09201098 -0.014572935 -0.023893105
00000000: c23b 16bd 8806 973d 78a7 7e3d 144d bfbd
00000010: fc73 e43d 51cb cc3d 389e 99bd 547c 02be
00000020: 765b 0e3c c579 ecbc b0cc a7bd 7e4c 6e3d
00000030: 4101 b7bc bd5b 1e3d 5cd9 e23d c70a dfbd
00000040: b5c7 993d 95d2 debd c62c bf3d ea0d d4bd
00000050: 4fa4 83bd 8359 8bbd 02af 00be 3aab d03d
00000060: f579 d9bd 1ea4 68bc 8e95 62bd 8691 b43d
00000070: 39e4 03be 9544 8cbd 1cea c5bb a056 b93c
00000080: 00ff b4bd 92d8 963d 9028 f8bd 7d62 4d3b
00000090: c08d ed3c 36e6 753d 251b 57bd 6951 f83d
000000a0: 02f6 20bd ea5a 133d cf90 d13d 378c 14bd
000000b0: f06c 0d3d 8797 16bd 6d7a babd a3e1 993b
000000c0: f1dd b63d 7185 8c3d db45 873d fd7b fcbd
000000d0: d705 a23d faad 3cbd 90c2 443d 9b38 493d
000000e0: 5e58 353d 9741 d53d 4307 5abd 17bc e73b
000000f0: 6402 08bd 1812 793d 66e4 b7bd df03 df3b
00000100: 724c d6bc a1ce e5bd 24e1 b03d 2901 e1ba
00000110: edf8 853d 1efe d4bd 2529 c13d a4e7 0a3c
00000120: ae5c 4cbd 29a5 dc3d b9c4 b0bd 3f8e 7ebd
00000130: 5701 e5bd 226a 17bd b8c2 d7bd 5f0c 2b3d
00000140: 502c c5bd 1499 703d ecf8 21bc a2c6 cfbd
00000150: 06de 1e3d d301 f83c 8139 f7bd 4549 00bd
00000160: 6919 d6bc 5b13 943d 299f d3bd 62c1 f4bd
00000170: f10a a7bd 0d6c 843d 68f8 e6bd 132d ea3d
00000180: a274 3a3d 5f96 813d b4c4 92bd 6afa a73d
00000190: 971b dabc a40c fa3c 1e84 03be 633b 463d
000001a0: 2c6a 2ebc 84bd 073d 75bc 833d b5b4 babd
000001b0: b339 963c 0732 d53c 846b 6c3d 29b8 b83d
000001c0: d219 363d 4b97 9d3c 2e6f e6bd 9a51 71bc
000001d0: 6835 813d 36cb b83d 1d0e 0d3d 32b6 c93d
000001e0: f03b ac3d bd23 4cbd d559 983d 87d5 cbba
000001f0: 40a6 52bd 45eb ddbd bd09 d3bc e33f 55bd
00000200: 740a a73d 1e21 b9bc 78d4 893d faa4 f23b
00000210: 4ef2 943c 669b b33d 9875 bf3d fa36 b2bd
00000220: 7c1d 3dbd fc43 3fbd 8ee4 29bd 5e3a e8bd
00000230: 9188 adbb 8a7c 87bd 525d ae3c ef5f 963d
00000240: 5990 523d d7bf 95bd 0c72 d4bd 4d1f a83c
00000250: 17e9 f7bc 8f67 583d e0d6 fb3c d5b0 b3bd
00000260: 8c2d ef3d 7e41 e03c 820c a33d b1a9 acbd
00000270: 968a dcbd 492c a73d 7f8b b63d 2b5d a3bb
00000280: f0fd d73d cf02 fb3d baaf ce3d 4a19 f9bd
00000290: 43d1 c63d 4a3e 00be 8adf 37bd fb2e 173d
000002a0: 3d61 34bd 775b ed3d c2be 80bd 81a3 ac3d
000002b0: 2905 033c 61a1 d33c 7d75 9c3d 801b 9cbd
000002c0: a856 c5bc d1b3 353d 243d 7ebc a693 c4bd
000002d0: ff62 b53d fb9d 903d e364 1a3d 6178 96bd
000002e0: c745 6b3d 4ccb eabd bf82 f23b 25be 403b
000002f0: 86dd 17bd 529a 3ebd 2fbe 92bd 9878 95bc
00000300: 7fbf 173c 81a4 c8bd b9de c7bc cea5 e13d
00000310: 7af5 f6bd 3beb f7bc 32f1 4abd c4e9 c2bc
00000320: f970 f2bc b2a9 fb3d 5820 003e 4502 033e
00000330: 63ac 18bd 8c94 b83d 12a4 9c3d 69ad 7b3b
00000340: 47ea 353c 143b fe3a 94ce 40bd 2d82 febc
00000350: 0639 c5bd d3fe d0bd f6df cabd a1d1 b9bd
00000360: ad05 32bb 0052 a73d a9a4 82bd d4ae ddbd
00000370: 1d1b 06be efa2 c83b 33f1 08bd 7826 e93d
00000380: 1cd9 9f3d fa87 813d 6b9b ca3d 793d cb3c
00000390: cfb1 b63d cee8 6abd 5522 843c 9e97 2a3d
000003a0: 583b 71bd 56fc 6abd c0b5 c73d 8455 c63d
000003b0: 0771 5e3d 82dd 7abb 3d98 cbbd 9089 bdbd
000003c0: 892a 723d a91f fbbd 5c3c 3f3c a12d dbbd
000003d0: 9d95 56bd 7ecf c73d 9e59 bfbd 2a9d dd3d
000003e0: 2e31 f4bd 5b1f 3cbd 49be e6bd 4b98 b0bd
000003f0: 313a 9c3c 4170 bc3d 52c3 6ebc 79bb c3bc

conv2.1.weight f4 [64]
0.9949221 0.9976609 0.9989248 1.0006481 0.9971756 0.99392265 1.0107841 0.9954904
0.9898561 0.99733657 0.9943485 1.0005009 1.0026193 0.9991447 0.99091256 0.99545676
1.0009371 0.9812219 0.99658096 0.99880433 0.9955852 1.000748 0.99396235 1.0084411
0.9980706 1.0058049 1.0078518 1.0002712 0.9947089 1.0302893 1.0033679 0.9991776
1.0090897 1.0071005 0.99848795 1.0024312 0.997531 1.0065322 0.99368525 0.9975905
0.9996644 1.0005268 1.0091385 1.0006598 0.9965126 0.99879736 0.99504733 1.0026011
1.0035844 0.9987541 1.0101973 0.9963047 0.9931921 1.0012652 0.9966785 0.9987009
0.9839711 0.9977551 1.0122969 0.9987324 1.0078601 0.99906856 1.000352 1.012618
00000000: 37b3 7e3f b466 7f3f 89b9 7f3f 3d15 803f
00000010: e646 7f3f b771 7e3f 6061 813f 75d8 7e3f
00000020: 3667 7d3f 7351 7f3f a08d 7e3f 6a10 803f
00000030: d455 803f f2c7 7f3f 72ac 7d3f 41d6 7e3f
00000040: b51e 803f 5c31 7b3f ee1f 7f3f a4b1 7f3f
00000050: acde 7e3f 8318 803f 5174 7e3f 9914 813f
00000060: 8e81 7f3f 37be 803f 4a01 813f e308 803f
00000070: 3ea5 7e3f 85e0 833f 5c6e 803f 1aca 7f3f
00000080: da29 813f abe8 803f e89c 7f3f aa4f 803f
00000090: 315e 7f3f 0cd6 803f 2862 7e3f 1762 7f3f
000000a0: 02ea 7f3f 4311 803f 732b 813f 9f15 803f
000000b0: 731b 7f3f 2fb1 7f3f 6cbb 7e3f 3c55 803f
000000c0: 7475 803f 59ae 7f3f 254e 813f d30d 7f3f
000000d0: d641 7e3f 7529 803f 5226 7f3f ddaa 7f3f
000000e0: 88e5 7b3f e16c 7f3f f292 813f edac 7f3f
000000f0: 8f01 813f f5c2 7f3f 890b 803f 779d 813f

conv2.1.bias f4 [64]
-0.0054090656 0.002532795 -0.005426316 -0.00059890916 0.00395454 -0.005270592 -0.0042771427 -0.013562686
0.0091373455 0.00066488713 -0.009996921 0.008479762 -0.013544182 0.002064463 0.0033971923 -0.011666885
-0.012880212 0.004740052 0.0013294469 0.0033477324 0.001930414 -0.00036758653 -0.009833201 -0.015755575
-0.0022642529 -0.001247246 -0.0067892238 0.011871393 -0.0053999224 0.02227982 8.543195e-05 -0.007964397
0.008270731 0.005949243 -0.012261818 0.007415232 -0.010652073 -0.0031655803 -0.004581611 -0.015121303
0.0017791898 -0.013423409 0.010534947 0.007461163 -0.0010151331 -0.013423466 -0.0055659045 -0.007441003
0.013690279 -0.004917903 -0.0047016935 -0.008875779 0.01826112 -0.016641907 -0.003650605 -0.0076157283
-0.00093689206 -0.0037327164 -0.054379012 -0.0016261077 -0.018635668 -0.009880962 -0.0088539915 0.018696414
00000000: 883e b1bb 40fd 253b 3dcf b1bb 1d00 1dba
00000010: 1695 813b eeb4 acbb 4627 8cbb 0736 5ebc
00000020: ceb4 153c d24b 2e3a 20ca 23bc b3ee 0a3c
00000030: 6be8 5dbc f14b 073b 6ea3 5e3b 7626 3fbc
00000040: 8607 53bc 7052 9b3b d640 ae3a a165 5b3b
00000050: f205 fd3a a1b8 c0b9 6f1b 21bc d611 81bc
00000060: dc63 14bb a27a a3ba 2378 debb 3b80 423c
00000070: d5f1 b0bb 2b84 b63c ee29 b338 1a7d 02bc
00000080: f681 073c def1 c23b cbe5 48bc 79fb f23b
00000090: 0886 2ebc a075 4fbb 5721 96bb 57bf 77bc
000000a0: b433 e93a dced 5bbc c59a 2c3c c67c f43b
000000b0: 370e 85ba 19ee 5bbc 3162 b6bb a8d3 f3bb
000000c0: 314d 603c 5c26 a1bb aa10 9abb b76b 11bc
000000d0: 5898 953c 9c54 88bc fd3e 6fbb 5c8d f9bb
000000e0: c399 75ba 97a0 74bb 87bc 5ebd 1f23 d5ba
000000f0: d4a9 98bc c2e3 21bc 5510 11bc 3929 993c

conv2.1.running_mean f4 [64]
-0.13208579 -0.23446739 0.009084759 -0.09089342 -0.0938881 0.13015844 0.18933658 0.068484634
0.18246245 -0.015468604 0.24776463 0.044506557 0.1891398 -0.12814024 0.16516997 -0.09084674
0.037628148 -0.17127475 0.028413657 0.097269855 -0.031833835 0.10373608 -0.1140864 0.27939522
-0.19803828 0.2578034 0.064947926 0.12662704 0.043471895 0.11122846 0.0061293053 -0.004525867
0.14134113 -0.0255013 0.14827716 -0.06001083 -0.111983486 -0.04231136 0.111730404 0.09761863
-0.026398692 0.0060308403 0.0871098 -0.076459974 -0.15309566 0.15188995 0.12265986 0.14124475
-0.13274221 -0.0308635 0.18258457 -0.02694749 -0.14622867 0.24444018 0.33917877 -0.123585485
-0.017182413 -0.19092372 -0.19248222 -0.23241399 0.26764345 -0.11315269 0.26284346 -0.17306976
00000000: 7f41 07be 3818 70be 3ed8 143c 5426 babd
00000010: 6748 c0bd 4148 053e 73e1 413e ac41 8c3d
00000020: 70d7 3a3e 0770 7dbc 03b6 7d3e 824c 363d
00000030: ddad 413e 3237 03be 5122 293e db0d babd
00000040: f91f 1a3d a662 2fbe c2c3 e83c 6b35 c73d
00000050: 3264 02bd 9573 d43d 21a6 e9bd e40c 8f3e
00000060: 8cca 4abe cffe 833e 6b03 853d 85aa 013e
00000070: 960f 323d bfcb e33d 57d8 c83b b94d 94bb
00000080: bbbb 103e 1ae8 d0bc f8d5 173e ebcd 75bd
00000090: 9957 e5bd ad4e 2dbd e9d2 e43d 47ec c73d
000000a0: 1242 d8bc 5b9e c53b 9f66 b23d 0c97 9cbd
000000b0: 1cc5 1cbe 0a89 1b3e 1835 fb3d 77a2 103e
000000c0: 93ed 07be 73d5 fcbc 73f7 3a3e fcc0 dcbc
000000d0: f8bc 15be 874e 7a3e d7a8 ad3e 631a fdbd
000000e0: 22c2 8cbc 8281 43be 0f1a 45be effd 6dbe
000000f0: 9008 893e 99bc e7bd 6b93 863e 3339 31be

conv2.1.running_var f4 [64]
0.28022808 0.16567619 0.2100884 0.2544005 0.36853054 0.25640523 0.08767577 0.23484086
0.193019 0.25200576 0.25202176 0.24885859 0.22979164 0.22233576 0.61181927 0.12068674
0.03200667 0.31476015 0.07087828 0.29751977 0.11020522 0.25780568 0.24260281 0.19890401
0.089762405 0.12898178 0.03452645 0.7174319 0.21995017 0.07748018 0.23976874 0.15795983
0.04632686 0.26449847 0.18243673 0.15066203 0.32920545 0.015987258 0.42651078 0.05676111
0.11777261 0.5397767 0.07326409 0.2323146 0.12406959 0.050640933 0.1344052 0.05657767
0.04112516 0.16408092 0.13072997 0.22329755 0.08954103 0.10053187 0.39034507 0.05821475
0.12399216 0.2957518 0.039055977 0.1532386 0.055504423 0.036821876 0.07797793 0.16402958
00000000: 0e7a 8f3e 05a7 293e 6a21 573e c840 823e
00000010: 09b0 bc3e 8c47 833e 5b8f b33d 1f7a 703e
00000020: c6a6 453e e606 813e ff08 813e c9d4 7e3e
00000030: 804e 6b3e fcab 633e 30a0 1c3f 9c2a f73d
00000040: 6d19 033d 3e28 a13e a228 913d 8354 983e
00000050: 46b3 e13d 1bff 833e df6c 783e 7ead 4b3e
00000060: 5ad5 b73d cd13 043e 9b6b 0d3d 9ea9 373f
00000070: 9e3a 613e eead 9e3d f085 753e 39c0 213e
00000080: 3cc1 3d3d 586c 873e b2d0 3a3e 2647 1a3e
00000090: 9e8d a83e b6f7 823c 9f5f da3e 567e 683d
000000a0: c432 f13d ce2e 0a3f 7c0b 963d e1e3 6d3e
000000b0: 3218 fe3d de6c 4f3d 84a1 093e fdbd 673d
000000c0: db72 283d d404 283e 14de 053e 1da8 643e
000000d0: 4a61 b73d a7e3 cd3d 4fdb c73e 9772 6e3d
000000e0: 9aef fd3d c86c 973e 29f9 1f3d 94ea 1c3e
000000f0: 9b58 633d 89d2 163d e5b2 9f3d 5ff7 273e

classifier.0.weight f4 [32, 64]
-0.08704595 -0.040614903 0.025245639 0.001097924 0.07284783 0.12537031 -0.079619616 -0.031167436
0.049155008 0.117516465 0.08902037 0.1337629 0.12058552 0.07381 0.02715855 -0.107813254
-0.05401942 -0.03618652 0.13686748 0.0055200327 -0.026855627 0.05000495 0.07509831 0.030875163
-0.06863488 -0.074004896 -0.036746833 0.05299515 -0.008418297 0.10981083 0.09475882 0.124204405
0.05253718 0.10078397 0.020191312 -0.10426753 0.026286596 -0.113557 0.10569161 0.015702995
0.050174724 0.10425437 -0.028526418 -0.0655056 -0.03568169 -0.07061971 0.11785086 0.1257737
-0.07761889 -0.09531307 0.0635408 0.08964001 -0.11454347 0.016909713 -0.0925656 -0.11646726
0.048480764 0.05170387 0.03711683 -0.068453036 0.12838195 -0.06775045 -0.08438064 -0.10301159
0.07222919 -0.120775 -0.036482394 0.054965843 0.09348593 -0.0073994496 -0.007755523 -0.030373434
0.03361685 -0.044207837 0.02437366 -0.008083386 0.058571734 0.13175505 0.09214032 -0.00035081193
-0.090034455 0.022743408 -0.07407122 0.117259055 -0.06961126 0.082226075 -0.013301431 0.061968315
0.07399978 0.08119053 -0.024983525 -0.09579323 0.09447897 0.10292883 0.093042806 0.1200894
0.07453676 0.12712382 0.021145798 0.06683543 -0.013682955 0.029285885 -0.101200975 0.107821904
-0.045685194 -0.03868018 0.114421465 0.09891552 -0.06532558 0.07534084 -0.028010016 -0.01236721
0.12228723 0.074868396 -0.03773009 0.031718697 0.06301815 -0.07031481 0.09846678 -0.0405913
-0.011419549 -0.044739902 0.067217335 0.106573574 0.043104216 0.007390688 -0.029105084 -0.10549783
-0.041119847 -0.07527502 0.019799972 -0.07480077 -0.12407904 -0.1254982 -0.0175448 -0.052087497
-0.04348906 0.10435902 0.06474224 0.07256067 -0.060501385 0.037 0.093485214 0.1147331
-0.12135742 0.04855562 0.09725928 0.020271244 0.070741594 0.026414923 0.092342384 -0.006769629
-0.03800127 -0.119507335 0.07790431 0.105205394 -0.022234911 0.08194535 -0.09983931 0.030743673
0.020815514 0.039396364 -0.031392757 0.084911436 0.11469057 0.09659796 0.028811391 0.06149105
-0.08488364 -0.079064175 0.10842218 -0.09797862 0.087997906 0.00048500177 0.04590141 0.0746393
-0.061206687 -0.06012263 -0.061337564 0.016136944 0.005513487 -0.02054676 -0.067732595 0.057062913
-0.060214523 0.022599623 -0.060957026 0.047936447 -0.07157108 -0.08338919 -0.09323953 0.095783755
-0.07370041 -0.10282946 -0.0014332244 -0.035384815 -0.12262029 0.091322914 0.027540645 0.09375806
-0.099306405 0.10440112 -0.011498107 -0.021699239 -0.015536104 -0.0014736424 -0.039734744 -0.07259397
-0.046996992 -0.08306525 0.05823706 0.104897805 -0.07793699 0.038427185 -0.067827724 0.027462458
0.039095983 0.025171546 -0.0054011135 -0.10438357 0.049199294 -0.10986132 -0.020190107 0.1121012
-0.09971456 0.0886036 -0.046286948 -0.030212991 0.041298494 0.06098068 0.094789736 0.016487777
-0.046147507 0.06696814 0.0014112942 -0.017453909 0.013802263 0.0065908683 -0.10065543 0.039805807
0.07860445 -0.035116263 0.020389436 -0.12699406 -0.01681849 -0.054349083 0.07102895 0.0043569934
-0.09727244 -0.104840145 -0.0767865 0.11080337 0.024276849 0.04664994 0.09524954 -0.08283848
00000000: 2645 b2bd d05b 26bd f1cf ce3c 37e8 8f3a
00000010: 3e31 953d 1361 003e 9c0f a3bd da52 ffbc
00000020: c356 493d 79ac f03d 5050 b63d 24f9 083e
00000030: 8bf5 f63d b329 973d 9c7b de3c 32cd dcbd
00000040: 7843 5dbd 5138 14bd fd26 0c3e 64e1 b43b
00000050: 5500 dcbc fed1 4c3d 25cd 993d e9ed fc3c
00000060: 7290 8cbd e18f 97bd d983 16bd 7111 593d
00000070: e6ec 09bc 80e4 e03d ea10 c23d e15e fe3d
00000080: 3a31 573d d367 ce3d 4068 a53c 378a d5bd
00000090: fd56 d73c 9390 e8bd d874 d83d 91a3 803c
000000a0: 0384 4d3d 5183 d53d 3cb0 e9bc cd27 86bd
000000b0: f726 12bd 11a1 90bd cb5b f13d d2ca 003e
000000c0: a7f6 9ebd 8033 c3bd ae21 823d 2e95 b73d
000000d0: c495 eabd 3d86 8a3c 0993 bdbd 6386 eebd
000000e0: c493 463d 70c7 533d d107 183d 1b31 8cbd
000000f0: 8f76 033e bfc0 8abd c2cf acbd bef7 d2bd
00000100: e6ec 933d e258 f7bd 906e 15bd dd23 613d
00000110: 8d75 bf3d 1577 f2bb 0b22 febb b5d1 f8bc
00000120: d2b1 093d 4713 35bd 45ab c73c 2e70 04bc
00000130: eae8 6f3d ccea 063e 10b4 bc3d 2eed b7b9
00000140: fc63 b8bd 6250 ba3c a7b2 97bd 8425 f03d
00000150: 5990 8ebd 2566 a83d 3fee 59bc 7dd2 7d3d
00000160: 328d 973d 3847 a63d 40aa ccbc 3e2f c4bd
00000170: 317e c13d 5acc d23d 3a8d be3d 6ef1 f53d
00000180: bba6 983d bf2c 023e f439 ad3c 04e1 883d
00000190: 792e 60bc f4e8 ef3c 7542 cfbd bbd1 dc3d
000001a0: 6620 3bbd 1c6f 1ebd cd55 ea3d 3894 ca3d
000001b0: 6bc9 85bd 4c4c 9a3d 4375 e5bc d79f 4abc
000001c0: ba71 fa3d 9a54 993d de8a 1abd 77eb 013d
000001d0: a90f 813d 3601 90bd f3a8 c93d 1043 26bd
000001e0: 0f19 3bbc 3041 37bd 3ea9 893d 3f43 da3d
000001f0: 0c8e 303d 962d f23b c96d eebc 3f0f d8bd
00000200: 496d 28bd ca29 9abd 8d33 a23c 2531 99bd
00000210: 271d febd 9a82 00be 1dba 8fbc b359 55bd
00000220: 9621 32bd 2fba d53d 9497 843d b09a 943d
00000230: 4dd0 77bd 508d 173d 2d75 bf3d 30f9 ea3d
00000240: 3d8a f8bd 42e2 463d e02f c73d e10f a63c
00000250: f8e0 903d 1c64 d83c 011e bd3d c4d3 ddbb
00000260: 38a7 1bbd 43c0 f4bd 4b8c 9f3d ed75 d73d
00000270: fd25 b6bc f7d2 a73d 8d78 ccbd 28da fb3c
00000280: 4c85 aa3c 155e 213d b195 00bd 0ce6 ad3d
00000290: e4e2 ea3d 27d5 c53d de05 ec3c 0ade 7b3d
000002a0: 79d7 adbd 66ec a1bd 730c de3d 04a9 c8bd
000002b0: 3f38 b43d d647 fe39 1e03 3c3d 7ddc 983d
000002c0: ddb3 7abd 2643 76bd 193d 7bbd a031 843c
000002d0: 7baa b43b ae51 a8bc 63b7 8abd cdba 693d
000002e0: 81a3 76bd d822 b93c 13ae 79bd 0259 443d
000002f0: dc93 92bd f4c7 aabd 5ef4 bebd 462a c43d
00000300: 3ef0 96bd 4098 d2bd 08db bbba abef 10bd
00000310: 5920 fbbd 8207 bb3d eb9c e13c 3a04 c03d
00000320: 2861 cbbd 41d0 d53d 8e62 3cbc 9ac2 b1bc
00000330: 258b 7ebc 3c27 c1ba e6c0 22bd 26ac 94bd
00000340: eb7f 40bd 1d1e aabd fc89 6e3d a9d4 d63d
00000350: 6e9d 9fbd d365 1d3d 43e9 8abd f3f8 e03c
00000360: 1c23 203d 8f34 ce3c d3fb b0bb 0ec7 d5bd
00000370: 3385 493d f9fe e0bd b965 a5bc 5095 e53d
00000380: 2637 ccbd ce75 b53d 6297 3dbd 3c81 f7bc
00000390: 9c28 293d e1c6 793d 1f21 c23d 6011 873c
000003a0: 2b05 3dbd 9826 893d 2dfb b83a 80fb 8ebc
000003b0: e322 623c 36f8 d73b 6f24 cebd 6a0b 233d
000003c0: 5ffb a03d 12d6 0fbd bf07 a73c bb0a 02be
000003d0: eec6 89bc 259d 5ebd a077 913d 1cc5 8e3b
000003e0: c636 c7bd 6eb6 d6bd 3e42 9dbd e1ec e23d
000003f0: 3ee0 c63c 0214 3f3d 3112 c33d 39a7 a9bd

classifier.0.bias f4 [32]
-0.042710777 0.056656502 -0.033456787 0.112489715 -0.070394784 0.12427608 -0.06575404 -0.09291796
0.09545789 -0.008304981 -0.072699696 -0.06222859 0.08331601 -0.10276367 0.029011985 -0.0060753557
-0.01608194 0.014944345 -0.03845355 -0.037078153 -0.028902452 -0.10465118 0.11716596 0.07027392
0.120994456 0.044479102 -0.06520744 0.10618906 -0.09646654 -0.0366659 0.05417632 0.092960164
00000000: 7ff1 2ebd a610 683d fc09 09bd 0261 e63d
00000010: 242b 90bd 7584 fe3d 0eaa 86bd c54b bebd
00000020: 6d7f c33d 9d11 08bc 94e3 94bd 68e3 7ebd
00000030: 96a1 aa3d c275 d2bd 8baa ed3c c713 c7bb
00000040: 46be 83bc 20d9 743c 7881 1dbd 43df 17bd
00000050: d6c4 ecbc 5c53 d6bd b5f4 ef3d c6eb 8f3d
00000060: f1cb f73d b82f 363d 7a8b 85bd a679 d93d
00000070: 4090 c5bd fc2e 16bd fde7 5d3d e661 be3d

classifier.1.weight f4 [32]
1.0388215 0.99052644 1.0112019 1.0329046 1.0060525 1.0541034 1.0128773 0.9936531
1.0738933 0.975126 0.9958997 1.0031332 1.0768251 0.99191767 0.9940328 0.9899123
1.0330205 1.0024033 0.9969978 1.037364 1.0209572 1.0129762 1.0457828 1.0025997
1.0659693 1.0070772 1.0210645 1.0696415 1.0299155 1.015678 1.0285006 0.9955822
00000000: 1af8 843f 2493 7d3f 106f 813f 3836 843f
00000010: 54c6 803f dcec 863f f7a5 813f 0d60 7e3f
00000020: 5675 893f dca1 793f 48f3 7e3f ab66 803f
00000030: 68d5 893f 51ee 7d3f ef78 7e3f e46a 7d3f
00000040: 043a 843f c04e 803f 3f3b 7f3f 58c8 843f
00000050: baae 823f 34a9 813f 36dc 853f 3055 803f
00000060: af71 883f e8e7 803f 3eb2 823f 03ea 883f
00000070: 45d4 833f bd01 823f e8a5 833f 7ade 7e3f

classifier.1.bias f4 [32]
0.13303727 0.024046272 0.021565463 -0.117232874 0.015729403 0.18053705 0.20803781 0.063985236
0.10488787 -0.06343698 0.061152197 0.22024633 0.072639756 0.055844154 -0.07189192 0.03340244
-0.12027431 -0.06087529 -0.0148557015 0.008937996 -0.073734224 -0.019375116 0.31209248 0.0395967
0.0104958555 0.032771375 0.07779662 0.12585011 0.10270962 0.13195221 0.11396721 -0.009207395
00000000: ec3a 083e b0fc c43c 0eaa b03c ca17 f0bd
00000010: f3da 803c b4de 383e dd07 553e b10a 833d
00000020: 74cf d63d 3feb 81bd ba7a 7a3d 4188 613e
00000030: 27c4 943d d7bc 643d 123c 93bd ffd0 083d
00000040: 6152 f6bd 5e58 79bd 5465 73bc ac70 123c
00000050: f801 97bd 90b8 9ebc 96ca 9f3e 2630 223d
00000060: cff6 2b3c 473b 063d d653 9f3d dade 003e
00000070: 6c59 d23d 7b1e 073e a467 e93d 9dda 16bc

classifier.1.running_mean f4 [32]
0.15043764 0.52377707 0.024065128 -0.042548243 0.27037272 0.464125 -0.04966692 -0.079599805
0.37621707 -0.1737845 0.25797918 -0.069196306 -0.25683618 0.13064471 0.2762525 0.07399871
-0.40171176 -0.023656951 0.12000454 -0.26087868 0.0702894 -0.20402163 0.088442795 0.14142378
0.45590675 0.13621005 -0.02059676 0.24325117 -0.16343744 -0.2143967 0.20754054 0.12029487
00000000: 530c 1a3e 4116 063f 3b24 c53c 1147 2ebd
00000010: 4b6e 8a3e cba1 ed3e 8a6f 4bbd 3905 a3bd
00000020: 869f c03e 90f4 31be d915 843e cbb6 8dbd
00000030: 0880 83be bac7 053e f870 8d3e a38c 973d
00000040: 2aad cdbe 39cc c1bc f1c4 f53d e491 85be
00000050: e4f3 8f3d 0ceb 50be 7f21 b53d 65d1 103e
00000060: 9c6c e93e a67a 0b3e 89ba a8bc d616 793e
00000070: 255c 27be cf8a 5bbe 8285 543e 285d f63d

classifier.1.running_var f4 [32]
0.0016546936 0.0013502544 0.009722496 0.012073631 0.009368846 0.0008096086 0.031190269 0.02084851
0.0015708826 0.0015442485 0.0052073533 0.00044779858 0.0008361509 0.0056161266 0.025206577 0.0036880507
0.0028041995 0.007160147 0.007305613 0.00022913849 0.000828932 0.00094448414 0.0009879547 0.00026542754
0.0010443087 0.0018908664 0.0046297857 0.0009543437 0.0035721594 0.0058764387 0.00047416004 0.0019453362
00000000: 4ee2 d83a 05fb b03a 1b4b 1f3c 7bd0 453c
00000010: ca7f 193c ea3b 543a bc82 ff3c 7fca aa3c
00000020: 13e6 cd3a 6268 ca3a 72a2 aa3b 82c6 ea39
00000030: 2331 5b3a 7c07 b83b 067e ce3c 39b3 713b
00000040: a9c6 373b ab9f ea3b ec63 ef3b e544 7039
00000050: af4c 593a 4297 773a 427e 813a 1529 8b39
00000060: 2fe1 883a f3d6 f73a 75b5 973b ec2c 7a3a
00000070: e41a 6a3b 248f c03b af98 f839 a7fa fe3a

classifier.3.weight f4 [9, 32]
0.14809851 0.018811544 0.052717652 -0.06435115 -0.004240057 0.06860271 0.045475855 0.09601165
0.09176451 0.08938963 0.09675154 -0.052270595 0.057569604 0.045787297 -0.019192321 0.115441024
-0.09568548 -0.088284865 -0.16990505 0.040317476 -0.008194099 0.046159398 0.05107599 0.07560715
0.006845863 0.15244038 0.12523079 0.04991819 -0.20554091 0.1639292 -0.19999869 -0.018368552
0.00998584 -0.099183336 0.12562291 0.20042716 0.03933148 -0.08546224 0.15691243 -0.008204931
0.05261134 -0.029205507 -0.050813273 -0.07290462 0.2189225 -0.08766761 0.22651716 0.07035581
0.36241826 0.041994974 0.22609906 0.085521564 0.005084101 0.14704306 0.15259388 0.037083864
0.13290128 -0.01606035 0.1695379 0.14078052 0.14402013 0.041908834 0.08926771 -0.048309825
0.33209565 -0.06257613 -0.049525958 -0.12096328 -0.0008749447 0.40077078 0.03334858 -0.13150354
0.38545537 0.17557172 -0.17640163 0.054455534 -0.28188086 -0.011381907 0.11685858 0.13988848
-0.07263227 -0.11415424 -0.09189616 -0.34809744 0.22172812 0.12823413 0.18528643 0.15665452
0.2859348 0.0015554496 0.07868291 -0.23339295 0.14242543 -0.0947566 0.1288499 0.16682237
-0.08376846 -0.16015495 -0.010572069 -0.1477267 -0.20044479 0.13701117 0.19304702 -0.05047719
-0.06556679 0.019926986 -0.10868792 0.18166636 -0.13802403 -0.026435504 0.015195152 0.03171738
0.079350695 -0.10860715 0.036465187 0.09900007 -0.29621837 -0.15948664 0.2737632 0.039119996
-0.11288752 -0.032072425 -0.18238401 -0.28278765 0.06533059 -0.18079604 -0.0028566138 -0.11422469
0.11554201 0.07226485 -0.030761985 -0.17863587 0.05013449 -0.09150223 0.16169283 0.05465719
-0.009219603 -0.051542804 0.15234196 -0.09676174 0.21767552 -0.08378405 -0.06422822 0.13774419
-0.16364764 -0.13800563 0.14264548 -0.014284242 -0.14526257 0.022381842 0.21407585 0.08191799
-0.04117377 0.13824514 -0.1607917 -0.18275145 -0.12696472 0.034682058 0.11380703 0.08269274
-0.11378451 -0.114237025 0.04846846 0.012297903 -0.014732496 -0.04237548 -0.1267261 -0.042477537
-0.05190073 -0.13036525 -0.0003849482 0.046025574 0.13242997 0.18618827 0.16893576 -0.13987999
0.014774672 0.083591856 -0.044482604 0.057487853 -0.07282481 0.16298787 0.013256195 -0.05206305
-0.15662572 0.05938465 0.10162811 0.0956778 0.18050487 0.028719919 -0.08729032 0.09250959
0.11374978 -0.1088255 -0.11442241 -0.12507454 -0.11774396 -0.19770238 -0.10443705 0.15781122
-0.13367333 0.16435587 0.037713505 -0.030320324 -0.096067056 0.15546046 -0.0038314953 0.10998281
-0.1513466 0.07320053 -0.042256225 -0.0046463744 0.064863525 0.14492275 -0.14586726 0.12253996
-0.19413495 0.17731823 -0.15677036 0.024894321 0.073211215 -0.015703788 -0.13304926 0.022530533
-0.22856054 0.056431606 -0.12817848 -0.19012518 0.048324034 -0.18479662 -0.21856076 0.19148214
-0.1721096 -0.09209429 0.0005636398 -0.20381658 -0.19238007 0.048951402 -0.07919188 0.0067925924
-0.004766872 -0.09976582 -0.08971402 0.056243483 -0.026752496 0.033542756 -0.3470435 -0.103339955
-0.18183406 0.025365368 0.14099187 0.21521907 -0.13800892 0.09223593 -0.14974253 -0.08107688
00000000: 23a7 173e ab1a 9a3c 77ee 573d 89ca 83bd
00000010: 2df0 8abb 947f 8c3d e444 3a3d c2a1 c43d
00000020: 08ef bb3d e911 b73d ac25 c63d b119 56bd
00000030: 1bce 6b3d 768b 3b3d 3739 9dbc 586c ec3d
00000040: c0f6 c3bd b2ce b4bd 97fb 2dbe f023 253d
00000050: 8b40 06bc a311 3d3d 0f35 513d ecd7 9a3d
00000060: 4353 e03b 5519 1c3e 803c 003e 0477 4c3d
00000070: 5179 52be 0edd 273e 75cc 4cbe a579 96bc
00000080: a69b 233c a220 cbbd 4ba3 003e c73c 4d3e
00000090: 0c1a 213d d406 afbd a7ad 203e fa6d 06bc
000000a0: fd7e 573d 6340 efbc 9421 50bd 044f 95bd
000000b0: 382d 603e 138b b3bd 1df4 673e b516 903d
000000c0: e38e b93e ec02 2c3d 8386 673e ee25 af3d
000000d0: 8898 a63b 7592 163e 9241 1c3e 40e5 173d
000000e0: 4617 083e ff90 83bc 589b 2d3e c528 103e
000000f0: 037a 133e 99a8 2b3d fdd1 b63d 86e0 45bd
00000100: 7108 aa3e ea27 80bd bbdb 4abd 99bb f7bd
00000110: 8b5c 65ba d431 cd3e 8598 083d dda8 06be
00000120: 685a c53e 13c9 333e a1a2 34be c40c 5f3d
00000130: b052 90be 2e7b 3abc 8d53 ef3d ed3e 0f3e
00000140: 3ac0 94bd b3c9 e9bd 0e34 bcbd d439 b2be
00000150: b20c 633e cf4f 033e babb 3d3e 0b6a 203e
00000160: 0c66 923e 3ae0 cb3a 8124 a13d 90fe 6ebe
00000170: f9d7 113e c00f c2bd 3af1 033e 7cd3 2a3e
00000180: cc8e abbd a9ff 23be 7936 2dbc ab45 17be
00000190: 6641 4dbe a84c 0c3e 1eae 453e 2cc1 4ebd
000001a0: e247 86bd eb3d a33c c697 debd bf06 3a3e
000001b0: 2c56 0dbe 458f d8bc 16f5 783c 15ea 013d
000001c0: 9e82 a23d 6d6d debd 855c 153d 8cc0 ca3d
000001d0: efa9 97be 7750 23be b12a 8c3e 4a3c 203d
000001e0: 9231 e7bd 605e 03bd e0c2 3abe 8bc9 90be
000001f0: 0bcc 853d 9922 39be 0736 3bbb a2ee e9bd
00000200: 4aa1 ec3d 98ff 933d 8f00 fcbc 52ec 36be
00000210: d359 4d3d 8565 bbbd ce92 253e 38e0 5f3d
00000220: d10d 17bc 8c1e 53bd 88ff 1b3e 052b c6bd
00000230: 55e6 5e3e f996 abbd 168a 83bd d00c 0d3e
00000240: 3f93 27be 5951 0dbe a811 123e 7408 6abc
00000250: b6bf 14be 205a b73c b336 5b3e 9fc4 a73d
00000260: d4a5 28bd 2290 0d3e 94a6 24be 3223 3bbe
00000270: 0a03 02be c60e 0e3d a913 e93d d05a a93d
00000280: da07 e9bd 1af5 e9bd dd86 463d 257d 493c
00000290: 9160 71bc e991 2dbd 7dc4 01be edfc 2dbd
000002a0: dc95 54bd 787e 05be dfd2 c9b9 5085 3c3d
000002b0: b99b 073e 23a8 3e3e 7ffd 2c3e b33c 0fbe
000002c0: 7711 723c 3532 ab3d 6433 36bd 6278 6b3d
000002d0: 2d25 95bd 4be6 263e 8330 593c 1140 55bd
000002e0: 7e62 20be 523d 733d 6622 d03d b9f2 c33d
000002f0: 45d6 383e 0946 eb3c 44c5 b2bd ab75 bd3d
00000300: a5f5 e83d e7df debd 4c56 eabd 8a13 00be
00000310: bf23 f1bd 7e72 4abe 18e3 d5bd 4499 213e
00000320: a9e1 08be e84c 283e 7a79 1a3d 5462 f8bc
00000330: cebe c4bd 0731 1f3e d319 7bbb ab3e e13d
00000340: 9afa 1abe 29ea 953d dd14 2dbd 9d40 98bb
00000350: 2bd7 843d a166 143e 3a5e 15be 3bf6 fa3d
00000360: 50cb 46be e992 353e 6988 20be 2def cb3c
00000370: c3ef 953d 3ba5 80bc 113e 08be f491 b83c
00000380: c60b 6abe d424 673d 3841 03be 2db0 42be
00000390: 6cef 453d 533b 3dbe 64ce 5fbe e513 443e
000003a0: 803d 30be ee9b bcbd 3ac1 133a 4bb5 50be
000003b0: 48ff 44be 4481 483d 5a2f a2bd 6594 de3b
000003c0: 6c33 9cbb 0652 ccbd fcbb b7bd 915f 663d
000003d0: 0d28 dbbc 2164 093d b0af b1be e6a3 d3bd
000003e0: b532 3abe 08cb cf3c 2c60 103e 6362 5c3e
000003f0: 3652 0dbe 31e6 bc3d 1b56 19be a30b a6bd

classifier.3.bias f4 [9]
0.27150413 -0.16948093 -0.19869533 0.5157489 0.37140423 0.37395227 -0.37814826 -0.29357398
-0.2894146
00000000: 9702 8b3e 698c 2dbe ca76 4bbe 1f08 043f
00000010: b228 be3e ac76 bf3e a69c c1be 544f 96be
00000020: 272e 94be
